saved_models/AD_autoencoder_ep1_loss2.1478.pth (torch, 257618 bytes, 14 tensors)

encoder.weight_ih_l0 f4 [256, 28]
-0.03592926 0.0064625074 0.026655 -0.0011762078 -0.0041408623 0.030223036 0.019081501 -0.016178373
-0.0032262255 -0.00081496505 0.013903815 0.02577175 -0.0059031416 -0.007641116 0.02792682 0.049894862
-0.017478986 0.026262648 0.05020434 -0.012774154 0.011350004 0.022205861 0.0008135712 0.04602715
0.07968166 0.01732476 0.006172948 0.0589777 -0.08665401 0.009509089 0.04085689 -0.077446416
0.039232448 -0.00896396 0.0047935513 0.010751058 0.034665037 0.004035903 -0.007022911 0.0061474373
-0.028361885 -0.02494038 0.00056838593 0.0018128516 -0.0064139892 0.0010284669 0.08969817 -0.036993265
0.06146671 0.019864475 0.00026212595 0.034227584 0.26900837 -0.008294788 0.005769694 0.005635604
0.007039964 0.002282057 0.015443542 -0.00041047085 0.038322847 -0.004195941 0.0019707254 0.003512208
0.011389114 -0.0010932975 0.0022645064 -0.0023568415 -0.00348666 -0.030293886 -0.015400841 0.0043318914
-0.0020373939 -0.0015084574 -0.008279381 -0.0048661134 0.0025352805 0.002878627 -9.1005015e-05 -0.0143121695
-0.007348275 -0.031577386 -0.0038936422 0.039698962 0.10145132 -0.09661114 -0.0029340705 -0.016597658
-0.024031643 -0.02638615 -0.009256469 -0.0044635073 -0.022977024 -0.01429759 -0.012548081 -0.017888548
-0.041701246 0.048629373 0.027378846 0.012846054 0.026668414 -0.035563827 -0.061699133 -0.03436709
0.05423882 0.024293302 0.0054643042 -0.009028808 0.0376103 0.08206289 -0.009555298 0.108264744
0.031785257 -0.0041260193 0.0062806653 -0.0044605033 -0.009854288 -0.0086161755 -0.0037529543 0.00015632759
0.0035204333 0.0005904762 -0.00017391464 -0.00028945215 -0.00823493 0.0038616643 0.029015858 -0.00048043428
0.0015223671 -0.0025125372 -0.032428827 0.0016099706 -0.02947135 -0.0011745119 -0.0001856602 -0.032050505
-0.0019516104 0.05000587 -0.010176682 -0.0995103 0.052426 -0.003671495 0.0014421562 -0.007838239
-0.028181788 0.0007834648 0.00017359659 0.0021677755 0.004676771 1.1353583e-05 -8.023218e-05 -0.00035150602
0.0027698479 0.02168815 0.011259157 0.0012159017 -0.00078611105 0.00040574415 -0.05325387 -0.00022096967
0.030088061 0.0005581638 -0.00019365153 -0.025168195 0.008774814 0.017883716 -8.2815524e-05 0.0020840263
-0.012896525 0.0033616282 0.0015111129 0.00032625758 0.0027042825 0.0013772812 0.00092026964 0.0009129162
0.00038376276 -1.2975536e-08 0.0005107548 0.0012519239 0.00011848877 -0.0050723236 0.003927469 0.0009786646
-0.00038101463 -0.0006470108 0.013111516 -0.0030364697 0.008151682 9.463314e-05 -8.375632e-05 -0.0051743137
-0.0064581013 0.009905877 0.0014389071 0.0020879854 -0.020726997 0.001864008 -0.05702855 -0.09834625
-0.0030229627 0.06569666 0.045327596 0.0467691 -0.02413988 -0.045951623 0.0055764476 -0.02199819
-0.047478903 -0.039099 0.028670495 -0.05849154 0.01698663 -0.022417182 0.054264236 -0.008208677
0.18653902 0.015848279 -0.004057377 -0.16414148 0.038941782 0.056955084 0.04122232 -0.0005837133
0.0062563727 -0.11548842 -0.01928911 -0.22475888 -0.07830344 -0.029536499 -0.030529164 0.008788677
-0.039587297 0.03266313 -0.020151695 -0.1891513 -0.03205203 0.099325076 0.10822646 -0.036989707
0.043274354 -0.01911721 -0.01586963 -0.096003465 0.6364495 0.507766 0.0024010597 0.20754845
0.29930952 0.19765602 0.15514974 0.46993008 -0.06795276 -0.029267961 -0.031711873 -0.02004387
00000000: 8f2a 13bd 71c3 d33b 965b da3c fc2a 9aba
00000010: 12b0 87bb 4d96 f73c cf50 9c3c 8288 84bc
00000020: 156f 53bb 61a3 55ba d4cc 633c 471f d33c
00000030: 246f c1bb 5462 fabb c9c6 e43c 8e5e 4c3d
00000040: 1730 8fbc c424 d73c 11a3 4d3d af4a 51bc
00000050: 5ef5 393c 11e9 b53c d745 553a f786 3c3d
00000060: 2330 a33d a8ec 8d3c 7146 ca3b 9a92 713d
00000070: a877 b1bd 03cc 1b3c 8e59 273d 3a9c 9ebd
00000080: 34b2 203d 93dd 12bc 3913 9d3b 3525 303c
00000090: edfc 0d3d 9c3f 843b 7320 e6bb 7170 c93b
000000a0: 2f57 e8bc c54f ccbc bcff 143a 359d ed3a
000000b0: 712c d2bb 9fcd 863a adb3 b73d 4086 17bd
000000c0: 84c4 7b3d d3ba a23c f36d 8939 3932 0c3d
000000d0: 77bb 893e dde6 07bc b40f bd3b dfaa b83b
000000e0: 80af e63b 908e 153b e906 7d3c 7734 d7b9
000000f0: 6bf8 1c3d 1b7e 89bb 4927 013b 122d 663b
00000100: 6899 3a3c fa4c 8fba 1d68 143b 3d75 1abb
00000110: 7380 64bb e22a f8bc cf53 7cbc 8af2 8d3b
00000120: cc85 05bb 6eb7 c5ba 3ea6 07bc eb73 9fbb
00000130: f326 263b 59a7 3c3b f2d9 beb8 977d 6abc
00000140: ccc9 f0bb 4a57 01bd 7a2c 7fbb 619b 223d
00000150: b6c5 cf3d 10dc c5bd 8949 40bb d0f7 87bc
00000160: 02de c4bc c427 d8bc 72a8 17bc 9d42 92bb
00000170: 503a bcbc 7040 6abc 7796 4dbc 018b 92bc
00000180: edce 2abd 982f 473d 9a49 e03c 4178 523c
00000190: b877 da3c 60ab 11bd 3bb8 7cbd 81c4 0cbd
000001a0: 8629 5e3d bf02 c73c e80d b33b 91ed 13bc
000001b0: 420d 1a3d 9710 a83d d38d 1cbc e8b9 dd3d
000001c0: 4231 023d 8f33 87bb 0ace cd3b 6a29 92bb
000001d0: e173 21bc dc2a 0dbc 20f4 75bb deeb 2339
000001e0: 12b7 663b 30ca 1a3a db5c 36b9 9cc1 97b9
000001f0: cdeb 06bc fa13 7d3b aab2 ed3c cce2 fbb9
00000200: 2a8a c73a 61a9 24bb 17d4 04bd a605 d33a
00000210: e76d f1bc 14f2 99ba c8ad 42b9 6447 03bd
00000220: 2ecd ffba f5d2 4c3d 19bc 26bc 0ecc cbbd
00000230: a5bc 563d 779d 70bb bb06 bd3a f56b 00bc
00000240: 7edd e6bc 6f61 4d3a 7b07 3639 3d11 0e3b
00000250: 993f 993b 457b 3e37 5342 a8b8 574a b8b9
00000260: 5686 353b 59ab b13c 5478 383c e45e 9f3a
00000270: 0513 4eba 0fba d439 bb20 5abd 18b4 67b9
00000280: 3d7b f63c bd51 123a f00e 4bb9 882d cebc
00000290: 3dc4 0f3c df80 923c 3fad adb8 2994 083b
000002a0: f24b 53bc c34e 5c3b 8910 c63a 8d0d ab39
000002b0: 553a 313b e385 b43a 403e 713a c550 6f3a
000002c0: c433 c939 03eb 5eb2 2de4 053a 9817 a43a
000002d0: 2d7d f838 bc35 a6bb ffb1 803b 8946 803a
000002e0: ebc2 c7b9 299c 29ba afd1 563c 82ff 46bb
000002f0: a28e 053c c875 c638 55a6 afb8 4a8d a9bb
00000300: 7b9e d3bb 424c 223c b699 bc3a 95d6 083b
00000310: aacb a9bc bb51 f43a c596 69bd c269 c9bd
00000320: e61c 46bb f88b 863d 6ea9 393d f590 3f3d
00000330: ffc0 c5bc c537 3cbd a2ba b63b 8c35 b4bc
00000340: 3d79 42bd 4626 20bd 63de ea3c d394 6fbd
00000350: 8c27 8b3c 3da4 b7bc 2d44 5e3d b07d 06bc
00000360: 1604 3f3e 40d4 813c bff3 84bb b414 28be
00000370: 6b81 1f3d bc49 693d bcd8 283d 5604 19ba
00000380: 4202 cd3b 3185 ecbd 3204 9ebc 3127 66be
00000390: 8e5d a0bd 87f6 f1bc 4c18 fabc 62fe 0f3c
000003a0: 4a26 22bd c6c9 053d 2b15 a5bc e1b0 41be
000003b0: fd48 03bd f26a cb3d d6a5 dd3d 8582 17bd
000003c0: 7340 313d b29b 9cbc 0701 82bc 779d c4bd
000003d0: 5bee 223f f4fc 013f 195b 1d3b 9587 543e
000003e0: 193f 993e 5766 4a3e 93df 1e3e ad9a f03e
000003f0: d12a 8bbd 5dc3 efbc 4fe4 01bd 0b33 a4bc

encoder.weight_hh_l0 f4 [256, 64]
-0.009432114 -0.012714403 0.02320094 -0.041811764 0.022871193 -0.13636753 0.0033260626 -0.008289886
0.030337276 0.16113257 0.11882712 -0.10400484 -0.072881475 -0.08563797 0.097858466 -0.055466477
0.091095425 -0.15598218 -0.04218311 0.03187808 0.13563289 -0.010186598 0.11026628 -0.012554417
-0.11144922 0.10260861 -0.08785204 -0.030638313 0.07040191 -0.10584363 0.068888806 0.073465124
0.018029893 0.10694723 0.071521714 0.14118066 -0.014083181 -0.01573763 -0.07812037 0.111639746
0.0027803318 -0.08210809 -0.07450665 0.034911007 -0.005690858 0.06117804 0.034572314 0.090432264
0.0025705928 -0.04225129 0.033015728 -0.049782977 0.029274879 -0.106241554 -0.111200966 -0.11546901
0.054804698 0.006293454 -0.0019139837 0.067175254 -0.07660793 -0.11683987 0.055915177 -0.15005063
-0.19770259 0.3438033 -0.063045315 0.10588024 -0.041785948 0.19071765 0.5155417 -0.019099949
0.017247826 0.22363397 -0.014899794 -0.08997857 0.15257727 -0.05805163 -0.0077110226 0.007977562
0.062953316 -0.09944609 0.13219735 -0.12626341 -0.08916403 0.017616833 0.13586313 -0.030920994
-0.1602234 -0.16217014 0.13556331 -0.21473058 0.07999734 0.14638993 0.1528759 -0.047500215
0.012366799 -0.025900211 -0.1440899 -0.036456097 0.022100303 0.08428617 0.003427736 0.09120656
0.20636022 -0.19603601 0.06418442 0.27843142 -0.10574777 0.15406235 -0.19701557 0.08504442
0.041300986 0.09267253 -0.08623521 0.051939838 -0.10262997 -0.19202642 -0.011423722 -0.15510534
-0.14514259 0.30803993 -0.034425158 -0.17113924 0.12257986 -0.0026673204 0.029553076 -0.012610785
0.115504116 -0.017623816 -0.017766822 0.019842092 0.120943986 0.053036593 0.117096215 0.018493487
-0.05403264 0.057772513 -0.111453354 0.03175547 -0.09168567 0.098071754 0.06738714 0.04891782
0.1266547 0.04907557 0.11850666 0.033631325 0.07926076 -0.01543657 -0.020431781 -0.017496891
-0.20438138 -0.0069771335 0.080587454 -0.06682293 -0.13799456 -0.077110745 -0.022652667 -0.045626655
0.004941456 0.055500932 -0.0048964643 0.14111605 -0.12242505 0.12542072 0.06046081 0.100220144
0.23139387 -0.024384858 -0.030476864 -0.04967733 0.32695454 0.02427323 0.04957636 0.005811514
-0.016823506 -0.038394798 -0.08612684 -0.067644514 -0.08231543 0.0833799 0.039888933 0.060496166
-0.044152692 -0.12535551 -0.019250836 -0.015383 -0.14636733 0.21445946 -0.09164383 -0.047434967
-0.0071988273 -0.013757818 0.021401254 -0.009292741 -0.051630825 0.26474681 0.04886063 -0.15170883
-0.025923684 -0.07512532 0.018603968 -0.04254415 0.171152 -0.08041673 -0.087017134 0.047841836
0.06464725 -0.008486949 -0.014938945 0.17712161 -0.12475378 0.37787884 0.029457936 0.017319823
0.24731454 0.04568578 -0.0074193627 0.39768493 0.026933607 -0.05121309 0.023164535 0.13391644
0.057603292 -0.06817816 -0.07558868 -0.14352535 -0.17344281 0.02941969 0.062241144 -0.08593866
0.04889396 0.1140904 -0.015675412 -0.049516257 0.39234534 0.15364215 -0.038717125 0.07912348
0.0038608739 0.0176629 0.041324608 0.09451529 -0.19012655 -0.025918003 -0.10719102 -0.043119203
-0.036634747 0.032068502 0.010503969 -0.084989965 0.088119395 -0.070850186 -0.15163563 0.077409126
00000000: 2789 1abc 1250 50bc e60f be3c d042 2bbd
00000010: 5e5c bb3c eea3 0bbe 12fa 593b 4dd2 07bc
00000020: e185 f83c f0ff 243e a25b f33d 7d00 d5bd
00000030: e242 95bd f662 afbd 056a c83d d130 63bd
00000040: 3d90 ba3d cbb9 1fbe 32c8 2cbd 9792 023d
00000050: 59e3 0a3e b0e5 26bc 4ad3 e13d 0bb1 4dbc
00000060: 7d3f e4bd 7724 d23d c5eb b3bd 33fd fabc
00000070: e02e 903d 8cc4 d8bd 9315 8d3d e274 963d
00000080: 6db3 933c 2607 db3d fa79 923d aa91 103e
00000090: 24bd 66bc 34ec 80bc 93fd 9fbd 61a3 e43d
000000a0: 3a36 363b 4928 a8bd f196 98bd d8fe 0e3d
000000b0: 607a babb d395 7a3d b39b 0d3d 8d34 b93d
000000c0: 6477 283b b00f 2dbd 803b 073d 3ce9 4bbd
000000d0: dfd1 ef3c 2c95 d9bd 55bd e3bd 047b ecbd
000000e0: e47a 603d 5239 ce3b a3de faba 2e93 893d
000000f0: 9ee4 9cbd be49 efbd 5007 653d dfa6 19be
00000100: 8c72 4abe fc06 b03e e71d 81bd bdd7 d83d
00000110: be27 2bbd 7d4b 433e 8afa 033f 7f77 9cbc
00000120: 504b 8d3c 4e00 653e 441e 74bc af46 b8bd
00000130: 373d 1c3e 8cc7 6dbd bfac fcbb 52b4 023c
00000140: abed 803d 64aa cbbd be5e 073e 324b 01be
00000150: a29b b6bd 2d51 903c b41f 0b3e 064e fdbc
00000160: 9a11 24be ee0f 26be 1cd1 0a3e 55e2 5bbe
00000170: a5d5 a33d 3ee7 153e 808b 1c3e 968f 42bd
00000180: 1d9e 4a3c ae2c d4bc 4e8c 13be fd52 15bd
00000190: b20b b53c 3a9e ac3d dea3 603b 81ca ba3d
000001a0: 1850 533e aabd 48be 1f73 833d 908e 8e3e
000001b0: 4992 d8bd 85c2 1d3e 73be 49be c52b ae3d
000001c0: 392b 293d 18cb bd3d 169c b0bd debe 543d
000001d0: a92f d2bd 93a2 44be 902a 3bbc efd3 1ebe
000001e0: 42a0 14be 69b7 9d3e 6501 0dbd 203f 2fbe
000001f0: 260b fb3d 36ce 2ebb 4b19 f23c 779d 4ebc
00000200: 6c8d ec3d d25f 90bc ba8b 91bc e28b a23c
00000210: 7bb1 f73d e63c 593d 24d0 ef3d a77f 973c
00000220: 5451 5dbd dfa2 6c3d a841 e4bd 0612 023d
00000230: b2c5 bbbd d8d9 c83d 4502 8a3d 0d5e 483d
00000240: c5b1 013e 7703 493d 9fb3 f23d 00c1 093d
00000250: 7753 a23d abe9 7cbc 8d60 a7bc a455 8fbc
00000260: 5a49 51be 70a0 e4bb 090b a53d 76da 88bd
00000270: 724e 0dbe 3dec 9dbd 1692 b9bc 04e3 3abd
00000280: f0eb a13b f254 633d 8572 a0bb ba80 103e
00000290: fcb9 fabd 4a6e 003e c1a5 773d 3840 cd3d
000002a0: 84f2 6c3e c1c2 c7bc 9eaa f9bc 757a 4bbd
000002b0: 9666 a73e a7d8 c63c 9510 4b3d 836e be3b
000002c0: 73d1 89bc dd43 1dbd 4563 b0bd 3589 8abd
000002d0: fe94 a8bd 15c3 aa3d 9462 233d d4ca 773d
000002e0: 74d9 34bd 325d 00be eeb3 9dbc fa08 7cbc
000002f0: 51e1 15be 439b 5b3e c3af bbbd 2b4b 42bd
00000300: 24e4 ebbb 7968 61bc af51 af3c 9540 18bc
00000310: d87a 53bd e58c 873e 1522 483d 8f59 1bbe
00000320: e85d d4bc 4edb 99bd 5967 983c c642 2ebd
00000330: 7842 2f3e 87b1 a4bd 0a36 b2bd cdf5 433d
00000340: c765 843d d80c 0bbc 7ac2 74bc 5e5f 353e
00000350: e97e ffbd 5679 c13e c551 f13c 4de2 8d3c
00000360: 0640 7d3e 0321 3b3d 201e f3bb 5c9d cb3e
00000370: dea3 dc3c d1c4 51bd 8dc3 bd3c 6421 093e
00000380: 6ef1 6b3d fea0 8bbd 3dce 9abd 4ff8 12be
00000390: fe9a 31be 9001 f13c 92f0 7e3d 9c00 b0bd
000003a0: 0845 483d 3aa8 e93d b969 80bc 8fd1 4abd
000003b0: 7de1 c83e 5e54 1d3e d995 1ebd 7e0b a23d
000003c0: b706 7d3b c9b1 903c fe43 293d 3b91 c13d
000003d0: 89b0 42be fe51 d4bc f786 dbbd c39d 30bd
000003e0: 510e 16bd 435a 033d d718 2c3c 380f aebd
000003f0: f177 b43d e719 91bd 5f46 1bbe ad88 9e3d

encoder.bias_ih_l0 f4 [256]
-0.067494735 0.025467059 -0.03428237 0.034793574 0.08578762 -0.09891087 -0.03372429 -0.061801728
0.58860826 0.049826358 -0.13685758 0.58103126 0.0073384517 0.5670369 -0.14800741 -0.026829893
-0.0059910556 0.17566124 -0.14930631 -0.067386515 -0.07768266 -0.09001546 0.17422563 -0.106986
0.030455174 0.22440872 -0.11514486 0.12684116 -0.06333868 0.007914185 0.009000613 0.17167696
-0.13419904 -0.071790606 -0.053281542 -0.09897282 0.079173476 0.30455932 -0.12480939 0.2507537
0.085008614 -0.09274883 0.13828096 0.00042531447 0.17185356 -0.050147932 0.12079615 0.047855627
0.0095779495 0.081381 -0.004651189 0.29485822 -0.076271884 0.1557601 -0.13818622 -0.1809426
0.057545375 0.0037897471 0.3529073 0.059043106 0.09110764 -0.014389276 -0.009596875 -0.01337656
-0.021586677 -0.13969694 -0.031978976 0.12849592 0.14035024 -0.08729736 -0.051795695 0.017198138
0.088078626 0.05240883 0.06689817 -0.04545301 0.17334238 0.3024047 -0.028270924 0.07013699
0.030756991 -0.019885518 0.06801007 -0.08281098 0.06494748 0.152719 0.15336193 -0.02012362
0.045805667 0.0662582 -0.109665975 0.053958077 0.12158024 -0.01820865 -0.078398526 -0.11810932
0.08271868 -0.07804393 0.12786709 0.080746025 -0.008547514 0.039133087 0.070016645 0.13196744
-0.03130139 0.10628213 0.031676285 0.018489465 -0.07706991 0.09896863 0.006814182 0.07046444
-0.03803481 0.0065394687 -0.0177257 -0.014743485 -0.09618559 -0.037216004 -0.04717818 0.04493746
-0.08067971 -0.014841317 0.044661887 0.13852482 0.07659547 0.076805 -0.018581346 -0.033462033
0.17212872 0.005666666 0.17060897 -0.12233423 -0.049646135 -0.08905022 0.11871891 -0.43429276
0.24767378 0.11933279 0.033958584 -0.4311039 -0.015853887 -0.5464463 -0.26101208 0.03726224
-0.1017387 -0.038949758 0.009865003 -0.10501418 -0.44687557 0.12885787 -0.045249157 0.032463364
0.10681532 -0.17061037 -0.13732104 -0.08065123 0.10804861 0.14330052 0.061468184 0.25524414
0.22426276 0.01685905 -0.10535222 -0.00422633 -0.03249279 -0.504338 -0.28855562 -0.34301817
0.0126129445 -0.11526588 -0.08242823 -0.030600665 -0.05872798 0.015257517 0.079867244 -0.12866041
0.2026677 -0.38677004 -0.055295162 0.13057499 -0.047027834 -0.18081842 0.09157759 0.09698296
0.12031877 -0.11047663 -0.13627271 -0.2576462 0.2653792 0.040656228 0.19503878 0.11865739
-0.030033993 -0.0043568825 0.118807256 0.29182538 -0.0022030778 0.2352715 0.10071849 -0.1663298
0.6504081 -0.0444342 0.111074656 0.75666386 0.102591105 0.6431977 -0.055774547 0.11237703
0.11040136 0.21748102 0.3130425 -0.12067631 0.16485146 0.1082087 0.06030548 0.10267469
0.11125288 0.21312694 -0.007620995 0.15987857 0.057700247 0.10147719 0.13307054 0.35997018
0.5939334 0.0017018188 0.038168017 0.019144284 0.057375282 0.10488982 0.03167072 0.06668667
0.13693912 -0.06746179 0.23320639 -0.0009768383 0.21448207 0.16717589 0.14005916 0.022649955
0.22252585 0.17352575 0.07231042 0.06371469 0.03266633 0.015756711 0.07521023 -0.04940192
-0.051832136 0.024179736 0.2434734 0.09395417 0.10978913 0.031949293 0.16704537 0.035853174
00000000: ae3a 8abd 4ba0 d03c ac6b 0cbd b583 0e3d
00000010: 6bb1 af3d c891 cabd 7b22 0abd cf23 7dbd
00000020: 08af 163f b916 4c3d 6524 0cbe 77be 143f
00000030: 6577 f03b 5529 113f 418f 17be 5dca dbbc
00000040: 9e50 c4bb 8ae0 333e c1e3 18be f101 8abd
00000050: 1618 9fbd 075a b8bd 3468 323e 7a1b dbbd
00000060: 217d f93c 66cb 653e 12d1 ebbd a6e2 013e
00000070: b6b7 81bd 7faa 013c 4f77 133c 16cc 2f3e
00000080: 796b 09be f406 93bd bf3d 5abd 43b2 cabd
00000090: b425 a23d 33ef 9b3e 119c ffbd ca62 803e
000000a0: ff18 ae3d 19f3 bdbd 8699 0d3e befc de39
000000b0: 61fa 2f3e eb67 4dbd f963 f73d 4304 443d
000000c0: d5ec 1c3c 15ab a63d 0069 98bb a8f7 963e
000000d0: 6f34 9cbd 937f 1f3e b080 0dbe 0449 39be
000000e0: b3b4 6b3d 685d 783b 44b0 b43e 2fd7 713d
000000f0: a496 ba3d ffc0 6bbc 363c 1dbc 5c29 5bbc
00000100: 8bd6 b0bc b70c 0fbe 63fc 02bd 6f94 033e
00000110: f9b7 0f3e f5c8 b2bd b927 54bd 1ce3 8c3c
00000120: 9162 b43d a4aa 563d e801 893d ef2c 3abd
00000130: aa80 313e cad4 9a3e 6d98 e7bc fba3 8f3d
00000140: 16f6 fb3c f4e6 a2bc dd48 8b3d ce98 a9bd
00000150: 2f03 853d 5f62 1c3e e90a 1d3e 4ada a4bc
00000160: b99e 3b3d 61b2 873d 8e98 e0bd 2503 5d3d
00000170: 10ff f83d 4f2a 95bc 688f a0bd 4de3 f1bd
00000180: 6968 a93d 7fd5 9fbd 97ef 023e 2c5e a53d
00000190: df0a 0cbc 044a 203d e364 8f3d 7922 073e
000001a0: e335 00bd 72aa d93d febe 013d 3877 973c
000001b0: d4d6 9dbd 11b0 ca3d 8049 df3b a94f 903d
000001c0: 64ca 1bbd 0a49 d63b 7d35 91bc a88e 71bc
000001d0: f3fc c4bd cf6f 18bd e83d 41bd 5810 383d
000001e0: 673b a5bd ff28 73bc 62ef 363d 73d9 0d3e
000001f0: 16de 9c3d f14b 9d3d e837 98bc 7c0f 09bd
00000200: 8342 303e 71af b93b 1eb4 2e3e 5e8a fabd
00000210: bf59 4bbd f65f b6bd e622 f33d 9f5b debe
00000220: 329e 7d3e c064 f43d 2818 0b3d a6b9 dcbe
00000230: 03e0 81bc e8e3 0bbf 60a3 85be 4aa0 183d
00000240: 615c d0bd c889 1fbd d2a0 213c ad11 d7bd
00000250: e0cc e4be 51f3 033e 2e57 39bd 4ef8 043d
00000260: fec1 da3d 7cb4 2ebe e39d 0cbe 792c a5bd
00000270: 9748 dd3d 5fbd 123e 10c6 7b3d 5caf 823e
00000280: 23a5 653e fe1b 8a3c e8c2 d7bd 077d 8abb
00000290: 2917 05bd 4c1c 01bf 90bd 93be 14a0 afbe
000002a0: 86a6 4e3c 8510 ecbd 22d0 a8bd 3fae fabc
000002b0: c08c 70bd aafa 793c 7091 a33d 8ebf 03be
000002c0: 1f88 4f3e b906 c6be 2e7d 62bd 73b5 053e
000002d0: 42a0 40bd 7728 39be 088d bb3d 019f c63d
000002e0: b069 f63d 9241 e2bd 138b 0bbe 34ea 83be
000002f0: c8df 873e 2587 263d 3fb8 473e a502 f33d
00000300: d909 f6bc 2ec4 8ebb 3851 f33d 236a 953e
00000310: 8361 10bb 03eb 703e 7f45 ce3d 5c52 2abe
00000320: 2581 263f a300 36bd 1c7b e33d b9b4 413f
00000330: 491b d23d 9ba8 243f da73 64bd ee25 e63d
00000340: 1c1a e23d 58b3 5e3e 1b47 a03e 2425 f7bd
00000350: d2ce 283e 869c dd3d e102 773d 1c47 d23d
00000360: 8dd8 e33d f33d 5a3e 8ab9 f9bb 35b7 233e
00000370: 1857 6c3d 46d3 cf3d a543 083e 034e b83e
00000380: 050c 183f 900f df3a 1156 1c3d 79d4 9c3c
00000390: 5802 6b3d 79d0 d63d 28b9 013d 0593 883d
000003a0: c539 0c3e 6829 8abd a8cd 6e3e 4109 80ba
000003b0: 30a1 5b3e 2830 2b3e ab6b 0f3e 668c b93c
000003c0: d1dd 633e bcb0 313e 7c17 943d d97c 823d
000003d0: 21cd 053d 3814 813c d207 9a3d ab59 4abd
000003e0: ef4d 54bd 9514 c63c 1751 793e 0b6b c03d
000003f0: 20d9 e03d 43dd 023d f10d 2b3e c7da 123d

encoder.bias_hh_l0 f4 [256]
-0.047540676 0.029847516 -0.10619671 0.109405234 -0.07121442 -0.108264685 0.057513032 -0.13739665
0.66846406 0.044623766 -0.10547373 0.44173148 -0.16877575 0.7424243 -0.09296444 0.03830651
-0.1345685 0.21027726 0.0067039933 0.04804109 0.022877635 -0.1662654 0.14995322 0.062436868
-0.089698635 0.410609 -0.07865771 0.0016760333 -0.01618799 0.0242771 0.026024984 0.3860761
0.026795184 -0.06916534 -0.03677737 0.091692835 -0.094625965 0.40007293 -0.04749468 0.26327598
0.07164564 0.010582931 0.03444641 0.05743811 0.116790004 -0.01950745 -0.09370312 0.06828499
0.102006845 0.16793689 -0.009458341 0.05233162 0.037279267 0.08284219 -0.060300443 -0.029669777
0.056060836 -0.031071525 0.1735903 -0.099814326 0.15539807 0.10894499 0.011242698 0.09636236
0.080030985 -0.034987334 0.04242401 0.07114563 -0.039128058 -0.08327843 -0.08062529 -0.02681121
0.13416182 -0.14713207 0.03632802 0.084403366 0.12459888 0.20787613 -0.120537594 -0.016585385
-0.13273048 -0.056661688 -0.026372958 -0.071037926 -0.024501156 0.20859897 -0.02980458 0.05520842
0.15982334 0.037271716 0.0029247392 -0.02409446 0.09668288 0.14734228 0.004701979 0.0367952
-0.008899579 0.008343084 -0.040276024 0.014042635 -0.017781444 0.02225518 0.058750823 -0.0019499109
-0.06676955 -0.08896064 0.15732774 -0.13180093 0.040726766 0.07039103 0.12285187 0.07445496
-0.02921649 0.062471803 -0.014890478 -0.056386862 -0.13362491 0.025816206 -0.15845181 0.090951726
0.11959125 0.055063233 -0.189682 0.110545 0.013809056 0.13772455 0.05515275 0.12482301
0.088729486 0.06948875 0.039576847 -0.10720106 0.033786196 -0.016266698 0.07858718 -0.41727445
0.24157871 0.091737926 0.22466066 -0.57672465 0.025571752 -0.44088548 -0.044352043 -0.08880163
0.10714144 -0.25669527 0.0009925977 -0.18114014 -0.384402 -0.08048788 -0.08358413 -0.023779625
-0.07942672 -0.102511644 -0.04054397 0.08948452 -0.021400958 0.16485947 0.024019217 0.28779697
0.06044222 0.08021393 -0.061336942 -0.20219855 -0.11000187 -0.51481414 -0.2923685 -0.218982
0.00960283 -0.032268465 -0.12726986 -0.100316204 -0.07501648 0.012752607 -0.001679564 0.0033305364
0.179802 -0.40492216 -0.12867182 0.20977484 -0.047217738 -0.04951901 -0.035278376 -0.11823332
0.05488582 -0.024590498 -0.0749228 -0.10921555 0.40818784 0.038385324 0.15317774 0.118577085
-0.018259611 0.049687065 0.17380364 0.17373401 0.24183315 0.012611631 0.14406075 -0.052597
0.45030242 0.02005892 0.017522965 0.7485283 0.2623699 0.71562105 -0.03675426 0.047981914
0.0059785424 0.2546457 0.34864908 -0.091896474 0.08799076 0.031087756 0.11064669 0.015620323
0.040367648 -0.01367642 0.06783859 0.18660456 -0.053270027 -0.06516224 0.04669532 0.17208296
0.55435026 0.12389306 -0.033757772 -0.0025476567 0.21084775 0.2683521 -0.07011369 0.0918659
-0.08548633 -0.05513285 0.21436496 0.089176565 0.027358325 0.0067146546 0.09819108 -0.006889165
0.43889192 0.1356035 0.09704461 0.10395426 -0.07501186 -0.03383177 0.06975235 0.08065198
-0.046269406 0.119486764 0.071172096 -0.15137918 0.1304464 0.11767991 0.15366079 0.025386844
00000000: 03ba 42bd c782 f43c a97d d9bd da0f e03d
00000010: ded8 91bd e0b9 ddbd c992 6b3d b5b1 0cbe
00000020: 7620 2b3f 69c7 363d 9c02 d8bd a12a e23e
00000030: 8dd3 2cbe 850f 3e3f 2464 bebd 49e7 1c3d
00000040: 53cc 09be ec52 573e 2cad db3b bcc6 443d
00000050: e169 bb3c 7a41 2abe 568d 193e cdbd 7f3d
00000060: ebb3 b7bd 583b d23e 4b17 a1bd 58ae db3a
00000070: ad9c 84bc c5e0 c63c 5932 d53c c4ab c53e
00000080: 9381 db3c 8fa6 8dbd dea3 16bd 74c9 bb3d
00000090: 42cb c1bd 5cd6 cc3e c889 42bd 1ccc 863e
000000a0: f3ba 923d 0864 2d3c ae17 0d3d 3944 6b3d
000000b0: 992f ef3d 16ce 9fbc 6ce7 bfbd 00d9 8b3d
000000c0: f7e8 d03d a6f7 2b3e 28f7 1abc ae59 563d
000000d0: 25b2 183d 2ba9 a93d 99fd 76bd 080e f3bc
000000e0: 0ca0 653d b689 febc a8c1 313e 746b ccbd
000000f0: ac20 1f3e 8d1e df3d 4b33 383c a159 c53d
00000100: 49e7 a33d e14e 0fbd ccc4 2d3d cdb4 913d
00000110: be44 20bd e28d aabd df1e a5bd 2fa3 dbbc
00000120: b761 093e caa9 16be b1cc 143d acdb ac3d
00000130: b32d ff3d 7bdd 543e 6adc f6bd 13de 87bc
00000140: 80ea 07be 1616 68bd 1a0c d8bc 557c 91bd
00000150: a6b6 c8bc f89a 553e bc28 f4bc 3922 623d
00000160: bba8 233e 3aaa 183d fbac 3f3b bf61 c5bc
00000170: ac01 c63d e5e0 163e 0f13 9a3b 90b6 163d
00000180: 8acf 11bc 6eb1 083c 79f8 24bd 1513 663c
00000190: 64aa 91bc 7f50 b63c b4a4 703d 2794 ffba
000001a0: 79be 88bd ff30 b6bd 861a 213e d3f6 06be
000001b0: 1cd1 263d 2c29 903d c399 fb3d d87b 983d
000001c0: 6c57 efbc 6fe2 7f3d 31f7 73bc e9f5 66bd
000001d0: f8d4 08be 827c d33c 3141 22be e644 ba3d
000001e0: 42ec f43d fc89 613d 003c 42be 6b65 e23d
000001f0: 613f 623c aa07 0d3e dae7 613d 35a3 ff3d
00000200: ceb7 b53d 1e50 8e3d 551b 223d 3b8c dbbd
00000210: 6563 0a3d bd41 85bc 51f2 a03d ffa4 d5be
00000220: 6960 773e 18e1 bb3d 720d 663e 3aa4 13bf
00000230: da7b d13c bebb e1be 7daa 35bd a1dd b5bd
00000240: f96c db3d 906d 83be 0d1a 823a cd7c 39be
00000250: 57d0 c4be d4d6 a4bd 282e abbd 7dcd c2bc
00000260: 7aaa a2bd a0f1 d1bd 6f11 26bd a943 b73d
00000270: 1051 afbc ecd0 283e f3c3 c43c 205a 933e
00000280: 4392 773d 3347 a43d 723c 7bbd 230d 4fbe
00000290: a948 e1bd dcca 03bf 53b1 95be d13c 60be
000002a0: 3055 1d3c f02b 04bd 0853 02be 9572 cdbd
000002b0: 3ea2 99bd 50f0 503c d124 dcba 2145 5a3b
000002c0: 041e 383e f551 cfbe 8cc2 03be 37cf 563e
000002d0: 6367 41bd 72d4 4abd 0f80 10bd 5024 f2bd
000002e0: f4cf 603d 0372 c9bc 2071 99bd 67ac dfbd
000002f0: fffd d03e ee39 1d3d a0da 1c3e 8bd8 f23d
00000300: 2e95 95bc aa84 4b3d 95f9 313e 54e7 313e
00000310: 1ca3 773e 04a1 4e3c a984 133e f46f 57bd
00000320: 0a8e e63e 9b52 a43c 528c 8f3c 8d9f 3f3f
00000330: 5955 863e f132 373f a38b 16bd af88 443d
00000340: a6e7 c33b ec60 823e 2282 b23e 3834 bcbd
00000350: 8034 b43d c0ab fe3c bb9a e23d 62ec 7f3c
00000360: 8c58 253d 1013 60bc f5ee 8a3d 4415 3f3e
00000370: ac31 5abd c873 85bd 9843 3f3d 8436 303e
00000380: e6e9 0d3f a5bb fd3d 9745 0abd 96f6 26bb
00000390: 79e8 573e 7265 893e c497 8fbd 3024 bc3d
000003a0: 7513 afbd fcd2 61bd 7d82 5b3e 34a2 b63d
000003b0: 911e e03c 9b06 dc3b 6818 c93d 81be e1bb
000003c0: 71b6 e03e a5db 0a3e 53bf c63d f9e5 d43d
000003d0: d19f 99bd 2f93 0abd 52da 8e3d de2c a53d
000003e0: fd84 3dbd 7ab5 f43d adc2 913d 2503 1bbe
000003f0: be93 053e 2a02 f13d 4159 1d3e 12f8 cf3c

latent.weight_ih_l0 f4 [128, 64]
-0.19070284 0.047546312 0.16348514 -0.23877653 -0.13960873 0.10548818 -0.25196043 -0.27102885
0.299954 -0.016872825 0.25186276 -0.37226132 0.2864394 -0.36439747 -0.011541183 -0.13426206
-0.24755323 -0.068289265 0.19363725 0.012187087 -0.017248774 0.06277583 0.062185027 0.21072805
0.6202961 0.060458794 0.011468692 -0.17851077 0.22044364 0.2712857 0.33947548 0.17698123
0.09812662 -0.082484774 -0.18372977 -0.33922556 -0.15207346 -0.22394584 -0.05698399 -0.2697812
-0.38562685 -0.5524636 -0.27756247 -0.03937968 -0.19471876 0.124024436 -0.22893405 0.043313954
0.06425039 -0.27372873 -0.058630288 0.31672695 -0.2447437 -0.19060013 -0.25921863 -0.050667137
0.094066046 -0.2226603 -0.16259754 -0.102204844 0.12106661 -0.39099342 -0.3607916 0.34200057
-0.07698615 0.17242025 0.31469882 0.031844985 -0.3105295 -0.410038 -0.22173737 -0.23919821
0.2564723 0.043320045 0.06446595 -0.21964937 0.122228 -0.17644365 -0.13875467 -0.2501072
-0.19986531 -0.115082696 0.28224817 0.25027946 -0.11570987 0.3557335 0.0034851742 0.2658135
0.3369714 -0.0737408 0.14670785 -0.39782342 0.0077038337 0.047620993 0.27152562 0.15199028
-0.044788867 -0.07106453 -0.27249107 -0.03736089 -0.19976316 -0.17313364 -0.07138433 -0.12656735
0.18346025 -0.37963256 -0.16202077 -0.23321185 -0.4787157 -0.2881995 0.07005931 0.03869561
0.035125792 -0.19641711 -0.23831967 -0.037828453 -0.104926 -0.11796334 -0.19228037 -0.0048844013
-0.026659306 -0.139457 -0.06087772 -0.18594433 0.016054282 -0.184173 -0.058246974 0.09957806
-0.04116612 0.21632588 -0.007494279 -0.017077586 -0.42380872 -0.24235785 -0.37019283 -0.34073713
0.32181317 -0.02143324 0.19733198 -0.027902203 0.35352048 -0.1560146 -0.31984168 -0.07575778
-0.10426411 -0.062063567 0.43166852 0.04987868 -0.1306993 -0.070992954 0.06769897 0.09719173
0.2317274 -0.12635843 0.14166151 -0.61941653 0.26708898 0.2458112 0.32758108 0.28664234
0.3694524 -0.32859117 0.020934723 -0.29867396 -0.11044198 -0.28336206 -0.03307237 -0.015032596
0.08438033 -0.28978607 -0.24710682 0.10973347 -0.12061096 0.010571754 -0.043224253 0.068412
0.027332453 -0.29231456 0.042811505 0.050549943 0.108486846 -0.064534575 -0.14977281 -0.034502763
-0.23633544 -0.1629619 -0.27718884 -0.31466654 0.3494098 0.059108753 -0.17503014 0.12201983
-0.21022105 -0.077380344 0.22847685 -0.09882301 -0.04868887 -0.10623372 -0.03721755 0.006110244
0.2171194 0.1354743 -0.026123492 -0.25517777 0.27468368 -0.056247093 -0.10641753 -0.12047201
-0.07303855 -0.014651214 -0.08899308 -0.07513321 -0.27410886 0.18938354 0.055599485 0.022908095
0.25447962 -0.15186992 0.26028854 0.12839374 0.00096655067 0.15966313 0.011202929 0.20386143
0.18904907 -0.07115112 -0.19193424 -0.23980983 -0.31596565 0.037474394 -0.050459303 0.026757514
-0.0842317 -0.13543259 0.07322121 -0.05778056 -0.14993766 -0.040356107 -0.009596813 0.2093553
-0.025522884 -0.13365102 -0.19849235 0.0910764 -0.035616353 -0.26880825 -0.10108726 -0.10380694
-0.039700277 0.074912384 -0.25297847 -0.1879925 0.036380045 -0.10518774 -0.045443125 0.12935665
00000000: 9b47 43be ecbf 423d a668 273e d681 74be
00000010: 97f5 0ebe 300a d83d f500 81be 4bc4 8abe
00000020: 9293 993e e138 8abc 28f4 803e 0999 bebe
00000030: 2fa8 923e 4e92 babe 3b17 3dbc fe7b 09be
00000040: 987e 7dbe 3edb 8bbd d848 463e 59ac 473c
00000050: 4d4d 8dbc 9d90 803d bab5 7e3d 18c9 573e
00000060: bacb 1e3f a4a3 773d 2ee7 3b3c 87cb 36be
00000070: fabb 613e f6e5 8a3e bbcf ad3e 913a 353e
00000080: 9cf6 c83d c7ed a8bd a823 3cbe f9ae adbe
00000090: 25b9 1bbe 0f52 65be 0b68 69bd c320 8abe
000000a0: e270 c5be 416e 0dbf ab1c 8ebe 964c 21bd
000000b0: 5b64 47be 8600 fe3d b06d 6abe f969 313d
000000c0: b595 833d 2c26 8cbe 5026 70bd 092a a23e
000000d0: 189e 7abe ae2c 43be 4eb8 84be 5888 4fbd
000000e0: b3a5 c03d 1001 64be f87f 26be c650 d1bd
000000f0: c5f1 f73d 4a30 c8be adb9 b8be b31a af3e
00000100: eaaa 9dbd ef8e 303e 3420 a13e e36f 023d
00000110: b9fd 9ebe 80f0 d1be 1f0f 63be 60f0 74be
00000120: 5650 833e 5c70 313d b906 843d c4eb 60be
00000130: ac52 fa3d a5ad 34be b415 0ebe 0d0e 80be
00000140: 7ea9 4cbe 7ab0 ebbd d582 903e a124 803e
00000150: 4cf9 ecbd b422 b63e 8567 643b b518 883e
00000160: 8487 ac3e 6b05 97bd 953a 163e 83af cbbe
00000170: 7170 fc3b 3b0e 433d 6805 8b3e 57a3 1b3e
00000180: 8874 37bd 488a 91bd f383 8bbe bc07 19bd
00000190: b78e 4cbe f249 31be f331 92bd df9a 01be
000001a0: 01dd 3b3e 335f c2be c6e8 25be 16cf 6ebe
000001b0: 391a f5be e38e 93be 417b 8f3d 4a7f 1e3d
000001c0: 10e0 0f3d 9121 49be 120a 74be 02f2 1abd
000001d0: 71e3 d6bd c396 f1bd 25e5 44be 540d a0bb
000001e0: 9e64 dabc d1cd 0ebe eb5a 79bd 3168 3ebe
000001f0: 4584 833c d997 3cbe 6194 6ebd 95ef cb3d
00000200: ce9d 28bd 8884 5d3e 9292 f5bb 4be6 8bbc
00000210: 75fd d8be a82c 78be ea89 bdbe 1975 aebe
00000220: b2c4 a43e c394 afbc 6511 4a3e 2993 e4bc
00000230: a300 b53e 4bc2 1fbe 4ac2 a3be e526 9bbd
00000240: 6c88 d5bd 5e36 7ebd a803 dd3e 964d 4c3d
00000250: 0ad6 05be c164 91bd c2a5 8a3d 750c c73d
00000260: f349 6d3e 1b64 01be b70f 113e 1592 1ebf
00000270: e3bf 883e eeb5 7b3e b5b8 a73e c9c2 923e
00000280: dd28 bd3e 1a3d a8be 4c7f ab3c cbeb 98be
00000290: 682f e2bd d514 91be e576 07bd 474b 76bc
000002a0: 98cf ac3d d75e 94be 9209 7dbe f1bb e03d
000002b0: e102 f7bd 2635 2d3c ea0b 31bd 971b 8c3d
000002c0: 4fe8 df3c 41aa 95be 1e5b 2f3d 750d 4f3d
000002d0: 5a2e de3d b42a 84bd 0b5e 19be c552 0dbd
000002e0: eb01 72be 7cdf 26be b2eb 8dbe f91b a1be
000002f0: d7e5 b23e 051c 723d 1a3b 33be 88e5 f93d
00000300: 3044 57be 9679 9ebd d6f5 693e b863 cabd
00000310: fb6d 47bd 1191 d9bd 6e71 18bd 7138 c83b
00000320: 8c54 5e3e c6b9 0a3e ef00 d6bc a9a6 82be
00000330: 57a3 8c3e 5a63 66bd 6ff1 d9bd 07ba f6bd
00000340: 3c95 95bd a50b 70bc 0142 b6bd 71df 99bd
00000350: ff57 8cbe c2ed 413e 49bc 633d c2a9 bb3c
00000360: 274b 823e ca83 1bbe 8a44 853e a679 033e
00000370: 1e60 7d3a bb7e 233e 7d8c 373c 0dc1 503e
00000380: 1496 413e aeb7 91bd 698a 44be b590 75be
00000390: 40c6 a1be c07e 193d 6aae 4ebd 9332 db3c
000003a0: ab81 acbd d7ae 0abe 00f5 953d 4fab 6cbd
000003b0: 4289 19be 724c 25bd f33b 1dbc 3c61 563e
000003c0: 5e15 d1bc d0db 08be 9441 4bbe 4386 ba3d
000003d0: 74e2 11bd 3ca1 89be d606 cfbd bc98 d4bd
000003e0: c29c 22bd aa6b 993d 6586 81be 1b81 40be
000003f0: 3e03 153d ab6c d7bd 9222 3abd 1276 043e

latent.weight_hh_l0 f4 [128, 32]
0.2668442 -0.24554265 0.27466825 -0.4787547 0.15445042 0.19746435 0.03897959 0.109547295
-0.18116917 -0.037078787 -0.12361351 0.21853219 0.034750607 -0.057041142 -0.019775892 -0.021097796
-0.06856462 0.08469681 0.14086895 0.18242392 -0.08447807 0.12217337 -0.15464094 0.038503945
0.23928148 -0.09669098 -0.03702948 -0.03216856 -0.007544577 -0.06987839 -0.18421446 0.32596645
-0.17055698 -0.037308183 0.05510278 0.0066148355 0.07006349 0.33909824 0.109353594 -0.1265914
-0.09938821 0.07687979 -0.032731038 0.0144143505 -0.026976828 -0.00075732335 0.005430029 0.10081712
0.24896973 -0.23902138 -0.19305065 -0.012727106 0.17218374 0.26694643 0.15879868 -0.101475365
-0.29311478 0.07152072 -0.18635853 0.049129743 0.037849415 -0.23344873 -0.04065523 -0.016430028
-0.18713583 0.21343601 -0.08513263 -0.5331711 -0.17513709 -0.514187 0.5352811 0.1758558
-0.15798196 -0.0670491 -0.54286045 0.08420077 -0.032135144 -0.19779721 -0.015795685 0.009022524
-0.09482678 0.37883568 -0.12372083 -0.18796918 -0.17271294 -0.11755106 -0.045395017 -0.2508364
0.22387359 -0.16836908 -0.4849185 0.14327472 0.042734545 0.48108572 -0.15575506 -0.0252775
0.07808192 0.15486698 -0.37576613 -0.04154803 -0.16839983 -0.19142996 -0.022628833 -0.051399138
0.2037097 -0.13156167 -0.30800536 -0.106957026 -0.24853353 -0.12858902 0.005726841 0.09950221
-0.026384508 0.22443281 0.04593511 -0.0022047563 -0.013554262 -0.16124229 0.21178548 0.19987787
-0.05904441 0.119926885 0.025411485 -0.23544925 -0.18904464 0.053359255 0.21745583 -0.13527913
0.0302172 0.05938592 0.17357899 0.22327636 0.17009506 0.039277587 -0.21535477 0.09995203
-0.022068413 -0.13791555 -0.077569425 0.05245985 -0.18660517 -0.11595362 -0.09377834 -0.24867216
0.07232838 0.1261589 -0.15027651 -0.2664345 -0.09602906 0.2297604 0.023683904 -0.19407837
-0.014541806 -0.10958954 -0.12943576 -0.048725884 -0.10873239 0.14181966 0.12612817 0.0917688
-0.023984177 0.04177233 -0.20989983 -0.18660429 -0.39241806 -0.40345347 0.27792478 0.09475211
-0.00841835 -0.07547598 -0.26862064 0.032678414 -0.03986687 -0.055456236 0.066958785 0.0055462597
0.19045804 0.062067155 -0.043417096 -0.17231841 -0.0029485722 0.039284963 0.008963963 0.09483633
-0.11448981 -0.0011242841 -0.18538652 -0.097035676 -0.30904442 -0.1548475 0.19947319 0.36332473
0.11818349 0.12915489 0.063949466 -0.17354988 -0.077222295 -0.29663885 0.45636153 0.23795685
0.07326222 0.021670561 -0.21753189 0.13158287 0.20528904 0.0509345 -0.06256543 -0.039562404
-0.19677418 0.23338224 0.0770712 0.17548817 -0.22943655 -0.13356999 -0.030488297 0.0045432053
0.028345333 0.103602156 0.02010609 0.14069726 0.21378726 0.08802604 0.009934737 -0.09466772
0.039772898 0.172182 0.36184376 0.090169966 -0.11584451 -0.31114382 0.087675005 0.016121842
0.5746924 0.1969587 -0.31096444 -0.11666257 -0.122108065 0.04157832 0.0056209215 -0.012196338
0.01851269 0.18655321 0.04482053 -0.103336126 -0.057675913 -0.09978566 0.18944415 -0.029325
0.00097116217 0.14520764 0.035213016 0.29403448 0.23656768 0.18797676 0.3331829 -0.11510321
00000000: ce9f 883e 886f 7bbe 51a1 8c3e 561f f5be
00000010: 4028 1e3e 1834 4a3e 10a9 1f3d 555a e03d
00000020: 6984 39be eddf 17bd 1429 fdbd e7c6 5f3e
00000030: a756 0e3d f9a3 69bd 0d01 a2bc 49d5 acbc
00000040: 9c6b 8cbd 8575 ad3d f33f 103e 56cd 3a3e
00000050: d702 adbd 0836 fa3d 325a 1ebe 50b6 1d3d
00000060: 3406 753e ec05 c6bd 39ac 17bd 2ec3 03bd
00000070: 8038 f7bb 671c 8fbd b7a2 3cbe 13e5 a63e
00000080: 7da6 2ebe 77d0 18bd 74b3 613d 43c1 d83b
00000090: 727d 8f3d 499e ad3e c7f4 df3d 2da1 01be
000000a0: 0c8c cbbd 2773 9d3d fb10 06bd 2b2a 6c3c
000000b0: 82fe dcbc 1c87 46ba 62ee b13b 3579 ce3d
000000c0: ecf1 7e3e 05c2 74be 12af 45be 5a85 50bc
000000d0: ef50 303e 34ad 883e 1f9c 223e 51d2 cfbd
000000e0: 2413 96be 7579 923d c5d4 3ebe 453c 493d
000000f0: fd07 1b3d 2f0d 6fbe 1986 26bd 4498 86bc
00000100: 89a0 3fbe f88e 5a3e 045a aebd e77d 08bf
00000110: 2357 33be c2a1 03bf 2f08 093f 8b13 343e
00000120: 06c6 21be 0a51 89bd e7f8 0abf 7471 ac3d
00000130: 24a0 03bd 5a8b 4abe f465 81bc 35d3 133c
00000140: 8b34 c2bd c0f6 c13e 5961 fdbd fe7a 40be
00000150: a9db 30be 9cbe f0bd 20f0 39bd a16d 80be
00000160: 1e3f 653e f268 2cbe 3d47 f8be 9cb6 123e
00000170: 6b0a 2f3d de50 f63e 417e 1fbe c212 cfbc
00000180: 6ae9 9f3d 7395 1e3e 6b64 c0be 442e 2abd
00000190: 0171 2cbe 3706 44be 1a60 b9bc e787 52bd
000001a0: 4799 503e 1ab8 06be e1b2 9dbe 490c dbbd
000001b0: 937f 7ebe d7ac 03be 39a8 bb3b d1c7 cb3d
000001c0: 5324 d8bc b7d1 653e 7426 3c3d ac7d 10bb
000001d0: b212 5ebc b31c 25be 4bde 583e c9ac 4c3e
000001e0: 8dd8 71bd 3a9c f53d bf2b d03c 9c19 71be
000001f0: eb94 41be 3c8f 5a3d beac 5e3e 9d86 0abe
00000200: 108a f73c a73e 733d b1be 313e 8fa2 643e
00000210: 662d 2e3e 89e1 203d f685 5cbe a6b3 cc3d
00000220: d1c8 b4bc bc39 0dbe b8dc 9ebd 24e0 563d
00000230: 6d15 3fbe 1779 edbd dc0e c0bd eaa3 7ebe
00000240: e720 943d cc2f 013e 16e2 19be 1a6a 88be
00000250: e2aa c4bd 4f46 6b3e bf04 c23c 7bbc 46be
00000260: c140 6ebc 7b70 e0bd cf8a 04be cb94 47bd
00000270: 16af debd 2c39 113e be27 013e 48f1 bb3d
00000280: 777a c4bc 7619 2b3d fbef 56be 3215 3fbe
00000290: 05eb c8be 7491 cebe 284c 8e3e 650d c23d
000002a0: 1eed 09bc 2793 9abd a588 89be cdd9 053d
000002b0: 714b 23bd 1426 63bd b021 893d 66bd b53b
000002c0: 6f07 433e 213a 7e3d 20d6 31bd 3d74 30be
000002d0: d53c 41bb 45e9 203d 96dd 123c 8d39 c23d
000002e0: a279 eabd b75c 93ba f7d5 3dbe a4ba c6bd
000002f0: 123b 9ebe 5890 1ebe b342 4c3e b305 ba3e
00000300: 300a f23d 2e41 043e f0f7 823d 0fb7 31be
00000310: b926 9ebd 0ce1 97be 38a8 e93e f6aa 733e
00000320: 810a 963d 7686 b13c aec0 5ebe a9bd 063e
00000330: 4a37 523e b2a0 503d 4e22 80bd 300c 22bd
00000340: 2c7f 49be c1fb 6e3e 81d7 9d3d 2cb3 333e
00000350: 6af1 6abe 92c6 08be 98c2 f9bc 2bdf 943b
00000360: 7934 e83c 5e2d d43d 87b5 a43c f112 103e
00000370: 0ceb 5a3e ff46 b43d 4fc5 223c 26e1 c1bd
00000380: e8e8 223d 7a50 303e 9643 b93e 08ab b83d
00000390: e33f edbd 3e4e 9fbe f48e b33d f411 843c
000003a0: 0b1f 133f 8baf 493e bb36 9fbe c9ec eebd
000003b0: cb13 fabd 074e 2a3d b52f b83b 26d3 47bc
000003c0: eda7 973c ce07 3f3e bb95 373d e4a1 d3bd
000003d0: 943d 6cbd 6d5c ccbd a6fd 413e fb3a f0bc
000003e0: 9795 7e3a 50b1 143e 863b 103d b08b 963e
000003f0: cc3e 723e fb7c 403e f396 aa3e 3bbb ebbd

latent.bias_ih_l0 f4 [128]
0.06201909 -0.020427722 0.19290723 0.15332583 -0.05112945 0.20503476 0.107103325 0.13198091
0.18337168 0.12878655 0.0045800908 -0.0098092025 0.20481415 -0.0017075004 0.28488567 -0.020954473
0.123159066 0.18508238 -0.06293635 0.16033043 0.06047616 -0.010530241 0.15692566 0.22637433
0.21847416 0.16996726 0.46916562 -0.027696824 0.15759563 0.28277156 0.23665945 0.2712989
0.037835896 0.17595293 0.09698509 -0.013530259 -0.025691878 0.10535141 0.011634131 0.24416417
-0.053650323 -0.15402003 -0.1198771 -0.051354423 -0.020504741 -0.1059373 -0.12340674 0.1629166
-0.0004968172 0.20545827 -0.096902415 -0.090110876 0.023474779 -0.027759999 -0.10958065 -0.00041200197
-0.007944813 0.081155516 -0.11188295 -0.0004326577 0.18478748 -0.0014105256 -0.07453342 -0.10836856
0.10909096 -0.06990172 0.05919722 -0.036695436 0.15894425 0.10583896 0.0015053346 0.11420588
-0.14748116 -0.025219599 -0.072332166 0.07288055 0.0140248835 -0.15820427 0.032571774 -0.095755495
0.08530475 -0.11146469 -0.12382536 -0.02786114 -0.028511757 0.13569057 -0.00017916372 -0.14037202
0.10953774 0.06910202 0.19470996 0.08111841 0.01839592 0.0033237913 -0.16323128 -0.10025437
0.29098508 0.10365133 0.18960616 0.28445745 -0.0014721612 0.09164534 0.09644386 -0.008594935
0.22741829 0.09770636 0.035956737 0.21038955 0.21574628 0.36694703 0.1802391 -0.09645804
0.04807091 0.20556107 0.060343992 0.12086463 0.093325526 0.29006156 0.13169615 0.09145755
0.21800861 0.29155216 0.42576343 0.06388467 0.040759567 0.05426927 0.038016442 0.12773196
00000000: bb07 7e3d 0a58 a7bc 7989 453e 7201 1d3e
00000010: 1d6d 51bd a2f4 513e fd58 db3d 0126 073e
00000020: c9c5 3b3e 9fe0 033e 9614 963b c7b6 20bc
00000030: cdba 513e 35ce dfba 89dc 913e b7a8 abbc
00000040: d23a fc3d 3c86 3d3e c6e4 80bd a92d 243e
00000050: dab5 773d 0887 2cbc 1fb1 203e acce 673e
00000060: b1b7 5f3e e60b 2e3e 7a36 f03e 73e4 e2bc
00000070: c060 213e 6fc7 903e db56 723e b0e7 8a3e
00000080: d0f9 1a3d 012d 343e 1ea0 c63d 05ae 5dbc
00000090: c677 d2bc 7bc2 d73d 159d 3e3c 2c06 7a3e
000000a0: 71c0 5bbd 6db7 1dbe 2082 f5bd 0459 52bd
000000b0: 8ff9 a7bc a8f5 d8bd acbc fcbd 9cd3 263e
000000c0: d73c 02ba a763 523e c674 c6bd 0d8c b8bd
000000d0: 2e4e c03c f068 e3bc d26b e0bd f801 d8b9
000000e0: f62a 02bc dd34 a63d e322 e5bd 55d6 e2b9
000000f0: ee38 3d3e 63e1 b8ba faa4 98bd 56f0 ddbd
00000100: 156b df3d a228 8fbd c978 723d f44d 16bd
00000110: 48c2 223e 19c2 d83d a64e c53a c6e4 e93d
00000120: 4d05 17be 5599 cebc e322 94bd 6642 953d
00000130: a0c8 653c 4d00 22be fb69 053d 751b c4bd
00000140: 42b4 ae3d 9947 e4bd 2698 fdbd 0c3d e4bc
00000150: 7d91 e9bc 78f2 0a3e e5dd 3bb9 afbd 0fbe
00000160: 5355 e03d 5c85 8d3d 0c62 473e 6921 a63d
00000170: 0ab3 963c f7d3 593b 1a26 27be 2a52 cdbd
00000180: fffb 943e 2647 d43d 1e28 423e 68a4 913e
00000190: 88f5 c0ba 8db0 bb3d 5c84 c53d c5d1 0cbc
000001a0: 57e0 683e 461a c83d 5f47 133d 5c70 573e
000001b0: 98ec 5c3e 7be0 bb3e 9990 383e cb8b c5bd
000001c0: 01e6 443d 9a7e 523e 432b 773d e087 f73d
000001d0: 7421 bf3d f382 943e 5bdb 063e 194e bb3d
000001e0: a63d 5f3e 5346 953e aafd d93e f7d5 823d
000001f0: 81f3 263d 7449 5e3d 21b7 1b3d 2bcc 023e

latent.bias_hh_l0 f4 [128]
0.06820567 -0.062098306 0.12137555 0.07171321 -0.032110084 0.10745496 -0.015591293 0.040923536
0.079654805 0.109611094 -0.04544774 -0.0064134146 0.032264296 0.2566314 0.007339387 -0.1507451
-0.03995587 -0.078566544 0.08385989 -0.012314865 0.21983308 0.19062066 -0.05622604 0.19474441
0.05334246 0.32255915 0.19723779 0.042072956 0.23165856 0.3169341 0.028230133 0.18724704
-0.06154466 0.08587744 0.13348536 0.118533045 0.17475268 -0.18373802 0.013028238 0.14756048
-0.09261551 -0.047392365 -0.08163382 -0.123082325 0.09219046 -0.055537906 -0.091465294 -0.06399007
-0.05417509 0.07996221 -0.21709596 -0.100168824 0.0643074 0.0051527387 0.1451849 -0.037259813
-0.17477027 -0.1585807 0.095249176 0.07613565 0.04895864 0.1590539 -0.12155933 -0.04873507
-0.1386136 -0.042853124 -0.0755729 -0.152743 -0.0014771366 0.1300991 -0.12777352 0.080595724
-0.032806527 0.08155198 -0.06022157 -0.061686035 0.056137294 -0.14101943 0.11627455 0.09113787
0.09565236 0.074160196 0.09855554 0.021237703 -0.028375916 0.09741779 0.03733416 0.0021051888
-0.046766028 0.14549342 -0.09042064 -0.1779255 0.02804711 -0.04688197 -0.025815105 0.04538968
0.1329313 0.011000323 0.39118996 0.11269561 0.1149062 0.19475728 0.04762779 0.2091439
0.23685889 0.10253189 0.049588952 0.3533428 0.22754882 0.078888215 0.039081994 -0.09708172
0.07126235 -0.0103806835 0.14243762 0.1470936 0.04230701 0.3222252 0.1582154 0.3121275
0.12591234 0.20878515 0.45891193 0.019717284 0.24007167 0.23601633 0.2530369 0.24973848
00000000: 6aaf 8b3d cb5a 7ebd bf93 f83d 60de 923d
00000010: dd85 03bd 5911 dc3d 9f72 7fbc 709f 273d
00000020: 0f22 a33d c87b e03d 6927 3abd 9f27 d2bb
00000030: 9127 043d 3165 833e 3e7f f03b ec5c 1abe
00000040: c4a8 23bd 7fe7 a0bd bcbe ab3d 4ac4 49bc
00000050: ec1b 613e 1032 433e 474d 66bd 146b 473e
00000060: a07d 5a3d 7926 a53e b4f8 493e b154 2c3d
00000070: e737 6d3e 3045 a23e e142 e73c b0bd 3f3e
00000080: 4116 7cbd 83e0 af3d 63b0 083e 74c1 f23d
00000090: 5ef2 323e d225 3cbe 6474 553c 181a 173e
000000a0: 33ad bdbd 7f1e 42bd a22f a7bd 9612 fcbd
000000b0: 5ace bc3d b77b 63bd 2852 bbbd 3a0d 83bd
000000c0: b3e6 5dbd 3ac3 a33d 674e 5ebe 5025 cdbd
000000d0: 99b3 833d 4ed8 a83b 5aab 143e bf9d 18bd
000000e0: faf6 32be fb62 22be 0012 c33d 02ed 9b3d
000000f0: db88 483d 07df 223e 19f4 f8bd 6d9e 47bd
00000100: b9f0 0dbe c286 2fbd f7c5 9abd a968 1cbe
00000110: 7b9c c1ba b338 053e 10d7 02be 5f0f a53d
00000120: 2360 06bd b904 a73d e5aa 76bd 7faa 7cbd
00000130: 38f0 653d 6667 10be 5a21 ee3d 7ea6 ba3d
00000140: 62e5 c33d 4de1 973d 7dd7 c93d b1fa ad3c
00000150: 9c74 e8bc fa82 c73d b4eb 183d 35f7 093b
00000160: bc8d 3fbd 3afc 143e 752e b9bd 1a32 36be
00000170: 0ec3 e53c 4f07 40bd 337a d3bc 87ea 393d
00000180: 251f 083e b33a 343c 0d4a c83e f5cc e63d
00000190: f153 eb3d 746e 473e 5c15 433d d229 563e
000001a0: 238b 723e 3dfc d13d c91d 4b3d 59e9 b43e
000001b0: 8f02 693e 2590 a13d 7114 203d c8d2 c6bd
000001c0: fff1 913d be13 2abc 2bdb 113e b49f 163e
000001d0: 1e4a 2d3d b4fa a43e 3803 223e 2dcf 9f3e
000001e0: 2aef 003e c6cb 553e 81f6 ea3e 2486 a13c
000001f0: 59d5 753e 44ae 713e 0d8e 813e 72bb 7f3e

decoder.weight_ih_l0 f4 [256, 32]
0.40860653 -0.42992327 0.6276366 -0.6497107 0.47897676 0.7409329 0.5863231 0.73770225
-0.5255401 0.55889237 -0.6919458 0.5847193 -0.33853468 -0.6471011 0.5080051 -0.40570667
0.33569688 0.64797187 -0.36948788 -0.31376663 -0.5687816 -0.5247525 0.47508073 0.7136526
0.68058413 0.29207775 -0.55299705 -0.5462455 -0.3947366 -0.5104669 -0.5776965 0.3975765
0.38376302 -0.74259436 0.33438957 -0.5752754 0.6846355 0.58954686 0.6020718 0.801183
-0.39182946 0.6661186 -0.37189966 0.59249157 -0.41467035 -0.55620146 0.6591796 -0.3687898
0.45117426 0.6657544 -0.44657186 -0.34429622 -0.7697841 -0.599152 0.33080167 0.38090482
0.7073004 0.3830134 -0.5000424 -0.23646396 -0.44157594 -0.31546557 -0.7079704 0.7627884
0.24360642 -0.3791323 0.08661024 -0.22936562 0.29535118 0.33722156 0.4710608 0.17411171
-0.101096086 0.30797228 -0.4432485 0.15434135 -0.769012 -0.23364416 0.14579691 -0.7969018
0.8383922 0.119038835 -0.85951114 -0.8363382 -0.26716468 -0.9082979 0.7906353 0.80056965
0.13156046 0.5487914 -0.7244423 -0.61567545 -0.5558014 -0.6957305 -0.30486953 0.71042794
0.6272103 -0.45513925 0.288296 -0.30844834 0.24692927 0.29452842 0.14823042 0.2212139
-0.17904308 0.33088607 -0.5260868 0.4718667 -0.61871964 -0.30196354 0.30684242 -0.62792784
0.6723727 0.295801 -0.50071144 -0.52498823 -0.36471736 -0.7998919 0.40414974 0.94264585
0.2700419 0.9460088 -0.6838126 -0.6698485 -0.6570648 -0.77359957 -0.14488845 0.7203506
0.64105725 -0.6530498 0.4873338 -0.72491115 0.50207216 0.81884664 0.6964975 0.20827037
-0.9160745 0.6604147 -0.4530185 0.7787143 -0.23768504 -0.79472095 0.7298949 -0.34751552
0.33905986 0.7027369 -0.35231784 -0.2012711 -0.694195 -0.6366286 0.29586187 0.7869648
0.67241794 0.42209908 -0.45438272 -0.57762986 -0.43225828 -0.34731746 -0.47338295 0.7907449
0.65400875 -0.7189248 0.74018043 -0.65371656 0.5752132 0.7160279 0.6666831 0.5166432
-0.6580135 0.7577664 -0.38613898 0.6927906 -0.27360272 -0.7750476 0.8885559 -0.4154091
0.15711872 0.768629 -0.23921676 -0.10473373 -0.69902456 -0.49654815 0.22748242 0.42458394
0.9023359 0.37850758 -0.41110322 -0.880124 -0.2493788 -0.3280186 -0.8731732 0.37304178
0.38172665 -0.27144638 0.3701344 -0.20321125 0.2825635 0.34951487 0.34781763 0.17612353
-0.32567942 0.26265565 -0.3580852 0.16482984 -0.6723733 -0.25928462 0.27792832 -0.5772694
0.803901 0.23486537 -0.8222311 -0.6868604 -0.3104209 -0.38992324 0.5384937 0.70759934
0.3330586 0.5275992 -0.77624756 -0.7283058 -0.58776224 -0.7615013 -0.5312297 0.27795404
0.41047168 -0.524215 0.1549692 -0.4937894 0.6874431 0.45705217 0.19659504 0.030839924
-0.3624486 0.36126053 -0.33926344 0.47789544 -0.54422915 -0.35446277 0.28225636 -0.5978783
0.5354684 0.2433795 -0.636464 -0.72349805 -0.3379894 -0.5739779 0.5761316 0.32869336
0.42746234 0.2805365 -0.37486872 -0.011081077 -0.18819053 -0.6487551 -0.1854176 0.39278898
00000000: e034 d13e e71e dcbe cbac 203f 7153 26bf
00000010: 713c f53e c7ad 3d3f 4519 163f 0eda 3c3f
00000020: cc89 06bf 9213 0f3f 5c23 31bf 2ab0 153f
00000030: 6b54 adbe 6ba8 25bf 9f0c 023f c9b8 cfbe
00000040: 76e0 ab3e 7ce1 253f 842d bdbe 05a6 a0be
00000050: ac9b 11bf 2e56 06bf c83d f33e f0b1 363f
00000060: c33a 2e3f 378b 953e 3791 0dbf bfd6 0bbf
00000070: ea1a cabe f5ad 02bf ebe3 13bf 268f cb3e
00000080: 967c c43e aa1a 3ebf 1c35 ab3e 4045 13bf
00000090: 4644 2f3f 8bec 163f 6121 1a3f 541a 4d3f
000000a0: df9d c8be c086 2a3f a269 bebe 87ad 173f
000000b0: ac4f d4be 3863 0ebf ffbf 283f 04d2 bcbe
000000c0: 5000 e73e e16e 2a3f 11a5 e4be 9847 b0be
000000d0: 9210 45bf 0762 19bf d65e a93e f505 c33e
000000e0: a411 353f 551a c43e c702 00bf 9c23 72be
000000f0: 3e16 e2be b484 a1be 8c3d 35bf 1a46 433f
00000100: f673 793e a11d c2be b660 b13d d2de 6abe
00000110: 4538 973e 4ea8 ac3e e22e f13e 574a 323e
00000120: 770b cfbd 8bae 9d3e 78f1 e2be a90b 1e3e
00000130: f8dd 44bf 6a40 6fbe c94b 153e c201 4cbf
00000140: dfa0 563f a2ca f33d ec08 5cbf 431a 56bf
00000150: cfc9 88be 3686 68bf 1367 4a3f 22f2 4c3f
00000160: c9b7 063e 987d 0c3f 0d75 39bf e89c 1dbf
00000170: 0049 0ebf 651b 32bf dc17 9cbe 9bde 353f
00000180: db90 203f 0308 e9be 899b 933e f1ec 9dbe
00000190: 07db 7c3e 6ecc 963e b7c9 173e e685 623e
000001a0: 1257 37be e669 a93e a0ad 06bf 8398 f13e
000001b0: 6964 1ebf f79a 9abe 731a 9d3e e1bf 20bf
000001c0: 9e20 2c3f 3b73 973e a02e 00bf a165 06bf
000001d0: 3cbc babe b7c5 4cbf b7ec ce3e 3d51 713f
000001e0: ef42 8a3e a22d 723f 580e 2fbf 317b 2bbf
000001f0: 6635 28bf 9f0a 46bf a35d 14be e668 383f
00000200: 541c 243f 462e 27bf d183 f93e c793 39bf
00000210: cd87 003f ef9f 513f a94d 323f d444 553e
00000220: dc83 6abf f010 293f 0af2 e7be d259 473f
00000230: b563 73be d572 4bbf 64da 3a3f 8eed b1be
00000240: 4199 ad3e 91e6 333f 0163 b4be 031a 4ebe
00000250: c3b6 31bf 18fa 22bf 357b 973e 8676 493f
00000260: 9523 2c3f 5f1d d83e daa4 e8be 8ddf 13bf
00000270: f550 ddbe 98d3 b1be 405f f2be 426e 4a3f
00000280: 1e6d 273f 750b 38bf 777c 3d3f f859 27bf
00000290: 2c41 133f 9b4d 373f beab 2a3f bb42 043f
000002a0: 9373 28bf fbfc 413f 02b4 c5be ba5a 313f
000002b0: a815 8cbe 8569 46bf 6678 633f 80b0 d4be
000002c0: bbe3 203e dfc4 443f 3df5 74be a37e d6bd
000002d0: 46f3 32bf 8f3b febe 27f1 683e 1163 d93e
000002e0: 7cff 663f bfcb c13e 1f7c d2be ce4f 61bf
000002f0: 285d 7fbe 0ef2 a7be 4788 5fbf 55ff be3e
00000300: ad71 c33e 05fb 8abe 4282 bd3e 9c16 50be
00000310: 2aac 903e 9df3 b23e 2715 b23e ba59 343e
00000320: 74bf a6be cd7a 863e f156 b7be 27c9 283e
00000330: a820 2cbf f4c0 84be 9f4c 8e3e edc7 13bf
00000340: 75cc 4d3f 8c80 703e bd7d 52bf 15d6 2fbf
00000350: 7def 9ebe 05a4 c7be b9da 093f 3b25 353f
00000360: a886 aa3e be10 073f 29b8 46bf 4072 3abf
00000370: 9677 16bf c0f1 42bf abfe 07bf fe4f 8e3e
00000380: 5829 d23e f432 06bf 3fb0 1e3e f7d1 fcbe
00000390: 45fc 2f3f be02 ea3e 3650 493e 02a4 fc3c
000003a0: dd92 b9be 24f7 b83e f0b3 adbe b6ae f43e
000003b0: 9a52 0bbf 257c b5be e883 903e 8d0e 19bf
000003c0: 7514 093f 7a38 793e 4eef 22bf 2b37 39bf
000003d0: f20c adbe 37f0 12bf 5c7d 133f 7f4a a83e
000003e0: 58dc da3e 7ba2 8f3e cbee bfbe 688d 35bc
000003f0: 05b5 40be d014 26bf 1dde 3dbe a31b c93e
