saved_models/AD_autoencoder_ep7_loss1.6732.pth (torch, 257618 bytes, 14 tensors)

encoder.weight_ih_l0 f4 [256, 28]
000000 9e 23 e4 bc fe c1 4f 3b cf e7 cb ba bb e3 b6 ba
       -0.027849015 0.0031701322 -0.0015556755 -0.0013953367
000010 d3 d9 2e 3b 82 5f 75 3a 1c 5d 35 3a a3 5b 8a 3a
       0.0026680126 0.000936024 0.00069184764 0.0010555874
000020 19 2c 92 3a 8a 12 fd 37 fd 35 43 39 87 39 6d 3a
       0.0011152058 3.0168583e-05 0.00018616761 0.0009049405
000030 aa 2a c9 bb 87 a1 7f bb 57 22 49 3c 59 44 c4 b8
       -0.006139119 -0.003900619 0.012276254 -9.358739e-05
000040 6a db 40 b8 3b c9 54 39 3d 5b e1 3c d9 46 e4 ba
       -4.5980712e-05 0.0002029286 0.027509326 -0.0017416134
000050 74 b9 d4 3c 4b 3a 30 b9 4b 4e fb 38 8f 32 b6 bc
       0.025967337 -0.00016806384 0.00011983196 -0.022240905
000060 70 49 44 3c d2 62 cc 3c 93 fd 2c 3a 08 0a 29 3a
       0.0119803995 0.024949465 0.0006599065 0.0006448333
000070 8d 1f dc bc 70 80 77 3b 7f 91 7f ba ad da ca bb
       -0.026870513 0.0037765764 -0.00097491586 -0.006190619
000080 bb f3 da 3a ed 3f 7e ba 98 5c 94 ba 0a 33 30 3a
       0.0016704717 -0.0009698857 -0.0011319099 0.00067214726
000090 55 d9 b0 ba 0e 7d d0 ba f4 54 9b ba 52 31 50 3c
       -0.0013492504 -0.001590641 -0.001185088 0.012707071
0000a0 a6 f8 0c ba a4 2a 59 bb 33 df bb 3a 12 f5 2f ba
       -0.00053776277 -0.0033136988 0.0014333486 -0.00067122385
0000b0 2e 59 d2 b9 4d 73 9e ba af df d8 3c 4e 00 f6 ba
       -0.00040120765 -0.0012088806 0.026473848 -0.0018768401
0000c0 c9 ff 85 bb 97 24 fd 38 f5 13 1b 39 07 e4 d9 bb
       -0.00408933 0.000120707955 0.00014789386 -0.0066494974
0000d0 df b9 b4 3d 4e 37 aa 3a cc 43 51 bb 43 c5 2d bb
       0.088245146 0.0012986453 -0.003193128 -0.0026515282
0000e0 b4 5b 82 3b 8c 63 2a ba 11 f7 53 b9 e8 03 97 37
       0.003978217 -0.0006499819 -0.00020214567 1.8002422e-05
0000f0 d1 dd 02 39 bc b7 98 38 75 16 3c 39 4c a7 51 37
       0.00012480399 7.282148e-05 0.00017937443 1.2496323e-05
000100 88 8e aa 38 ca 05 b1 b7 11 90 10 39 0c af 84 38
       8.13278e-05 -2.110274e-05 0.00013786579 6.3268555e-05
000110 20 35 a3 b9 86 9e e0 38 7b 0d 0e 3a 15 be 01 39
       -0.00031129364 0.000107106796 0.0005418879 0.0001237321
000120 7b 5b 67 b9 fe b5 d0 b8 82 b2 87 bb 31 1a a6 38
       -0.00022063956 -9.9521116e-05 -0.004141153 7.920375e-05
000130 a4 e5 98 3a 22 e1 8d 38 cb fe 96 37 16 77 0c bb
       0.0011665118 6.765338e-05 1.800004e-05 -0.0021433285
000140 74 8c 92 ba 93 62 f3 3a 18 ba 95 37 be 48 9c 3c
       -0.0011180774 0.0018568806 1.784884e-05 0.019077655
000150 59 95 40 3d c0 a0 d7 bb 27 e2 b8 ba c9 4b 16 ba
       0.04701743 -0.006580442 -0.0014105485 -0.0005733339
000160 54 53 bc ba 77 7b 3f 3a e9 b1 08 3a 1f fb 7a 39
       -0.0014368095 0.00073044695 0.0005214499 0.00023935408
000170 7e 1d 35 b9 f8 e1 2a b7 3d 41 26 38 7e e3 aa b9
       -0.00017272492 -1.0185402e-05 3.9638242e-05 -0.00032594422
000180 53 72 01 bb 9e c1 b5 3a 43 fc 8a 3b 5d d8 e8 39
       -0.001975198 0.0013866907 0.0042414977 0.00044411691
000190 fb 58 3d ba 1e 31 ae b8 32 34 3f bd 3e 4b 4e 3a
       -0.0007223037 -8.306115e-05 -0.046680637 0.00078694883
0001a0 51 27 c9 3b fb e7 4f 38 1d dc f9 38 5a 77 41 bc
       0.00613872 4.9568695e-05 0.000119142445 -0.011808241
0001b0 d0 8d db 3a 23 80 3b 3c 3d a1 c8 39 6f 1e dc ba
       0.0016750637 0.011444124 0.00038267105 -0.0016793738
0001c0 37 04 81 3c 8d 8f 80 ba ec 6c 7c 38 65 81 1e 3a
       0.01574908 -0.0009808406 6.0182923e-05 0.0006046503
0001d0 cd 5a 6e ba 48 02 8c 38 08 be 0c ba ab 10 fe 38
       -0.000909251 6.676145e-05 -0.0005368893 0.000121147685
0001e0 02 d7 5d 37 07 93 1b b9 1c 31 bb 39 48 bb a9 39
       1.3222687e-05 -0.00014836724 0.0003570401 0.00032373727
0001f0 02 aa d0 ba 84 25 0a b8 16 3d a8 3b e3 1e e5 36
       -0.0015919807 -3.2936703e-05 0.005134235 6.8283275e-06
000200 74 0b 69 b9 3c 74 b8 b9 77 1a 80 bc c9 79 cc 3a
       -0.00022224878 -0.00035181816 -0.01563762 0.001560026
000210 96 1a 04 bc f2 ae d6 39 7e 44 ce b8 13 50 4e 3c
       -0.008062979 0.00040947605 -9.835603e-05 0.012592333
000220 2e 56 57 b9 cc 6d 58 3c e6 2a e5 ba 55 24 a2 bd
       -0.00020536102 0.013209771 -0.0017484098 -0.07917086
000230 17 ca 22 3a fc c3 07 b9 de 0a ae 39 da 03 e1 39
       0.00062099233 -0.00012947613 0.00033195963 0.00042918214
000240 3a 89 32 39 f7 32 99 b8 7f a4 be b8 44 77 24 39
       0.00017026524 -7.3051015e-05 -9.090546e-05 0.00015684689
000250 fc 91 eb 33 b7 43 75 38 9b dd 07 b7 6f c4 56 39
       1.0969595e-07 5.8475616e-05 -8.098224e-06 0.00020481808
000260 89 8d bd 39 30 ec 06 b9 83 25 42 ba f1 95 97 37
       0.0003615434 -0.00012867223 -0.00074061024 1.8070425e-05
000270 04 a4 b9 38 98 22 53 b7 4e 14 18 ba b0 a3 77 b9
       8.852038e-05 -1.25846345e-05 -0.00058013655 -0.00023616734
000280 af 89 5e ba 9c 2d 00 b8 f2 94 80 b8 c6 7a ca 3a
       -0.00084891444 -3.0560055e-05 -6.131259e-05 0.0015447966
000290 51 c2 cb 39 27 f1 9d ba d8 07 1c b9 50 ad 84 b8
       0.00038863954 -0.0012050018 -0.00014880241 -6.3265325e-05
0002a0 8a a8 5b 39 4c 9b fe 39 a0 95 d2 39 f6 02 1b ba
       0.00020948253 0.0004856236 0.000401658 -0.0005913222
0002b0 70 90 45 38 f8 9e 90 b8 c2 fc 22 ba 7d a0 54 b7
       4.7102978e-05 -6.896065e-05 -0.00062174734 -1.2673551e-05
0002c0 57 3e e0 38 1b d2 b1 b8 10 c6 42 b9 9b 52 3f ba
       0.00010692764 -8.479153e-05 -0.00018575066 -0.0007298381
0002d0 4f 3f 96 38 66 93 27 39 d2 9e f2 39 8d e5 18 b7
       7.1643495e-05 0.00015981271 0.00046276167 -9.1133525e-06
0002e0 91 af 41 b9 e6 b1 5d b8 fe 30 d1 b8 8e 13 a7 b9
       -0.00018471318 -5.2856187e-05 -9.975022e-05 -0.00031867292
0002f0 6b cb 15 3a 9e 83 08 39 7d c0 70 b8 ae f1 3a b9
       0.00057142106 0.00013019002 -5.7399728e-05 -0.00017828375
000300 9d 66 c7 bb 74 50 73 3a 45 79 ac b9 32 bd 31 38
       -0.0060852305 0.0009281703 -0.0003289675 4.237629e-05
000310 95 4d 50 bd 5e d0 ee 3b 65 99 07 bc 25 ee 05 3c
       -0.050855238 0.007288023 -0.008276318 0.008174454
000320 9f d0 95 3b 09 1b 2d 3b c4 66 45 ba d9 a2 c3 3b
       0.0045719887 0.002641382 -0.0007530267 0.0059703407
000330 65 dc ba ba 58 29 c7 38 0d 36 1d 39 16 e0 dd ba
       -0.0014256357 9.49676e-05 0.00014992822 -0.0016927745
000340 2f 43 60 bb c5 f8 16 bc 58 7a 38 3c 6b d8 00 3a
       -0.0034219732 -0.009214585 0.011259638 0.0004915061
000350 d9 dd b5 38 55 36 33 39 46 cf 4d 3d bf 83 9c bb
       8.672075e-05 0.0001709101 0.0502465 -0.0047764475
000360 16 73 e4 3d 05 59 6e 3b 28 f7 96 39 27 bb b9 bd
       0.111547634 0.0036368978 0.00028794375 -0.090688996
000370 02 1f 3e 3b 76 6d d7 3c e4 e7 2e 3b 4d f2 8c 3c
       0.0029010181 0.026297312 0.002668851 0.017205382
000380 21 26 60 bc d1 fe 8d be 15 84 5f be ed 55 3d bf
       -0.013680966 -0.27733472 -0.21827729 -0.7395924
000390 e5 c1 87 bd 71 e0 f6 bd ce d4 49 3c cd a0 20 3d
       -0.06628779 -0.120545276 0.012318803 0.03921585
0003a0 32 f7 67 bd 16 8b 7a 3c 17 15 71 bd a7 ec ed be
       -0.05663223 0.01529195 -0.058858003 -0.46469614
0003b0 e3 e2 f4 bc 02 af 02 3e d4 e0 38 3e b9 ef 60 bc
       -0.029893344 0.12762073 0.18054515 -0.013729029
0003c0 5e 88 ef 3c ae 53 4d bc 42 a9 78 bc 9d 2f 47 bd
       0.02923983 -0.012532158 -0.015177073 -0.048629392
0003d0 9e dd b3 3f fd df a4 3f 7f 02 0f 3f 90 30 8c 3e
       1.4052007 1.2880856 0.55863184 0.273808
0003e0 b8 ac 33 3f e3 c7 b3 3e 7e e8 34 3e 30 41 a8 3f
       0.7018542 0.3511344 0.17666814 1.3144894
0003f0 4e db f8 bb 80 0f 2b 3a 62 f5 2f ba 50 18 8c 3b
       -0.0075945025 0.0006525442 -0.0006712285 0.004275359

encoder.weight_hh_l0 f4 [256, 64]
000000 10 62 4c 3d 63 6c 64 bd 26 3f a9 3d 45 41 e7 bd
       0.049898207 -0.055767428 0.08263998 -0.11291746
000010 73 ef 56 bd 08 65 d1 3d d7 11 37 3d 6f 74 1b bc
       -0.05247445 0.10224348 0.044694748 -0.009488209
000020 01 1e ad 3d 35 74 03 3e 92 52 c7 3d 25 4d 28 be
       0.084529884 0.12837298 0.09732546 -0.16435678
000030 5d 68 14 bd 7f 04 16 be 83 22 6a 3e 96 9c 61 bd
       -0.03623234 -0.14650153 0.22864728 -0.055080973
000040 5b 5a 09 3e 6c 75 56 be 81 e5 05 bc b5 30 91 3d
       0.13413374 -0.2094323 -0.008172394 0.07089368
000050 b2 07 95 3d 00 ab d3 3c d5 cd 8a 3d 4e ac ca bc
       0.072768584 0.025838375 0.067775406 -0.024740364
000060 78 da 34 be 5b 59 91 3d 01 aa da bd ef b6 8a 3d
       -0.17661464 0.07097121 -0.10676957 0.06773173
000070 b5 36 80 3d e1 0e 60 3b b6 2d 74 3d d7 85 0d 3e
       0.062604345 0.0034188556 0.059613906 0.13820587
000080 c7 cd aa 3d 79 a5 fd 3d 4d 32 27 bb 59 ff ab 3e
       0.0834003 0.12385077 -0.002551216 0.33593252
000090 f4 12 7a bc 8b 86 96 bd d9 ec b5 bd fe dd 79 3d
       -0.015263308 -0.07349881 -0.08883066 0.061002724
0000a0 38 c0 54 bd 13 85 5a 3d ae 64 ff bc da db 8a 3d
       -0.051941127 0.053349566 -0.031175938 0.067802146
0000b0 6b b9 ae 3d 28 a2 bd 3d 6c 8d f0 3c b1 cd bc 3d
       0.085314594 0.092594445 0.02936431 0.0921892
0000c0 51 ca 7c 3d df 58 c2 bd 95 3d c9 3c a9 ec 14 bd
       0.06171638 -0.09489607 0.024565497 -0.03635851
0000d0 89 e6 ea bc 21 ba f9 bd a0 38 ba bd 13 43 db bd
       -0.02867438 -0.121937044 -0.090928316 -0.10706153
0000e0 1e e3 9e 3d e4 79 7b 3d e4 eb 37 bd 30 6b eb 3c
       0.07758163 0.06139554 -0.044902697 0.028737634
0000f0 7b ee d8 3c bd 49 af bd 50 bd b8 3c 46 0a d9 bd
       0.026480904 -0.08558986 0.022551209 -0.10597663
000100 42 d7 b8 be 83 c4 46 3f 77 03 7b 3c cf fd be 3d
       -0.3610173 0.77643603 0.01532065 0.09325754
000110 aa 38 3f 3d 76 ff 06 bd f9 83 87 3f 5a 8e ed bd
       0.0466849 -0.03295847 1.058715 -0.11599417
000120 df a6 f2 3d 97 e1 c3 3e 88 76 0a be f7 20 5a be
       0.118482344 0.3825805 -0.13521779 -0.21301638
000130 3c 61 7e 3e c9 01 27 be c8 cf 5b be c1 36 f8 3d
       0.2484178 -0.16309275 -0.21465981 0.121198185
000140 d3 8b 7c be 64 ee 4d be 5e fa ef 3e ea b3 0e bd
       -0.24662714 -0.2011047 0.46870703 -0.03483955
000150 e3 a4 e7 bc e9 09 f9 be ee 25 86 3f 2e ae dd bd
       -0.028276866 -0.48640373 1.0480325 -0.10824238
000160 09 e9 de bd d3 41 2c bf eb 82 71 3e 07 f6 07 be
       -0.10884292 -0.6728794 0.23585097 -0.13277446
000170 e1 b6 b7 3d 5b 4f 18 3f 39 c1 78 3e b0 bd 21 3d
       0.08970428 0.59496087 0.24292459 0.03948754
000180 b3 37 38 3e 1a 7b bd bc cf 29 19 3d 94 1c 8b 3d
       0.17989998 -0.023129988 0.037393387 0.0679256
000190 31 20 78 bd 68 a7 ee bc 96 4c 26 bd 5c 26 cf bc
       -0.060577575 -0.02913256 -0.04060038 -0.025286846
0001a0 17 ea 46 3f d4 bc 12 be c2 ab 5e be 9e 7d f8 be
       0.7770094 -0.14329845 -0.21745208 -0.48533338
0001b0 f9 ea d8 be f7 19 1e be ce 44 56 3f 1a 5d 0b 3e
       -0.4236677 -0.15439592 0.8369874 0.13609734
0001c0 14 0d 11 3e 1e 9e d1 bb 0c 0b b1 be 5b 85 c7 3e
       0.14165145 -0.006397023 -0.3457874 0.3896893
0001d0 34 eb 5b bf 7e 19 f7 be 6a 68 8f 3e 28 b8 0e be
       -0.85905766 -0.48261636 0.2800935 -0.13937438
0001e0 b6 6f 1f 3d 42 33 3c be 77 66 4b be da 22 45 be
       0.038924895 -0.18378928 -0.19863306 -0.19251576
0001f0 ea bd 1d 3e 45 93 9a bd 50 d8 9f be 3f 35 51 3d
       0.15404478 -0.07547621 -0.3121972 0.05107617
000200 60 ba cd 3d 26 e2 53 3d 8d 87 07 3d 6c d1 7f 3c
       0.10045314 0.051729344 0.033088256 0.015613895
000210 43 43 93 3d 5d 24 1c bd 82 59 5b 3e e2 7c 61 3c
       0.071905635 -0.038120616 0.21420863 0.013762685
000220 be 42 d7 bc 5e 90 01 3d 20 6e bf bd 54 28 82 3a
       -0.026276942 0.03163182 -0.093471766 0.0009930232
000230 e1 96 88 bd c9 f5 8a 3d df fd d4 bd aa 23 bc 3c
       -0.06669403 0.06785161 -0.103999846 0.022966225
000240 4b 5e c4 3d 9f d1 a2 3c d8 0b 14 3e 72 05 8b 3c
       0.095882975 0.019875346 0.14457643 0.01697037
000250 86 e4 8c 3d 49 4a 0d bd b9 b6 25 3b 55 e5 39 bd
       0.06879525 -0.034494672 0.0025285913 -0.045384724
000260 06 bb 40 be 4b e4 cb 3b 1e 49 08 3e 74 59 07 be
       -0.18821344 0.006222283 0.13309142 -0.13217717
000270 0a a4 ea bd 1b 87 40 bd dc 74 d3 3b b0 b6 a2 bc
       -0.11457069 -0.047003847 0.0064531397 -0.019862503
000280 6b a1 6e 3d 69 f5 26 3d 50 1a 49 3d 60 b4 b3 3d
       0.05825941 0.040761385 0.04909736 0.08774638
000290 e5 e9 d0 bd 45 a7 c5 3d f0 87 99 3c fa 4d 8e 3d
       -0.10200862 0.09651045 0.018741578 0.069484666
0002a0 53 c3 b3 3e 95 44 0a be a1 45 bc bd 51 2d 25 bd
       0.35109958 -0.13502724 -0.09192968 -0.04032642
0002b0 ac 3b ae 3e 93 02 79 3d c1 64 39 3d 49 fe 93 bc
       0.340299 0.06079347 0.045262102 -0.018065589
0002c0 cb c7 dc 3b f0 6f 86 bd b7 31 96 bd e3 8c 8f 3d
       0.0067376844 -0.06564319 -0.07333701 0.07009294
0002d0 ed 4f 1b bd 88 45 dd 3d 08 57 23 3c 7d d0 ad 3c
       -0.03791802 0.10804278 0.00996948 0.021217579
0002e0 1e b7 3c 3d 63 2a 24 be b6 b6 7c 3b c5 c1 31 bd
       0.04607307 -0.16031794 0.0038561053 -0.043397684
0002f0 8d ed 1c be 8f 6d ee 3e 4e c0 d7 bd fa 85 ed 3c
       -0.15324993 0.46567962 -0.10534726 0.028994549
000300 9e 77 6d bc 81 44 9f bc aa 58 0b bd e0 69 c8 3b
       -0.014493851 -0.019441845 -0.034020104 0.006116137
000310 ed 6c 66 3c e9 d0 9b 3e 63 44 81 3d ab bc 36 be
       0.014064056 0.30432823 0.06311872 -0.17845409
000320 26 01 f6 bc e9 2a a3 bd fb b5 1e bc de 72 2f bd
       -0.030029844 -0.07967169 -0.009686942 -0.042834155
000330 e1 8e 2e 3e 26 0a a4 bd 1e c5 ed bc 04 ab 58 3d
       0.17046691 -0.08009748 -0.029024657 0.05289747
000340 fe 66 f4 3d ac 16 b4 bb c4 9a 2f bd ee 72 2a 3e
       0.11933707 -0.0054958668 -0.042872205 0.16645405
000350 a4 f1 d1 bd 3e 0d ac 3e cf ac 4d 3b 16 79 3d 3c
       -0.102511674 0.33603853 0.003138352 0.011564514
000360 08 d3 74 3e 97 b8 53 3d ad 17 64 3d 60 bf 93 3e
       0.23908627 0.05168971 0.05568664 0.28856945
000370 94 12 e4 3c b6 08 2e 3d a5 e8 d4 3c ec 89 09 3e
       0.02784089 0.042488776 0.02598984 0.1343152
000380 62 0c 3b 3d 31 e8 7e bd f8 dc d1 bd 7a 73 ea bd
       0.045666106 -0.062233154 -0.102472246 -0.11447807
000390 63 c3 30 be bd f0 13 3d 1d e1 6f 3d f4 4f ad bd
       -0.17262034 0.036118258 0.058564294 -0.084625155
0003a0 dd bc 90 3e 32 aa ed bc 71 a4 ae bc e1 d6 3e bd
       0.2826909 -0.02901182 -0.021318646 -0.046591643
0003b0 12 87 04 3f ee 08 45 bf 6e 3b 01 bc 04 35 a0 3d
       0.517686 -0.7696675 -0.007887704 0.07822612
0003c0 5d 44 99 3b 22 61 f3 3c 4d 29 48 3d c0 ea 00 3e
       0.004677339 0.029709402 0.048867512 0.1258955
0003d0 f6 51 43 be c6 6b cc bc e6 0a cc bd ed 23 83 3a
       -0.19074234 -0.024953734 -0.09963016 0.0010005214
0003e0 cc 30 39 3d 95 47 c2 3c b6 cd 99 3c bf a7 a2 bd
       0.045212552 0.023715774 0.018774848 -0.07942151
0003f0 68 03 b4 3d cc 50 a0 bd 9d b6 0a be 35 c3 48 3d
       0.08789712 -0.07827911 -0.13546224 0.04901429

encoder.bias_ih_l0 f4 [256]
000000 fc 51 1d 3d ac 84 28 3e b2 4f 9d 39 b3 f0 47 3d
       0.038408265 0.1645686 0.0003000475 0.048813533
000010 6e da bf 3d 7f 5c a5 bd de aa 71 bc 0a 83 8a bd
       0.09367834 -0.08074283 -0.014750211 -0.06763275
000020 be 87 a0 3f 88 55 97 3d f2 47 cd bd 96 80 ac 3f
       1.2541425 0.07389361 -0.10023488 1.3476741
000030 53 af 66 bd 3d b8 8a 3f 1a 24 0a be c2 bd e0 bd
       -0.056319546 1.0837475 -0.13490334 -0.109736934
000040 9b 8d c8 3c 6e 82 21 3f 8b b8 13 be 54 ab 91 bd
       0.024481585 0.63089645 -0.14425866 -0.07112756
000050 0c aa ac bd 22 5a d4 bd 9b 15 44 3f 49 6f 00 be
       -0.08430871 -0.10368754 0.7659547 -0.12542452
000060 48 ac a8 bc 06 71 57 3f 98 83 81 bd 30 80 fe 3d
       -0.020589963 0.84156835 -0.06323928 0.124267936
000070 a2 d1 80 bd df 61 91 3c 1b 1a d3 3d 3d 68 9d 3f
       -0.06289984 0.017746864 0.103077136 1.2297436
000080 ef 9f 0b be 59 ad 08 bc fc 85 a2 bd a4 36 0c be
       -0.13635229 -0.008342111 -0.07935712 -0.13692719
000090 27 bd c4 3d b5 75 9c 3f c7 4c 14 be 0e 89 89 3e
       0.096063904 1.2223421 -0.14482413 0.26862377
0000a0 38 1d b9 3d 06 77 7f bd 8e 20 23 3d 96 6b 6e 3d
       0.09038776 -0.06236937 0.03982597 0.05820807
0000b0 ab e7 ab 3e 07 8a 47 3d 26 8d 91 3e c6 b4 e4 bc
       0.33575186 0.048715618 0.28428 -0.02791823
0000c0 f3 f1 71 be d3 31 f1 3e 24 9a 80 3d 16 64 8f 3e
       -0.23627453 0.47108325 0.062794 0.28006047
0000d0 a5 f1 13 be eb 97 36 3f cb 1d 17 be 50 4a 60 be
       -0.14447649 0.7132556 -0.14757459 -0.21903348
0000e0 fe 72 a7 3c e1 35 05 3f 5d 96 ff 3e 05 51 76 3d
       0.020440575 0.5203534 0.49919406 0.06013586
0000f0 d5 00 89 3e 49 f1 90 bc d3 b6 cb 3d e6 35 f6 bc
       0.26758447 -0.017693179 0.0994698 -0.030054998
000100 bb 8d a4 bd 4b e8 2f be 3e a9 90 bd b2 69 e7 3d
       -0.080348454 -0.17178456 -0.070635304 0.11299457
000110 64 dd f3 3d e3 18 95 bd 12 94 54 bd 55 72 09 3e
       0.11907461 -0.072801374 -0.051899023 0.1342252
000120 ca bd ad 3d c5 a2 a8 3d 4e 33 22 3d 23 34 fc 3c
       0.08483465 0.08234171 0.03959971 0.03078658
000130 8c b9 8f 3e 32 d0 00 3f a6 55 16 bd c6 d9 40 3d
       0.2807125 0.5031768 -0.036702774 0.047082685
000140 1d 9e 1b 3d 34 b4 1e bc 46 b9 95 3d ab c5 b2 bd
       0.037992585 -0.009686518 0.07310729 -0.087291084
000150 23 3b 84 3c 4b b9 02 3e 45 cf 3b 3e 0f 67 07 bd
       0.01614148 0.12765996 0.18340786 -0.03305727
000160 75 f9 c7 3d 1b 48 be 3d 25 2c b1 bc d5 dd 76 3d
       0.09764377 0.09291097 -0.021627495 0.06027015
000170 09 6f d5 3d 3a 8b cc 3c a5 fb 8d bd 5b ea 1e be
       0.10421569 0.024968732 -0.06932763 -0.15519087
000180 6d 81 6d 3d a5 a1 e3 bd 2e aa fd 3d 0b 8d e7 3c
       0.05798476 -0.111148156 0.12385975 0.028265497
000190 5b a1 3c 3c 2d b9 2d 3d fb 89 1f 3d 60 f4 97 3d
       0.0115130795 0.042412926 0.038949948 0.07419658
0001a0 0f 15 7e bd 7e 76 79 3d 1f f4 e4 bd 2a 9c 1c bb
       -0.0620318 0.06090402 -0.11179375 -0.0023896792
0001b0 9d 8e 9f bd 71 b4 aa 3d 18 01 2d bb e5 a7 bd 3d
       -0.07790873 0.08335198 -0.0026398357 0.09260539
0001c0 ad d8 81 bd 26 41 d2 3c 45 76 e3 bc 4c 6b cc 3c
       -0.06340156 0.02566583 -0.027766356 0.024953507
0001d0 2d d0 b2 bd 27 18 90 bc 6c 89 23 bc 01 aa f7 3d
       -0.08731113 -0.017589642 -0.009981494 0.120929725
0001e0 2e 0e a9 bd d1 07 d2 3b 25 76 52 3d 09 da 09 3e
       -0.08254658 0.006409623 0.051382203 0.1346208
0001f0 96 b7 5e 3d 15 0c c6 3d 02 69 fb 3b c5 e8 81 bc
       0.0543743 0.09670273 0.00767243 -0.015858063
000200 96 f5 02 3f e1 28 71 3d 69 b4 58 3f 2a 55 37 bf
       0.51155984 0.058876876 0.84650284 -0.71614325
000210 2a 02 03 be 37 81 c0 bd 2a 36 f9 3d 32 17 1e bf
       -0.12793794 -0.09399646 0.12168534 -0.61754143
000220 23 ce 22 3f 2a 8e 18 3e df 0c 0f 3f a9 3a 12 bf
       0.6359579 0.14897981 0.55879015 -0.5712076
000230 0e a8 c6 bd 71 61 3a bf 5b 4e 69 be 87 8e 68 bc
       -0.09700023 -0.72804934 -0.22783796 -0.014194137
000240 2b 79 bc bd 7f 79 41 bf 5b 01 99 3a bb 4e 0f bd
       -0.092027985 -0.75576013 0.0011673378 -0.034987193
000250 19 45 3a bf 14 33 0d 3e 59 7f 3c bd 1c 9d e0 3d
       -0.72761685 0.13789016 -0.046019886 0.10967466
000260 07 3a dd 3d 5f 0a 63 be f5 13 5f be 1d 22 a7 bd
       0.108020835 -0.22171925 -0.21784957 -0.081608035
000270 6a 7a 27 3e 85 73 06 3f 36 d2 83 bd 09 6b 09 3f
       0.16355291 0.5252002 -0.06436579 0.5367895
000280 b8 81 b9 3e ee 58 3c 3d db ed fc bd 25 c6 31 bd
       0.3623178 0.045983247 -0.12350055 -0.043401856
000290 f5 3c 81 bd 8d bf 32 bf 42 7c 46 bf 02 f4 cb be
       -0.06310455 -0.69823533 -0.7753335 -0.398346
0002a0 ba 8c 99 3c 24 48 03 be 35 92 95 bd 20 15 fa bc
       0.018743861 -0.12820488 -0.073032774 -0.030527651
0002b0 df aa 57 bd 02 d5 bf 3c bb 45 16 3e c5 17 b0 bd
       -0.05265319 0.023417 0.14675038 -0.08598284
0002c0 0c b7 05 3f 6b 0e 0f bf 01 35 6e bd fa a4 09 3f
       0.5223243 -0.55881375 -0.058156017 0.5376736
0002d0 42 b5 02 bd 9e 34 92 be 6d e6 b0 3d 2c a7 36 bb
       -0.031911142 -0.2855577 0.086377 -0.0027870638
0002e0 b3 f4 09 3e 16 4c 57 be 0a 5e 65 be 4b ea a7 be
       0.13472252 -0.21025118 -0.22399154 -0.3279594
0002f0 61 ef 09 3f 97 4a 20 3d 2b b9 2a 3e 6e 07 e8 3d
       0.5388089 0.039133634 0.16672198 0.11329542
000300 98 ef e4 3e 36 87 3a 3b 40 ae d1 3e c7 20 d7 3e
       0.44714046 0.002846194 0.40953255 0.42017195
000310 d6 fc f9 3c ba 5c 98 3e 19 43 17 3f 94 e1 50 be
       0.03051607 0.29758245 0.5908676 -0.20398551
000320 3f 28 a8 3f a1 69 d7 bb 75 4d 80 3d 9a a1 a0 3f
       1.3137282 -0.0065738712 0.06264774 1.2549317
000330 ce 72 7b 3d f1 dd 91 3f 89 ae 80 bd 56 1f 17 3e
       0.061388783 1.1395856 -0.0628329 0.14758047
000340 8a cc 93 3d 81 9b 24 3f f2 4e c4 3d 39 56 c7 bd
       0.07216747 0.6429978 0.0958537 -0.097332425
000350 fd 33 14 3f 6b c5 dd 3d 2e 31 18 3e 06 57 2e 3e
       0.5789183 0.1082867 0.1486251 0.17025384
000360 0b 69 d0 3d d0 3d 0b 3f 11 ef 4e bc 10 72 a5 3e
       0.10176285 0.54391193 -0.01263024 0.32313585
000370 00 42 f0 3b 31 bd ac 3d f6 8d 58 3e 47 2c a9 3f
       0.0073320866 0.08434523 0.21147904 1.3216637
000380 7f 09 95 3f fb fe b1 ba 8c 93 69 3c e1 c3 ad ba
       1.1643523 -0.0013580018 0.014256369 -0.0013257229
000390 1c 92 15 3e 7f 97 81 3f 63 9d 57 3d 57 27 8c 3e
       0.14606518 1.0124358 0.05264033 0.27373764
0003a0 ab 26 0c 3e 11 42 da bd c2 43 74 3f 34 f6 b2 3d
       0.13686626 -0.106571324 0.9541589 0.08738366
0003b0 af b7 3a 3e d2 69 b4 3e c3 70 f8 3d ca 90 38 3d
       0.18234132 0.35236984 0.121308826 0.045059957
0003c0 76 8d 2d 3e 4c fa 99 3f ff 1c 62 3e e2 ad 60 3d
       0.16948494 1.202951 0.22081374 0.054853328
0003d0 5a ae 7b 3d 5a 75 95 3c 95 89 e1 3d 87 b3 b4 3b
       0.06144557 0.018244434 0.1101257 0.0055145654
0003e0 4f 7b ed bc 7b 96 b1 bc 36 6e fc 3e 01 f7 82 3d
       -0.028989462 -0.0216782 0.49302834 0.063947685
0003f0 e2 b4 09 3e 04 57 b4 3d 95 36 5e 3e 28 cb 0a 3e
       0.13447908 0.088056594 0.21700509 0.1355406

encoder.bias_hh_l0 f4 [256]
000000 1d 0e 6f 3d a9 01 2d 3e c5 ab 92 bd 83 c2 fc 3d
       0.05836307 0.16895165 -0.07161669 0.12341788
000010 db af 81 bd 97 84 b8 bd d2 a4 9c 3d 71 a7 12 be
       -0.0633237 -0.090096645 0.076486245 -0.14321686
000020 0d c1 aa 3f 8a ad 8c 3d 2a 03 8d bd 51 ac 9a 3f
       1.3340164 0.068690374 -0.06885369 1.2083837
000030 cb 01 6e be 94 2a a1 3f 0d 8c a3 bd 2a a9 36 bd
       -0.23242871 1.2591119 -0.07985697 -0.04459492
000040 ba 31 d5 bd 18 5f 2a 3f 02 86 40 3c 35 79 35 3d
       -0.10409875 0.6655135 0.0117507 0.044305045
000050 4f 21 85 3c a9 3f 38 be 50 de 3d 3f c1 3b 34 3d
       0.016251234 -0.17993034 0.74167347 0.0440023
000060 28 1d 10 be 65 8b 83 3f df 1b db bc aa c5 69 ba
       -0.14073622 1.0276915 -0.026746688 -0.0008917699
000070 d8 09 81 bc ac b7 0b 3d 19 f7 f5 3d a7 da b8 3f
       -0.015751764 0.03411071 0.12010021 1.4441727
000080 76 e2 c9 3c 56 62 bb bb ee b9 80 bd 61 12 5c 3d
       0.024644118 -0.0057185097 -0.06285463 0.053728465
000090 cf 33 9f bd 64 ae a8 3f c2 4f 8a bd 54 f1 8f 3e
       -0.077735536 1.317822 -0.06753494 0.28113806
0000a0 2c bf 9d 3d ca cc 27 3d 3d 12 83 bd 33 f7 eb 3d
       0.07702479 0.040966786 -0.06399963 0.11521759
0000b0 c9 b6 8f 3e 6d 81 a2 3d 6f ee 8e 3d 2a 73 f5 bb
       0.28069142 0.07934842 0.06979071 -0.0074905353
0000c0 d7 47 13 be 49 bf 0e 3f 27 84 6d 3d 6a 95 19 3d
       -0.14382873 0.5576063 0.05798736 0.037496008
0000d0 9a 4d fd bc ea ec 23 3f ae bd 8e bd b8 c7 8a bd
       -0.030920792 0.6403338 -0.06969772 -0.067763746
0000e0 a6 49 9b 3c 2e 93 f8 3e 7c c9 a3 3e e2 26 ca bd
       0.018956017 0.4854979 0.31989658 -0.098706976
0000f0 2e eb a9 3e f6 51 d8 3d 94 65 f6 3d 8c 2d a3 3d
       0.3318724 0.10562508 0.12031093 0.07967672
000100 59 3c ae 3c 4f 5c 89 bd 87 a9 76 3b 64 e1 63 3d
       0.02126901 -0.067070596 0.0037637667 0.05563487
000110 54 5a 77 bd d0 dd 8c bd f9 54 a5 bd d3 bb b8 3d
       -0.060388878 -0.06878245 -0.08072848 0.090201996
000120 ce 0d 06 3e fd 05 f0 bd af fb 13 3c 75 82 24 3e
       0.13091204 -0.11719892 0.009032174 0.1606539
000130 1e 8f 6d 3e 2f 3e d1 3e 3e 0e 04 be f2 59 22 bd
       0.23199126 0.40867755 -0.12896058 -0.03963656
000140 f0 7c 00 be 3b 52 3e bd f7 3f ae bc 32 a9 9a bd
       -0.1254766 -0.04646514 -0.021270735 -0.07551803
000150 6c 24 96 bd e4 f1 3b 3e 89 50 70 39 2c 28 2d 3d
       -0.07331166 0.18353993 0.00022918185 0.04227464
000160 46 bf 58 3e 59 e9 82 3d a4 4b ba 3d 90 ab 91 bc
       0.21166715 0.06392164 0.090964586 -0.017782003
000170 a5 71 a2 3d ac 16 43 3e be c0 61 3c e7 65 92 b9
       0.07931832 0.19051617 0.0137788635 -0.00027923213
000180 5e c1 09 bd 0b d3 ca bc f4 77 35 bd 17 71 1d bd
       -0.033631675 -0.024758836 -0.04430385 -0.03843793
000190 c7 5c 15 3b e2 29 d1 3c 72 c5 e2 3c e1 ac 74 bd
       0.0022790895 0.025532667 0.02768204 -0.059735183
0001a0 ed aa c7 bd 5d 90 09 be 68 f2 62 3c 9b 52 1c be
       -0.097493984 -0.13433976 0.0138517395 -0.15265886
0001b0 7f 69 23 3d 19 5f 60 3d 25 41 e8 3d 14 d4 c5 3d
       0.03989553 0.054778192 0.1134055 0.09659591
0001c0 ce 92 5f bd 22 20 a7 3d 99 39 cc bc 24 b9 88 bc
       -0.054583363 0.08160426 -0.024929808 -0.016689844
0001d0 d2 7c ff bd 65 23 3a 3d 12 51 f8 bd 83 f0 2a 3e
       -0.124749795 0.04544391 -0.12124838 0.1669331
0001e0 7b 19 f1 3d ee 4c 9c 3d ec 58 3b be b1 61 da 3d
       0.11772438 0.07631861 -0.1829564 0.106631644
0001f0 94 c2 09 bc ac 67 21 3e 76 bb a6 3d 97 d8 11 3e
       -0.008408207 0.15762204 0.08141224 0.14242779
000200 f1 36 db 3e 6a 43 fb 3d 51 2a 37 3f 0b 76 33 bf
       0.42815354 0.122687176 0.71548945 -0.70101994
000210 fc 52 36 bd a1 c7 ad bc 95 05 a7 3d 89 bc 19 bf
       -0.044512734 -0.021213355 0.081553616 -0.60053307
000220 79 3e 21 3f 51 99 f8 3d b5 df 3f 3f 9d 7e 37 bf
       0.6298595 0.12138618 0.74950725 -0.7167757
000230 1a a8 63 bd 02 5b 1f bf 11 0d 37 bc d8 a2 0f be
       -0.055580236 -0.6224824 -0.011172549 -0.14026964
000240 ce 4b ef 3d ca 38 79 bf 23 7d fc bb ad 8a e3 bd
       0.116843805 -0.9735228 -0.007705347 -0.11110435
000250 b1 45 2a bf 71 5b 92 bd 35 c3 ac bd 6a d1 5a 3d
       -0.6651259 -0.07146347 -0.0843567 0.05342237
000260 71 32 a0 bd 2b 4e 1d be 61 ec f7 bd 05 4e b5 3d
       -0.07822121 -0.1536185 -0.121056326 0.08852772
000270 05 b5 0b 3d bb f8 0b 3f de 84 d0 bd fb bd 11 3f
       0.03410818 0.5467641 -0.101815924 0.5693051
000280 59 4c 4b 3e 3b ec df 3d 9a c8 a2 bd a9 2f 77 be
       0.19853343 0.10933729 -0.07948418 -0.24139275
000290 14 fd 0f be 1d 6e 35 bf c5 76 47 bf 92 74 8c be
       -0.14061385 -0.70871145 -0.779156 -0.27432686
0002a0 b7 e0 80 3c 49 28 39 bd c0 6a f1 bd 9a 49 cd bd
       0.015732152 -0.045204435 -0.11787939 -0.10023804
0002b0 66 2f 8d bd 48 50 ab 3c 16 91 85 3d c6 73 3c 3d
       -0.06893806 0.020912305 0.065218136 0.046008848
0002c0 6f b8 ff 3e e5 b6 13 bf 18 ad 06 be 18 ed 1d 3f
       0.499454 -0.5770095 -0.13151968 0.616899
0002d0 15 7c 03 bd 47 00 1e be 56 cc 25 bd f1 3b 5f be
       -0.032100756 -0.15429793 -0.040478073 -0.2180021
0002e0 fc e7 8d 3d 3c b2 fe bd 3a 87 26 be c8 d1 37 be
       0.06929013 -0.12436339 -0.16262522 -0.17951119
0002f0 a7 7e 2e 3f 60 fd 16 3d c4 bc ff 3d 54 dd e7 3d
       0.68162006 0.03686273 0.12487176 0.11321512
000300 c7 f6 ea 3e 74 0b 69 3d f8 d8 ed 3e 8c a9 9a 3e
       0.458914 0.05689569 0.46454597 0.3020748
000310 c9 95 8c 3e 10 89 99 3d bf 5d 22 3f 88 cd b8 bd
       0.27458027 0.07496846 0.63424295 -0.09023577
000320 d8 8a 8e 3f 46 39 6d 3d f6 27 fd bc fd 96 9f 3f
       1.1136122 0.05791595 -0.030902844 1.2467953
000330 c5 7f 62 3e fd 22 9b 3f 39 74 33 bd b9 5d aa 3d
       0.22119053 1.2120053 -0.04381201 0.083186574
000340 33 23 04 bd e4 1e 2e 3f ef 9d 06 3e 4d 65 8c bd
       -0.03226013 0.68015885 0.13146184 -0.06855259
000350 9e 84 00 3f 71 4d ff 3c f4 be 4b 3e 4a 5d aa 3d
       0.5020236 0.031164857 0.19897062 0.08318575
000360 6f 00 fd 3c ab 66 a2 3e a9 ab 80 3d e8 20 b3 3e
       0.030883996 0.31718954 0.062827416 0.34986043
000370 1a 3e d4 bd dd 89 a8 bd 65 1c 00 3e 33 21 91 3f
       -0.103634074 -0.0822942 0.12510832 1.1338257
000380 62 f8 8f 3f 29 7b f7 3d 3a 3a 6c bd 5b 87 bc bc
       1.1247675 0.12084038 -0.057672717 -0.023013761
000390 bc 5c 99 3e aa 85 96 3f 95 49 49 bd 3e 0c 99 3e
       0.29953563 1.1759541 -0.04914244 0.29892153
0003a0 2d 2f af bd 4d 01 c1 bd e7 70 6f 3f 6e cc 35 3e
       -0.0855392 -0.09424076 0.9353165 0.17753765
0003b0 d5 3b 9c bb 24 83 44 3e 2b b5 a2 3d fc 44 7e 3c
       -0.0047678747 0.19190651 0.07944711 0.015519377
0003c0 ac 8f c5 3e 0d 1f 95 3f d0 6e 7b 3e 93 c3 c2 3d
       0.38586175 1.1650101 0.2455399 0.09509959
0003d0 30 5d 3d bd 8f 61 00 bd 0d 5c d6 3d 60 d2 0a 3e
       -0.04623145 -0.03134304 0.10466776 0.13556814
0003e0 03 e8 bf bc a2 ca 96 3d 5d 36 a4 3e f7 ba 39 be
       -0.023426061 0.07362868 0.32072726 -0.18137728
0003f0 a2 dc 1e 3e 1b f3 31 3e e5 81 50 3e 7d 13 00 3e
       0.15513852 0.17377894 0.20362051 0.12507434

latent.weight_ih_l0 f4 [128, 64]
000000 3a ac 1f be a3 9c e1 bd 86 a2 1f 3e 47 96 67 be
       -0.15593043 -0.11016204 0.15589342 -0.2261592
000010 ed 8d 69 3c 58 c8 1c 3e 34 8b 55 be 45 b8 6a be
       0.014255029 0.153108 -0.20853883 -0.22921856
000020 b9 d0 85 3e 0e 46 e4 3c 41 48 63 3e 9c 56 ab be
       0.26135805 0.027865436 0.22195531 -0.33464515
000030 e1 d1 82 3e 83 60 a7 be d5 1c 8c 3d 1b b7 b4 bd
       0.2555075 -0.3269082 0.06841437 -0.08823987
000040 cd 46 38 be 94 13 ff bc de 24 92 3e af 69 bc 3d
       -0.17995758 -0.031137265 0.28543752 0.09199845
000050 d5 12 dc 3c 26 68 97 3e 82 68 9a 3c 3c 68 7f 3e
       0.026864449 0.29571646 0.018848661 0.24942106
000060 44 5c e2 3e ed 0d af 3c 32 67 8a bd 70 4e d5 3d
       0.44211018 0.021368945 -0.06757964 0.104153514
000070 43 d5 22 3e 77 ee 77 3e cb 8b 9a 3e 33 0e 09 3e
       0.15901665 0.24212061 0.3018478 0.13384323
000080 65 96 a8 bc e1 82 33 bd f7 af 4a be 63 72 6d be
       -0.020579526 -0.043825988 -0.19793688 -0.23188166
000090 90 33 42 be 54 30 3c be 94 ce 8d bc 75 37 69 be
       -0.18964982 -0.1837781 -0.017310418 -0.22775061
0000a0 4f 87 a5 3e 93 05 21 bf ce 7e ac bd 5d 63 8d bd
       0.32329795 -0.6289913 -0.084226236 -0.06903718
0000b0 eb f3 f7 be 2f b2 b2 be ef 4a 41 be 1e c9 a5 3d
       -0.48428282 -0.34901568 -0.18876241 0.08095001
0000c0 8f 73 e7 3c 01 aa 79 be 2d 86 cc bd 11 0f 85 3e
       0.028253345 -0.24381258 -0.099865295 0.25988057
0000d0 7a f5 94 be 75 f3 6b be bb c2 5d be db 64 38 3d
       -0.29093534 -0.2304209 -0.21656315 0.04501806
0000e0 f7 9e 89 3e 9a 19 69 be 2f 68 50 be f6 1b 3a bb
       0.26879093 -0.22763672 -0.20352243 -0.0028398014
0000f0 82 ba 85 3d 8b e3 af be 2c fc a1 be 98 a8 e2 3e
       0.06529714 -0.3435329 -0.31637704 0.44269252
000100 d9 95 73 bd 1e 8e 93 3d 3b ff ab 3e d0 e4 24 3d
       -0.059469078 0.07204841 0.33593163 0.040257275
000110 87 13 98 be 34 e1 0b bf 26 cb 09 be e4 42 8c be
       -0.29702398 -0.5464051 -0.13456401 -0.27394783
000120 d9 a5 80 3e 60 aa 39 3d 15 2b a1 3d 1b a1 5f be
       0.25126532 0.045328498 0.07869545 -0.218388
000130 5d de fd 3d e3 9c 33 be 58 ab 85 bc 8d 0b 81 be
       0.12395928 -0.17540316 -0.016317055 -0.25204125
000140 0d 58 21 be 39 23 eb bd 62 95 a3 3e 79 69 49 3e
       -0.15756245 -0.114813276 0.31949908 0.19669141
000150 60 72 ee bd f1 7e b9 3e 39 02 cd 3b 4c d1 89 3e
       -0.11642909 0.3622966 0.0062563685 0.26917493
000160 60 56 9d 3e 22 c7 9a bd 55 4e df 3d 93 bf 1a bf
       0.3072996 -0.07557513 0.109036125 -0.6044857
000170 18 01 1c bd c1 5a 3d 3d 07 d5 89 3e 8a e3 16 3e
       -0.03808698 0.046229128 0.2692034 0.14735237
000180 1b e2 d0 bd ff cd 86 bd 11 48 94 be 4a 6d b1 bd
       -0.10199376 -0.065822594 -0.28961232 -0.08663423
000190 37 78 52 be 8f f9 28 be d5 2f 84 bd fc 3c 01 be
       -0.20553671 -0.16501449 -0.06454436 -0.1262092
0001a0 4b c9 3c 3e 62 b6 23 bf 6b 19 bd bd 9b 27 6e be
       0.18436162 -0.6395017 -0.09233364 -0.23257296
0001b0 3a b6 d7 be 18 d6 25 be 60 68 8f 3d 0b a1 1a 3d
       -0.42131215 -0.16194952 0.0700233 0.03775124
0001c0 2f 55 09 3d 55 3c 4b be 18 77 74 be e7 46 12 be
       0.033528503 -0.19847234 -0.23873556 -0.1428486
0001d0 67 ab df bd 0a 6d 06 be a0 41 40 be f9 e9 0a 3c
       -0.10921364 -0.13127533 -0.18775034 0.008478635
0001e0 aa 46 fd bd 20 35 d3 bd b5 b8 86 bd 2c 43 18 be
       -0.12366994 -0.10312867 -0.06578199 -0.14869374
0001f0 ae d5 13 3d ff dd 07 be 6b 25 58 bd 7f 7b b5 3d
       0.036092453 -0.13268279 -0.05277006 0.08861446
000200 00 ae b0 3b 27 f2 45 3e 5a 61 e1 bd ce 80 16 3d
       0.005391836 0.19330655 -0.110048965 0.03674393
000210 a9 bc 0e bf ac 97 89 be e4 79 0a bf 1d b6 a8 be
       -0.5575662 -0.2687353 -0.5409224 -0.3295144
000220 97 fa 8d 3e a8 cd b2 3c 2d 48 1f 3e 46 c6 8a 3c
       0.27730247 0.02182658 0.15554877 0.016940247
000230 ec ca 9d 3e e4 be e3 bd ba f5 a7 be fa d9 13 bd
       0.3081888 -0.11120394 -0.32804662 -0.03609655
000240 5f 25 17 be 7a 8d d4 bc 53 13 b5 3e 14 3d d7 3d
       -0.1476035 -0.025946368 0.35366306 0.105096966
000250 69 50 bf bd 68 d5 d2 3b 30 af d4 3c de 63 10 3e
       -0.09341509 0.0064341314 0.025962442 0.14100596
000260 4e 68 78 3e 87 d7 2e be 7e 72 c6 3d 5c 2b fa be
       0.24258539 -0.17074405 0.096898064 -0.48861206
000270 27 96 6a 3e d1 6d bb 3d fb c7 90 3e 14 11 7d 3e
       0.22908841 0.09151805 0.28277573 0.24713546
000280 61 53 08 3f 79 3f 94 be f9 87 d0 3c bd 62 97 be
       0.53252226 -0.28954676 0.025455462 -0.2956752
000290 9d 91 1b be bf de 7c be 39 b4 7a 3c 78 3c b7 3c
       -0.15192266 -0.24694346 0.0153017575 0.022367701
0002a0 ef 52 f3 bd b3 81 14 3e 53 e3 1d be 3b 2f 3d 3d
       -0.11881053 0.14502601 -0.15418749 0.04618762
0002b0 7e 09 3d 3e 26 92 ea bd 44 aa 95 ba 98 79 e1 3d
       0.18460652 -0.11453657 -0.0011418541 0.1100952
0002c0 57 c7 9f bc 27 15 7f be 94 1f d5 38 4f 96 5b 3b
       -0.019504232 -0.24910413 0.00010162513 0.003350634
0002d0 76 18 41 3d e1 cc bf bd 03 aa f5 bd 55 89 94 bc
       0.04714247 -0.093652494 -0.11995318 -0.018131891
0002e0 05 b0 3d be 39 b3 61 be f8 d0 a1 be 5b c8 c4 be
       -0.18524177 -0.22041024 -0.31604743 -0.3843411
0002f0 96 7a 9b 3e eb 8f 35 3d 54 45 0b be d0 3c 24 3e
       0.30366963 0.044326704 -0.13600665 0.16038823
000300 bc fa 71 be c9 84 ab bb 24 48 6d 3e ea 7c cc bd
       -0.23630804 -0.005234335 0.2317205 -0.09984763
000310 1b 40 03 bc 96 86 21 be 30 8f 2c bc ea 13 2d bc
       -0.008010889 -0.15773997 -0.010532185 -0.01056383
000320 f5 39 70 3e eb 81 eb 3d 3e ad 47 3c a3 64 8c be
       0.23459609 0.11499389 0.0121873 -0.2742053
000330 8a a2 96 3e 7f 6b 9a bd c8 2b a2 bd 10 39 12 be
       0.29420882 -0.075400345 -0.07918507 -0.1427958
000340 09 41 cb bd c7 84 12 bd 0e 40 30 bd 3d 39 a4 bd
       -0.09924514 -0.035771158 -0.043029837 -0.0801873
000350 55 c5 98 be 84 1c 00 3e a2 c3 93 3d be 42 76 3b
       -0.29838052 0.12510878 0.072150484 0.0037576403
000360 22 d5 b5 3e a7 ce 07 be 32 00 96 3e 85 96 c8 3d
       0.3551417 -0.13262425 0.29297024 0.09794334
000370 45 d2 e4 3c 03 b0 1a 3e ef 02 f7 3c d5 0e 6a 3e
       0.027932296 0.15106206 0.030152766 0.2285722
000380 3c c3 7b 3e 04 c1 c2 bd 87 17 19 be 27 3a 56 be
       0.24586195 -0.09509471 -0.14950381 -0.20920621
000390 0b 76 97 be 71 27 85 3c 10 63 95 bd 6c af 87 3a
       -0.29582247 0.016254159 -0.07294285 0.0010351962
0003a0 c7 c0 1b 3f 94 f0 fa bd 79 ef ee bd e0 68 3b bd
       0.6084103 -0.12252918 -0.116667695 -0.045754313
0003b0 39 08 44 be ab 33 12 bf ac a4 ee bc 4f 8e 38 3e
       -0.19143762 -0.5711009 -0.029131256 0.18023036
0003c0 e2 ce ae bb 4b 46 20 be 50 ed 38 be 3b 0a ea 3d
       -0.005334721 -0.15651815 -0.18059278 0.114277326
0003d0 63 98 fe bc ef a3 7e be bb 78 ed bd 5d 88 d9 bd
       -0.031078523 -0.24867223 -0.11595293 -0.10621712
0003e0 7e c7 e8 bd fd 5c 3b 3d e7 58 69 be 96 ce 1f be
       -0.11366175 0.045742977 -0.2278782 -0.1560615
0003f0 f1 36 93 3d 03 b7 ec bd a4 90 85 bd 02 5d 6d 3e
       0.071882136 -0.11558344 -0.06521729 0.23180011

latent.weight_hh_l0 f4 [128, 32]
000000 d1 fc 1e 3f f4 9a 20 be 90 0a b4 3e 60 01 ae be
       0.6210452 -0.1568411 0.3516431 -0.33985424
000010 1f a7 44 3d 52 da bf 3d 9b 5f de 3d 33 62 7d 3e
       0.04801094 0.09367813 0.10858079 0.24744491
000020 a6 cd 36 bd 73 f3 cc 3d 7b 22 74 be af 32 a0 3e
       -0.044629715 0.10007372 -0.23841278 0.3128867
000030 94 60 1b bd 06 38 24 be 83 b0 a6 3d 42 11 99 3d
       -0.0379339 -0.16036996 0.08139136 0.07473995
000040 28 d3 25 be 8d 3f 58 3e 0a 37 69 3e cb 1f b0 3e
       -0.16193831 0.21117993 0.22774902 0.34399256
000050 61 fc 87 bc 43 7c 9a bd a4 6f b3 be 47 0b 4f 3e
       -0.016599836 -0.07543232 -0.35046113 0.20219146
000060 ef 56 34 3e f7 a5 ff 3d de cd 9b bd 0e 81 85 be
       0.17611288 0.12482827 -0.076076254 -0.26075023
000070 77 01 16 3e 12 52 0e bd 3f d7 c1 3c ab f5 08 3f
       0.14648996 -0.034746237 0.023662208 0.5349986
000080 51 ca 2a be 07 90 f5 3d eb ef fd 3d 9c f0 3a bc
       -0.1667874 0.11990362 0.12399276 -0.011409905
000090 d8 a5 09 3e 60 4a b5 3e 6c 13 41 3e 7a 3f ca bd
       0.1344217 0.35408306 0.18855065 -0.098753884
0000a0 26 09 03 be 8d 2e 9f 3d 14 b5 69 be e1 66 bd 3c
       -0.12796459 0.07772551 -0.22822982 0.023120346
0000b0 80 7e aa bc e2 a5 2e bc 75 20 80 3c 4d b5 e7 3d
       -0.020812273 -0.010659667 0.015640477 0.11313877
0000c0 a5 98 88 3e 69 6d 6f bc 4f f6 3b be db c5 10 bc
       0.2667896 -0.014613488 -0.18355678 -0.008836235
0000d0 49 8c 58 3e 7e 8b 8b 3e d3 c2 19 3e 0f 6e fb bd
       0.21147265 0.27254862 0.15015726 -0.122768514
0000e0 40 2a a5 be b4 a4 a2 3d a6 4c 1a be 6a 0e 74 3d
       -0.32258797 0.07941571 -0.15068302 0.05958406
0000f0 26 48 43 3d 57 3e 0e be c0 4d 0e bd df 9d d6 bd
       0.047676228 -0.13890968 -0.034742117 -0.1047933
000100 53 0b 75 be d3 48 84 3e 68 b2 d3 bd 48 ed 11 bf
       -0.23930101 0.2583681 -0.10336763 -0.5700269
000110 3c 91 8f be bb 98 10 bf 04 1c 15 3f 28 fe 58 3e
       -0.28040493 -0.5648305 0.58245873 0.21190703
000120 3c cd 46 be 92 65 e8 bd 92 d2 10 bf c1 dc 95 3c
       -0.19414228 -0.11347498 -0.56571305 0.01829374
000130 03 d1 a0 bd ce 06 1a be 7d f4 84 bd ac c2 ab bc
       -0.07852366 -0.15041658 -0.06491945 -0.02096685
000140 05 d9 42 bd ee 43 ca 3e 68 71 22 be 30 b4 63 be
       -0.047570247 0.3950495 -0.15863574 -0.22236705
000150 e8 b4 fc bd 56 82 85 bd 9c 7a 61 bb d3 85 87 be
       -0.12339193 -0.06519 -0.0034405356 -0.26469287
000160 11 c3 4d 3d 24 f0 67 be 57 2f 0b bf 4e 68 12 3e
       0.050234858 -0.226502 -0.5436911 0.14297602
000170 34 1e 88 bb ac 1d 0e 3f 6f d9 49 be be c2 94 3d
       -0.004153991 0.55514026 -0.1971185 0.072637066
000180 09 15 a7 3d 15 19 3e 3e 03 ac db be 39 11 b1 bd
       0.08158309 0.18564256 -0.42904672 -0.08645863
000190 c4 7d 2e be 1f 2a 61 be 63 83 da 3c 5d 79 6c bd
       -0.17040163 -0.21988724 0.026673978 -0.05773293
0001a0 1b b3 43 3e fc 03 dd bd ba b1 ae be 5e 8c bc bd
       0.19111292 -0.107917756 -0.3411997 -0.092064604
0001b0 f8 4d 7a be 5b bf 19 be d4 f8 ea 3c dc 55 15 3e
       -0.24443805 -0.15014403 0.028683104 0.14583534
0001c0 64 03 1f bd 91 77 f1 3e 82 80 3e 3b a6 37 90 3c
       -0.038821593 0.47161534 0.0029068296 0.01760466
0001d0 3c c9 48 ba de 03 2c be 5b 2b 47 3e 02 58 2b 3e
       -0.0007659381 -0.1679835 0.19450133 0.16732791
0001e0 fd cd 24 be bc 53 27 3e 8b fb b7 bc 69 e9 44 be
       -0.16094203 0.16340536 -0.022458812 -0.19229664
0001f0 06 f6 28 be 21 d7 b1 3d 6e e0 8b 3e 4a 50 b4 bd
       -0.165001 0.08683611 0.27319664 -0.088043764
000200 13 06 00 bc ae 25 ff 3d 4f e9 16 3e 87 aa 41 3e
       -0.007813948 0.12458359 0.14737438 0.18912707
000210 5d db 01 3e d7 35 d7 3d b6 0f 28 be 34 24 66 3e
       0.12681337 0.10508316 -0.16412243 0.22474748
000220 ca a9 a4 bd ad c9 33 be 6b 24 c6 bd da 82 dd 3c
       -0.08040197 -0.17557402 -0.09674915 0.027039934
000230 e6 23 62 be 0c 47 b2 bd eb 51 01 be d7 69 88 be
       -0.22084007 -0.08704957 -0.12628905 -0.2664325
000240 b3 fb d2 3d d6 70 37 3e 97 a3 24 be c1 30 97 be
       0.10301914 0.17914137 -0.1607803 -0.29529384
000250 a3 4a 5c bd 52 32 8c 3e 23 fe 60 3d 96 0b 75 be
       -0.053782117 0.2738214 0.054929864 -0.23930201
000260 b7 af 68 bd a8 0f 18 be f5 68 2a be 5d 71 2a 3c
       -0.0568082 -0.14849722 -0.166416 0.0104030045
000270 b6 46 0d be 39 de 4b 3e 6f e5 0b 3e 1e b3 1a bb
       -0.13796505 0.1990899 0.1366174 -0.0023605297
000280 14 4b 55 bd e0 74 01 3e 9b fc 85 be 1d 68 54 be
       -0.052073553 0.1264224 -0.26169285 -0.20742841
000290 1a be d8 be ac 2b 02 bf f9 79 ae 3e 0f c1 7c 3e
       -0.42332536 -0.5084789 0.34077433 0.24683021
0002a0 c7 e1 c7 bc d3 1d ae bd d4 6f 8e bd d5 65 17 3d
       -0.024399651 -0.08501782 -0.06954923 0.03696235
0002b0 f3 a1 99 bd 33 a2 3a bd 47 23 73 3d f4 67 31 3d
       -0.075015925 -0.04556484 0.059359815 0.043312028
0002c0 76 49 49 3e ef 1c 12 3b 3d 88 17 bd 29 6a 36 be
       0.1965693 0.0022295078 -0.03699516 -0.17813934
0002d0 29 af c3 3b 00 26 1f 3d 97 53 13 3d 3d 2f a6 3d
       0.0059718085 0.0388546 0.03596839 0.08114479
0002e0 c6 cd 41 3d cd 14 14 bd d6 56 3a be 52 85 3a bd
       0.04731538 -0.03615265 -0.18197188 -0.0455373
0002f0 a6 e9 a5 be bd ce de bd e8 bc 67 3e 5d 4a 8e 3e
       -0.32404822 -0.10879276 0.22630656 0.2779111
000300 a7 f5 5d 3e 43 ef 26 3e 21 be b3 3c e6 1a e6 bd
       0.2167574 0.16302209 0.021941246 -0.11235599
000310 03 78 e4 bd 01 53 a2 be 5a b9 ec 3e f7 35 86 3e
       -0.11155703 -0.31703952 0.46235162 0.26213047
000320 a9 ee a2 3d 8f f6 d1 3d e5 e7 58 be c0 0c 5a 3e
       0.07955677 0.102521054 -0.2118221 0.21293926
000330 86 ad 8b 3e fc 79 50 bc d6 34 4e 3b 2e 8d 09 3c
       0.27280825 -0.012724396 0.0031464598 0.008395476
000340 d8 6e 81 be ed bf bd 3e 10 a6 f6 3d d4 6d 74 3e
       -0.2527988 0.3706049 0.12043393 0.23870021
000350 ad 05 8e be 7b 6b 33 be c0 7b ca bd b7 0d 5e 3e
       -0.27738705 -0.1752147 -0.09886885 0.2168492
000360 64 11 74 3e 1c 35 4e 3e ef 56 7e 3d ba 7d 84 bd
       0.23834759 0.20137447 0.062094625 -0.06469293
000370 bf 15 8d 3e 37 32 68 3d 3b 93 06 3d 1a 6c ba bd
       0.27555653 0.056688514 0.032855254 -0.0910265
000380 b7 c8 ce 3c af 57 3f 3e 56 6c f9 3d 8b 7f d1 3c
       0.025242193 0.18685792 0.121788666 0.025573513
000390 cd 97 36 3e 37 df af be 94 d7 bb 3d 1a f2 74 3c
       0.17831345 -0.34349987 0.09171978 0.0149503
0003a0 56 c8 02 3f a8 2a 5a 3e 63 be ea be 3f bb 9b bd
       0.5108694 0.21305335 -0.4584838 -0.07604074
0003b0 2e 8a e8 bd 43 99 f9 3c 63 bc ab 3c fe 84 81 3d
       -0.11354481 0.030468589 0.020963853 0.06324194
0003c0 21 65 10 bc b3 0b ac 3e 78 cc cd bd c9 8e ef bd
       -0.0088131735 0.33602676 -0.10048765 -0.11697156
0003d0 d3 6e aa bd 75 82 88 bd 35 24 3e 3e 1f 03 9e bd
       -0.08321919 -0.06665508 0.185685 -0.07715439
0003e0 48 ec a6 bc 45 11 86 3d f5 a9 e4 3c 09 5f bc 3e
       -0.02037634 0.06546263 0.027913073 0.36791256
0003f0 9f 31 85 3e a0 13 43 3e a2 20 18 3e 30 6b 74 be
       0.2601442 0.19050455 0.14856198 -0.23869014

latent.bias_ih_l0 f4 [128]
000000 1f 2c c9 3c 3d e7 af bc 50 9f 17 3e 1b 9d 30 3e
       0.024557171 -0.021472568 0.14806867 0.17247431
000010 bb d6 43 bd 41 d7 53 3e 24 24 25 3e f9 71 18 3e
       -0.047812205 0.20687582 0.16127068 0.14887227
000020 46 53 56 3e bf 37 29 3e 62 53 e1 3c 63 9d 22 3b
       0.20930204 0.16525172 0.02750558 0.0024813048
000030 50 6e 48 3e 78 b1 bc bc 1f 0a 8d 3e b7 69 4b bc
       0.19573331 -0.023033842 0.27546784 -0.012415341
000040 05 a6 06 3e ab 17 55 3e f3 ae 65 bd 4c 48 45 3e
       0.13149269 0.2080981 -0.056075048 0.1926586
000050 68 53 ca 3d b0 e4 84 3c e6 37 d0 3d 3e e5 71 3e
       0.0987919 0.016222328 0.10166912 0.23622605
000060 78 58 59 3e 7b f7 0c 3e cb 2f 04 3f 3f 66 9f bd
       0.21225154 0.13766281 0.51635426 -0.07783174
000070 97 c4 ff 3d a3 dc a7 3e d2 be 61 3e 88 10 7d 3e
       0.124886684 0.3278552 0.22045448 0.24713337
000080 42 62 06 3d 12 7c 3b 3e 1c b1 a5 3d 6c 19 14 bd
       0.03280855 0.18309048 0.080904216 -0.036157057
000090 4a 73 0d bb 7a 47 fe 3d 43 68 e1 3c 12 ba 82 3e
       -0.002158361 0.12415977 0.027515536 0.25532585
0000a0 d4 4f fb bc a8 0a 12 be ed e0 ce bd 90 7a 44 bd
       -0.030677713 -0.14261878 -0.10101495 -0.047968447
0000b0 39 ed c5 bc 67 a4 d4 bd d4 ea c6 bd 1f 16 23 3e
       -0.024160968 -0.1038292 -0.09712759 0.15926407
0000c0 91 bf 6c 3a a9 61 55 3e ad 3a c1 bd 5b 4b b6 bd
       0.0009031231 0.20838036 -0.0943502 -0.08901092
0000d0 fa 1c 29 3d 0a 1e 14 bd 27 a3 d5 bd 95 3a 03 3c
       0.0412874 -0.03616146 -0.104315095 0.0080095725
0000e0 5e 0a bf ba 89 ca 8b 3d 6d 01 e3 bd 13 71 d1 bc
       -0.0014575233 0.0682574 -0.11084256 -0.025566613
0000f0 b5 c4 31 3e 66 57 87 3b 16 45 92 bd 89 2d b3 bd
       0.17360194 0.0041302918 -0.07142083 -0.087489195
000100 16 2a ea 3d f3 bb 92 bd ed c6 80 3d b6 26 47 bd
       0.114338085 -0.07164755 0.06287942 -0.048620902
000110 cd 58 29 3e 16 86 fc 3d 42 1e 51 bb 95 a7 e3 3d
       0.16537781 0.12330262 -0.0031908904 0.11115948
000120 cd d3 1f be 64 b3 5f bd c2 74 8d bd bd 93 84 3d
       -0.1560814 -0.05461444 -0.069070354 0.06473491
000130 fa 07 bb 3c bb 69 26 be 6c 17 d2 3c ea ef c3 bd
       0.022830952 -0.1625127 0.025645934 -0.09567244
000140 e7 84 9b 3d 19 9f f1 bd 56 f2 01 be 05 f2 a6 bc
       0.075937085 -0.117979236 -0.126901 -0.020379076
000150 53 24 c7 bc f6 a5 10 3e a5 fa 25 3c cd 1e 16 be
       -0.024309313 0.14125809 0.010130559 -0.14660187
000160 fc bc dc 3d 5f b3 73 3d 85 e1 3d 3e c6 ae 9f 3d
       0.107782334 0.059497233 0.1854306 0.07797007
000170 a4 65 ce 3c b5 93 29 3b 0b d8 2c be 1d 1d c4 bd
       0.02519495 0.0025875394 -0.16879289 -0.095758654
000180 8f f3 8a 3e fa ea 42 3e 3a 97 97 3e da 21 97 3e
       0.27138945 0.19034949 0.29607564 0.29518014
000190 47 14 f0 3c 04 87 c0 3d 86 eb 06 3e 35 3a be 3b
       0.029306544 0.09400752 0.13175783 0.0058052787
0001a0 58 c5 7f 3e 22 57 df 3d a1 1d 56 3d 33 bc 53 3e
       0.24977624 0.10905291 0.05227435 0.20677261
0001b0 20 b1 57 3e d9 77 ae 3e ad fa 67 3e 1a 12 d4 bd
       0.21063662 0.34075812 0.22654219 -0.10355015
0001c0 29 f7 34 3d 9a 6e 56 3e 93 ec 88 3d cd 23 db 3d
       0.044181023 0.20940629 0.06685748 0.10700188
0001d0 c5 93 29 3d 8f 60 5a 3e 0b eb ed 3d c8 5c 37 3e
       0.04140069 0.21325897 0.116170965 0.17906487
0001e0 4b 28 37 3e ab 50 a7 3e 1e e0 83 3e b5 e8 a5 3c
       0.17886464 0.32678732 0.25756925 0.020252565
0001f0 9a 93 17 3c da 44 8a 3d 74 87 5f 3d a2 fc 02 3e
       0.0092515 0.06751414 0.054572538 0.12791684

latent.bias_hh_l0 f4 [128]
000000 f1 de fb 3c 23 54 81 bd 5f ce 9c 3d a3 17 ba 3d
       0.030745955 -0.06314876 0.0765655 0.090865396
000010 ca dc eb bc 2f d4 df 3d 30 f0 1d 3d e0 cb 6c 3d
       -0.028791804 0.10929143 0.03855914 0.057811618
000020 3b 38 d8 3d a9 93 15 3e b4 82 b8 bc b6 9f c0 3b
       0.105576 0.14607109 -0.022523262 0.005878414
000030 77 de bd 3c 3d f3 70 3e 3a 54 06 bb 78 9c 11 be
       0.023177369 0.23530288 -0.002049698 -0.14219844
000040 47 6d 01 bd 2e 7d 63 bd a7 cd b9 3d fb d2 a3 3c
       -0.031598356 -0.055539303 0.09072428 0.019998064
000050 dd 2c 84 3e 85 93 5e 3e 71 52 e4 bd a6 81 51 3e
       0.25815478 0.21735962 -0.11148537 0.20459613
000060 d4 0b 41 3d ae 9a 94 3e e4 43 7a 3e ff 21 04 bc
       0.04713042 0.2902426 0.2443996 -0.008064746
000070 e8 b5 4b 3e 64 5a b9 3e 71 dc 44 3c d2 fe 26 3e
       0.1989361 0.36201775 0.012015448 0.16308144
000080 45 56 88 bd 31 7e be 3d e4 71 f0 3d cf 6f c4 3d
       -0.066570796 0.09301413 0.11740473 0.09591638
000090 a6 0c 4b 3e 7d e2 28 be 80 d3 ec 3c 71 8b 22 3e
       0.19829044 -0.16492648 0.028909445 0.15873505
0000a0 b3 a3 8e bd 4f 55 13 bd aa 8e 80 bd 23 22 f5 bd
       -0.06964817 -0.03597003 -0.06277211 -0.11969402
0000b0 fd 4f b5 3d 2e db 5a bd 3e 80 85 bd 5d 7b 8a bd
       0.08853147 -0.053431682 -0.06518601 -0.06761811
0000c0 f4 2a 58 bd a8 c0 a9 3d cd ae 5b be 9e e4 ca bd
       -0.05277534 0.082886994 -0.214534 -0.099068865
0000d0 c0 2d a8 3d 22 a3 54 bb ee 0c 1a 3e 67 44 ec bc
       0.08211851 -0.0032445868 0.15043995 -0.02884121
0000e0 d1 52 2c be 69 99 2f be 76 33 c5 3d 2b e5 50 3d
       -0.16828467 -0.17148365 0.09628956 0.0509998
0000f0 08 c8 1a 3d 15 90 28 3e c4 98 f2 bd 26 30 e4 bc
       0.03778842 0.16461213 -0.11845544 -0.02785499
000100 67 8e 08 be ad a3 36 bd 41 39 93 bd d4 9b 28 be
       -0.13335572 -0.044589687 -0.07188655 -0.16465694
000110 28 28 a2 3b 9b 1c 17 3e 38 a5 07 be 2e d2 9e 3d
       0.0049486347 0.14757006 -0.1324662 0.07754932
000120 8e a4 29 bd f6 a4 55 3d d7 49 69 bd 82 03 8f bd
       -0.041416697 0.052159272 -0.056955185 -0.06983091
000130 09 06 85 3d d4 d0 14 be 14 ec df 3d 09 d2 ba 3d
       0.06495292 -0.14532787 0.109337 0.09122092
000140 07 b6 b0 3d cd 89 8a 3d 3f 87 c3 3d b8 45 eb 3c
       0.08628469 0.06764565 0.095472805 0.028719768
000150 72 07 c6 bc 51 f4 d2 3d 03 27 43 3d be ed 86 bb
       -0.024173472 0.10300506 0.047644626 -0.0041176965
000160 25 bb 46 bd 07 25 0b 3e d1 37 cc bd d0 6f 39 be
       -0.04851832 0.13588344 -0.09971584 -0.1810906
000170 20 bc 0e 3d ce 04 43 bd 6e 92 00 bd 33 5b 4c 3d
       0.03484738 -0.047612004 -0.031389646 0.04989166
000180 71 19 e8 3d e1 16 c8 3d 0a cd fe 3e 2f cd fc 3d
       0.113329776 0.09769989 0.49765807 0.12343823
000190 c3 31 15 3e a3 db 49 3e ca db a9 3d 8a ea 64 3e
       0.14569764 0.19712691 0.082938746 0.22355095
0001a0 44 b5 84 3e a6 37 e9 3d e4 fe 86 3d cb 0e b3 3e
       0.25919545 0.11387567 0.06591585 0.34972224
0001b0 5c c3 63 3e ee c6 57 3d db d5 ae 3d 17 59 d5 bd
       0.22242492 0.05267995 0.085368834 -0.10417383
0001c0 08 fa 89 3d 52 47 d6 bb f5 86 18 3e e1 68 08 3e
       0.06737143 -0.0065392638 0.14895232 0.13321258
0001d0 90 78 1d bc b9 52 7b 3e f2 18 12 3e 23 ae cc 3e
       -0.009611264 0.24543275 0.14267328 0.39976606
0001e0 b6 b2 b1 3d 74 e3 79 3e f5 d8 94 3e 26 ea c3 bc
       0.086766645 0.24403173 0.29071775 -0.023915362
0001f0 6c 8e 55 3e 70 3d 7f 3e 83 0b 8a 3e 45 ec 7f 3e
       0.20855111 0.2492578 0.26961908 0.24992473
