saved_models/AD_autoencoder_ep8_loss1.6636.pth (torch, 257618 bytes, 14 tensors)

encoder.weight_ih_l0 f4 [256, 28]
00000000: 3ff2 c3bc 744b 443b 19f2 91ba 5aa2 aeba
00000010: a8bc 343b d230 ff39 207a 8c39 6f03 183a
00000020: b5e7 4139 d791 f5b7 a25d 1b39 4dff 9fb8
00000030: e441 77bb a548 5ebb 840e f43b 2994 9cb8
00000040: 326d 7d38 04e6 7039 b9fc c03c fea1 85ba
00000050: 7fb9 753c 98a5 ed38 1eb0 ce38 bc79 85bc
00000060: 0255 f63b b330 753c 2ef9 d835 87b1 2a3a
00000070: 222e 97bc 19a1 9bbb 3f5f a3ba 3b14 80bd
00000080: 187c 2f3b e7da 9cbb 3463 3cbb 08eb 6f3b
00000090: 9e93 9eba c580 8eba cf34 73ba ffdb b93c
000000a0: ec74 49bb 8e99 40bb 334c 2f3b 7b91 4aba
000000b0: 6ddc 00b9 0b3f a9b8 85ae 893c cc79 18bc
000000c0: 5fb7 9fbb ed83 883b 21c0 e7b9 47ad 3cbc
000000d0: 6fe9 153e 64c1 063c dd45 50bc f9ff 0dbb
000000e0: 2b5e 0d3b 3c0b 40b9 f2c4 ebb8 165c 8239
000000f0: ea2d c437 ba8b 04b8 5ac0 9238 8165 2838
00000100: 3500 8f38 e163 a5b6 53a1 7eb8 5c3c 0e38
00000110: cff3 5eb9 9cfa 2839 6b99 123a 2f3c dc38
00000120: 5007 74b9 7559 c338 5454 0bbb b345 ab38
00000130: 62dd 9339 0950 3437 f96c 0338 84e2 97ba
00000140: d718 7bba 3522 a53a d000 6bb8 5cb5 933c
00000150: a540 283d 0836 c2bb 2104 5fba 3f35 90ba
00000160: 9018 16ba 4e68 153a 9315 093a c326 5d39
00000170: 145f 15b9 be62 0139 1f29 0939 aa8b 2aba
00000180: c035 c5ba 3c18 973a c7f6 333b baeb c239
00000190: d7b8 24ba 25c1 7136 cbeb 26bd 07ab 183a
000001a0: ac87 8e3b e27e 6039 e65e a838 d3a6 10bc
000001b0: 4a3a be3a 15a1 093c 3a07 ba38 3d7d cfba
000001c0: 943d 7b3c 5cd3 d0ba 62ac 2d37 dafc 873a
000001d0: 92d2 77b8 5570 a3b9 9de6 0fba 355a 1db9
000001e0: 9f28 12ba d451 8239 0b01 4639 81d5 9339
000001f0: 5f95 efba e74b 68ba 3274 9d3b f609 69b9
00000200: f5a4 a439 b7f7 b4b9 4cf0 71bc 4464 be3a
00000210: 936e fdbb 035a dc39 87f1 27b9 87ab 2b3c
00000220: 2637 45b5 7d12 6b3c 2800 0ebb 44ce a9bd
00000230: a1b4 773a ae8d 373a fc66 5638 5db8 023a
00000240: 1056 d339 9477 5bb8 4af0 aa39 ab9e 4b39
00000250: 9526 2f37 f955 fd38 60f3 2039 91a6 8d38
00000260: 6a0b 5d39 bc67 0eb9 c7e2 1bba 2b4d acb8
00000270: a97a a838 fe45 79b8 3cea 80ba 25d3 ba37
00000280: b4ea 00ba cfb4 8037 1ae0 65b8 65ec a33a
00000290: f4bf c739 ecd8 84ba 8416 de38 5dc8 f1b8
000002a0: fb5a 863a b6a7 3d39 28d2 2839 1a88 d7b9
000002b0: d708 4939 ad68 1db9 4173 4fb8 91e7 8c38
000002c0: 5e78 47b7 0c19 b138 4a95 f4b8 98b0 3fb9
000002d0: c843 c038 748d 5cb9 4cdf 2339 a2f7 2439
000002e0: a44c 1439 3e83 1837 8222 76ba f917 7fb9
000002f0: 5380 b339 b0dc 3838 d479 60b7 d9d6 c1b7
00000300: de68 d3bb e2d9 d639 e0de 80b9 b325 0bb9
00000310: 8768 3abd 22f6 f43b 4400 d5bb 56d4 22bb
00000320: ee49 8e3a fe7b ad3a 82b4 05bb 556e 293b
00000330: 8478 043b 454d 0e3b 2a9b 0f3a b293 46bc
00000340: d7ec 15bb 404c 93bb 71e7 583c 1d6c 19ba
00000350: 876a bdba ffd0 8339 cba2 303d 222c 33bc
00000360: 1d21 ed3d ff73 fa3b 1a3b e739 dc2d 93bd
00000370: 06ec d93b 27a1 123d 4830 2b3b 1359 cf3c
00000380: a858 6bbc 5933 8fbe 6122 5dbe ff7d 3ebf
00000390: 5eb3 87bd bc9e f4bd 195a 543c a8ad 1b3d
000003a0: 7f5c 6abd 9315 643c efcb 79bd 8c86 edbe
000003b0: 160c f2bc c6c4 023e 130a 3a3e 5bb7 7dbc
000003c0: 7219 fa3c bd18 56bc 3872 7cbc 045a 4cbd
000003d0: eeb3 b53f 0d85 a53f f95c 103f 5349 8c3e
000003e0: cf49 353f 1b3d b43e 5b41 353e b627 a93f
000003f0: 54ce c7bb d4f7 ab39 bc05 2dba 436b 9b3b
-0.023919223 0.00299522 -0.0011134773 -0.0013323531 0.0027578268 0.00048673764 0.0002679387 0.00057988515
0.00018492232 -2.9274188e-05 0.00014816833 -7.629264e-05 -0.0037728483 -0.0033917811 0.0074480195 -7.466257e-05
6.0421597e-05 0.00022973871 0.023558008 -0.0010195372 0.014997839 0.00011331885 9.85565e-05 -0.016293399
0.007517458 0.014965224 1.6165775e-06 0.0006511439 -0.018454615 -0.004749429 -0.0012464299 -0.06253859
0.0026776846 -0.0047868374 -0.0028745653 0.0036608595 -0.0012098437 -0.0010872117 -0.00092775834 0.02268791
-0.0030739857 -0.00293884 0.00267483 -0.0007727367 -0.00012289146 -8.070291e-05 0.01680685 -0.009306382
-0.0048741545 0.0041661174 -0.000442029 -0.011515922 0.14639829 0.008224819 -0.012711969 -0.0021667464
0.002157102 -0.00018314732 -0.00011242357 0.00024864142 2.3386401e-05 -3.1601383e-05 6.997651e-05 4.0148854e-05
6.81881e-05 -4.9290106e-06 -6.0708564e-05 3.3911652e-05 -0.00021262396 0.00016115088 0.0005592319 0.000105016275
-0.00023272377 9.314987e-05 -0.002125998 8.166898e-05 0.00028202968 1.0747471e-05 3.1334323e-05 -0.0011587893
-0.00095785916 0.0012598695 -5.6029123e-05 0.018030815 0.041077275 -0.005926851 -0.000850739 -0.0011002197
-0.0005725706 0.00056994415 0.000522935 0.00021090642 -0.00014245167 0.00012339183 0.00013080657 -0.0006505797
-0.0015045926 0.0011527608 0.0027460323 0.00037178193 -0.0006283647 3.6024223e-06 -0.040752213 0.0005823825
0.0043496694 0.00021409572 8.0285405e-05 -0.0088288365 0.0014513221 0.008400221 8.870517e-05 -0.0015830171
0.015334506 -0.0015932131 1.035174e-05 0.0010375038 -5.9085498e-05 -0.00031173477 -0.0005489381 -0.00015006292
-0.0005575511 0.000248565 0.0001888314 0.00028197098 -0.0018278769 -0.0008861408 0.0048051113 -0.00022224322
0.0003140342 -0.00034516837 -0.014766764 0.0014525731 -0.0077341287 0.00042028734 -0.00016016337 0.010477907
-7.346847e-07 0.01434767 -0.0021667574 -0.08291295 0.0009449218 0.0007002008 5.1117488e-05 0.0004986579
0.00040309178 -5.2325035e-05 0.00032603956 0.00019418697 1.0439796e-05 0.00012079994 0.00015349453 6.754429e-05
0.00021080454 -0.0001358082 -0.0005946573 -8.215973e-05 8.0337115e-05 -5.943141e-05 -0.0009835432 2.227125e-05
-0.0004917786 1.5342985e-05 -5.4806565e-05 0.0012506364 0.00038099254 -0.0010135449 0.00010589979 -0.00011529096
0.0010250503 0.00018086922 0.00016100018 -0.000411094 0.00019172147 -0.00015011682 -4.9459984e-05 6.718853e-05
-1.18893495e-05 8.444683e-05 -0.00011662634 -0.00018280966 9.167899e-05 -0.0002103353 0.00015628076 0.00015732509
0.00014142931 9.090463e-06 -0.00093892973 -0.00024327626 0.0003423715 4.407455e-05 -1.3379806e-05 -2.310744e-05
-0.00645171 0.00040979596 -0.00024580117 -0.00013270117 -0.04550984 0.0074756304 -0.006500276 -0.00248458
0.0010855773 0.0013235805 -0.002040178 0.0025853117 0.0020213434 0.0021713537 0.00054781383 -0.012120174
-0.0022876763 -0.0044951737 0.013238774 -0.0005852597 -0.0014451303 0.0002514198 0.043124 -0.010935815
0.115785815 0.0076432223 0.00044103788 -0.07186481 0.0066504506 0.035798218 0.0026121307 0.025311029
-0.014364399 -0.27968863 -0.21595146 -0.74411005 -0.066260085 -0.11944339 0.012960934 0.03800741
-0.057217117 0.013921159 -0.0609855 -0.46391714 -0.029546779 0.12770376 0.18167906 -0.01548561
0.030529711 -0.0130674215 -0.015408091 -0.049890533 1.4195535 1.2931229 0.56391865 0.27399692
0.7081575 0.3520287 0.17700712 1.3215244 -0.0060975943 0.00032800308 -0.0006600281 0.004743011

encoder.weight_hh_l0 f4 [256, 64]
00000000: 03a9 533d 5743 64bd 890a b23d 1b75 e3bd
00000010: 4840 42bd e085 bc3d 2ff9 313d d6db 0cbc
00000020: c2d7 aa3d 0aed 043e 5573 c33d d1fc 26be
00000030: c91f 16bd f9e5 14be bb5c 743e 5786 59bd
00000040: e731 0e3e 5dc3 54be 8786 55bb 3498 8f3d
00000050: ad73 963d d471 db3c a956 803d 8129 bfbc
00000060: 70a8 34be 1d5d 8e3d 1b75 ddbd d6a3 963d
00000070: c2bc 813d 5a20 0f3c 3817 703d 55ad 0c3e
00000080: 9188 9f3d 5a8d 013e 658d abbb 4424 b23e
00000090: 47ef 84bc d3fd 93bd c25e adbd c8ca 7e3d
000000a0: 6562 45bd b02d 843d 5d96 1cbd e33c 843d
000000b0: b8d1 ce3d 304e a63d 2396 023d 6146 c13d
000000c0: 4354 783d b691 bfbd e4be b53c 22af 29bd
000000d0: 8227 fabc 4f79 fcbd 1652 b6bd d129 c9bd
000000e0: 3966 963d 1728 823d a23e 40bd 8cf8 0d3d
000000f0: 0990 f43c d86b aabd caee b73c 2315 dbbd
00000100: b155 b9be 7a26 8d3f 411f 923d e4b0 1a3e
00000110: abf4 9e3d c94a e2be 54e7 cf3f de5f 93bc
00000120: 63f6 e53d c1d7 f83e 8332 d23d 9c75 53be
00000130: 13b3 833e 9538 21be 40bf 1dbe 4190 2c3e
00000140: b3e4 30be 54e2 47be 846c 163f f56f a53c
00000150: 90a9 1d3c 51a3 23bf c2c0 c13f cfd0 aebd
00000160: 1279 f4bd 545b 4dbf 9911 853e 74fa 72be
00000170: c6c9 e73d 8562 5e3f 225b 733e 8cb5 043d
00000180: dff6 3d3d e85b 8ebd 9d74 7a3c c63b e2ba
00000190: 1119 92bd 7579 b0bc d481 7dbd 0df7 efbc
000001a0: fb5a 513f 3cc1 9d3d 033d 63be f7e2 36bf
000001b0: ed06 b6be 2abf 4c3f aa5a 873f 1e6c 653e
000001c0: 03a7 0d3e def3 89bc bffe fbbe b152 c13e
000001d0: 50ea a3bf 0ab0 1dbf 065a 833e cb67 95bd
000001e0: d782 aa3d c321 19bf 0fe4 63be 269e c3bd
000001f0: 87c3 163e 7209 febd 9dd1 47bc 4590 0d3d
00000200: de86 d23d d573 4a3d 90bf 1a3d e92f 933c
00000210: 87b1 983d 367d 1cbd ddf2 5c3e 3755 873c
00000220: eea7 dbbc 933d 053d ae19 bdbd 9650 d43a
00000230: 2206 89bd 2f5e 8c3d 698b f3bd a3bf be3c
00000240: de05 c53d 6a9e a83c 4b86 103e 615d 683c
00000250: 3dbf 8e3d 8438 0ebd 6d31 a03a e391 35bd
00000260: 6997 41be d45a a93b 8758 073e d0be 08be
00000270: eca6 e9bd 1ea1 47bd 1f70 b63b 8687 acbc
00000280: 6f0a 643d b9b0 2c3d 4715 4f3d f8fb b93d
00000290: 8598 d1bd 5ce4 c63d 39f6 9a3c 6fc9 8d3d
000002a0: 3a5e b13e 10b4 0cbe beda 9dbd 6fc8 25bd
000002b0: 98a1 a23e 7d9e 573d 1fa0 403d e98b 90bc
000002c0: 7b74 c13b 855c 85bd c59c 98bd b2c4 a03d
000002d0: 93f9 22bd 6ff1 db3d 7285 2a3c 2df7 973c
000002e0: 0bc3 6b3d 0e4f 25be 57da 373b 7baf 21bd
000002f0: a202 22be 3380 ee3e a3db d6bd 2e73 f83c
00000300: 3beb 57bc 5754 88bc 1eee 04bd 42b3 e03b
00000310: 252d 943c 5e19 9e3e 898a 833d ac6a 33be
00000320: ba69 fdbc 82be a0bd b88e 08bc 63d8 2dbd
00000330: c891 2d3e e143 a3bd 84aa d5bc bff8 5b3d
00000340: 4106 f23d 0c42 a3bb 9dca 46bd f339 2c3e
00000350: 73d4 d0bd e262 aa3e 4ed8 bf38 7d5d 4d3c
00000360: 37fb 743e 1d27 4e3d 348a 633d 64b0 943e
00000370: 6295 de3c a4b9 303d 71f1 cf3c abc4 083e
00000380: 5097 1b3d 9925 73bd ca61 d7bd 3dad e3bd
00000390: 5961 31be 6d25 163d b636 743d f61d abbd
000003a0: abef 873e bcb6 99bd 46b8 8ebc 0490 4abd
000003b0: fa04 023f 09ae 4bbf 3083 99bb c353 a23d
000003c0: 8737 a73b c17e f93c 0543 433d 6ec9 013e
000003d0: 8474 46be ba24 cfbc a36c c9bd 56c9 993a
000003e0: b499 2f3d a042 cd3c a879 8e3c 3cc6 a9bd
000003f0: cea3 b53d 85ac 9dbd 4047 09be 0a9d 3f3d
0.051674854 -0.055728283 0.08693416 -0.111063205 -0.047424585 0.09205222 0.04345053 -0.008597335
0.08341934 0.12981048 0.09543482 -0.1630738 -0.036651406 -0.14540853 0.23863499 -0.053106632
0.13886224 -0.2077765 -0.0032581405 0.07011452 0.07346282 0.026787676 0.06266529 -0.02333522
-0.17642379 0.06951354 -0.10813352 0.07355468 0.06334831 0.008735741 0.058615893 0.13737996
0.0778972 0.12651578 -0.0052353614 0.34793293 -0.016227378 -0.072261475 -0.08465339 0.062205106
-0.04818954 0.06454027 -0.038229335 0.06456926 0.100985944 0.08120382 0.031881463 0.09437252
0.060627233 -0.09353964 0.02218575 -0.041426785 -0.030536417 -0.12327825 -0.089023754 -0.09822429
0.07343716 0.06355303 -0.04693473 0.03466086 0.029853838 -0.08321351 0.02245273 -0.10697391
-0.3619819 1.1027367 0.071348675 0.15106541 0.077615105 -0.44197682 1.6242471 -0.017990049
0.11228635 0.48602107 0.102635406 -0.20650333 0.2572256 -0.1574424 -0.15404987 0.16851903
-0.17274742 -0.19519931 0.5875933 0.020194987 0.009622946 -0.63921076 1.513695 -0.08535921
-0.11937155 -0.8021748 0.25989988 -0.23728353 0.11317782 0.8686908 0.23765233 0.0323997
0.046378013 -0.069511235 0.015286592 -0.0017260246 -0.07133687 -0.02154229 -0.061891392 -0.029292608
0.8177945 0.07702872 -0.22191243 -0.7144007 -0.3555216 0.79979193 1.0574543 0.22404525
0.13833241 -0.016839918 -0.49217793 0.377584 -1.2805882 -0.6159674 0.2565462 -0.072951876
0.08325737 -0.5981714 -0.22254966 -0.09551649 0.14723025 -0.12404145 -0.012195972 0.034561414
0.1027963 0.049426872 0.037780344 0.017967181 0.07455736 -0.038205348 0.2157702 0.016520126
-0.026813474 0.032529425 -0.09233414 0.0016198333 -0.06690623 0.068539016 -0.11891825 0.023284739
0.0962026 0.02058335 0.14113729 0.0141824195 0.069700696 -0.034721866 0.0012221761 -0.04432858
-0.18905415 0.0051682983 0.13217364 -0.13354039 -0.11408791 -0.048737638 0.005567565 -0.021060716
0.055674013 0.042160723 0.0505574 0.09081262 -0.10234169 0.09711525 0.018916236 0.06923186
0.34642202 -0.13740563 -0.077077374 -0.04047435 0.3176391 0.05264138 0.047027703 -0.01764484
0.005903778 -0.06511787 -0.074517764 0.07850017 -0.039788794 0.10739409 0.010407792 0.01855048
0.057559054 -0.16143438 0.0028053725 -0.03947399 -0.15821317 0.46582183 -0.10491111 0.03032836
-0.013178642 -0.016641779 -0.03245365 0.0068573067 0.018087933 0.3087873 0.06422908 -0.17521161
-0.030934203 -0.078488365 -0.008334808 -0.04244269 0.16950142 -0.07971931 -0.026082285 0.05370402
0.11817599 -0.0049822386 -0.04853307 0.16818981 -0.101967715 0.33278567 9.1478796e-05 0.012534496
0.23923956 0.05033027 0.055551723 0.29040825 0.02717084 0.04314579 0.025383683 0.13356273
0.0379861 -0.059362028 -0.10516699 -0.11117027 -0.17322291 0.036656786 0.05962249 -0.08355324
0.2655004 -0.07505557 -0.017421853 -0.04945375 0.50788844 -0.7956243 -0.004684828 0.079261325
0.005103055 0.030455949 0.047671337 0.12674496 -0.19380385 -0.025286067 -0.09835174 0.0011732976
0.042871192 0.025056183 0.017391995 -0.08289763 0.08869134 -0.07698921 -0.13406086 0.046780623

encoder.bias_ih_l0 f4 [256]
00000000: 2507 1b3d 798b 213e 8753 1ab9 bce6 463d
00000010: cd6b cb3d 9172 9dbd 6aed 48bc aabd 44bd
00000020: 8828 a13f 442b 9e3d ee0c a7bd 2d8b ad3f
00000030: 2bd3 68bd b1ec 8a3f d65a 07be 5a7e f8bd
00000040: 2040 fd3c c9b3 163f 4819 12be eeb8 94bd
00000050: aec7 9bbd 8cd8 d6bd 77a6 5d3f 9ff9 f5bd
00000060: 1990 d2bc 0885 6a3f d41a 6abd 353e fe3d
00000070: 9107 82bd 9491 083d 2781 053e 20bb a23f
00000080: 6dbb 0abe cc0b 453b 2454 a1bd 1550 f2bd
00000090: d34b bd3d 3234 9f3f 1877 15be 01b3 953e
000000a0: b3b5 ba3d 9332 82bd 54c4 d53c e357 6d3d
000000b0: 4f7a be3e 7dfc 533d 2a0c 8c3e 196e 42bd
000000c0: ebe8 71be 9a7a fb3e ea1b 8d3d 828a 923e
000000d0: 10d0 04be f889 3c3f 8958 15be 4dad 5ebe
000000e0: 074a 8d3c 7f6e 073f 2d43 023f 3cfe 7c3d
000000f0: 7131 893e 1195 97bc ce42 cb3d 1048 05bd
00000100: 2da6 a7bd f503 2fbe bbf5 8cbd ebd9 e73d
00000110: 089c f23d 3834 91bd 6fa8 54bd 9d36 f23d
00000120: 07ea ae3d f756 ae3d d403 333d 00ce ee3c
00000130: 2a24 933e d396 023f a546 1abd 9b0e 3f3d
00000140: 250c 1e3d 5bd7 2dbc efeb 933d a155 b4bd
00000150: b218 803c 0a7b 003e f5f3 3a3e 13be 0cbd
00000160: 3c98 cf3d e8ac bc3d 9aa6 c5bc 0217 833d
00000170: 6299 d33d 0808 c43c 9f9a 98bd 17b8 1fbe
00000180: 3140 603d 6125 f6bd 607e ff3d 07d4 f63c
00000190: f8d8 513c 96d3 333d 3ec7 1f3d 9f39 a03d
000001a0: 0674 83bd d17c 843d fc2d eabd efe0 123a
000001b0: 3448 99bd cea4 9e3d 269b 8ebb d097 be3d
000001c0: c594 84bd 460c e43c f666 cfbc 31dd 9f3c
000001d0: b5ce a8bd 1a24 8cbc f43c 27bc dfc7 cb3d
000001e0: 743d b9bd 542e 963c 29e5 573d 7068 073e
000001f0: 5392 663d c0a8 c73d d6b7 3a3c 4154 6ebc
00000200: c1a2 ff3e a5ed 7f3d 2703 643f 6f19 4bbf
00000210: 7be2 03be e4f6 c1bd 4722 fc3d de57 1cbf
00000220: e7b8 263f 8207 1b3e a28e 1b3f 6cf3 12bf
00000230: e2a1 b9bd 4c77 3abf 942a 68be 8b8f 97bc
00000240: b7ac c8bd a801 48bf 8abc ea3a ba30 13bd
00000250: eb2f 59bf 02fe 0c3e 0213 3dbd 2f11 ec3d
00000260: 6996 dd3d c3ce 65be 0bde 66be d385 a6bd
00000270: ce98 2b3e 727e 0e3f 1bc8 9bbd 1caa 0b3f
00000280: b6b1 b43e 3cfa 433d afb9 03be bc98 30bd
00000290: 7418 83bd 37eb 34bf 71b8 54bf ba66 ddbe
000002a0: 6469 a03c bf41 06be 740f 95bd 79df efbc
000002b0: cca0 4fbd 2a73 bb3c 4719 1b3e 5960 a7bd
000002c0: efb1 ef3e a8dc 12bf a899 68bd 5210 0b3f
000002d0: 8fea 2ebd 8116 96be 569f af3d b373 133b
000002e0: bbf6 073e d566 5bbe d6bb 6dbe 6928 a8be
000002f0: f425 083f 6f87 243d fe75 293e 587b e73d
00000300: 921a 043f 6aad d63b 849b ec3e 1912 de3e
00000310: 9b1b e23c 2a21 9c3e 95ea 1d3f d499 52be
00000320: d17f a83f b0b2 d9bb ae53 7d3d 3a75 a13f
00000330: 1707 763d 26f5 913f 4f71 82bd 883a 1a3e
00000340: d0b5 963d 1923 3a3f d244 7a3c 2b3f ccbd
00000350: 9d2f 1d3f e159 e13d f528 1f3e 7c7f 2f3e
00000360: c764 cf3d 29db 133f fcd3 3dbc b01d a33e
00000370: a1fa bc3b 5769 ad3d 6a19 673e 63e4 ac3f
00000380: ac01 943f e44f 423a 71bd 4f3c 74a7 4138
00000390: a2c7 193e 0681 843f d4aa 713d 37f2 953e
000003a0: 8fb6 093e 6f13 cabd c016 833f aad2 ab3d
000003b0: fccf 373e ef76 b93e 907d ef3d f8fa 413d
000003c0: 0970 473e 7723 a73f 1be6 6c3e 385e 6d3d
000003d0: 9a04 823d f7d4 963c fe5e e73d 26fd 133c
000003e0: 717f f1bc 5dd9 a5bc 3cd1 003f 3f69 823d
000003f0: a527 063e 8d39 c43d 298f 693e 3a3f 123e
0.03784861 0.15775861 -0.00014717701 0.04855989 0.09932671 -0.076878674 -0.012263635 -0.04803244
1.2590494 0.07723096 -0.08156763 1.3558098 -0.05684201 1.0853482 -0.13218245 -0.12133475
0.030914366 0.5886808 -0.14267457 -0.07261835 -0.07606445 -0.10490522 0.8658213 -0.12010502
-0.025703477 0.9160924 -0.05715449 0.12414209 -0.063490994 0.03334196 0.13037549 1.2713356
-0.1354806 0.0030066846 -0.07877377 -0.11831681 0.09242978 1.2437804 -0.14596212 0.29238132
0.091166876 -0.063573025 0.026094593 0.057945143 0.3720269 0.051754463 0.2735303 -0.04746828
-0.23624007 0.49116975 0.0689009 0.28621298 -0.12969995 0.73648024 -0.14584555 -0.21745797
0.017247213 0.5290298 0.5088375 0.061765894 0.26795533 -0.018503698 0.09924851 -0.032539427
-0.081859924 -0.17091353 -0.06882807 0.113208614 0.11846167 -0.07090038 -0.051918443 0.11826823
0.08540731 0.08512681 0.043704823 0.029150963 0.28738528 0.5101139 -0.037665028 0.04664479
0.0385858 -0.010610427 0.07222735 -0.08805395 0.015636776 0.12546936 0.18257125 -0.034360956
0.10136458 0.09212667 -0.024127293 0.06400873 0.1033199 0.02392961 -0.07451367 -0.15597568
0.054748718 -0.12018848 0.12475276 0.0301304 0.012808077 0.043902956 0.03900837 0.0782349
-0.06418614 0.06469119 -0.11434552 0.0005602976 -0.07484475 0.07746278 -0.004351991 0.093063
-0.06473688 0.027837884 -0.02531765 0.019514652 -0.08242551 -0.017107058 -0.010207403 0.09950232
-0.090449244 0.018332638 0.05270878 0.13223433 0.05629189 0.097489834 0.011396369 -0.014546455
0.4992886 0.062482495 0.8906731 -0.79335684 -0.12879364 -0.09470919 0.123112254 -0.61071575
0.6512589 0.15139583 0.60764515 -0.5740268 -0.0906408 -0.7283828 -0.22672492 -0.018501064
-0.09798568 -0.7812753 0.0017908972 -0.03593514 -0.8483874 0.13768771 -0.046160705 0.11526715
0.10819704 -0.22442155 -0.2254564 -0.08130994 0.16757509 0.5566169 -0.076065265 0.5455644
0.35291833 0.047846064 -0.12863801 -0.04311441 -0.064011484 -0.7067141 -0.83093935 -0.43242437
0.019581504 -0.13111018 -0.07278338 -0.029281365 -0.050690457 0.022882063 0.15146361 -0.08172674
0.4681544 -0.57367945 -0.056787163 0.5432178 -0.04270416 -0.29314044 0.08575313 0.0022499382
0.13277714 -0.21425946 -0.23216185 -0.3284333 0.5318291 0.040168222 0.16548917 0.11302823
0.51603043 0.0065514343 0.462124 0.43373182 0.027601054 0.30494052 0.6168607 -0.20566493
1.3164006 -0.0066436157 0.06184738 1.26139 0.060065355 1.1402938 -0.06369268 0.1506139
0.07358897 0.72709805 0.015275197 -0.09972986 0.6140078 0.11003471 0.15542968 0.17138475
0.10126644 0.57756287 -0.011586186 0.31858587 0.005767182 0.084673576 0.22568288 1.3507198
1.156301 0.00074124173 0.012679444 4.617074e-05 0.1501756 1.0351875 0.059000805 0.29286358
0.13448547 -0.09866988 1.0241318 0.0838979 0.17950433 0.36223552 0.11693871 0.047358483
0.19476332 1.3057698 0.23134653 0.057951182 0.06348534 0.018412096 0.11297415 0.009032523
-0.029479714 -0.020245248 0.50319266 0.0636773 0.1310106 0.095812894 0.22808518 0.14281932

encoder.bias_hh_l0 f4 [256]
00000000: 46c3 6c3d 7608 263e 1098 93bd e43e fc3d
00000010: 3e3c 6cbd a99a b0bd 45bb a13d e92a fdbd
00000020: d761 ab3f 4683 933d 4b8f 4dbd e8b6 9b3f
00000030: b68b 6ebe 085f a13f a9fc 9dbd ee29 66bd
00000040: d205 c8bd 7390 1f3f a484 5a3c 185e 2f3d
00000050: 5bae c83c 587f 39be 2c6f 573f e204 4a3d
00000060: fe57 15be 2716 8d3f 6943 a9bc cc21 85ba
00000070: a6d5 85bc 9a97 4b3d cfee 163e 8a2d be3f
00000080: 7af6 d03c a97e b83b fc0d 7fbd 0728 943d
00000090: 23a5 a6bd e16c ab3f 22a0 8cbd 471b 9c3e
000000a0: a757 9f3d 6fdc 223d 4130 9fbd 4f6e eb3d
000000b0: 6d49 a23e 49ba a83d 5cd3 713d 0687 ddbc
000000c0: cf3e 13be 33e5 133f d042 833d 33d0 323d
000000d0: e441 84bc f7de 293f d737 8bbd 4f8b 87bd
000000e0: 671f 813c a707 fd3e edbb a83e 80d0 c6bd
000000f0: ca1b aa3e dfa8 d63d 8ff1 f53d de16 9e3d
00000100: 96db a13c 8c93 87bd 8d84 b63b e5be 643d
00000110: 93e0 79bd 25f9 88bd ac5f a5bd 8a0f 983d
00000120: efa4 063e cb51 eabd c93a 573c 7fd6 223e
00000130: 5060 743e 3bcc d43e 070b 05be 1d25 24bd
00000140: 34c2 ffbd fe1a 42bd 6c70 b5bc 2839 9cbd
00000150: a62c 97bd a3b3 393e a1ae 1eba 28d1 273d
00000160: 0d8e 5c3e 264e 813d 9a2c b53d 2a12 66bc
00000170: fe9b a03d 3a07 423e 99c9 0c3c 4b97 8bba
00000180: 9a02 17bd d773 0abd 01cf 31bd 45cd 15bd
00000190: 323b 6a3b 5460 dd3c 9241 e33c 0e26 64bd
000001a0: 9814 ccbd 87b0 05be 801f 393c f54c 19be
000001b0: aff6 2f3d c73e 483d 10c0 e43d ffc3 c63d
000001c0: 9f09 65bd 7093 ab3d 4a2a b8bc 3f47 b5bc
000001d0: 407a f5bd 291c 3c3d 40c7 f8bd 6dff 143e
000001e0: 35ea e03d 6eb9 b43d 01ff 39be 3f81 d53d
000001f0: 11af d4bb d835 223e 6b5b ae3d 682e 133e
00000200: ffeb d43e 2c52 013e 0f79 423f 503a 47bf
00000210: d7d9 39bd d6a0 b3bc b2f1 a93d 35fd 17bf
00000220: 3d29 253f 738a fd3d 7861 4c3f 6037 38bf
00000230: 2d9e 49bd dd70 1fbf dcca 24bc 1e0b 14be
00000240: 4218 e33d f3c0 7fbf 900e e8bb 9f7c e5bd
00000250: 8330 49bf 18c3 92bd 110b adbd 02ba 713d
00000260: 0fd6 9fbd 8f12 20be 0cbf 03be 4fea b53d
00000270: 162b 1c3d a803 143f c37a e8bd 0efd 133f
00000280: d1ac 413e ffbc e33d 014f adbd d1e3 76be
00000290: 83e8 10be c799 37bf f4b2 55bf 4ae7 9dbe
000002a0: 61bd 873c 4b19 45bd ffe7 f0bd 84bb cabd
000002b0: 572c 89bd 70ee a63c 4f36 8f3d 95e4 4d3d
000002c0: 3efc e33e 2285 17bf e545 05be 7058 1f3f
000002d0: 62b1 2fbd 9ec6 25be e558 28bd 2014 5abe
000002e0: ffe7 893d d374 03be 06e5 2ebe bd49 38be
000002f0: 3ab5 2c3f 383a 1b3d e534 fd3d 3e51 e73d
00000300: 9d1e 073f be37 783d d662 043f de9a a13e
00000310: e915 8b3e 9a99 a83d 3b05 293f 3c3f bcbd
00000320: 6ae2 8e3f 0af2 6c3d 0fda 01bd 9d6a a03f
00000330: ec23 613e 323a 9b3f 36fb 36bd 6191 b03d
00000340: eda1 fcbc 7ca6 433f 556b 503d 3f4e 91bd
00000350: 3e80 093f 0fcf 063d bbb6 523e d3b2 ac3d
00000360: a0e9 f83c 28a0 b33e 4dcf 823d 88cc b03e
00000370: c273 d7bd b7dd a7bd d9a7 0e3e 4fd9 943f
00000380: 8ff0 8e3f 48c7 fb3d 68b1 72bd 484c b1bc
00000390: 1277 9b3e 316f 993f 243c 2fbd 1ed7 a23e
000003a0: 3c11 b4bd abd2 b0bd 48ad 803f e33a 323e
000003b0: cf59 f9bb e0a1 4e3e f8c1 993d 5af7 913c
000003c0: f180 d23e 3848 a23f 821b 833e 371e c93d
000003d0: 0b04 35bd c664 ffbc 7631 dc3d 456c 0e3e
000003e0: 25ec c3bc c5b7 993d d06b a93e 7703 3abe
000003f0: 654f 1b3e 14e3 393e 79da 5b3e 8f87 073e
0.057803415 0.16214165 -0.07206738 0.12316683 -0.05767464 -0.08623249 0.07897047 -0.123617
1.3389233 0.07202773 -0.050185483 1.2165194 -0.23295483 1.2607126 -0.07714207 -0.05619233
-0.09766735 0.62329787 0.013337288 0.042814344 0.024497202 -0.18114984 0.8415401 0.049321063
-0.14584348 1.1022385 -0.020662026 -0.0010157167 -0.016337227 0.049705125 0.14739536 1.4857647
0.025508154 0.0056303334 -0.062269196 0.07234197 -0.08136966 1.3392602 -0.068664804 0.3048956
0.0778039 0.039761003 -0.077728756 0.11495649 0.31696644 0.08238656 0.05903946 -0.027041923
-0.14379428 0.57771605 0.06409228 0.043655585 -0.0161447 0.6635584 -0.0679776 -0.06618368
0.015762044 0.494199 0.32955876 -0.09707737 0.33224326 0.10481428 0.12008964 0.07719205
0.019758027 -0.06619939 0.0055700005 0.055846114 -0.061005186 -0.066881455 -0.080748886 0.07424839
0.13148855 -0.11441382 0.013136574 0.15902136 0.23864865 0.41562065 -0.12992488 -0.040074456
-0.12488213 -0.047389023 -0.022148333 -0.07628089 -0.07381563 0.18134932 -0.00060532434 0.04097095
0.21538563 0.06313734 0.08846398 -0.014042417 0.07842253 0.18948069 0.0085929865 -0.0010649947
-0.036867715 -0.03380188 -0.043410305 -0.036572713 0.003574085 0.027023472 0.027741227 -0.055700354
-0.099648654 -0.13055621 0.011299014 -0.14970763 0.042959865 0.048887994 0.111694455 0.09705352
-0.05591738 0.08377731 -0.022481102 -0.0221287 -0.11986208 0.045925293 -0.12147379 0.14550562
0.109821714 0.088244304 -0.18163683 0.10425042 -0.006490596 0.15840852 0.0851353 0.14373171
0.415863 0.12629002 0.7596597 -0.7782335 -0.045373764 -0.021927278 0.08298053 -0.5937074
0.6451605 0.12379923 0.79836226 -0.71959496 -0.049223114 -0.6228159 -0.010058131 -0.14457366
0.11088611 -0.9990379 -0.007081814 -0.1120541 -0.7858965 -0.071661174 -0.084493764 0.05901528
-0.078045 -0.1563208 -0.12865847 0.088825814 0.038127027 0.5781808 -0.1135154 0.57808006
0.1891358 0.111200325 -0.084623344 -0.24110343 -0.14151196 -0.7171902 -0.83476186 -0.30840522
0.016569795 -0.048119824 -0.11763 -0.09899047 -0.0669791 0.020377368 0.069927804 0.05026682
0.44528383 -0.5918752 -0.13014944 0.6224432 -0.042893775 -0.16189048 -0.0411004 -0.2129674
0.06733703 -0.12837534 -0.17079553 -0.17996879 0.6746403 0.03789732 0.123636045 0.112947926
0.5278109 0.060600035 0.5171331 0.31563467 0.27165154 0.08232422 0.66023606 -0.091917485
1.1162846 0.057848014 -0.031702098 1.2532536 0.2198636 1.2127135 -0.044673167 0.08621479
-0.030838931 0.7642591 0.05088361 -0.070950024 0.5371131 0.03291231 0.20577519 0.084325455
0.030384839 0.35083127 0.06387196 0.34531045 -0.10520126 -0.081965856 0.13931216 1.1628817
1.1167163 0.12293869 -0.05925122 -0.021642819 0.3036428 1.1987058 -0.042781964 0.31804746
-0.0879235 -0.08633932 1.0052881 0.17405276 -0.007609583 0.20178938 0.075077 0.017818142
0.41114 1.267829 0.25606924 0.09820216 -0.04419331 -0.031175982 0.107516214 0.13908489
-0.023916313 0.075057544 0.33090067 -0.18165384 0.15167005 0.1815303 0.2147006 0.13235305

latent.weight_ih_l0 f4 [128, 64]
00000000: a800 1fbe 8a72 dfbd 6b9e 153e 58d5 67be
00000010: cb74 653c 31b9 1b3e da27 63be 9377 68be
00000020: 292c 853e 766c ee3c 3127 613e e6c2 aabe
00000030: 3364 823e 66c8 a6be c2ba 8d3d d20f b2bd
00000040: 2010 37be 2236 fbbc d9f0 8b3e eded bd3d
00000050: f8f5 e43c 6b2e 9b3e 41fe 8e3c 2235 803e
00000060: 562b dd3e 4aa3 a63c 6823 90bd 0d40 ea3d
00000070: aa09 1b3e 1ac8 733e e619 9a3e 7100 073e
00000080: 5c7b eabc a4c2 30bd 69e7 4cbe 9ac2 62be
00000090: c955 43be d117 3bbe d502 85bc 555b 68be
000000a0: 33f1 963e 6345 14bf 653c bdbd fe5a 8fbd
000000b0: d2b7 fabe 4d4b aebe 594e 40be 96bf a83d
000000c0: c00f df3c 2d84 78be 6c31 cfbd 83d7 843e
000000d0: db97 95be f633 6dbe ad90 5cbe 2a5f 443d
000000e0: 2411 8a3e bd34 62be 2594 51be ca68 b5bb
000000f0: 0f26 853d c63b afbe 0b57 a1be cafb e43e
00000100: 054c 6cbd 529a 833d 80d3 ae3e 3237 243d
00000110: 85b1 94be 28fa 0bbf d7a4 efbd 5927 8bbe
00000120: 9de3 803e 5298 383d 0765 bc3d bf64 60be
00000130: 2f27 003e 8968 34be a8bb 17bc 1909 81be
00000140: a615 23be 6680 edbd 434d a33e be46 4c3e
00000150: 2c52 f0bd 55a2 b73e 2300 c73b fe5a 893e
00000160: 500e 9b3e 6566 99bd 842f dd3d a338 1ebf
00000170: 18a4 21bd 9e47 453d 3f1e 8a3e d173 163e
00000180: b6db dbbd 792d 88bd 8dc8 92be 4ad3 abbd
00000190: bdd5 51be 9e98 29be a662 83bd 12a5 01be
000001a0: 5feb 0f3e 0c54 1bbf 4db0 01be f642 6cbe
000001b0: 859b e4be 656b 89be 4d5e 8e3d 7a42 1b3d
000001c0: 8ddf 103d 4d37 4cbe 6013 74be 25e8 12be
000001d0: b9ff debd 7926 05be 2ab6 3fbe 76c3 4a3c
000001e0: 1427 01be 7f55 dfbd 9c70 85bd 4ab5 1fbe
000001f0: 93aa 1b3d d270 06be 6ef3 5abd c896 bf3d
00000200: 3c3d b63b 01cd 473e 2b77 edbd 69bd 173d
00000210: 5970 0ebf 4d46 8bbe d88b 0abf 9400 a9be
00000220: d15c 8e3e d42f b13c 21b0 203e 662b 893c
00000230: 3302 9e3e bd29 e4bd a040 a7be 70fa 13bd
00000240: 2a9d 17be 12e6 d1bc fd80 b63e 7320 c73d
00000250: fcd3 bfbd a25a 283c 3b0c d63c d720 103e
00000260: dad8 783e 789f 2ebe cbf3 c73d 8a80 f8be
00000270: 3c34 6d3e 1953 b43d 9bdb 903e 1bd6 7c3e
00000280: f7a1 0d3f 917a 94be 1003 fb3c 04df 96be
00000290: 8348 1bbe daf5 7cbe ad37 863c 73f1 b43c
000002a0: 2f4d f6bd 4ff0 283e e0cf 05be be0a 3e3d
000002b0: 84e5 2f3e 3a79 fdbd 707d a5ba 9fe2 e03d
000002c0: 143d 9cbc 234a 7fbe 9818 8e39 9496 eb3b
000002d0: 83c1 433d 778c bebd 79e4 f6bd f96c 93bc
000002e0: 5751 3ebe 66fb 60be 06ee a1be 0cf4 c5be
000002f0: 8029 9b3e c50b 2d3d 30a5 0bbe 2332 2d3e
00000300: 14bb 70be 5be5 51bb 235a 653e a408 c7bd
00000310: 1421 21bc 2132 2abe fb76 48bc aa8d 1cbc
00000320: 99de 6f3e e91e ed3d 3de2 5f3c 13f3 8bbe
00000330: 0e3c 963e 97a6 98bd 4cb0 9cbd 27d4 10be
00000340: 6e48 d0bd 07d8 0dbd cccd 26bd e57c aebd
00000350: e32a 98be 0380 013e 3639 903d 57ca 943b
00000360: 5c35 b63e a3a6 08be 6f4c 953e 6217 d03d
00000370: c87f ec3c b75a 183e 64f7 ef3c cfdd 683e
00000380: 16d3 803e 00ba c1bd d2f4 16be 75b2 51be
00000390: 62e4 97be dd81 8c3c 23b4 91bd af3a ed3a
000003a0: 6375 193f ad04 dabd e96b ffbd 0692 3fbd
000003b0: 5720 45be 2fae 22bf 4cee e6bc df64 393e
000003c0: b658 cabb 4980 1fbe 324b 3abe 4c30 ee3d
000003d0: 37d5 02bd 6e57 7fbe e870 ebbd 561c cfbd
000003e0: beda e9bd 26b8 3d3d 0751 6abe a129 1fbe
000003f0: 361c 913d fa69 eebd 91c0 83bd 9446 753e
-0.15527594 -0.109105185 0.14611213 -0.22639978 0.014004896 0.15207364 -0.22183171 -0.22701864
0.26010254 0.029104453 0.21987607 -0.3335182 0.2546707 -0.32574767 0.06920387 -0.08694424
-0.17877245 -0.030665461 0.2733219 0.09273896 0.027949318 0.30308852 0.017455222 0.25040537
0.43197125 0.020341534 -0.07038003 0.11437998 0.15140405 0.23806801 0.30097884 0.13183762
-0.028623275 -0.043154374 -0.20010151 -0.22144547 -0.19075693 -0.18270804 -0.016236702 -0.2269109
0.29480895 -0.57918376 -0.09240035 -0.06999777 -0.4896837 -0.34041825 -0.18779887 0.08239667
0.02722919 -0.24269171 -0.10116848 0.25945672 -0.2921742 -0.23164353 -0.21539564 0.047942318
0.26966202 -0.2209043 -0.20466669 -0.0055361735 0.065014 -0.3422529 -0.3151172 0.4472335
-0.057689685 0.06425919 0.34145737 0.0400917 -0.29041687 -0.54678583 -0.117013626 -0.27178457
0.25173655 0.04506714 0.09198957 -0.21913432 0.12514947 -0.17618002 -0.009261049 -0.25202253
-0.15926227 -0.11596756 0.31894884 0.19948861 -0.11734423 0.35866037 0.0060730143 0.26827234
0.30284357 -0.07490233 0.108000785 -0.6180517 -0.039463133 0.048164003 0.269762 0.14692618
-0.10735266 -0.06649298 -0.28668633 -0.083899096 -0.20491691 -0.16562125 -0.064153 -0.12660626
0.1405463 -0.6067512 -0.1266491 -0.23072419 -0.44649902 -0.26839748 0.0695158 0.037905194
0.035369445 -0.1994297 -0.23835516 -0.14346369 -0.10888619 -0.13002957 -0.18721834 0.012375703
-0.12612563 -0.10904979 -0.06515619 -0.155965 0.03800447 -0.13128975 -0.05345481 0.09354931
0.005561499 0.19511797 -0.11594995 0.03704587 -0.5564018 -0.27202073 -0.54119635 -0.33008254
0.27805188 0.021629252 0.15692188 0.016744327 0.30861053 -0.111407734 -0.32666492 -0.036127508
-0.14806047 -0.025622401 0.35645285 0.09722986 -0.09366605 0.010275515 0.026128879 0.14075027
0.24301472 -0.1705302 0.09763297 -0.48535568 0.23164457 0.08804912 0.28292546 0.2469105
0.55325264 -0.2899976 0.030641109 -0.29467022 -0.1516438 -0.2470316 0.01638397 0.022087788
-0.1202644 0.1649792 -0.1306758 0.046396963 0.17177397 -0.12376638 -0.0012625884 0.109807245
-0.019072093 -0.24930625 0.00027102674 0.007189581 0.04779197 -0.09304135 -0.120552965 -0.017996298
-0.18585716 -0.21970901 -0.3162691 -0.38662755 0.303051 0.042247552 -0.13637233 0.16913657
-0.23508865 -0.0032027576 0.22397666 -0.09718445 -0.009834547 -0.16620685 -0.012235398 -0.00955526
0.23424758 0.11578161 0.013664779 -0.27333888 0.29342693 -0.074536495 -0.076508135 -0.1414343
-0.10170065 -0.034629848 -0.040723607 -0.085199155 -0.2972022 0.12646489 0.07042162 0.0045407224
0.35587585 -0.13344817 0.29159877 0.1016071 0.028869525 0.14878355 0.02929277 0.22740863
0.25161046 -0.09459305 -0.14741829 -0.20478232 -0.2966643 0.017151767 -0.071144365 0.0018099154
0.5994474 -0.10645423 -0.12471754 -0.04677012 -0.19250618 -0.63547033 -0.0281898 0.18104886
-0.006175126 -0.1557628 -0.18192747 0.11630306 -0.03194162 -0.24935696 -0.114961445 -0.101128265
-0.11418675 0.046318196 -0.22882472 -0.15543224 0.07085459 -0.11641307 -0.064332135 0.23952705

latent.weight_hh_l0 f4 [128, 32]
00000000: 15b3 1d3f f71d 22be ff9a b63e 62aa abbe
00000010: 9726 3d3d 83df be3d 5b7e d13d efa9 763e
00000020: 551f 2dbd cb20 cb3d ddfd 71be c89e 9e3e
00000030: d813 25bd 0a48 21be 4860 a23d f9a3 8e3d
00000040: 3f7b 22be a1c8 503e 503a 623e ee01 ae3e
00000050: 6bf8 83bc 169e a0bd b8b7 b2be 2ad9 513e
00000060: d4eb 343e 24bd 053e fd7a 9cbd 384d 88be
00000070: 0287 123e 7638 36bd d8ac cb3c 8c70 093f
00000080: 2924 29be 61c0 013e 9194 fa3d c4f9 29bc
00000090: a64a 0a3e 1c4e bb3e 4132 3a3e 95a3 c6bd
000000a0: 5fba 02be 8b92 a13d 353a 7abe 28b5 d33c
000000b0: 77c9 9dbc dfc2 43bc c258 8a3c eddf ed3d
000000c0: be04 883e f8ab d2bc c516 38be 66db 02bc
000000d0: 5513 583e 0093 8a3e 4f3a 183e df3f fabd
000000e0: 209a a6be acb1 a63d 217f 19be aca4 773d
000000f0: 276b 483d 03be 0dbe fac3 03bd c1d9 e7bd
00000100: 1d0d 74be fada 823e 84b3 d4bd 7d29 11bf
00000110: 3ff0 8fbe cf16 10bf 7eed 143f ad5c 503e
00000120: f8f4 3ebe 53ae e7bd 657e 10bf d8e8 843c
00000130: 6111 9fbd d35c 1abe 5868 84bd 64cb acbc
00000140: 468c 44bd 0dfd c53e a1c4 20be 2b8f 63be
00000150: ae6f fdbd a280 8abd 1c61 9bbb d2dd 86be
00000160: adcf 3d3d 9954 67be c323 0bbf e766 103e
00000170: b197 80bb 98b8 0d3f 49ad 47be c808 b63d
00000180: 9d4b a43d dce7 3d3e 0492 dabe 206f a9bd
00000190: 5377 31be e2f0 61be 8218 ea3c 9b78 66bd
000001a0: fafd 453e 575a dfbd fcae afbe 04d1 c1bd
000001b0: bb3b 7cbe a679 18be fee4 e13c 3e24 153e
000001c0: 7ee8 16bd c3c5 f03e 703b db3a 9ebc 853c
000001d0: e78f 983a b9b6 2cbe 986c 483e 7a86 2c3e
000001e0: 3331 1dbe 184e 283e 7b26 c4bc ced7 47be
000001f0: 4d2d 2abe 904e af3d 4681 8e3e 6638 b6bd
00000200: ee58 f9bb 8cdd 003e bd6b 183e aea0 413e
00000210: 993b 013e d436 d63d 27d4 27be 2a98 6a3e
00000220: 40a0 a2bd 91a7 33be ef02 c6bd 1e68 de3c
00000230: cd74 61be b9ba b3bd b4ca 00be 1602 87be
00000240: fd0a d43d 7880 3a3e 28ea 23be a6b4 96be
00000250: aa94 5dbd da45 8c3e b964 5f3d cef8 74be
00000260: b2d8 75bd 8af6 17be f101 2abe 1b6f 143c
00000270: c0e4 0cbe 2506 4d3e a8ac 0e3e 9e89 bcbb
00000280: d825 66bd 1225 0d3e 1752 89be 0000 57be
00000290: bacc dbbe 5a4c 04bf 9260 b03e 924e 7f3e
000002a0: 2f22 dabc cc63 b6bd 4f91 9dbd 07a5 123d
000002b0: 0bd5 a2bd 8963 2ebd 0f17 663d 1d4e 383d
000002c0: 3e37 4d3e 8e82 373c 3a8b 2abd c1d4 38be
000002d0: dfa5 143c 8030 263d b62f 263d b8c3 a33d
000002e0: 9663 423d c102 1fbd 4c6f 3dbe 7de8 35bd
000002f0: 4f8e a7be c1bb d2bd 78ae 623e 5f0c 8d3e
00000300: 0298 5f3e aafa 273e e0d6 e93c 7994 dbbd
00000310: a555 e8bd 6eb4 a2be 88b9 eb3e 28d1 863e
00000320: a8ed ad3d 0e24 d73d 1700 5bbe 485e 5c3e
00000330: 6a4c 8c3e e636 68bc 6c96 9a3b 6236 fe3b
00000340: 6de7 81be e491 bd3e e8d6 f73d 7ae6 753e
00000350: 1c93 8ebe cddb 37be 9e6c cebd 964e 683e
00000360: 4710 773e 3f1a 523e e621 823d 95e8 97bd
00000370: b426 8e3e 73e5 693d f6ae 153d cd31 b3bd
00000380: 4e11 c43c 5b15 413e c26c f63d f11f bc3c
00000390: 0f46 463e 247a afbe 15a9 bf3d 7147 883c
000003a0: 993b 023f 4181 593e 0231 eabe 8739 99bd
000003b0: ea94 ebbd 921c f63c 5903 b13c 690c 533d
000003c0: 5fe2 09bc 6b44 ae3e a52e d2bd 743d f0bd
000003d0: 122b acbd acea 85bd a059 3f3e d959 a1bd
000003e0: 4b34 92bc a5f7 853d f9b4 ea3c 21a3 bc3e
000003f0: 044d 853e 9338 433e c903 153e 81f8 75be
0.6160138 -0.15831743 0.35665128 -0.3352843 0.04617938 0.09319975 0.102291785 0.24088262
-0.04226621 0.09918364 -0.23631997 0.30980515 -0.040302128 -0.15750137 0.079285204 0.06964869
-0.15867327 0.20389034 0.22092557 0.33985847 -0.016109666 -0.078426525 -0.3490579 0.20492998
0.17668086 0.13060433 -0.07640646 -0.26621413 0.14309314 -0.04448744 0.024862692 0.5368736
-0.165177 0.12671043 0.12235368 -0.01037449 0.13505039 0.3658303 0.18183233 -0.096991695
-0.12766407 0.07889279 -0.24436267 0.025843218 -0.019261105 -0.011948316 0.016888026 0.11614976
0.26566118 -0.025716767 -0.17977436 -0.007986879 0.21101125 0.27065277 0.14865993 -0.12219214
-0.32539463 0.08139357 -0.14989902 0.060459778 0.048930313 -0.13842015 -0.03216932 -0.1132083
-0.23833127 0.2555769 -0.103858024 -0.5670393 -0.2811298 -0.56284803 0.58174884 0.20347853
-0.18648136 -0.113125466 -0.5644286 0.01622431 -0.07766987 -0.15074472 -0.064652145 -0.021093078
-0.047985338 0.38669625 -0.15700008 -0.22222583 -0.12374817 -0.06762816 -0.004741801 -0.2634111
0.046340633 -0.22590865 -0.54351443 0.14101754 -0.003924333 0.5535979 -0.19499697 0.08888394
0.080222346 0.18545479 -0.42689526 -0.082731485 -0.17330675 -0.22064546 0.02857614 -0.056267362
0.19335166 -0.10905903 -0.3431319 -0.09463695 -0.2463216 -0.14890155 0.027575012 0.14564607
-0.036842816 0.4702588 0.0016726088 0.016325291 0.0011639566 -0.16866578 0.19572675 0.16848174
-0.153508 0.1643604 -0.02394413 -0.19515917 -0.16618843 0.085599065 0.27833003 -0.08897476
-0.007609478 0.12584513 0.14884849 0.1890895 0.12620391 0.104596764 -0.16389523 0.22909608
-0.079407215 -0.1754439 -0.09668528 0.027149256 -0.22017212 -0.08775849 -0.12577325 -0.2636878
0.10353658 0.1821307 -0.16007292 -0.294347 -0.054096855 0.27397043 0.054539416 -0.23923036
-0.06002111 -0.14840141 -0.16602303 0.009059693 -0.13759136 0.20021875 0.1393305 -0.00575371
-0.056188434 0.13783672 -0.26820442 -0.20996094 -0.4292963 -0.51679003 0.34448677 0.24932316
-0.026627628 -0.089057535 -0.07693731 0.035801914 -0.07950791 -0.042575393 0.056174334 0.04499637
0.20040604 0.01120056 -0.041636683 -0.18049909 0.00907275 0.040573597 0.040572844 0.07996315
0.047458254 -0.038820986 -0.18499488 -0.04441117 -0.3272576 -0.102897175 0.22136867 0.275485
0.2183533 0.16404215 0.028544843 -0.10721678 -0.113444604 -0.31778282 0.46039987 0.2633145
0.08492595 0.10504924 -0.21386753 0.2152034 0.2740205 -0.014173245 0.0047176387 0.007757948
-0.25371876 0.37025368 0.12101537 0.24013701 -0.2784661 -0.17954941 -0.10079311 0.22686228
0.24127303 0.20517825 0.06354122 -0.074174084 0.27763903 0.057103585 0.03654381 -0.08749733
0.023934033 0.18855803 0.12032463 0.02296445 0.19362663 -0.34272873 0.09358422 0.016635628
0.5087219 0.21240713 -0.45740515 -0.074816756 -0.115030125 0.03004292 0.021608042 0.051525507
-0.0084157875 0.34036574 -0.10262803 -0.11730471 -0.084066525 -0.06538901 0.18686533 -0.07878465
-0.0178472 0.06541375 0.028650748 0.36843207 0.2603532 0.1906455 0.14552225 -0.24020578

latent.bias_ih_l0 f4 [128]
00000000: b29b bf3c ee7f a9bc b4d5 173e 1dbd 2f3e
00000010: c86c 3ebd 1889 533e aa72 243e e5c5 193e
00000020: 84b2 5f3e af7f 293e 17b2 003d bdce 3fbb
00000030: f92c 463e b0de c4bc 60bb 8b3e 8590 53bc
00000040: eed4 073e 9dea 543e b54f 65bd b1e5 423e
00000050: d781 c93d 9ed4 8b3c 8593 d03d b279 713e
00000060: 37cb 583e e44b 113e e714 043f 2063 a2bd
00000070: 6165 ff3d cf81 a83e bfd6 5e3e 7761 7b3e
00000080: 6722 063d 647d 3b3e 4193 a43d d2fe 15bd
00000090: 6ce1 69ba 1817 ff3d 9391 dd3c 174a 833e
000000a0: 4a84 03bd e562 13be 1fa1 cebd 21c7 45bd
000000b0: 0104 c6bc 490f d5bd 9ae2 c7bd 416e 223e
000000c0: 80f3 7c3a 7642 553e 0051 c1bd b35c b6bd
000000d0: 4492 273d cb4b 18bd 51cf d5bd 6dc6 133c
000000e0: 615c 08bb 98ba 8b3d 2bfa e4bd 39b7 cfbc
000000f0: 91a9 313e e0be 553b cd3b 8cbd 3f77 b4bd
00000100: 21d8 ea3d 24a4 93bd c718 813d 61e1 49bd
00000110: cdf8 293e 437e fc3d 0d1a 69bb ff7e e23d
00000120: 67c6 20be 835c 5fbd 9615 8cbd 3756 843d
00000130: 0296 bc3c 65b9 27be 157e d63c 4f50 c4bd
00000140: e7aa 9a3d 383e f1bd 62da 01be be08 a4bc
00000150: 1074 c7bc a99c 103e 4fcb 273c 343b 16be
00000160: 7c70 dc3d 77eb 703d d91c 3e3e 921c 9f3d
00000170: fa4c d03c 2685 2d3b 918f 2cbe 58e1 c3bd
00000180: 52d1 883e 8ce1 3f3e e348 993e 68d3 953e
00000190: b509 d43c 2d97 c33d b4af 053e a992 bb3b
000001a0: 63ab 803e 9d66 de3d 34ed 5a3d d8d5 513e
000001b0: 5147 593e 4379 ad3e a42b 643e b148 d4bd
000001c0: c25f 373d 53a1 543e 31a2 8b3d b0ed d93d
000001d0: 33c4 243d 4f95 5b3e b6c7 f13d 5de1 353e
000001e0: f71e 363e 5a7e a73e 0926 713e 6689 a73c
000001f0: 72de 013c ff5e 883d b1db 613d 31b8 013e
0.023389671 -0.020690884 0.14827615 0.17161985 -0.04649046 0.20657766 0.16059366 0.15016897
0.21845442 0.16552614 0.03141984 -0.0029267513 0.19353093 -0.024031967 0.27291393 -0.012912874
0.1326482 0.20792623 -0.055984218 0.19032933 0.09839218 0.017069157 0.10184387 0.2358158
0.2117127 0.14189106 0.51594394 -0.07929063 0.12470508 0.32911536 0.21761607 0.24548899
0.032747652 0.18309551 0.08035899 -0.03661997 -0.0008921835 0.12455577 0.027046954 0.25642464
-0.032108583 -0.14393194 -0.10089325 -0.048285607 -0.024171831 -0.10403306 -0.09760018 0.15862371
0.00096493214 0.20826134 -0.09439278 -0.089044 0.040910974 -0.037181657 -0.10439933 0.009019476
-0.0020807015 0.06822699 -0.11180528 -0.025355922 0.1734984 0.003261499 -0.068473436 -0.08811807
0.114670046 -0.07209042 0.06303554 -0.049287204 0.16598816 0.1232877 -0.0035568506 0.11059379
-0.15700684 -0.054531585 -0.06840055 0.06461757 0.023020748 -0.16379316 0.026183167 -0.0958563
0.07552128 -0.117794454 -0.12680963 -0.0200237 -0.024347335 0.14122261 0.010241344 -0.14671022
0.10763642 0.058818307 0.18565692 0.07769121 0.02542733 0.0026477068 -0.16851641 -0.09564465
0.267222 0.18738383 0.2993842 0.29262853 0.025883535 0.09550319 0.13055307 0.0057242704
0.25130758 0.10859416 0.05344887 0.20491731 0.21218611 0.33881578 0.22282273 -0.10365427
0.044769056 0.20764665 0.06818045 0.106410384 0.040226173 0.21443675 0.1180567 0.1776175
0.1778525 0.32713586 0.23549666 0.020451259 0.00792657 0.06658744 0.055141155 0.1266792

latent.bias_hh_l0 f4 [128]
00000000: 844e f23c c475 7fbd 3939 9d3d bc52 b83d
00000010: 5208 e1bc b63b df3d 9f32 1b3d e919 723d
00000020: 71f8 ea3d 99db 153e fa71 98bc 8173 f639
00000030: e1ca ab3c d3ed 6f3e 72dc 96bb 3e1e 12be
00000040: df4a f9bc 5733 64bd 07fd b93d 41bf 903c
00000050: 37f9 833e 6873 5f3e d2f6 e3bd 1a16 513e
00000060: fed0 3e3d f5c3 963e 90d2 793e 1311 1cbc
00000070: 5886 4b3e 90ff b93e 1357 163c c14f 253e
00000080: b376 88bd aa81 be3d 0954 ef3d c17e c33d
00000090: 2858 4c3e c07a 28be d0fc e83c d4aa 233e
000000a0: ba90 91bd edba 18bd dc4e 80bd 42c8 f5bd
000000b0: 5d49 b53d afaf 5bbd 0478 86bd 31c9 8bbd
000000c0: ecea 57bd bb7f a93d f5ba 5bbe f6f5 cabd
000000d0: ea66 a73d 32bb 8bbb 4af6 193e 29fe e3bc
000000e0: 46f7 2cbe 14a0 2fbe b83a c33d 82c2 513d
000000f0: a65b 1a3d 0ead 273e 7b8f ecbd 964f e9bc
00000100: a837 08be 8b71 38bd 67e7 92bd 5d4b 29be
00000110: 9c18 b63b 071a 173e 3604 08be 98a9 9d3d
00000120: d06a 2dbd d7fb 553d 5b89 66bd 0841 8fbd
00000130: 506a 853d 7e20 16be 8404 e13d a471 ba3d
00000140: 07dc af3d aeea 8a3d 9cb5 c33d ff2e ee3c
00000150: 2f57 c6bc 6dde d23d 849a 433d e995 8abb
00000160: 7954 47bd e071 0a3e 5fc1 cbbd aab8 39be
00000170: 75b0 0f3d ffc3 42bd 9add febc 18d0 4c3d
00000180: af8c df3d 4fff c13d 4c3f 003f 5290 f73d
00000190: dab0 113e 6664 4b3e 2e62 a73d 51d7 643e
000001a0: 157e 853e 2147 e83d 3e66 893d 361c b23e
000001b0: 8d59 653e 8dcc 4f3d b935 a73d ae8f d5bd
000001c0: 422d 8b3d 7ffe 07bc 3ce1 193e 5ecc 073e
000001d0: d6b7 30bc 7987 7c3e d506 143e d6ee cb3e
000001e0: 5a9a af3d 9342 7a3e de8c 893e 7549 c2bc
000001f0: eb32 543e fb48 7e3e dd56 8a3e d4a7 7e3e
0.029578455 -0.06236817 0.0767693 0.09000155 -0.027469788 0.10900061 0.037890073 0.05910674
0.11473168 0.14634551 -0.018609036 0.00047006833 0.020970764 0.23430566 -0.004603916 -0.14269349
-0.03043121 -0.055713024 0.09081464 0.017669322 0.25776073 0.21821368 -0.111310616 0.20418587
0.04658603 0.29446378 0.2439673 -0.009525555 0.19875467 0.3632779 0.009176034 0.16143705
-0.06663265 0.09302075 0.1168595 0.09545661 0.19955504 -0.16453075 0.028440863 0.15983135
-0.071076825 -0.03728764 -0.06265041 -0.12001087 0.088518836 -0.05363434 -0.0656586 -0.068254836
-0.052714273 0.08276316 -0.21458037 -0.099101946 0.08173926 -0.004264259 0.15035358 -0.027831154
-0.16891202 -0.17150909 0.09532684 0.051210888 0.03768506 0.16374609 -0.11550804 -0.028480332
-0.13302481 -0.045030158 -0.07173043 -0.16532655 0.005557133 0.14756022 -0.13282856 0.07698363
-0.042338192 0.052242126 -0.056283336 -0.069948256 0.06514418 -0.14660832 0.109871894 0.091037065
0.08586889 0.06783043 0.095561236 0.029075144 -0.024211494 0.102963306 0.04775478 -0.0042292965
-0.048664544 0.13520002 -0.09948992 -0.1813685 0.035080392 -0.047550198 -0.031111527 0.05000314
0.10915505 0.094725244 0.50096583 0.12088074 0.1422762 0.19862518 0.08173023 0.22347762
0.26072755 0.11341692 0.06708954 0.34787148 0.22397442 0.050732184 0.08164544 -0.10427795
0.067957416 -0.008300423 0.15027326 0.13261554 -0.010786017 0.24661054 0.14455731 0.39830655
0.08574362 0.24439459 0.26865286 -0.023716668 0.20722549 0.24832527 0.27019396 0.24868709

decoder.weight_ih_l0 f4 [256, 32]
00000000: 9f14 b93e a7fb d1be e38d a43e 3bd1 27bf
00000010: 8661 033f c113 383f aa01 183f f33c 423f
00000020: 760b 08bf 7e7e 123f 280a 3abf cf4b 1e3f
00000030: 4f36 93be dccf 2cbf 0e15 fd3e f420 dbbe
00000040: 556b a33e ede1 303f d6f7 9abe 0952 8dbe
00000050: f5b4 18bf 9d73 03bf adfc e73e 6fb4 303f
00000060: ef2b 423f e54d 923e df5e 00bf 405d e6be
00000070: 1731 acbe 6b39 00bf df52 24bf e076 583e
00000080: 3e45 383f c558 2cbf 661a 783d 0d9f 08bf
00000090: 8d6a 273f 7727 0d3f 3b54 753f 4d76 953f
000000a0: b01d b9be 16c8 283f 2cd7 fabe 5b7c 0f3f
000000b0: ebfb d5be aff1 06bf 5aaa 1e3f 6158 d9be
000000c0: 1e8d fb3e a1f4 233f 2b1d e0be 0fc5 c2be
000000d0: de9d 3dbf a77e 22bf 3887 9d3e 7307 d43e
000000e0: 460d 2e3f c1be cb3e c8d8 09bf a809 86be
000000f0: 0f0e f8be c5d5 ccbe 2fae 73bf 4e0b 3f3f
00000100: dc0c ab3e 938b b8be 67a7 05bd 337a 24be
00000110: 45d0 843e df7d 923e 4fd1 063f ea84 6a3e
00000120: 3c2e 4ebd f075 913e 5f52 fbbe b34d 463e
00000130: 0287 4cbf a693 45be 4c65 cd3d aa25 5abf
00000140: 4dc8 613f 7e80 f63d 4191 d83a 9fd0 63bf
00000150: 2910 6cbe 05b7 83bf 3c01 4b3f de44 6b3f
00000160: 3fb6 983e 4226 513f 2a20 46bf 28c2 3ebf
00000170: be0b 17bf 8b71 e9bf 1b36 9bbf 16af 253f
00000180: ecb9 b63f ffb1 10bf d0fc 583e f5f3 dbbe
00000190: df70 c23e ecfa d93e 2088 803f c18a 633e
000001a0: b714 a4be bf51 0d3f bab0 d9be a144 233f
000001b0: cd40 f4be d609 debe 0d0e ee3e 3dc0 eabe
000001c0: aff3 093f 8b8e dc3e a7e1 aabe a60b dbbe
000001d0: 0a28 00bf 9309 2ebf eecf 613e 2d93 513f
000001e0: abb3 d73e 659c 4e3f 7e5b 13bf 4ea9 08bf
000001f0: 9a37 0bbf 8475 28bf 5b4b db3d f94d 0d3f
00000200: a56b 5d3f 2e4d 09bf 8e2f be3d 1761 49bf
00000210: 06a7 d13e b762 393f c34b 973f 6207 763f
00000220: 09a8 83bf d2e7 1a3f c444 02bf 1d34 373f
00000230: f476 7cbe 0f31 4bbf 8301 2e3f e17f 98be
00000240: 5b52 c13e 6927 4d3f 0bcf a2be 8585 52be
00000250: a86f 2cbf 25b2 17bf d7f5 dc3e eb9f 363f
00000260: 2188 4f3f c906 b93e 33cb f5be c5e0 cebe
00000270: 40cb eebe 5dfa 7dbe 3ee1 01bf 2313 183f
00000280: f211 8a3f 7d6e 3cbf b6fe 8c3e 9a33 2cbf
00000290: 1da6 163f e017 363f cc75 ae3f 9731 083f
000002a0: 7975 2bbf 6936 453f 20e0 cdbe c8bf 343f
000002b0: 4038 63be f9a4 4cbf 2abe 633f c7f4 d0be
000002c0: 7fd0 253e f3f6 483f f3b3 38be b690 cdbd
000002d0: dc39 36bf 0231 f3be 3157 883e 995f d13e
000002e0: 5952 6d3f fb20 b53e cac6 e1be 3fc4 69bf
000002f0: e927 84be 25fb bdbe ea5d 7cbf e7bb 873e
00000300: e58f fa3e 3564 84be 9c44 233f 0bbf 37be
00000310: 8274 a23e 8f7b c23e 4eb2 5d3e 6bf5 de3b
00000320: 62bd a6be 333b 893e fe6f 91be 5a01 0e3e
00000330: 182b 1bbf fe5f 92be 2765 a03e 6dbf 15bf
00000340: bd43 473f 002d 053e 0170 2dbf 9c63 2fbf
00000350: e133 a2be deb8 d9be 8452 f23e d51d 283f
00000360: 95da 2b3e 7299 a73f 843c 3fbf e2e6 69bf
00000370: 3cb7 0ebf fed7 90bf c7c9 3cbf 1830 993e
00000380: a5b6 a43e 316e 1fbf 2c30 c73e 3bb2 15bf
00000390: 4ca4 443f 6f18 013f b8db d03d a604 86be
000003a0: da90 c1be d7d0 b23e dfed c7bd e8f5 f73e
000003b0: a9b1 d5be 4b49 96be 5d06 803e a2a4 35bf
000003c0: 0d97 1a3f dd52 a23d cbff 27bf bffa 63bf
000003d0: 3e9d d1be 4c9f 09bf 57a5 2a3f 7ea5 933e
000003e0: 5be3 f23e fe93 983e 6230 c1be 57c6 b33d
000003f0: 6a8e 83be 6bf4 41bf ae29 70be a5ec 493e
0.36148545 -0.41012308 0.321395 -0.65553635 0.51320684 0.7190514 0.5937754 0.7587425
-0.5314249 0.5722426 -0.7267175 0.61834425 -0.28752372 -0.6750467 0.49430126 -0.4279858
0.31917825 0.69094735 -0.3026721 -0.2760165 -0.5965112 -0.51348287 0.45309964 0.6902532
0.7584829 0.28575054 -0.5014476 -0.4499302 -0.33631203 -0.5008761 -0.6418895 0.21139097
0.71980655 -0.6732295 0.06057205 -0.5336769 0.6539696 0.55138344 0.9583165 1.1676728
-0.36155462 0.65930307 -0.48992288 0.56049126 -0.4179376 -0.5271253 0.61978686 -0.4245024
0.491311 0.6404515 -0.43772253 -0.3804097 -0.7406901 -0.63474506 0.30767226 0.41411933
0.67989004 0.3979397 -0.53846407 -0.26179242 -0.48448226 -0.40006843 -0.9518766 0.74626625
0.33408248 -0.36043987 -0.03263035 -0.1606224 0.25940147 0.28611657 0.5266313 0.22902265
-0.05033706 0.28410292 -0.49086282 0.19365577 -0.79893506 -0.19294605 0.100290865 -0.8521372
0.8819626 0.12036227 0.0016522781 -0.88990206 -0.2305304 -1.0290228 0.7929876 0.9190196
0.29826543 0.81699 -0.7739283 -0.7451501 -0.5900229 -1.8237776 -1.2125887 0.64720285
1.4275489 -0.565216 0.2119019 -0.42959562 0.3797674 0.4257425 1.0041542 0.22220899
-0.32047054 0.5520286 -0.42517644 0.63776594 -0.4770569 -0.4336688 0.46495095 -0.4584979
0.53887457 0.43077502 -0.33375284 -0.42782325 -0.50061095 -0.6798336 0.22051975 0.818652
0.42129263 0.8070739 -0.5756148 -0.5338334 -0.54381716 -0.65804315 0.10707732 0.551971
0.8649238 -0.5363339 0.09286414 -0.7866377 0.4094774 0.7241625 1.1819996 0.96105015
-1.0285655 0.6050998 -0.5088618 0.71563894 -0.24654752 -0.7937173 0.67971057 -0.29785064
0.37758145 0.8013826 -0.31798586 -0.20558746 -0.67357874 -0.592562 0.4315631 0.71337765
0.8106709 0.3613799 -0.4800659 -0.4040586 -0.46639442 -0.24802537 -0.5073432 0.594042
1.0786726 -0.7360609 0.2753808 -0.6726624 0.5884722 0.7113018 1.3629699 0.5320067
-0.66976124 0.7703615 -0.40210056 0.70605135 -0.22189426 -0.7993923 0.8896204 -0.4081175
0.16192816 0.78501815 -0.18037395 -0.10037367 -0.71182036 -0.47498327 0.26629022 0.40893248
0.9270378 0.35376725 -0.44096977 -0.9131507 -0.258117 -0.3710567 -0.985808 0.26510546
0.48937908 -0.25857702 0.63776565 -0.17943971 0.31729513 0.37984893 0.21650049 0.0068041584
-0.32566363 0.26802978 -0.28405756 0.13867703 -0.6061263 -0.2858886 0.31327173 -0.5849522
0.77837735 0.13005447 -0.6774903 -0.68511367 -0.31680205 -0.42523855 0.4732858 0.6567052
0.16782601 1.3093703 -0.74701715 -0.91367924 -0.55748343 -1.1315916 -0.7374539 0.29919505
0.32170597 -0.62277514 0.3890394 -0.58475083 0.768132 0.5042791 0.10198158 -0.2617542
-0.37805825 0.34924957 -0.09762167 0.484298 -0.41737106 -0.29352793 0.25004855 -0.70954335
0.60386735 0.07925961 -0.65624684 -0.89054483 -0.4094028 -0.5375869 0.6665854 0.28837198
0.47439083 0.2980041 -0.37732226 0.08778065 -0.2569459 -0.7576358 -0.234534 0.19719179
