saved_models/AD_autoencoder_ep5_loss1.7092.pth (torch, 257618 bytes, 14 tensors)

encoder.weight_ih_l0 f4 [256, 28]
00000000: fa61 fabc 0149 9c3b 931a eab9 775c 64bc
00000010: e3f1 263b 7de5 fd3a 41da c43a b91c 2f3b
00000020: cfd1 533b f179 17b9 9c99 8b3a 659c 78ba
00000030: 6714 03bc ef8b c3bb 1e8f b13c 2f12 f939
00000040: 210e 0eba 9beb 3837 8aa0 f93c 41fd 8abb
00000050: 7473 753d b808 9c3b 971e 8f39 60d8 f3bb
00000060: 916e ed3c b38e 513d fa41 a63b def2 ea3b
00000070: 64b2 8abd cdf7 013c 170e 4f39 b8f0 84bc
00000080: 0348 4c3b 45bb df38 5ab5 37ba 0582 ec39
00000090: a569 7aba 2e2b 87b8 7858 343a f1eb 9339
000000a0: fb38 b5ba 537b 9bbb a742 90b7 c85e e639
000000b0: 4b2a de3a 010a 783a 82ae 883d 8cbf 12bb
000000c0: 21f8 82bb 1277 073a 458e 3639 2c10 c43b
000000d0: b4cf a33d bf53 0fbb efda 72bb 7570 b4ba
000000e0: e758 233c 44dc 4dba 23ca 3aba 2777 3d38
000000f0: 2ee3 8b3a 704b 8039 29ea 3439 da80 0339
00000100: a607 dab6 f05e bbb8 b171 7439 26e0 5ab8
00000110: 87b2 b8ba 2305 61ba 2549 193b 1a6a 1a39
00000120: 5aa3 57b9 4d48 cdb8 a1c7 20bc bebf c5b6
00000130: c23f d53b 0517 a239 aec3 4838 f16c febb
00000140: d506 61ba 9eb6 ce3b 95c2 f539 89b0 a93c
00000150: a685 623d 94fd f6bb 7dd6 36bb 3946 fa39
00000160: ef10 24bb 4e1f 1a3a 3fdc 9239 2905 0f3a
00000170: 55e4 03ba 962f a7b8 ca3e 3c39 46bd c339
00000180: c0e6 6dbb d379 1b3b cd90 0e3c b4c7 0a3a
00000190: b087 34ba 7ca6 a6b9 7acc 5fbd 53ec 093a
000001a0: 3bbd 633c 365d 28b8 d5c7 f738 fc29 afbc
000001b0: 29a0 923a 5034 ae3c 6a9f 9c3a 4182 cfba
000001c0: 37fd 833c c6aa 8dba d669 72b9 0951 ad3a
000001d0: 1aec 2cbb 05aa 8539 0e96 b9b9 0a04 81b9
000001e0: 3a09 b6b7 fff2 0439 e367 5b3a 2597 d039
000001f0: fb1c a1ba 6db8 8c3a 394e ab3b a12e e1b9
00000200: 3dcc bc39 bc4c 7939 b211 75bc fef9 4f3a
00000210: ff97 febb 41c3 cb39 2a43 21b9 ab70 303c
00000220: de80 2b38 8149 5a3c 4f66 90ba 2626 9fbd
00000230: b73c 8db9 e932 a739 f988 093a 8f02 f0b9
00000240: 5758 823a ba0c e2b8 fb54 b837 d52a 5f39
00000250: 3785 a6b8 6f1b 83b9 b098 08b7 5abf 98b7
00000260: e894 52b8 9082 94b9 5b3f 83b9 c495 afb9
00000270: 1187 4239 8466 2638 1f4f 25b9 7777 f937
00000280: 48d4 2bba 8831 adb8 2138 b1b8 552d 293a
00000290: e9aa 4f3a 22bf 88b9 063c 92b7 6cb3 2eb8
000002a0: e28e 72b6 b800 693a ac88 023a de5a 9eba
000002b0: 773a 89ba 4ca7 1db8 e147 3f38 b076 c5b8
000002c0: bba0 5439 4919 9136 dec8 96b8 393d 0a38
000002d0: f7a5 6239 9008 533a 4571 9b38 f38b e139
000002e0: 9ad2 4ab6 4462 2eb9 bdca 5c39 00d1 bdb9
000002f0: 6642 f2b8 52ce df38 bb4c b0b8 c0da 55b9
00000300: 5565 a1bb 1765 a6b7 b277 c938 78ce b639
00000310: bc21 77bd 5044 903c d33b a2bc 711f f73c
00000320: c896 723c ecbe dc3b 2489 0b3a 1965 ac3b
00000330: 8c13 92bb e842 4d3b be5d 6f3a a748 13bc
00000340: 3555 42bc af8b 47bc a4de 463c b98c f5ba
00000350: 5339 5c3a 9380 1abb 7720 693d c4cc 27bc
00000360: 16de 0d3e dd06 4f3a 2c07 56ba 2f8f c8bd
00000370: 0c05 523b 15c9 bc3c 6b8f 763c c16a 3c3c
00000380: 6a17 48bc 9bfb 8bbe ba9f 62be 2126 3cbf
00000390: f3a9 88bd 821a f9bd acfd 483c 7dbc 273d
000003a0: 939d 62bd 0d2d 8b3c 9837 67bd 53f8 eebe
000003b0: 01e9 f5bc 47fb 013e 1fe8 373e 583a 57bc
000003c0: b057 e93c 3360 56bc a0ba 73bc a8a4 3ebd
000003d0: fd44 b03f ec50 a33f ba33 0c3f 10ce 8b3e
000003e0: f9aa 303f 41db b23e 1242 343e f314 a63f
000003f0: 52bb 9cbc 6144 503b 50ee f7b9 4964 033c
-0.030564297 0.004769445 -0.00044651757 -0.013938061 0.0025473766 0.0019370761 0.0015018658 0.002672
0.00323211 -0.00014445909 0.0010650638 -0.0009483754 -0.00800047 -0.005967609 0.021674689 0.0004750653
-0.00054189755 1.1022111e-05 0.030472059 -0.004241616 0.059924558 0.0047617815 0.00027297877 -0.0074415654
0.028983386 0.05116148 0.005073783 0.0071700653 -0.067723066 0.0079326155 0.00019746307 -0.016228065
0.0031170852 0.0001066835 -0.00070079195 0.000451103 -0.00095524854 -6.4453445e-05 0.0006879638 0.00028213815
-0.0013826186 -0.004744926 -1.7197175e-05 0.00043939636 0.001694986 0.000946194 0.0667391 -0.0022392003
-0.0039968644 0.0005167584 0.00017409872 0.005983373 0.079986006 -0.0021869985 -0.0037056764 -0.0013766425
0.009969926 -0.00078529515 -0.00071254576 4.517208e-05 0.0010672563 0.00024470268 0.00017253369 0.00012541134
-6.4977967e-06 -8.934538e-05 0.00023312007 -5.2184005e-05 -0.0014091291 -0.0008583834 0.0023389545 0.0001472611
-0.00020564851 -9.788629e-05 -0.00981322 -5.8933792e-06 0.0065078447 0.000309162 4.7865957e-05 -0.0077644517
-0.0008584087 0.0063083908 0.00046875016 0.020714061 0.05530324 -0.007537553 -0.002789884 0.00047736036
-0.0025034507 0.00058792986 0.00028011386 0.0005455786 -0.00050312775 -7.972044e-05 0.00017952468 0.00037334318
-0.0036300868 0.0023723736 0.008701515 0.00052940403 -0.0006886674 -0.00031786028 -0.054638363 0.00052613503
0.0139000965 -4.014113e-05 0.000118150994 -0.021382324 0.0011186647 0.021265179 0.0011949365 -0.0015831665
0.016111953 -0.0010808341 -0.00023118345 0.0013223003 -0.0026385845 0.0002549441 -0.0003539775 -0.00024607807
-2.1700387e-05 0.00012679024 0.00083696673 0.00039785463 -0.0012291962 0.0010736116 0.0052278307 -0.00042950085
0.00036010324 0.00023775076 -0.014957832 0.0007933675 -0.007769584 0.00038864653 -0.00015379177 0.01076905
4.0889594e-05 0.013323189 -0.0011016818 -0.07770948 -0.00026938852 0.00031890653 0.0005246546 -0.00045778273
0.000994454 -0.0001077889 2.1974081e-05 0.00021282893 -7.94031e-05 -0.00025006707 -8.141782e-06 -1.8208917e-05
-5.020658e-05 -0.00028326036 -0.0002503347 -0.00033490185 0.00018551598 3.967296e-05 -0.00015765101 2.9738743e-05
-0.00065547647 -8.258509e-05 -8.4504725e-05 0.00064535934 0.0007921891 -0.00026082346 -1.7432507e-05 -4.1651932e-05
-3.6143979e-06 0.0008888352 0.0004979472 -0.0012081524 -0.0010469694 -3.7587524e-05 4.560489e-05 -9.415799e-05
0.00020277772 4.3242803e-06 -7.189972e-05 3.2958782e-05 0.00021614866 0.0008050287 7.412074e-05 0.00043019615
-3.0222932e-06 -0.0001663054 0.00021056361 -0.00036204606 -0.00011551827 0.00010671899 -8.406626e-05 -0.00020394754
-0.00492541 -1.9835816e-05 9.606722e-05 0.00034867576 -0.060334906 0.017610699 -0.019803917 0.03016636
0.014806457 0.006736627 0.0005322865 0.005261075 -0.0044578966 0.0031320397 0.0009131095 -0.00898949
-0.011861135 -0.012179299 0.012138043 -0.0018733955 0.0008400876 -0.0023575171 0.056915727 -0.010241691
0.1385425 0.0007897446 -0.0008164521 -0.09792935 0.0032046465 0.023045102 0.015048842 0.0115000615
-0.012212614 -0.27340397 -0.22131243 -0.7349568 -0.0667304 -0.12163259 0.012267511 0.04095124
-0.055326056 0.016989255 -0.056449503 -0.4667383 -0.030018331 0.12693511 0.17959641 -0.013136469
0.028484195 -0.013084459 -0.014876038 -0.046543747 1.3771054 1.275907 0.5476643 0.2730565
0.69010884 0.34932902 0.17603329 1.2975143 -0.01913229 0.0031779038 -0.00047289068 0.008019515

encoder.weight_hh_l0 f4 [256, 64]
00000000: c68f 253d 0257 83bd 9a2b ac3d f350 c8bd
00000010: 27c1 5abd db38 973d c723 623d d0a1 26bd
00000020: bf86 b83d a75c fb3d a39f e53d a0a2 2ebe
00000030: 14c1 34bd e92e 1cbe d1db 143e 2da7 88bd
00000040: aff0 e93d 7a9e 5dbe 1ad7 1fbc e7cd 8b3d
00000050: 6e0b 873d b7e8 793c b08e b83d fb9e 03bd
00000060: 3c94 2ebe 2803 ad3d 21d0 8abd 286f 6e3d
00000070: b51b 923d e437 603c 725a 8d3d 3e38 133e
00000080: 97e7 f53d 1836 ee3d 2b1e 373d 167f 1c3e
00000090: ffc3 b1bb 7523 a6bd 8270 e9bd 5e38 603d
000000a0: e29f 0d3d 1f23 033e 496d 32bd 3cb3 b83d
000000b0: c7f2 213d 679a 393c 863e 813c e0b4 a13d
000000c0: 9b32 6f3d 889e cfbd 6500 1b3d 51f9 2b3c
000000d0: 8396 54bc d2a5 edbd 897a dfbd f48a 0bbe
000000e0: 609c 9a3d dde7 e23c 0615 e7bc d753 8c3d
000000f0: 8017 49ba 6404 b7bd a34a ad3c b815 09be
00000100: b4a9 a3be 2b73 2b3f 9ba3 75bd b83b 743d
00000110: 65dd 983c bbcc dbbe d425 5b3f a4f1 f2bd
00000120: e9fe be3d fa01 b93e 2285 363b bd2e 3ebe
00000130: 286b 5d3e d028 0bbe 5ad4 eebd 2e1d d73d
00000140: b789 8ebe e2eb 32be 5387 883e fa0c ebbd
00000150: 1fa4 51be e789 9abe adce 0d3f 99ce 88bd
00000160: d933 42be c650 21bf 449e 383e 000e 163d
00000170: 2343 1f3d 3007 ba3e 5fc8 5e3e 304a 4a3c
00000180: 0de8 093e c6b0 163c a331 48bd 5345 933d
00000190: 4a2c 61bd a40c 0e3a 6cbb 41bd 610b fe3b
000001a0: 4003 783f ead0 4dbd ec6f 95bd e681 64bf
000001b0: 18de adbe cd1f 2dbf 5eb9 623f f6e4 a33d
000001c0: fc0a f33d ab14 083d c1e3 71be c6ac 823e
000001d0: 9a73 91be 82cd efbe 97b9 903e 8b91 8abe
000001e0: e71b eabb f690 733e be7a 46be b2ba 96be
000001f0: 0048 143e f795 36bd 6add d1be 668e 083d
00000200: cb68 c43d 762d 333d fea1 c33c 0da8 df3b
00000210: a813 883d 1c58 17bd 17fc 523e dfc4 113c
00000220: 5bb8 d5bc 3b5c fd3c 5c1d d4bd e4a9 7b3a
00000230: ef48 83bd 33a9 8a3d 8b5b 4bbd 00ab c53c
00000240: 9cd5 c63d 3318 a23c e556 223e bd1b d13c
00000250: 69b9 8a3d 7143 22bd b06e 06b9 bddd 3cbd
00000260: d62b 3ebe 2604 e83b 3251 fd3d 7224 06be
00000270: 451e ebbd 39ae 48bd 456e dc3b 70af 91bc
00000280: a5bf 833d 6a94 1a3d 7315 113d fca2 e43d
00000290: 362c d4bd f500 c73d b377 ca3c 1cc4 923d
000002a0: 3d20 b53e 013a d0bd c4f6 febd d407 3fbd
000002b0: 5f7f cf3e 5ead 593d 4fa3 3c3d b89f 8dbc
000002c0: 7e43 173c 163f 86bd 9552 94bd 1050 f23c
000002d0: f77d 1ebd 03c1 dc3d c7ac 443c 9ab0 013d
000002e0: 22ff 6c3c b9f6 1fbe 3aa5 843b fd10 80bd
000002f0: bd7e 0dbe 3843 ed3e cf18 d8bd 86f4 d03c
00000300: 52a5 63bc 3448 e3bc d535 49bd 2c91 113c
00000310: 1e4f 7c3c 8865 a13e fdd6 6b3d 2047 3bbe
00000320: 0a68 f2bc a8a4 a5bd aee0 11bc 5253 2fbd
00000330: b1dc 2c3e f120 a4bd 64c5 30bd a6ea 513d
00000340: 8a61 f53d 4471 bbbb 5fe4 69bd 5350 273e
00000350: 35f5 d8bd b8fc b43e d10c 033c 6f9f 2f3c
00000360: 6079 743e bcd9 5d3d 05eb 853d 7d35 973e
00000370: 0f36 d33c 050e 323d ca7c d63c 9ff8 083e
00000380: 677d 783d 7511 87bd 06d5 b5bd 1980 08be
00000390: f6e5 2ebe 5ae0 103d 296e 5b3d 4628 b0bd
000003a0: 271f 9c3e 0557 873c ff41 bbbc 246c 27bd
000003b0: 46cf 033f f6e5 32bf b7b4 81bc 437d 9b3d
000003c0: 9687 3c3b ef18 ed3c ff5e 523d 37be 0c3e
000003d0: 59ca 3fbe 874d cbbc 7bf3 d1bd a77b 26bb
000003e0: bf3f 523d 5675 bc3c 4a68 ae3c da6d 81bd
000003f0: b23f ab3d 683c 9cbd f731 0bbe 0acd 3b3d
0.040420316 -0.0641308 0.08406754 -0.09781065 -0.05340686 0.07383891 0.0552099 -0.04068166
0.09010076 0.122735314 0.11212089 -0.17054224 -0.044129446 -0.1525227 0.14536978 -0.06672511
0.1142286 -0.21642485 -0.009755874 0.06826382 0.06593977 0.015253237 0.090115905 -0.032134037
-0.17048734 0.08447868 -0.06777979 0.058211476 0.07134191 0.0136852 0.06902017 0.14376923
0.12007063 0.11631411 0.044706505 0.15282854 -0.005424976 -0.08112232 -0.11398412 0.054741256
0.034576304 0.12806366 -0.043561254 0.09018561 0.03953817 0.011328316 0.015776884 0.07895827
0.05839787 -0.10137659 0.037842173 0.010496453 -0.012975338 -0.11603893 -0.109120436 -0.13627225
0.075493574 0.027698452 -0.028208267 0.06851929 -0.0007671043 -0.08936384 0.021153754 -0.13387191
-0.3196541 0.6697261 -0.05997048 0.059627265 0.018660257 -0.42929634 0.85604596 -0.118624955
0.09325964 0.3613432 0.002785035 -0.18572517 0.21622908 -0.13589787 -0.116615966 0.105036125
-0.27839443 -0.17472795 0.26665744 -0.114770845 -0.20472763 -0.30183336 0.5539349 -0.066800304
-0.18965091 -0.63013875 0.18029124 0.036634445 0.038882386 0.3633361 0.21756123 0.012346789
0.13467427 0.0091974195 -0.048875462 0.07190957 -0.054973878 0.0005418754 -0.04729788 0.0077528213
0.9687996 -0.050248064 -0.07296738 -0.8926071 -0.33958507 -0.6762665 0.885641 0.08002655
0.118673295 0.033222836 -0.23622037 0.2552244 -0.2840851 -0.46836478 0.28266594 -0.27064165
-0.0071444395 0.23785767 -0.1938276 -0.29439312 0.14480591 -0.04457661 -0.40989238 0.033338927
0.095903 0.043744527 0.023880955 0.006825453 0.06644374 -0.036949262 0.20603977 0.008897035
-0.026088884 0.030927768 -0.10357162 0.0009600206 -0.06410395 0.067705534 -0.04964785 0.02412939
0.097087115 0.01978693 0.1585346 0.025525922 0.067736454 -0.0396151 -0.0001282047 -0.046109904
-0.1857141 0.0070805727 0.123690024 -0.1309984 -0.11480383 -0.048994277 0.0067270123 -0.01778385
0.06433038 0.037739195 0.035420846 0.11163899 -0.10359995 0.097169794 0.02471528 0.07166311
0.35376158 -0.10167313 -0.124494106 -0.046638325 0.40526864 0.05314385 0.04605418 -0.017288074
0.0092324 -0.065550014 -0.07242314 0.029579192 -0.03869435 0.107790016 0.012004084 0.03166256
0.014465125 -0.15621461 0.004048017 -0.0625324 -0.13817878 0.46340346 -0.10551607 0.025507223
-0.013894396 -0.02774439 -0.049123604 0.008884709 0.015399722 0.31522775 0.057578076 -0.18288851
-0.029590625 -0.08088046 -0.0089036655 -0.04280407 0.16881062 -0.080140956 -0.043156996 0.05124917
0.11981495 -0.0057202894 -0.057102557 0.16339235 -0.105936445 0.3534906 0.007998661 0.010719164
0.23874426 0.054162726 0.06538967 0.29532996 0.025782613 0.0434704 0.026182551 0.13376091
0.060666468 -0.065951265 -0.088785216 -0.13330115 -0.1707991 0.03537021 0.053571854 -0.086014315
0.30492517 0.016520986 -0.022858618 -0.040874615 0.5148815 -0.6988214 -0.015833242 0.07592251
0.002876734 0.028942553 0.051360127 0.13744436 -0.18729533 -0.024817241 -0.10251518 -0.0025403292
0.051330324 0.023005169 0.021289963 -0.06319781 0.08361758 -0.07628709 -0.13593279 0.045849837

encoder.bias_ih_l0 f4 [256]
00000000: 9a6a 253d 751f 0d3e 5ba6 3c38 4fd0 473d
00000010: d3f0 ac3d b745 c3bd 8773 afbc 9fb3 8abd
00000020: 3034 9f3f 19fd 8d3d f1aa 18be 2dae aa3f
00000030: fc10 5abd f064 8a3f 0688 0cbe 3994 aabd
00000040: fa26 113c 1895 253f 303f 11be 90b8 91bd
00000050: 27bb cebd bb01 d1bd 08b4 183f 8f81 01be
00000060: a505 13bc 314e 1c3f b012 aebd d891 023e
00000070: ef6c 7cbd a3e6 513b 52ac 2b3d 5a78 863f
00000080: 3d45 0fbe c7c1 bcbb 8944 9abd 96d4 11be
00000090: e566 cd3d c411 983f 378d 1dbe 39d4 363e
000000a0: 51cd b83d d5f1 75bd 741b 063e 6964 2c3d
000000b0: e748 883e f894 be3c e9b3 863e d9d4 7b3c
000000c0: 5a32 3fbe 329b d03e 0520 513d b4d2 863e
000000d0: dc6c 24be 797c 023f 635f 19be 2492 5ebe
000000e0: 3725 403d 24ee d43e 89ea f93e 084c 523d
000000f0: 5d10 8d3e ae78 63bc 6315 c03d 3526 e0bc
00000100: 6d18 b1bd 8bc9 2cbe 6227 93bd 149b dd3d
00000110: ade5 f23d c07a a5bd 44e4 53bd 4a0e 103e
00000120: b7e9 a93d 9675 9b3d 042d 5d3d 65b4 2a3d
00000130: bada 843e 8b9e d73e 0fb3 07bd f037 743d
00000140: 88a7 0e3d d406 d7bb aa4c 8c3d 28d0 bbbd
00000150: a823 c13c 23d7 083e ae70 363e a6dd d1bc
00000160: fc85 b83d 1ec2 c43d 1917 7ebc 82df 703d
00000170: 328f de3d dc34 723c 09a9 54bd 80da 1ebe
00000180: 867c 833d 748c c0bd 305b 013e 4003 eb3c
00000190: a387 603b 3dd3 ff3c 401a 133d 825c 953d
000001a0: 0b34 79bd 0df7 663d 42e9 80bd a343 93bb
000001b0: 88da a7bd 103b bd3d 557e 2cbb a6b3 b33d
000001c0: 2fed 8dbd ffbe db3c 5a71 17bd ee29 023d
000001d0: e532 aabd a2af 7bbc 7c7f 1fbb 6e5e b83d
000001e0: 348e abbd 8611 043c 822b 6f3d 4786 103e
000001f0: 4e00 593d 9e20 cd3d bd6b a3b9 2fa5 9abc
00000200: 37d5 f13e e69c 463d 1468 3b3f 1bd2 09bf
00000210: 1702 f6bd 4f37 bebd 3e59 f53d 56dd 20bf
00000220: 4b85 093f 4654 133e 5fd9 af3e 26fd 10bf
00000230: 294d d0bd 5b68 3abf 5d22 6cbe da1f 0cbc
00000240: 74dd a3bd 11e5 2abf e774 b33a 5aa0 17bd
00000250: ec84 bdbe d47d 0d3e 701d 40bd 73ed d43d
00000260: 4d55 de3d da65 5ebe fe39 4abe 3630 a8bd
00000270: 9402 213e a555 d63e ed48 e6bc 6ad6 033f
00000280: 48b8 c33e 82f5 2b3d cf10 f2bd 51c3 26bd
00000290: 9bfa 74bd 55ec 2ebf f787 dbbe 345d c3be
000002a0: 7a49 933c 70cf 02be 4de0 95bd 834b 13bd
000002b0: 12a4 5bbd 1eba a83c 98ba 0a3e 4f0a bebd
000002c0: e1a2 273f e42c fabe d03d 79bd 5e70 043f
000002d0: 3b1d ffbc e81f 87be 354b b43d ce77 933c
000002e0: 1dac 0e3e b6ab 4bbe 61f4 52be ec6a adbe
000002f0: 2799 0e3f 7fbe 1b3d 49fb 2d3e 2531 e93d
00000300: 2299 bd3e 524a baba 705f 8b3e ca7a cb3e
00000310: ba70 113d 2462 913e 1ae7 033f bcc4 4dbe
00000320: fd70 a73f f47d 54bc 770d 8a3d 80ed 9e3f
00000330: 8a2f 813d f0f6 913f c53d 75bd c1ef 093e
00000340: 94ca 953d d2ac fd3e e177 a43d 50bc c5bd
00000350: 4891 e43e ca22 d83d ac3e 0d3e f11a 363e
00000360: d8a3 e03d 18ae f93e c707 8ebc 3ed5 a33e
00000370: 00ca 5b3c 4e10 a73d 53fd 3c3e 3ed8 993f
00000380: ee5f 963f 24bf 1ebc 4e08 903c cdc2 d5bb
00000390: 67cf 003e 64e0 533f 1698 293d 73c3 733e
000003a0: d862 103e 69e7 d2bd 390c 533f 7571 b93d
000003b0: b374 3c3e 6e4f b93e 89a3 0f3e 7938 e73c
000003c0: a4de 973e f55e 813f 7da4 4f3e 2b1c 4b3d
000003d0: a5d1 503d 00e4 9b3c 842a cc3d cce8 c6bb
000003e0: 1bea eebc a78b 9cbc dcd1 ea3e ff1d 803d
000003f0: 4f3a 143e 048b 8a3d 2eba 5d3e 8e80 073e
0.040384866 0.13781531 4.4977623e-05 0.048782643 0.08444371 -0.095347814 -0.021417392 -0.06772541
1.2437801 0.0693304 -0.14908959 1.3334404 -0.053238854 1.0812054 -0.13723764 -0.083290525
0.00885939 0.64680624 -0.1418426 -0.07115281 -0.1009429 -0.10205408 0.59649706 -0.12647079
-0.008973514 0.6105681 -0.08499658 0.12750947 -0.061627325 0.003202834 0.041912384 1.0505478
-0.13991256 -0.0057604047 -0.07532603 -0.14241251 0.10029391 1.1880422 -0.153859 0.17854394
0.09023536 -0.060045082 0.1309641 0.042087946 0.2661812 0.023264393 0.26309136 0.015370571
-0.18671551 0.40743405 0.051055927 0.2633263 -0.16057152 0.5097118 -0.14977793 -0.21735436
0.04691049 0.41587937 0.4881175 0.05134204 0.27551547 -0.013883753 0.09379079 -0.027361969
-0.08647237 -0.16873758 -0.07185246 0.108205944 0.118602134 -0.08080053 -0.051731363 0.14067951
0.08296531 0.07590787 0.05399801 0.041675944 0.25948125 0.42113146 -0.033129748 0.05962366
0.03482774 -0.0065620933 0.0685056 -0.09170562 0.023576573 0.13363318 0.17816421 -0.025618386
0.090099305 0.096073374 -0.015508437 0.058806904 0.10867156 0.0147831105 -0.051919017 -0.15513039
0.06420235 -0.09401789 0.12632442 0.028688073 0.0034260533 0.031228656 0.035913706 0.07293035
-0.060840648 0.05638795 -0.062944904 -0.004494147 -0.081959784 0.09239781 -0.0026320417 0.087744996
-0.06930005 0.026824472 -0.036973335 0.03177827 -0.083104886 -0.015361698 -0.0024337461 0.09002386
-0.083767325 0.008060819 0.0583911 0.14113723 0.052978806 0.10015987 -0.00031170054 -0.018877594
0.47232983 0.048489474 0.73205686 -0.5383622 -0.12012117 -0.09287893 0.11979912 -0.6283773
0.53719014 0.14387617 0.34345528 -0.56636274 -0.10170967 -0.72815484 -0.23059984 -0.008552516
-0.08001223 -0.6675578 0.0013691456 -0.037018158 -0.37015474 0.13817531 -0.046903074 0.10396852
0.108561136 -0.21718541 -0.19748685 -0.082123205 0.1572364 0.41862217 -0.028110946 0.51499045
0.38226533 0.04198218 -0.11819612 -0.040713612 -0.05980931 -0.68329364 -0.4287717 -0.38157046
0.017979372 -0.12774444 -0.073181726 -0.035960685 -0.053623267 0.02059656 0.13547742 -0.0927931
0.6548291 -0.48862374 -0.060849965 0.5173396 -0.031141868 -0.2639153 0.08803407 0.018001463
0.13932844 -0.19889721 -0.20601036 -0.33870637 0.5570244 0.038023468 0.16990389 0.11386327
0.37030894 -0.0014212823 0.2722125 0.39742118 0.035507895 0.28395188 0.5152451 -0.2009458
1.3081356 -0.012969483 0.067408495 1.2416229 0.063078955 1.1403484 -0.05987336 0.13470365
0.07314029 0.49545914 0.080306776 -0.096550584 0.4464209 0.105535105 0.13793439 0.17783715
0.10968751 0.48765635 -0.017337693 0.31998628 0.01341486 0.08157407 0.1845601 1.2019117
1.1748025 -0.009689126 0.017582085 -0.006523466 0.12579118 0.8276427 0.041404806 0.23805027
0.14100206 -0.10298044 0.82440525 0.09054843 0.18403892 0.36193413 0.14027227 0.02822517
0.2966205 1.0107104 0.20277591 0.04958741 0.050981183 0.019029617 0.09969047 -0.006070232
-0.029164365 -0.01910956 0.45863235 0.06255721 0.14475368 0.067647964 0.21653053 0.13232633

encoder.bias_hh_l0 f4 [256]
00000000: 2b26 773d 729c 113e d82f 93bd 89b3 fc3d
00000010: 7699 94bd cf6d d6bd fefd 8e3d 08c1 12be
00000020: 7f6d a93f 1b55 833d 0811 f1bd e8d9 983f
00000030: 80da 6abe 47d7 a03f b253 a8bd 49af 94bc
00000040: 0b32 f5bd c271 2e3f 070d 683c bf5a 353d
00000050: 87a0 c7b9 d392 36be bd7c 123f e3f0 2f3d
00000060: 1e37 04be 14f8 4b3f 78ad 46bd 2717 1a3b
00000070: c63a 6dbc 7749 a03c 5d68 713d c4ea a13f
00000080: c5bb ac3c 2f8e 4dbb e0ed 70bd 05a1 453d
00000090: 118a 96bd 734a a43f aec8 9cbd 93a4 433e
000000a0: 456f 9d3d fb51 313d f44d de3c b3f2 ca3d
000000b0: d031 583e 52c9 5c3d 3908 473d e1a0 123d
000000c0: a713 c1bd d8ec fc3e de6f 3d3d be12 aa3c
000000d0: 4c9d 40bd b3a0 df3e a23e 93bd e252 87bd
000000e0: 9010 3a3d fd13 c33e a81d 9e3e c82a dcbd
000000f0: b6fa ad3e fd21 e03d cdc3 ea3d e9b1 a83d
00000100: f611 783c 901d 83bd d436 273b c748 503d
00000110: 1d51 79bd ad3f 9dbd 43fd a4bd 15fc c53d
00000120: b223 043e 2c33 fdbd 47f0 bf3c 4ea7 2f3e
00000130: 8acd 573e dc39 a73e e365 00be 3df7 ddbc
00000140: 60be 03be 0d83 31bd 90f2 d3bc afb3 a3bd
00000150: a8e8 86bd bc0f 423e 6821 a4bb f7a0 4b3d
00000160: 9d02 513e 5c63 893d 97d2 c63d 91a6 9dbc
00000170: ce91 ab3d 12aa 383e 7983 ff3c 1e2e 69b9
00000180: 2296 e0bc 0e22 fabb f25a 2bbd dbb5 1bbd
00000190: b94f bebb aa19 6b3c 4de6 c93c dcda 79bd
000001a0: 423c c5bd 272f 0ebe 4b6b 803d 107d 1ebe
000001b0: b4cb 123d 6cb4 823d 9a42 e83d d5df bb3d
000001c0: 91bf 77bd 627d a93d 23d4 0bbd f89d 21bc
000001d0: 8adf f6bd ca43 433d 5ddc e8bd 7a4b 0b3e
000001e0: 7599 ee3d 02af 9f3d 7b2e 34be 1bbc e73d
000001f0: 07ab 20bc f9ee 243e 745f 963d 8ebf 0e3e
00000200: 1b21 c73e ab00 e63d fcdd 193f fcf2 05bf
00000210: 844e 16bd 599c a4bc a928 a33d ad82 1cbf
00000220: a1f5 073f 9f28 ee3d cfbf 083f 1a41 36bf
00000230: e1f2 76bd ec61 1fbf e554 64bc 83db 09be
00000240: 0bf4 033e 5ca4 62bf d6e0 f5bb 6ab4 e7bd
00000250: 2986 9dbe 67c8 91bd c391 aebd 826f 433d
00000260: 2b17 9fbd a6a9 18be 5d37 cebd ec3f b43d
00000270: 48b7 e33c 455f e13e 2d43 86bd 5c29 0c3f
00000280: 82ba 5f3e 2db9 d73d 8eeb 97bd 1e6e 74be
00000290: 1f9d 0cbe e59a 31bf bd7c ddbe c4dd 83be
000002a0: 3840 753c 2546 37bd d8b8 f1bd b56b d8bd
000002b0: 302b 8fbd 6435 943c 3ef5 5c3d e388 203d
000002c0: 2fc8 213f 07be 01bf 1470 09be 7cb8 183f
000002d0: 8455 00bd 2cd2 07be 2c04 1fbd daf0 49be
000002e0: 9d55 973d 4172 e7bd 911d 14be 00d7 42be
000002f0: 6d28 333f 4871 123d aa1d 033e 0b07 e93d
00000300: 51a0 c33e 1d8e 573d 288a a73e 8f03 8f3e
00000310: 5d20 8f3e a930 7b3d c001 0f3f ad92 b2bd
00000320: 96d3 8d3f 0b08 533d 122a d6bc e3e2 9d3f
00000330: c639 643e fc3b 9b3f 8e55 27bd 54fd 8f3d
00000340: 5724 00bd 4a59 083f be68 ed3d 64cb 8abd
00000350: 4236 bd3e abc3 e83c 72cc 403e 68eb b93d
00000360: d4f2 1e3d 2d92 853e 9011 6e3d 1684 b13e
00000370: 22cb c7bd c036 aebd 3a19 c93d 2acd 813f
00000380: d14e 913f 8d6a e63d 8b99 5ebd 6f1d e7bc
00000390: 6cfc 8e3e 8cb9 7d3f e24e 77bd 22c6 863e
000003a0: ceb4 a6bd a5a6 b9bd 5e39 4e3f c707 393e
000003b0: 3297 49bb 154a 4e3e f488 c93d eb59 acba
000003c0: 3155 033f f207 793f 4ef6 683e 7ef9 b73d
000003d0: e539 68bd 4f54 fabc fcfc c03d 2aed fd3d
000003e0: cf56 c1bc b80e 9c3d 039a 923e f423 3bbe
000003f0: 0f62 293e 1c0c 1d3e 7e05 503e 7090 f93d
0.060339134 0.14219835 -0.0718686 0.12338931 -0.07255833 -0.10470163 0.06982039 -0.14331448
1.323654 0.06412717 -0.117708266 1.19415 -0.22934914 1.2565697 -0.082190886 -0.018149989
-0.119724356 0.6814233 0.014163262 0.044275995 -0.0003807584 -0.17829446 0.57221586 0.042954337
-0.1291165 0.7967541 -0.048505276 0.0023512335 -0.014479345 0.01956628 0.05893742 1.264977
0.02108563 -0.0031365266 -0.058820605 0.048249263 -0.07350553 1.283522 -0.07655464 0.19105749
0.076872386 0.043291073 0.02713678 0.099095725 0.21112752 0.05390293 0.048591826 0.035797957
-0.094275765 0.49399447 0.046249263 0.02076089 -0.04702501 0.4367729 -0.07189681 -0.066076055
0.04542595 0.38101187 0.30882 -0.107503474 0.3398034 0.10943983 0.11463127 0.08237059
0.015141001 -0.06402123 0.0025514858 0.050850656 -0.06086837 -0.07678161 -0.08056118 0.096672215
0.12904242 -0.12363276 0.023430003 0.17153665 0.210745 0.3266133 -0.12538867 -0.027095431
-0.12865591 -0.04333787 -0.025872499 -0.07993256 -0.065873444 0.18951315 -0.005008865 0.049714055
0.20411153 0.067084044 0.097081356 -0.019244464 0.083774194 0.18033627 0.03119062 -0.00022237792
-0.027415339 -0.007633454 -0.04183478 -0.038015228 -0.0058078435 0.0143493805 0.024645949 -0.060999736
-0.09630634 -0.13885175 0.062704645 -0.15477395 0.035838798 0.06382069 0.11340828 0.09173552
-0.060485426 0.08275868 -0.034137856 -0.009864323 -0.120543554 0.04767207 -0.11370156 0.13603011
0.11650363 0.07797052 -0.17595856 0.11315175 -0.009806401 0.16106786 0.07342425 0.1394026
0.38892445 0.11230596 0.60104346 -0.5232389 -0.036695972 -0.020094084 0.0796674 -0.61136895
0.53109175 0.116288416 0.53417677 -0.7119309 -0.06029022 -0.6225879 -0.013936256 -0.13462643
0.12886064 -0.8853204 -0.007503609 -0.11313708 -0.3076642 -0.07118302 -0.085238956 0.047713764
-0.07768091 -0.14908466 -0.100691535 0.08801255 0.027797356 0.44017997 -0.065557815 0.5475061
0.21848491 0.10533366 -0.07417975 -0.23870131 -0.13731812 -0.69376975 -0.4325923 -0.2575513
0.014968924 -0.04474463 -0.11802834 -0.105674185 -0.06990659 0.018091865 0.05394482 0.039193045
0.6319608 -0.50680584 -0.1342166 0.596565 -0.031331554 -0.13263768 -0.038822338 -0.19720784
0.07389376 -0.11301089 -0.14464404 -0.19027328 0.6998356 0.035752565 0.12804285 0.113782965
0.3820825 0.052625764 0.32722592 0.27932402 0.2795438 0.061325703 0.55862045 -0.087193824
1.1080196 0.051521342 -0.026143108 1.2334865 0.22287664 1.2127681 -0.040853076 0.070307404
-0.031284656 0.53261244 0.115922436 -0.06777075 0.36955458 0.028413614 0.1882799 0.09078103
0.038805798 0.26088086 0.058122218 0.34671086 -0.097555414 -0.085065365 0.09819265 1.0140736
1.1352178 0.11250792 -0.05434565 -0.028212277 0.27926958 0.9911125 -0.060377963 0.26323038
-0.081399545 -0.09064988 0.80556285 0.18069373 -0.0030760285 0.20145448 0.09840575 -0.0013149356
0.51301867 0.9727775 0.22750208 0.08983134 -0.056695838 -0.03055778 0.09423253 0.12398751
-0.023600964 0.07619995 0.28633127 -0.18275434 0.16541313 0.1533665 0.20314595 0.121857524

latent.weight_ih_l0 f4 [128, 64]
00000000: b3dd 0abe bc4f f7bd 17d8 173e fde7 56be
00000010: dc38 af3c 118d 423e 4257 50be 90e7 52be
00000020: c19b 773e 3657 443d 2e70 543e 7ee7 a0be
00000030: 8fea 6f3e 03f6 9cbe fbaa cb3d f6f5 8bbd
00000040: 9b16 2abe 91c4 17bc 3f5a 953e eb69 ef3d
00000050: d5cd 3f3d 933b 943e fa0b a8ba 4f3a 8a3e
00000060: 5312 e03e 450c 6d3a 7408 b1bd 0239 f13d
00000070: ffe1 1b3e f27e 653e 8de6 8f3e 64a8 eb3d
00000080: 1c41 15bd 1bd4 bfbc 30b7 61be facd 56be
00000090: 7e3c 57be 0032 26be ca7c d53b dcad 53be
000000a0: 02c8 ba3e e2b1 48bf 021b 1bbe b01a c2bd
000000b0: 5516 0dbf a64e 2fbe afd1 2bbe 88b6 cd3d
000000c0: 70d6 333c 228a 64be ae03 f6bd f456 713e
000000d0: 17d5 9ebe ffd8 7fbe a82c 49be 3304 813d
000000e0: 647b 8f3e 11e6 60be f2d0 65be 9940 49bb
000000f0: aa8b 393d ce13 a8be 7077 97be ceea d83e
00000100: 67fa 83bd d7c7 b13d 88f7 a83e 50c1 043d
00000110: 7294 9cbe 7226 03bf 3d77 34be 7510 89be
00000120: f307 803e a064 403d 3d51 653d ea06 5dbe
00000130: 9b8f f63d 01f0 30be 8008 17bd 2823 7fbe
00000140: fd5c 22be 5eed e2bd d8f7 a53e 9015 503e
00000150: c330 e8bd 4cbc b93e 152a 673b cf20 8b3e
00000160: 9f87 a33e b136 9fbd 4c57 e23d 2c61 0dbf
00000170: 7dca 03bd 86b6 2b3d e3cb 883e 3876 163e
00000180: bbda b9bd af7d 83bd 83eb 98be 177c 81bd
00000190: 747f 54be 53ce 25be 38f7 72bd 8156 ffbd
000001a0: 439c 853e b24a 18bf 3c01 3cbd 459f 79be
000001b0: 1aa3 0bbf 525a c2bd c66f 963d 28b6 203d
000001c0: 9f0c 073d 2391 47be 2208 77be b6ab 04be
000001d0: 856d e7bd 21b1 08be 4d61 3fbe 669a 283c
000001e0: eb68 d0bd 99de c0bd 59ed 8cbd 8445 31be
000001f0: a3dc e33c 8e75 0fbe e0a4 4fbd d71d c03d
00000200: b28d 2b3c 1e48 2a3e 49bc bbbd 3df9 113d
00000210: f940 0cbf 2e65 6cbe a562 06bf d3b0 a2be
00000220: 0fc5 8a3e 5087 d93c 3b02 243e 4284 ac3c
00000230: a87c 9c3e 0549 dbbd 8a84 a1be 91cd 07bd
00000240: 037c 0dbe 0422 b6bc 630b ae3e 4a51 053e
00000250: 02e8 b8bd d01d 553b 1606 bc3c 8a7c 143e
00000260: 17ec 6a3e 49fc 32be 23a6 af3d 13aa fdbe
00000270: e7b0 643e acb2 c03d eab5 8e3e 9a4c 793e
00000280: c651 f73e 8e54 92be 6a40 123c 6dac 8abe
00000290: 7feb 1fbe 74e9 78be fb2a 6f3c ce7f d93c
000002a0: a249 e6bd 6d4b ff3d 0aca 3ebe 6395 2f3d
000002b0: 5afb 023e 23fa 2ebe 20e5 803b 1a95 eb3d
000002c0: 7601 b0bc 0f2f 7bbe 4e3c 5abb 881d adbc
000002d0: 4e5e 223d fe41 cabd 14c0 e4bd 0909 90bc
000002e0: eae2 3ebe fe7a 5ebe 9f60 a3be 53f9 babe
000002f0: 3d00 9c3e 16be 6b3d e325 06be 0ab8 f93d
00000300: 1532 7bbe 53fa 79bc 7ec9 873e 03ca f1bd
00000310: 0f1c 90bc 6e6c 10be ed09 7cbc 160d b7bc
00000320: fd07 783e 60a8 d93d 4c74 ab3c 30bf 90be
00000330: 724e 9b3e 12d0 abbd 469d bcbd 65a5 1bbe
00000340: 3ad7 d2bd 5f2a 39bd 54b5 a3bc 0757 adbd
00000350: e88c 9dbe 37f9 eb3d ffd0 a93d 32f7 99bb
00000360: f6d5 b73e 2d33 febd 7be5 963e 61ce a43d
00000370: 52f8 133d 47e8 273e 2c5e 1e3d 58f4 733e
00000380: 6a85 5d3e da0f d0bd 65e9 18be feda 67be
00000390: 5f03 93be c499 073c 6278 a5bd a0f3 f1bb
000003a0: be47 223f c0fb 21be 7ad2 65bd 8bce 23bd
000003b0: 9ddd 52be 96d8 d9be eadd 1abd fa52 303e
000003c0: 7fa1 9d3b d8b9 28be dc04 2fbe d02b e23d
000003d0: c367 b7bc 4dbd 75be 2701 00be f8e3 fabd
000003e0: 1800 e8bd c8d5 083d b0a4 60be a3c5 3fbe
000003f0: 41a0 a33d d526 04be 0de7 96bd 52d0 653e
-0.13561134 -0.12075755 0.14828525 -0.20986934 0.021389417 0.18999125 -0.20345786 -0.20596147
0.24180509 0.047934733 0.20745918 -0.31426615 0.23429321 -0.30656442 0.09944721 -0.06834023
-0.16610186 -0.009263174 0.29170415 0.11690124 0.046827156 0.28951702 -0.0012820952 0.2699761
0.4376398 0.0009042661 -0.086441904 0.117784515 0.1522293 0.22411707 0.28105584 0.11506727
-0.036439046 -0.02341657 -0.22042537 -0.20977011 -0.2101917 -0.16230011 0.00651512 -0.20671791
0.3648072 -0.7839643 -0.15147021 -0.094777465 -0.551122 -0.17119846 -0.16779207 0.10044581
0.010976419 -0.22318318 -0.120124206 0.23568326 -0.3102195 -0.24985121 -0.19645941 0.06299629
0.28023827 -0.21962763 -0.22442988 -0.003070867 0.04529921 -0.3282761 -0.2958331 0.42366642
-0.06444245 0.086806946 0.3300135 0.03241092 -0.30582005 -0.5123054 -0.17623611 -0.26770368
0.25006065 0.046970963 0.055985678 -0.21584669 0.12039109 -0.17279054 -0.03687334 -0.24915755
-0.15855785 -0.110804304 0.32415652 0.20320725 -0.113374256 0.36276472 0.0035272886 0.27173468
0.31939408 -0.077741034 0.11051807 -0.552264 -0.03217553 0.041922115 0.26718053 0.14693534
-0.09074923 -0.064204566 -0.2986718 -0.063224964 -0.20751745 -0.16191988 -0.059317797 -0.12467671
0.2609578 -0.59488976 -0.045899615 -0.24377163 -0.5454575 -0.094898835 0.07345538 0.039236218
0.03297102 -0.19488959 -0.24124196 -0.12956128 -0.11300186 -0.1334882 -0.18689461 0.010290718
-0.101762615 -0.09417457 -0.06881208 -0.17311674 0.027815169 -0.14009687 -0.050694346 0.093806915
0.0104707945 0.16629073 -0.09166772 0.035638083 -0.5478664 -0.23085472 -0.5249427 -0.3177553
0.2710347 0.02655378 0.16016476 0.02105916 0.30563855 -0.10707287 -0.31546432 -0.033155028
-0.13816838 -0.022233017 0.33993062 0.1301929 -0.09028627 0.003251899 0.02295212 0.14500633
0.22941624 -0.17479052 0.0857661 -0.4954382 0.22333108 0.09409079 0.27873164 0.24345627
0.48304576 -0.28580135 0.00892649 -0.27084675 -0.15617178 -0.24307805 0.01459765 0.0265502
-0.11244513 0.12465558 -0.1863176 0.042867076 0.12791196 -0.17087607 0.003933564 0.11503048
-0.021485072 -0.2452967 -0.0033300105 -0.021132246 0.039640717 -0.09875868 -0.111694485 -0.017582433
-0.18641248 -0.21726605 -0.31909654 -0.36518344 0.30468932 0.057554327 -0.1310039 0.12193306
-0.24530824 -0.015257436 0.26520914 -0.11806109 -0.017591504 -0.14103863 -0.015383226 -0.022345107
0.24221797 0.10627818 0.020929478 -0.28270864 0.30333287 -0.08389296 -0.09209685 -0.15199812
-0.102949575 -0.045206424 -0.019983925 -0.08463865 -0.30771565 0.11522143 0.08291816 -0.0046986574
0.35905427 -0.12412105 0.29471955 0.08047176 0.03612549 0.163972 0.038664028 0.23823678
0.21632925 -0.101592734 -0.14932783 -0.22642133 -0.2871351 0.008276407 -0.08079602 -0.0073837787
0.6339072 -0.15818691 -0.05610893 -0.039991897 -0.20592351 -0.42548054 -0.03780929 0.17219153
0.0048105116 -0.16477144 -0.17091697 0.11043513 -0.022388345 -0.23997994 -0.1250044 -0.12250513
-0.11328143 0.033407003 -0.21937823 -0.18727736 0.079895504 -0.12905438 -0.07368288 0.22442749

latent.weight_hh_l0 f4 [128, 32]
00000000: 6fb7 1e3f 6088 12be 6eeb b43e e582 a9be
00000010: 255b 0c3d 4690 a03d bc8b 033e e1ab 8d3e
00000020: 77ce f3bc b783 953d d7a4 81be 5b2d a03e
00000030: 2a49 57bd 1474 17be fdfd 843d f471 943d
00000040: f2f1 19be 887a 593e d993 683e 5b57 ab3e
00000050: ea5c 073a 9e9b a8bd b3cf a6be 826c 5a3e
00000060: 3671 403e a6fb f33d 6081 b8bd 4eae 8bbe
00000070: 97c8 053e 6cb8 8fbc 10ed 4c3d f165 0f3f
00000080: 3d5b 2cbe 15d2 be3d c63c 053e faa6 45bc
00000090: b86f 013e 8dce a93e dc1a 493e 0af9 d0bd
000000a0: ddd2 f7bd 636c 9a3d 2438 36be 8eb4 793c
000000b0: e76b cabc 6c31 e0bb 54e0 453c 9154 e03d
000000c0: 227e 8a3e 5cb4 a83b 2f64 42be 6c58 3dbc
000000d0: 5f5f 583e bc5e 8c3e 2785 1a3e f257 fabd
000000e0: cd0c a3be 450a 9d3d 7531 1cbe e246 713d
000000f0: 1db5 353d 1368 14be 5ba6 1dbd 0d3a b2bd
00000100: ed39 7abe fd3c 8b3e 1378 e5bd c949 13bf
00000110: 588f 91be ac7b 12bf 384d 163f efbb 793e
00000120: 7f04 4bbe e314 f1bd 7abd 11bf ed77 043d
00000130: 90d1 abbd 2a3a 15be 7627 8ebd ffcc c6bc
00000140: 4406 2dbd 67a6 dd3e 73b5 25be 8831 69be
00000150: d5b2 f3bd 0240 8ebd 4d5a 483b 0c1f 8bbe
00000160: 63b7 973d 04ab 6cbe f53a 0cbf ad89 0e3e
00000170: f56b 1bbc df74 0f3f 3402 52be 1bb5 8a3c
00000180: f448 b43d 3610 393e 5336 dabe acfe dcbd
00000190: 8da3 1bbe e2bf 57be 54bc a63c 0387 96bd
000001a0: ead4 283e 395a d2bd 8ebe a8be 1bbd a0bd
000001b0: 7c8f 71be 7d45 22be 7c38 153d 4593 213e
000001c0: 1ae7 49bd f29e f93e f2ea 913b b7cb d23c
000001d0: 3892 33bc 6065 15be 1051 403e 2868 123e
000001e0: 20b1 77be f25e 273e ef89 55bc 5256 36be
000001f0: 6e43 21be 0558 ba3d f6c6 8b3e 5bf8 acbd
00000200: b277 fdbb a1f1 ef3d e1b8 123e 7c01 433e
00000210: 29c3 0c3e f9b7 d93d d363 2abe 9929 503e
00000220: cd5d adbd c3c2 33be 4a7c b7bd 0d8e 0f3d
00000230: 1576 63be a034 aebd 4e41 02be c855 88be
00000240: 7e85 d03d 290f 2b3e a300 27be 6fea 97be
00000250: ea49 5abd 47ae 8b3e a671 603d aee0 73be
00000260: 424f 56bd 9156 18be 0030 2bbe 8fc8 0c3c
00000270: 92ba 0ebe 905f 483e 3827 063e 6a42 4d3c
00000280: f940 3fbd bc4a ca3d 65d3 76be e4bb 53be
00000290: ae53 cbbe 018a f7be 91c7 ac3e c6a7 603e
000002a0: fe38 abbc ca7d b0bd a228 c5bd a774 f73c
000002b0: 115e 8ebd 85fc 38bd 5fc2 723d b8fc f23c
000002c0: 0c5a 453e d906 8fbc 7157 d8bc af66 37be
000002d0: 1851 db3b 342a 303d 7bf9 cf3c 99fb 9f3d
000002e0: 774d da3c 3101 16bd 9b55 3abe 9767 41bd
000002f0: 6a9a a6be 7949 e8bd 1e85 683e 8bd5 953e
00000300: 0d0b 583e ba84 203e f7f3 963b 9cad 04be
00000310: fc71 d3bd cb8d 9fbe d713 ef3e 4774 833e
00000320: 365a 743d 6f5e c73d a87d 52be 898e 5c3e
00000330: 808a 893e b6f8 1dbc 4f1d 57b9 9582 1d3c
00000340: 8e0d 80be fb95 ba3e e6ad ef3d 5402 713e
00000350: 1921 8dbe ed73 24be 5e3b c3bd 307d 2f3e
00000360: 1222 6f3e a9db 453e c02e 763d 9bae 97bc
00000370: b988 8b3e e027 733d 85e6 0f3d 31cb 0dbe
00000380: 4c32 c63c bf30 433e b0d5 183e 69f7 033d
00000390: 178a 093e a4a7 b5be 2828 bb3d 6f4a c03c
000003a0: df25 043f 5a95 503e 10bd edbe e784 c3bd
000003b0: d02b f3bd 203d 243d d5be 333c cce2 9f3d
000003c0: 55d2 a9b9 092a a03e 3001 b9bd a301 f7bd
000003d0: ee58 95bd 4ec3 8cbd 78d1 3d3e cfa3 94bd
000003e0: ede0 01bd 7432 8c3d ee8a 853c 1292 bf3e
000003f0: 2793 7d3e aeb3 4b3e c1ca 313e e1a7 71be
0.6199865 -0.14309835 0.3533587 -0.33107677 0.03426661 0.07840018 0.12846273 0.27670196
-0.029761536 0.07300513 -0.25321075 0.31284603 -0.05256001 -0.14790374 0.06493757 0.07248297
-0.15033701 0.21238148 0.2271265 0.33465084 0.00051636866 -0.082328066 -0.32580337 0.21330455
0.18793187 0.119132325 -0.09009051 -0.2728142 0.130648 -0.017543994 0.050030768 0.56014925
-0.1683168 0.09317414 0.13011464 -0.012063736 0.12640274 0.33165398 0.19639152 -0.102037504
-0.12100766 0.075402044 -0.17794853 0.0152408015 -0.024709655 -0.006841829 0.01207741 0.1095363
0.27049357 0.0051484536 -0.1898353 -0.011556726 0.21130131 0.27416027 0.15089856 -0.122238055
-0.31845704 0.076679744 -0.15253241 0.05890549 0.044362176 -0.14492826 -0.038488727 -0.087024786
-0.2443616 0.27194968 -0.11204543 -0.5753446 -0.28429675 -0.5721996 0.58711576 0.24388097
-0.19825934 -0.11771562 -0.56929743 0.032340933 -0.0838958 -0.14572969 -0.0694112 -0.024267672
-0.042242303 0.43291017 -0.16182499 -0.22772801 -0.11899344 -0.06945802 0.0030571402 -0.27172124
0.07408025 -0.23112112 -0.5477746 0.13919707 -0.009486188 0.56037706 -0.20508653 0.016932061
0.08802977 0.1807259 -0.4261957 -0.10790762 -0.15199108 -0.21069291 0.020353474 -0.0734997
0.1648747 -0.10271115 -0.32957882 -0.07848569 -0.23589891 -0.1584682 0.03643082 0.15778835
-0.04929266 0.48754078 0.0044530565 0.025731904 -0.010960154 -0.14589453 0.18780923 0.14297545
-0.24188662 0.16344813 -0.013033374 -0.17806366 -0.15748379 0.0909882 0.27300233 -0.084458075
-0.007735216 0.11716009 0.14328338 0.19043535 0.13746323 0.10630793 -0.16639642 0.20328368
-0.08465157 -0.17554764 -0.08959253 0.03504758 -0.22213013 -0.08506131 -0.12720224 -0.26627946
0.101817116 0.16705002 -0.16308837 -0.29671046 -0.053293146 0.272814 0.054795884 -0.23816177
-0.05232168 -0.14876772 -0.1671753 0.008592739 -0.13938358 0.19567704 0.13100898 0.012528041
-0.046692822 0.09877536 -0.24104078 -0.20677143 -0.3971228 -0.48347476 0.33746007 0.21939
-0.0209012 -0.08617742 -0.09626891 0.030206991 -0.069515355 -0.045162696 0.059267398 0.029661521
0.19272631 -0.01745932 -0.026408883 -0.17910264 0.0066930167 0.043008998 0.025387516 0.0781166
0.026648266 -0.03662223 -0.18196718 -0.04721793 -0.32539684 -0.11342139 0.2270703 0.29264483
0.21097966 0.15675631 0.0046067196 -0.12956852 -0.10324475 -0.31162867 0.46694824 0.2567465
0.059656344 0.09734809 -0.20555747 0.21538748 0.2686348 -0.009641817 -0.00020514916 0.009613653
-0.2501034 0.3644255 0.1170309 0.23536044 -0.27564314 -0.16059847 -0.09532808 0.17137599
0.2335284 0.19322075 0.060103178 -0.018515876 0.2725275 0.0593642 0.03513195 -0.13847043
0.024193905 0.19061564 0.14925265 0.03221837 0.13431583 -0.35479462 0.091385186 0.023472993
0.51620287 0.20369473 -0.46433306 -0.095468335 -0.11873591 0.040097356 0.010970791 0.0780693
-0.00032390901 0.3128207 -0.090334296 -0.12060859 -0.072923526 -0.06873189 0.18536937 -0.072578065
-0.031708647 0.06845561 0.016301598 0.3741613 0.24763165 0.19892761 0.173625 -0.23599197

latent.bias_ih_l0 f4 [128]
00000000: 45cd 893b d545 c5bc 6968 133e 0e51 393e
00000010: d7e3 4dbd a601 533e d0e7 283e 4b98 0b3e
00000020: 5834 4f3e ee9f 1b3e ca55 593c 1b6d e43c
00000030: a2dd 483e 1b44 ddbb 3240 8f3e 05f4 3ebc
00000040: e29c 033e a319 523e 62af 66bd f48d 443e
00000050: 8e86 d73d ab6a 45bb f126 d43d e6aa 703e
00000060: b760 563e 5417 ee3d 8ee0 023f 1b32 a1bd
00000070: 8fab e33d 59de a53e 6c8a 603e e0f2 743e
00000080: 0f1b 033d 629a 3b3e 8334 ae3d 42d2 0fbd
00000090: a2cd 32bb 1262 fb3d 855d ec3c 11cb 813e
000000a0: 42e4 c8bc a12c 14be 7a7c cebd 37f9 36bd
000000b0: 6152 b1bc cf05 d4bd 31ff c4bd f6ef 233e
000000c0: 9eda d03a 52f9 5b3e 441f babd d60e b3bd
000000d0: 14c2 2c3d 0656 13bd 382d d3bd 4512 103c
000000e0: 43bb 9b3a b553 8f3d 570d ddbd 3182 d0bc
000000f0: 7292 313e 7b70 1f3c 1900 91bd 33be aebd
00000100: fbe4 e63d 26da 92bd 35ad 803d 7569 3ebd
00000110: c986 283e 0b62 f93d 00b2 72bb 7e02 e93d
00000120: e3ac 1cbe aced 52bd 6101 95bd bcda 813d
00000130: b901 ba3c 7dea 27be c287 bb3c bc8f c7bd
00000140: 5f34 a43d e344 f0bd 15a1 02be a609 a6bc
00000150: cac1 d1bc 30e6 103e 0a41 5b3c b2c8 16be
00000160: f947 dd3d 86c5 783d 39eb 3e3e 9077 9c3d
00000170: f2ed db3c c0af fd3a b95f 2cbe c404 c9bd
00000180: 1e28 8f3e c742 3b3e f20e 973e 949e 983e
00000190: c73c 033d 3f09 bc3d bba9 093e 705f 043a
000001a0: cd15 7d3e bcb6 d33d b505 603d 83c9 613e
000001b0: d046 5a3e 49c5 b03e 39c1 623e 47ad d5bd
000001c0: 50d1 153d ea52 513e 5427 7d3d c30e dc3d
000001d0: 8805 7a3d ac54 533e 17f6 ee3d 717e 343e
000001e0: 5855 3c3e d0dd 9d3e 1035 c43e 9493 a43c
000001f0: 4a88 d63b 41ad 873d f24f 523d b678 f33d
0.0042053782 -0.02408115 0.14395298 0.18097326 -0.050266113 0.20606098 0.1649468 0.13632314
0.20234811 0.15197727 0.013265083 0.027884057 0.19615796 -0.0067525036 0.27978665 -0.0116548585
0.12852815 0.20517592 -0.0563196 0.19194776 0.10523711 -0.0030123394 0.1035899 0.23502693
0.20935331 0.11625543 0.51123893 -0.07870885 0.111167066 0.323962 0.21927804 0.23920774
0.032008227 0.18320611 0.085061096 -0.035112627 -0.0027283211 0.12274565 0.028853187 0.2535024
-0.024522904 -0.1447015 -0.10082336 -0.044671264 -0.021645727 -0.103526704 -0.096189864 0.16009507
0.0015934294 0.21481827 -0.09087995 -0.08743064 0.042177275 -0.03597071 -0.10311359 0.008793418
0.001188137 0.06998388 -0.1079356 -0.025452705 0.1734102 0.009731407 -0.07080097 -0.08532371
0.11274143 -0.07170515 0.062830366 -0.04648729 0.16457666 0.12176903 -0.0037032366 0.113774285
-0.15300326 -0.051496193 -0.07275654 0.063405484 0.0227059 -0.16398044 0.022891883 -0.09744212
0.080178015 -0.11731889 -0.1275676 -0.020268273 -0.025605101 0.1415031 0.013382206 -0.14724997
0.10804743 0.060735248 0.18644418 0.07639992 0.02684686 0.0019354746 -0.1683339 -0.09815362
0.27960294 0.18287192 0.2950359 0.29808486 0.032040384 0.09181451 0.13443653 0.00050496217
0.24715348 0.10337588 0.054692943 0.22049527 0.21316075 0.34525517 0.22144021 -0.10433441
0.03657657 0.20441785 0.061805084 0.10745003 0.06104043 0.20637769 0.11668032 0.17626359
0.18391931 0.30833292 0.38321733 0.020089902 0.0065470086 0.066248424 0.051345773 0.11888258

latent.bias_hh_l0 f4 [128]
00000000: f448 2a3c aaaa 86bd 7f58 943d 397c cb3d
00000010: 7af3 ffbc 5e26 de3d 9ffe 2c3d 2d65 393d
00000020: 29fc c93d d8fb 073e e195 16bd fa20 003d
00000030: 945f c13c 34cf 803e 5ee7 133b ead5 10be
00000040: 528f 0dbd a67b 6fbd b84b b93d a011 9e3c
00000050: b479 873e 38e1 4a3e 6663 e0bd 4e47 503e
00000060: 3921 353d cda2 893e 9b0c 753e 5475 12bc
00000070: d0a9 3d3e 1a5c b73e 72a4 313c 2ae1 1e3e
00000080: 64f8 89bd c1ba be3d 4bf5 f83d c191 c63d
00000090: 8878 4a3e d456 2abe c2c8 f73c 7faa 203e
000000a0: e907 82bd fbe7 1bbd fe28 80bd 2962 eebd
000000b0: e577 ba3d 6b97 59bd ad94 83bd 77cd 88bd
000000c0: 5955 55bd 0ff0 b63d 4823 58be 19a8 c7bd
000000d0: 8d03 aa3d 7144 48bb 7a49 1b3e 4ad4 e5bc
000000e0: aa9b 29be 25d6 2dbe 8c27 cb3d 535f 513d
000000f0: 4bfc 193d 464c 2e3e c753 f1bd 9877 d2bc
00000100: e032 0abe 28de 36bd f952 93bd 106e 26be
00000110: 1aec 873b 0688 153e b12a 08be 172d a43d
00000120: 6907 1dbd ae6a 623d 2e61 78bd 83bc 91bd
00000130: c9c1 843d 9651 16be 9c49 da3d 3732 b73d
00000140: 7f65 b93d 03e4 8b3d a125 c23d 172e ec3c
00000150: e9a4 d0bc 7e70 d33d a477 503d 5441 9cbb
00000160: 69a5 45bd 8168 0c3e 9b1b cabd 0b0a 3bbe
00000170: 257e 153d 34b4 45bd 3451 fdbc d68b 423d
00000180: e4f0 f83d 68c7 b83d c244 fe3e e460 013e
00000190: 8afd 173e 6a9d 473e b75b af3d 957d 5f3e
000001a0: e05e 833e 4097 dd3d 23ef 8b3d 5f14 ba3e
000001b0: 0c59 663e 4c34 6a3d 246a a43d 44f4 d6bd
000001c0: 4cd1 743d 30de 3cbc 3a5a 133e 41df 083e
000001d0: 1b4b 243c d646 743e 86a1 123e 963e cb3e
000001e0: ef0e bc3d a5f7 663e e72d d53e 473f c5bc
000001f0: 59cd 523e c6ec 7d3e 5361 883e 62ac 763e
0.01039337 -0.0657552 0.07243442 0.09935803 -0.031244028 0.10847162 0.042235013 0.045262504
0.09862549 0.13279665 -0.03676403 0.03128145 0.023605146 0.25158083 0.0022568326 -0.14144102
-0.03456051 -0.05846753 0.09047645 0.019295514 0.2646004 0.19812477 -0.10956459 0.203397
0.044221137 0.2688202 0.2393059 -0.008939106 0.1852181 0.35812455 0.0108424295 0.15515581
-0.0673683 0.09312964 0.12156161 0.09695769 0.19772542 -0.16634685 0.030247096 0.15690039
-0.06349165 -0.03806303 -0.06257819 -0.11639816 0.09104899 -0.05312292 -0.06424842 -0.06679814
-0.052083347 0.08932506 -0.21107209 -0.09748859 0.083014585 -0.0030558372 0.15164748 -0.028055329
-0.16563287 -0.16976221 0.09919652 0.0511163 0.03759412 0.17021284 -0.117835574 -0.025691792
-0.1349597 -0.04464546 -0.0719356 -0.16252923 0.0041480185 0.1460267 -0.13297535 0.08016413
-0.038337145 0.05527752 -0.060639553 -0.07116034 0.06482274 -0.1467956 0.10658571 0.089451246
0.09052562 0.06830599 0.094798334 0.028830571 -0.02546926 0.103241906 0.05089535 -0.00476853
-0.04825345 0.1371174 -0.098685466 -0.1826555 0.036497254 -0.04826756 -0.03092251 0.04749664
0.12155321 0.09022409 0.49661833 0.12634617 0.14842811 0.19493642 0.08562415 0.2182525
0.2565832 0.10819864 0.06832721 0.36343667 0.22494906 0.05717878 0.08028057 -0.10495809
0.059769914 -0.011527583 0.14389887 0.13366415 0.010027672 0.23855147 0.14319429 0.39696187
0.09182536 0.22555406 0.41636583 -0.024078025 0.20586146 0.24797353 0.26636752 0.24089196

decoder.weight_ih_l0 f4 [256, 32]
00000000: 3ebd c23e 745d c5be 8798 a23e c0d5 21bf
00000010: c123 fb3e 3099 333f 3698 093f d654 453f
00000020: ff59 01bf 417f 1b3f 060d 3dbf 20a5 163f
00000030: 5e43 9dbe f992 27bf fc5a 003f 380a e2be
00000040: f368 ad3e 166a 253f b449 a3be 6d5b 9abe
00000050: dd64 14bf 1818 06bf d4a8 e93e 67f2 373f
00000060: 7455 3b3f 55a3 a13e c2ee 09bf 0a9a fbbe
00000070: 4819 bcbe fc2f 0abf 448b 35bf 7950 943e
00000080: 71dd 383f fa0e 2cbf 8d4e 623d 6ae4 07bf
00000090: d7ea 263f 41d8 0c3f 2eea 783f 752a 963f
000000a0: 1cdf b6be db2a 253f deaf fdbe 88c5 0d3f
000000b0: 924d d6be 57b1 06bf 5a60 1e3f cdcb dabe
000000c0: f6fe fb3e 297a 213f f001 e2be f13f c3be
000000d0: 9043 3dbf 62e6 22bf d72a 993e baa4 d43e
000000e0: e8dc 2d3f 2faf cc3e d8a0 0bbf 4270 8abe
000000f0: e79c fabe ce8a cdbe 4943 7abf 15f8 413f
00000100: d20e a13e 924e a6be 8e25 96bd 71df 23be
00000110: 84b3 7e3e da8e 8f3e fab6 063f b1b3 7f3e
00000120: 68aa 2cbd e62c 8c3e 608d ffbe 0e56 303e
00000130: fa5b 4fbf f7a3 3bbe e88e bd3d cfce 57bf
00000140: 73c4 633f 243f e53d 9b94 adbe 87ee 64bf
00000150: 5037 63be bc3e 82bf 67ca 503f 8a58 6b3f
00000160: d85d ac3e 4d20 203f f210 49bf edf1 42bf
00000170: 2a25 1bbf 1f41 e8bf 8eed aebf 7c4a 2a3f
00000180: ba66 ab3f 45d0 0dbf 49a9 343e fb54 d6be
00000190: 2e8e bd3e d251 d43e baa2 813f c5ab 3a3e
000001a0: c8db 9bbe 5ab3 063f b275 e2be 5f19 1f3f
000001b0: 838a f9be 4386 d8be 6449 e43e 8183 f3be
000001c0: 94bc 0c3f 880b d23e 1d89 afbe 6822 dfbe
000001d0: c737 fbbe 8a7b 31bf 4f64 533e 65f2 543f
000001e0: 73d0 ca3e 647f 513f 017c 16bf d025 0bbf
000001f0: 83f5 0cbf ae10 2cbf d8c7 843d babc 093f
00000200: 9b42 6a3f 95e1 1bbf 1edc d33d 86ff 3ebf
00000210: f44d fd3e 7cdd 463f 9b52 913f 2999 5b3f
00000220: fc9d 6fbf 6d90 283f e7ab e4be 1168 433f
00000230: e972 6ebe 3943 4cbf bdfe 343f f069 b3be
00000240: 0810 b03e ddab 393f d47f a0be 6336 57be
00000250: 7815 2ebf 0cb1 1fbf 7672 c63e 1cb8 463f
00000260: c6a7 383f ac9c ca3e 1f8b f4be 3190 f0be
00000270: 6ed1 ebbe 8e04 9abe 861e 00bf 74ab 343f
00000280: def1 7e3f 8450 37bf d178 9e3e 3314 28bf
00000290: 7274 133f 316a 333f cf3a ab3f 095a 0e3f
000002a0: 25d5 27bf 7df9 403f 2cae d8be 4516 303f
000002b0: d20d 71be 066e 49bf 85e5 613f 2dc0 d9be
000002c0: 11d7 313e aeb5 433f 2031 4cbe a0b5 e4bd
000002d0: af7d 33bf 9ede fabe 2fa8 833e e05e d83e
000002e0: a46c 693f bfca bc3e eada e7be 052d 6dbf
000002f0: 660a 8dbe f045 c5be 3ab1 84bf 3461 8e3e
00000300: d6f4 ee3e fb92 6dbe 9acd e93e fda4 35be
00000310: bfc7 9a3e e8cc bd3e 7494 793e 4ea1 123d
00000320: 90d8 9fbe 25df 823e 8999 99be e70d e73d
00000330: fdbd 20bf 2c46 8abe 563b 9a3e 3930 1bbf
00000340: 74df 4b3f 3417 a63d 322d f1be d7d4 30bf
00000350: 576b 9dbe 9bb4 e1be 7b5f e73e de6b 2b3f
00000360: 701d e23d 20c5 843f 34e4 44bf b97b 63bf
00000370: b77b 14bf 6206 8cbf d6ba 63bf c634 9b3e
00000380: 1eaa a73e 55e7 1dbf c24d b13e 8d0c 14bf
00000390: 90a8 423f 3006 003f 806a 613d b863 74be
000003a0: 0a8f c2be 520e bc3e e811 03be 8ac4 013f
000003b0: c22e e6be c551 9cbe 79a3 873e 8ff5 2ebf
000003c0: 7410 153f 491e ad3d deaf 23bf 1158 5dbf
000003d0: 07c7 e6be fa95 09bf c3a9 283f 3e4e 953e
000003e0: ed8f f33e 1d0c 943e b985 b2be 38fa a33d
000003f0: 151f 80be 619e 45bf f213 66be 9502 5a3e
0.38035005 -0.38547862 0.31756994 -0.6321678 0.49050716 0.7015562 0.5374788 0.77082574
-0.5052795 0.6074105 -0.73848 0.5884571 -0.3071546 -0.6545864 0.5013883 -0.4414842
0.33869132 0.64615 -0.3189217 -0.30147877 -0.57966405 -0.52380514 0.45636618 0.7185425
0.73177266 0.31569925 -0.5387994 -0.4914096 -0.36738038 -0.5397947 -0.7091563 0.28967646
0.7221289 -0.6721035 0.055250693 -0.5308291 0.6520209 0.5501748 0.9723233 1.1731707
-0.35717094 0.6451852 -0.4954824 0.55379534 -0.41856056 -0.5261435 0.6186577 -0.42733613
0.49217957 0.63077027 -0.44142103 -0.3813472 -0.7393122 -0.63632786 0.29915497 0.41531926
0.679152 0.39977404 -0.54542303 -0.2703877 -0.48947832 -0.40144962 -0.9775892 0.7576917
0.3145662 -0.3248182 -0.07331382 -0.16003205 0.24873167 0.28038675 0.5262295 0.2497089
-0.0421547 0.27378005 -0.49912548 0.17220327 -0.8099972 -0.18324266 0.09255773 -0.8429994
0.8897163 0.11193684 -0.3390244 -0.89426464 -0.22189069 -1.0175395 0.8155884 0.91931975
0.33665347 0.6254929 -0.7854148 -0.761504 -0.6060358 -1.8144873 -1.3666246 0.66519904
1.3390725 -0.5539592 0.17642702 -0.4186171 0.37022537 0.41468674 1.0127785 0.18229587
-0.30441117 0.5261742 -0.4423042 0.6214809 -0.4873849 -0.42289934 0.44587243 -0.47561267
0.5497525 0.41024423 -0.34284297 -0.43580937 -0.49065992 -0.6932913 0.20643733 0.83182365
0.3961216 0.8183501 -0.58782965 -0.5435457 -0.5506212 -0.6721295 0.0648343 0.538036
0.9150788 -0.60891086 0.103447184 -0.7460865 0.49473536 0.7768171 1.1353334 0.8578058
-0.9360044 0.65845376 -0.446624 0.7633067 -0.23286022 -0.79790074 0.707012 -0.3504176
0.3438723 0.7252787 -0.31347525 -0.2101684 -0.6800151 -0.6237953 0.38759202 0.7762468
0.72131 0.39572656 -0.4776239 -0.4698501 -0.4605822 -0.300816 -0.50046575 0.70574117
0.9958781 -0.7160723 0.3095155 -0.6565582 0.57599556 0.7008391 1.3377322 0.5560613
-0.6555961 0.7538069 -0.42320383 0.6878398 -0.23540428 -0.7868351 0.88240844 -0.4252943
0.17367198 0.76449096 -0.19940615 -0.11167455 -0.7011365 -0.48997968 0.2571425 0.42259884
0.911814 0.36873433 -0.45284206 -0.9264682 -0.27546996 -0.3852992 -1.0366585 0.27808535
0.4667117 -0.232006 0.45664674 -0.1773872 0.3023052 0.37070394 0.24373037 0.035798363
-0.31219912 0.2556087 -0.2999995 0.112819485 -0.627899 -0.27006662 0.30123395 -0.60620457
0.7963784 0.081098944 -0.47104794 -0.6907477 -0.30745956 -0.44083104 0.45190033 0.6696147
0.11040771 1.0372658 -0.7691071 -0.8886066 -0.58001274 -1.0939448 -0.88956964 0.303137
0.32746977 -0.6168111 0.34629637 -0.5783165 0.76038456 0.5000944 0.055033207 -0.23866165
-0.37999755 0.36729676 -0.127998 0.5069052 -0.44957548 -0.30531135 0.26491907 -0.6834344
0.5822823 0.08453042 -0.6394023 -0.86462504 -0.4507372 -0.5374447 0.65884036 0.29161257
0.47570744 0.28915492 -0.34867647 0.0800671 -0.25023714 -0.7719479 -0.22468546 0.21290047
