saved_models/AD_autoencoder_ep6_loss1.6999.pth (torch, 257618 bytes, 14 tensors)

encoder.weight_ih_l0 f4 [256, 28]
000000 ee 06 00 bd 1a cc a1 3b f0 d8 c1 ba 88 ec 3b bc
       -0.03125661 0.004937661 -0.0014789384 -0.011469968
000010 a5 b2 1a 3b 6b 8a e9 3a d7 49 9a 3a ca 66 00 3b
       0.0023605016 0.0017817741 0.0011771274 0.0019592517
000020 3a 77 11 3b fb 9a c6 b9 e1 3a 06 3a e4 70 67 b8
       0.0022196309 -0.00037880972 0.0005120468 -5.517983e-05
000030 1c 49 07 bc 85 df a9 bb a9 62 a2 3c 11 4e 03 3a
       -0.008257177 -0.0051841163 0.019822435 0.0005008886
000040 5c 3c 82 b9 f5 9f cb 39 24 18 fb 3c 46 94 61 bb
       -0.00024840503 0.00038838355 0.03065116 -0.0034420653
000050 94 72 3f 3d 40 91 27 b9 97 23 ca 39 33 f9 9f bc
       0.04674013 -0.00015980471 0.0003855496 -0.019528007
000060 a4 dc c8 3c 72 14 29 3d 1b 97 0c 3b a6 3a 0d 3b
       0.024519272 0.041279264 0.002145237 0.002154985
000070 29 c6 38 bd 8e 11 78 3b 92 d2 ea 3a ea d5 54 bc
       -0.045110855 0.003785226 0.0017915538 -0.012990454
000080 91 63 61 3b 5b 1f 41 b9 28 9e 7f 39 f4 ae 4c ba
       0.0034391622 -0.00018417595 0.00024377613 -0.00078080525
000090 33 90 78 ba db b4 8a b9 5e cd 57 b9 44 96 78 b9
       -0.00094819366 -0.0002645616 -0.00020580503 -0.00023707101
0000a0 32 22 77 ba 38 a5 23 bb 38 68 cf 3a c9 90 3d ba
       -0.0009427398 -0.0024970304 0.0015823906 -0.00072313525
0000b0 15 ce b3 b9 4c 84 11 38 33 6e 33 3d 06 06 92 ba
       -0.00034295084 3.4693905e-05 0.043806266 -0.0011140711
0000c0 01 03 9c 3b 23 ac 15 3b 9c 79 0f b9 3b b4 28 b9
       0.0047611003 0.0022838197 -0.00013682846 -0.0001608887
0000d0 c5 59 c5 3d 8c 04 b4 3a 58 f5 3f bb 5a d0 97 3a
       0.09636263 0.0013734265 -0.0029290523 0.0011582479
0000e0 eb 69 c1 3b 0a 6f ba b9 e3 ec ac b8 b2 19 ab b8
       0.005902519 -0.00035559415 -8.245723e-05 -8.1587015e-05
0000f0 c3 3a 1d 3a cd 00 24 38 d9 ec 97 38 ad ee 79 38
       0.0005997831 3.9101393e-05 7.2443574e-05 5.958851e-05
000100 c6 c2 35 b8 49 eb 12 b9 bc 35 92 36 e8 90 7f b8
       -4.333516e-05 -0.00014011296 4.3573946e-06 -6.0931692e-05
000110 51 0b 62 ba 41 84 69 b9 e0 fb 92 3a 5f 72 2b 39
       -0.0008622902 -0.0002226988 0.0011213981 0.00016350437
000120 7a c5 23 b8 76 27 89 37 05 b3 be bb 5b 11 08 38
       -3.9046143e-05 1.6350048e-05 -0.0058196806 3.244109e-05
000130 84 e2 27 3b 05 79 13 39 99 c4 93 b8 d3 d2 74 bb
       0.0025617192 0.00014064096 -7.0461254e-05 -0.0037357106
000140 9f 2b 87 ba 06 d7 49 3b 02 c3 44 b7 84 12 a7 3c
       -0.0010312683 0.003079833 -1.1727914e-05 0.020394571
000150 af f2 5d 3d 57 88 f1 bb d3 e9 12 bb cb d0 58 3a
       0.05418652 -0.0073709893 -0.0022417202 0.00082708587
000160 f4 f5 0d bb 31 31 83 3a ab a0 99 39 71 a4 41 39
       -0.0021661492 0.0010009167 0.0002930214 0.00018467174
000170 ba 15 b9 b9 76 8b 2c b8 cf b3 bd 39 34 b3 0a 3a
       -0.00035302137 -4.113788e-05 0.00036182857 0.00052909856
000180 b6 1b 22 bb ea 01 0a 3b 7f a5 d1 3b e4 68 31 3a
       -0.0024735755 0.002105827 0.0063979025 0.0006767644
000190 3b 0d 79 ba c8 6f 3c b9 77 bb 5c bd 7b 00 0c 3a
       -0.00095005677 -0.00017970719 -0.053889718 0.0005340648
0001a0 58 07 13 3c 5f b6 34 ba 1a 0d 97 38 3f 8b 8c bc
       0.008973919 -0.00068936305 7.2026814e-05 -0.017156241
0001b0 52 8f cf 3a 95 89 7c 3c c0 23 16 3a 87 3b 21 bb
       0.001583556 0.0154136615 0.0005727373 -0.0024602131
0001c0 34 d8 7f 3c a7 4b e8 ba f8 fe 59 b8 0e 05 66 b9
       0.015615512 -0.0017722741 -5.197429e-05 -0.00021936392
0001d0 4b 92 85 ba 42 bd 6c b9 81 88 64 ba 40 12 07 ba
       -0.0010190693 -0.00022577218 -0.00087178504 -0.0005152561
0001e0 84 c9 38 ba a4 68 9a b8 49 de 24 3a f4 4f 09 b8
       -0.0007049071 -7.362783e-05 0.00062892266 -3.2737807e-05
0001f0 d3 16 c9 ba d2 0e 9d 39 82 2a aa 3b 3f b2 7f b8
       -0.0015341885 0.00029956416 0.0051930556 -6.0962742e-05
000200 b2 03 2c b9 41 84 52 b9 9b c5 83 bc c4 f8 c3 3a
       -0.00016404575 -0.00020076429 -0.016085437 0.0014951457
000210 1e 31 11 bc 07 d4 54 39 51 da fc b8 f5 47 34 3c
       -0.008861808 0.00020296882 -0.00012056961 0.011003484
000220 ce 94 30 39 78 53 53 3c a0 f9 ae ba 1b 69 9d bd
       0.00016840102 0.0128983185 -0.001334954 -0.07686063
000230 b6 95 07 39 e0 19 cd 37 1f 57 3a b8 06 e9 41 b8
       0.00012930375 2.4449953e-05 -4.4426994e-05 -4.6231806e-05
000240 c1 eb e1 39 1d 0a 11 b8 e8 5d a9 b9 d4 3c 47 39
       0.00043090995 -3.4580113e-05 -0.00032304158 0.00019000779
000250 ee 62 44 b9 57 01 fb b8 2d c2 b9 38 b0 89 56 38
       -0.00018728871 -0.00011968862 8.8576555e-05 5.1149807e-05
000260 d4 88 96 b6 40 bf 9e b9 6b 09 aa b9 82 58 89 38
       -4.4862772e-06 -0.000302786 -0.00032431944 6.549155e-05
000270 3d 43 57 b8 f9 11 36 39 af 89 52 b9 eb a4 f4 b8
       -5.1322615e-05 0.00017363568 -0.00020078452 -0.00011665545
000280 21 4e d7 b9 97 4b 93 38 b6 ba fc b7 44 78 ca 3a
       -0.00041066206 7.023586e-05 -3.0127685e-05 0.0015447219
000290 cd af 0d 3a a0 10 88 b9 73 ae 87 b9 82 e0 2a 38
       0.00054049195 -0.00025952328 -0.0002587918 4.0740248e-05
0002a0 60 0e 49 3a d2 37 89 3a b8 b1 c5 39 28 a1 e0 39
       0.00076696835 0.0010468906 0.0003770718 0.0004284468
0002b0 21 37 3e ba 22 56 44 b9 02 59 f5 b8 20 e3 bc 38
       -0.00072561397 -0.00018724104 -0.000116990894 9.006844e-05
0002c0 ae 66 23 39 29 f4 19 b9 bb 90 ab b9 c5 b6 ef b9
       0.00015583143 -0.00014682174 -0.00032723494 -0.00045721806
0002d0 de b1 16 3a ba 61 c9 39 90 c5 a7 b9 1d 14 2d b8
       0.000574855 0.0003841052 -0.00031999918 -4.1265146e-05
0002e0 07 8c 94 b8 5a 41 78 b8 64 63 e6 b9 c6 df 3f b9
       -7.083272e-05 -5.918867e-05 -0.0004394307 -0.00018298542
0002f0 d4 16 4c ba 21 f7 42 b9 69 b0 b6 b8 8d f1 8b b9
       -0.0007785384 -0.00018593344 -8.711295e-05 -0.00026692115
000300 c3 eb c4 bb 5f 58 0c b9 9b eb 2e ba ef ba bc b8
       -0.0060095503 -0.00013384361 -0.0006672681 -8.999358e-05
000310 f3 a4 68 bd 93 b9 74 3c d8 0c 64 bc 10 8a 18 3d
       -0.056797933 0.0149368225 -0.013919078 0.03724104
000320 86 ab 1b 3c 87 6a b3 3b f3 0b 70 bb a9 d5 c8 3b
       0.009501344 0.0054753455 -0.0036628216 0.006128986
000330 89 02 64 ba f4 5d 29 3b 89 31 ce 3a 5c 2c 33 bc
       -0.00086978875 0.0025843354 0.0015731315 -0.010935869
000340 13 38 da bb b8 5f 27 bc 71 8b 1b 3c a3 42 ad b9
       -0.0066595166 -0.010215692 0.009493695 -0.0003304678
000350 ce b3 34 3a 3b 11 2e ba 04 fd 62 3d a1 f7 c6 bb
       0.0006893248 -0.0006640141 0.055417076 -0.006072
000360 b4 8b f3 3d 32 d2 02 3a 4f 79 50 ba 8a f5 ce bd
       0.11891881 0.0004990428 -0.00079526467 -0.101054266
000370 5f 47 53 3b a9 12 a9 3c 90 c4 0c 3c fe ec 9c 3c
       0.0032238585 0.02063878 0.008591786 0.019155975
000380 80 d4 4e bc 54 31 8d be e6 6b 61 be e3 ca 3c bf
       -0.012623906 -0.27576697 -0.22013816 -0.7374708
000390 ce 00 87 bd 44 b6 f8 bd 58 52 46 3c 13 5e 24 3d
       -0.0659195 -0.121441394 0.012104593 0.04012878
0003a0 57 0c 65 bd 96 5a 84 3c a9 9d 6b bd cd 7a ee be
       -0.05591997 0.016156476 -0.057523403 -0.46578065
0003b0 0e 82 f2 bc 65 ae 02 3e f2 66 38 3e 8a a3 56 bc
       -0.02960303 0.12761839 0.1800802 -0.013100514
0003c0 78 a5 ec 3c a7 9d 55 bc 77 61 6f bc e7 0a 44 bd
       0.028887495 -0.0130380755 -0.01461064 -0.04786196
0003d0 62 2b b2 3f a2 2f a4 3f 2e bd 0d 3f 50 fd 8b 3e
       1.3919489 1.2827036 0.5536679 0.273417
0003e0 04 12 32 3f c0 37 b3 3e e4 a9 34 3e 81 40 a7 3f
       0.6955874 0.3500347 0.17642933 1.306656
0003f0 89 bb 4c bc ce 8b b9 3a e5 17 3a ba 6f 6c 87 3b
       -0.012495884 0.0014156045 -0.00070988975 0.0041327993

encoder.weight_hh_l0 f4 [256, 64]
000000 83 7e 2f 3d e0 a2 35 bd 86 67 b3 3d 57 a5 df bd
       0.04284526 -0.044344783 0.0875998 -0.10920208
000010 b2 30 73 bd 60 aa d5 3d 0b dc 45 3d f2 43 d3 bc
       -0.05937261 0.10432887 0.048305552 -0.025789235
000020 42 db b9 3d 74 6f fa 3d 7c 66 e0 3d 3b 82 2e be
       0.09075023 0.12228289 0.10957047 -0.17041866
000030 f2 af 1a bd 2e 54 1c be 72 9c 3f 3e 61 1f 83 bd
       -0.03776545 -0.15266487 0.18712023 -0.064024694
000040 02 f7 f6 3d 85 80 5d be 7d 5c 6d bc aa 5d 8c 3d
       0.12058832 -0.21631058 -0.014487383 0.068538025
000050 d0 40 85 3d b8 d1 b6 3c 9e 88 ab 3d 60 ec fc bc
       0.06506503 0.022316799 0.08375667 -0.030874431
000060 f3 ef 31 be 66 16 a1 3d 6f 76 ad bd 84 ba 41 3d
       -0.1737669 0.078656 -0.08469855 0.047297016
000070 60 17 8b 3d db 6f 86 3c 7f 8a 87 3d 23 35 14 3e
       0.06791568 0.016410759 0.06618213 0.14473395
000080 a5 79 ea 3d 77 1e f4 3d 20 67 95 3c af 7e 73 3e
       0.11448983 0.11919873 0.01823765 0.23778795
000090 f8 47 02 bc 8b f1 a3 bd 22 fc d3 bd 6b 5e 5f 3d
       -0.007951729 -0.08005055 -0.10350825 0.054533403
0000a0 c5 7f 05 bc b8 35 f1 3d 5f 83 2c bd 46 77 ac 3d
       -0.008148138 0.11777824 -0.042117473 0.08421187
0000b0 ae 13 71 3d 21 80 da 3d 3d 8c ab 3c 95 a6 a9 3d
       0.05885666 0.1066897 0.020940894 0.08283726
0000c0 8c d1 80 3d 7f 95 cf bd 55 d6 0b 3d b4 cf 35 bb
       0.06289968 -0.10135936 0.03413995 -0.002774221
0000d0 8f 6a a8 bc fe 23 ef bd e1 08 d0 bd d0 42 04 be
       -0.020558624 -0.11676787 -0.101579435 -0.12916112
0000e0 0d 3b 91 3d df 9a 3b 3d 74 66 0f bd 30 e0 38 3d
       0.07091341 0.045801993 -0.035009816 0.045135677
0000f0 46 54 81 3c 34 b7 ba bd 01 83 8c 3c 5c d7 ef bd
       0.015787255 -0.091169745 0.017152311 -0.117109984
000100 03 ac a9 be 26 f9 10 3f 5d a7 34 bd 5f 57 b1 3d
       -0.33139047 0.5663017 -0.044104923 0.08659243
000110 94 28 57 3d 6b dc 9a be 4a 45 3f 3f 0f 83 e7 bd
       0.052528933 -0.3024629 0.747151 -0.11304294
000120 36 d8 da 3d 04 07 b9 3e 76 49 e6 bd 37 3f 4f be
       0.1068577 0.36138165 -0.1124448 -0.20238958
000130 c1 03 67 3e 66 61 1b be ac d2 5a be 69 41 ec 3d
       0.22560026 -0.15173873 -0.21369427 0.115359135
000140 f0 95 91 be 1f 67 42 be c1 3b 9a 3e 30 b8 f8 bd
       -0.28434706 -0.1898465 0.30123714 -0.12144506
000150 07 e4 a3 bd dd 59 b1 be 08 ce 4a 3f 90 2a ae bd
       -0.08002477 -0.34638873 0.7922063 -0.08504212
000160 cf c9 20 be 33 56 25 bf 93 9d 69 3e 84 58 11 bd
       -0.15701984 -0.64584655 0.22814016 -0.035484806
000170 60 94 84 3d c9 b8 c8 3e a5 a6 6c 3e a7 4c da 3c
       0.06473613 0.3920348 0.23110445 0.026647879
000180 2d e8 31 3e ed 7a 48 bc cc 13 19 3d 56 09 92 3d
       0.17373724 -0.012236339 0.037372395 0.07130687
000190 4c 18 86 bd 51 36 98 bc 23 39 33 bd 72 24 02 bc
       -0.06547603 -0.018580588 -0.04375566 -0.00794326
0001a0 d1 8a 81 3f 97 08 99 be 1b 1a 42 be 59 fe 50 bf
       1.0120488 -0.29889366 -0.18955271 -0.81638104
0001b0 cc b8 d1 be 79 c4 7f bf 7e ba 60 3f 9f 60 eb 3d
       -0.409613 -0.9990917 0.87784564 0.114930384
0001c0 be 97 06 3e 5d e1 88 3c 43 27 8c be cc c0 cb 3e
       0.13143823 0.016709024 -0.27373704 0.3979553
0001d0 46 16 12 bf b0 b7 e8 be 65 2d 8a 3e c8 6c 28 be
       -0.57065237 -0.45452642 0.26987758 -0.16447747
0001e0 16 89 87 3c 5f f5 39 3e b7 51 55 be 5c d4 87 be
       0.01654486 0.18160008 -0.20831953 -0.26529205
0001f0 9b 02 0c 3e 49 6a 98 bd 73 d4 d7 be 2a de 34 3d
       0.13672869 -0.07442147 -0.42154273 0.044157185
000200 9b 14 c8 3d 8b b5 3d 3d 41 a3 e7 3c 43 a4 3e 3c
       0.09769555 0.04631571 0.028276088 0.011635843
000210 a8 9f 8d 3d 91 50 16 bd c7 82 56 3e 67 e2 3e 3c
       0.06915218 -0.036697928 0.20948325 0.011650658
000220 e1 8e d9 bc 15 92 00 3d fd 06 cc bd c3 44 a1 3a
       -0.026557388 0.031389315 -0.099622704 0.0012303818
000230 64 06 88 bd f6 53 8b 3d 08 46 a7 bd ac 97 c3 3c
       -0.06641844 0.06803124 -0.08167654 0.023876034
000240 97 3e c3 3d f9 da a4 3c 73 0b 19 3e 73 73 b5 3c
       0.095334224 0.020123946 0.14945774 0.022149777
000250 63 a2 8c 3d a9 de 1a bd b0 2b 10 3a a5 97 3a bd
       0.0686691 -0.03781 0.0005499674 -0.045554776
000260 55 5f 3f be 8d 82 d5 3b d0 8c 04 3e 96 e4 05 be
       -0.1868871 0.006515807 0.1294434 -0.1307548
000270 4c 5b ed bd 38 11 43 bd b5 44 d5 3b c3 3d 9d bc
       -0.11589679 -0.047623843 0.0065084347 -0.01919449
000280 c7 0c 7b 3d a4 6f 24 3d 58 52 30 3d 83 c9 be 3d
       0.061291482 0.04014553 0.04304728 0.09315779
000290 78 1b d3 bd 53 54 c6 3d 91 9f ac 3c 31 de 90 3d
       -0.103079736 0.09684052 0.021072181 0.0707363
0002a0 af e0 b3 3e 7d 59 d9 bd 07 f1 ea bd 6d 20 33 bd
       0.35132357 -0.10612772 -0.114717536 -0.043732096
0002b0 bd 9d c0 3e c9 a4 85 3d 85 20 3d 3d b1 da 8e bc
       0.37620345 0.06525571 0.04617359 -0.017438265
0002c0 ad 11 ed 3b ed b9 85 bd fc ea 95 bd 9a d2 57 3d
       0.007234773 -0.06529603 -0.0732021 0.05269108
0002d0 31 5e 19 bd a6 a8 dc 3d ea 8d 3c 3c 65 db d5 3c
       -0.037443344 0.10774355 0.011508444 0.026105592
0002e0 3a 22 07 3d e8 6e 22 be 00 44 83 3b a6 05 59 bd
       0.032991625 -0.1586262 0.004005909 -0.052983902
0002f0 6a 03 17 be 08 fb ed 3e fc d3 d7 bd f6 d6 cf 3c
       -0.14747396 0.46480584 -0.1053848 0.025371056
000300 65 58 73 bc d2 f1 ce bc f0 d8 1b bd 55 d1 b2 3b
       -0.014852618 -0.025261793 -0.038048685 0.005457083
000310 4a d9 01 3c b2 59 9e 3e 1e c9 6c 3d 83 d8 3a be
       0.007925341 0.30927807 0.057808988 -0.18246655
000320 5b a3 e6 bc e8 86 a7 bd d0 bc 18 bc f3 7e 35 bd
       -0.028154066 -0.08180028 -0.00932236 -0.04431052
000330 36 cf 2f 3e c4 05 a7 bd ae 09 05 bd d2 9c 4d 3d
       0.17168888 -0.081553966 -0.032479934 0.050198384
000340 d5 6b f7 3d d7 bb e8 bb 90 56 33 bd fc 76 28 3e
       0.12081114 -0.0071024704 -0.043783724 0.16451639
000350 9f 9b d8 bd 15 91 b1 3e 23 c6 13 3c 4c 39 1f 3c
       -0.10576557 0.34681 0.009019407 0.0097182505
000360 74 d9 75 3e fd c5 5d 3d 51 63 7c 3d ef 71 93 3e
       0.24008733 0.054143894 0.061618153 0.28797862
000370 dc 53 f0 3c a3 bc 3e 3d df 6f e1 3c 72 2c 0b 3e
       0.029336862 0.046566617 0.027519165 0.13591173
000380 80 a3 69 3d 0c 99 86 bd 11 d2 c4 bd 38 a9 f6 bd
       0.05704069 -0.0657216 -0.096103795 -0.12043995
000390 65 6a 2e be 00 6f 0d 3d 1e 1a 60 3d 10 b6 b1 bd
       -0.17032774 0.034529686 0.054712407 -0.08677304
0003a0 4a 9a 98 3e 00 ff 39 bb 02 d7 bf bc 03 50 2c bd
       0.29805213 -0.0028380752 -0.023417953 -0.042068493
0003b0 69 54 05 3f c7 70 35 bf c5 ce 4f bc 57 ed 99 3d
       0.52081925 -0.7087521 -0.012683575 0.07515972
0003c0 92 b7 af 3b e7 dd e3 3c 7c 63 53 3d b8 b6 04 3e
       0.0053624595 0.027815772 0.051608548 0.12960327
0003d0 58 58 3f be 5b da bf bc 4c d8 d2 bd c7 c2 90 bb
       -0.18686044 -0.02341955 -0.102951616 -0.0044177505
0003e0 6b 5d 3f 3d a2 20 bb 3c 60 05 b2 3c 15 75 90 bd
       0.04671995 0.022842709 0.021731079 -0.070535816
0003f0 71 cb b6 3d 28 c3 9e bd 49 6d 0b be 95 ca 4a 3d
       0.08925522 -0.07752067 -0.13615908 0.049509604

encoder.bias_ih_l0 f4 [256]
000000 bd db 31 3d b2 0d 21 3e 44 c9 7e b8 7f 0c 4e 3d
       0.04342245 0.1572788 -6.0745762e-05 0.050304886
000010 02 a2 b4 3d c2 16 b7 bd 98 b7 9e bc 02 61 92 bd
       0.08819963 -0.089398876 -0.019374654 -0.07147409
000020 e2 eb 9f 3f 37 9f 8d 3d da d1 0e be 4b b6 ab 3f
       1.2493861 0.069151334 -0.1394724 1.3415006
000030 bf 7f 64 bd 20 11 8b 3f ac 25 0b be bb d5 c0 bd
       -0.05578589 1.0864601 -0.1358859 -0.09415766
000040 dd 70 3e 3c 1f 86 22 3f eb a0 13 be 12 01 95 bd
       0.011623588 0.634859 -0.14416854 -0.07275595
000050 63 36 cd bd 8d e6 d1 bd 42 a9 2b 3f 88 36 fe bd
       -0.10020139 -0.10249052 0.6705514 -0.12412745
000060 40 01 6a bc 52 38 47 3f 5a bf 96 bd 30 20 05 3e
       -0.014282525 0.7782031 -0.07360716 0.1300056
000070 40 e1 7a bd eb 2c 88 3b e0 56 8b 3d fd e1 96 3f
       -0.06124997 0.0041557453 0.068036795 1.1787716
000080 41 8b 0c be 77 06 0f bc 37 1a a0 bd 5b a9 10 be
       -0.13724996 -0.008729569 -0.078175 -0.14127104
000090 6c 91 ce 3d 69 5f 99 3f 8d 7f 16 be 79 f9 45 3e
       0.10086331 1.1982242 -0.14697094 0.19333448
0000a0 90 db bd 3d 20 43 6e bd 96 d6 b4 3d e6 04 54 3d
       0.09270394 -0.058169484 0.088299915 0.051762484
0000b0 ce bf 9b 3e c0 30 13 3d 3e ae 8f 3e 77 bd 96 bb
       0.30419773 0.035935163 0.28062624 -0.0046002227
0000c0 fb 79 54 be b3 f9 df 3e 86 a0 72 3d 87 7f 8a 3e
       -0.20749657 0.43745193 0.05923512 0.2705042
0000d0 53 29 24 be 21 e3 25 3f 59 0d 1f be 6c 95 52 be
       -0.16031389 0.64799696 -0.15532435 -0.20564812
0000e0 f5 e1 4a 3d 7b 00 f0 3e 12 2e ff 3e 37 c6 64 3d
       0.049531896 0.46875367 0.49839836 0.055853095
0000f0 10 35 88 3e 67 32 80 bc 1e 05 d3 3d e1 9d f7 bc
       0.26602983 -0.015649034 0.103037104 -0.03022665
000100 ec 1a ad bd 56 c6 2d be 4f dc 92 bd cb 48 e4 3d
       -0.084524006 -0.1697019 -0.07170927 0.11146697
000110 69 84 f1 3d cc 0c a1 bd 4a 56 4f bd 2f 0d 12 3e
       0.11792833 -0.07863769 -0.0506194 0.14262842
000120 d7 7e ac 3d 0b e9 a0 3d f7 0f 33 3d 21 5b 14 3d
       0.0842263 0.078569494 0.043716397 0.03621972
000130 f7 91 89 3e ad d1 f2 3e e0 62 0f bd 07 2f 5a 3d
       0.26869175 0.47425595 -0.035006404 0.053267505
000140 dd 18 1f 3d c5 d1 d4 bb 6c c2 94 3d 7d 43 b6 bd
       0.03884207 -0.006494733 0.072636455 -0.08899591
000150 f1 f2 b0 3c ab 39 06 3e 22 27 3a 3e f9 71 ed bc
       0.021600218 0.13107936 0.1817899 -0.02898501
000160 ea e9 bf 3d 53 c1 c2 3d f1 0c 7b bc 8f a3 70 3d
       0.093707874 0.0950953 -0.01532291 0.05874973
000170 fe a9 da 3d 24 85 a2 3c 7a 28 81 bd 85 81 1e be
       0.10676955 0.019838877 -0.063065484 -0.15479095
000180 d9 3d 7f 3d 2b 5c c3 bd 18 fb fe 3d f0 af e0 3c
       0.062314842 -0.09539064 0.12450236 0.027427644
000190 ff 93 bf 3b fa 5d 01 3d f3 80 13 3d 61 03 88 3d
       0.0058465 0.031583764 0.036011647 0.066412695
0001a0 60 f7 71 bd 33 4e 6b 3d f4 61 a5 bd d2 83 7a bb
       -0.059073806 0.057447623 -0.08075324 -0.0038225544
0001b0 a6 5f ac bd b6 e8 b6 3d 26 68 ec 3b 03 f2 b6 3d
       -0.08416681 0.08931105 0.007214564 0.08932879
0001c0 69 7f 84 bd fb 93 de 3c 73 db 02 bd 20 30 d6 3c
       -0.06469614 0.027170172 -0.031947564 0.026145995
0001d0 f5 47 a5 bd 37 d3 a0 bc d2 c3 40 bc ee 5a c9 3d
       -0.08070365 -0.019631965 -0.011765437 0.098317966
0001e0 6e 5f a9 bd 6d 0f bf 3b 0c fa 62 3d 11 b4 0c 3e
       -0.08270155 0.0058306963 0.055414245 0.13740565
0001f0 c8 75 53 3d cc 0f cb 3d e6 e0 76 3b 12 6e 8e bc
       0.051625997 0.099151224 0.003767067 -0.01738647
000200 d6 8a 01 3f fb 01 5d 3d d6 c7 4f 3f fa a6 20 bf
       0.5060247 0.053956967 0.811643 -0.62754786
000210 e8 8a fb bd 6e ca bf bd 93 d3 f8 3d 10 5b 20 bf
       -0.12282354 -0.09364782 0.121497296 -0.6263895
000220 de d4 1a 3f e3 a9 15 3e 1a a9 db 3e 12 ae 11 bf
       0.6048106 0.14615588 0.42902452 -0.56906235
000230 83 0b cf bd 3a cc 3a bf d0 9b 6b be 9f 0b 4e bc
       -0.101096176 -0.72967875 -0.23008657 -0.012576013
000240 35 f8 b6 bd 00 8e 39 bf 10 54 de 39 33 15 15 bd
       -0.089340605 -0.724823 0.0004240577 -0.03639717
000250 a6 a8 fb be e0 45 0d 3e c4 5c 3a bd b8 90 df 3d
       -0.49152106 0.13796186 -0.045498624 0.10916275
000260 ee 5e de 3d 59 cf 5f be ba 2a 56 be 9a 12 a7 bd
       0.1085795 -0.2185644 -0.20914736 -0.08157845
000270 5e 46 22 3e bf 4b f8 3e 17 97 3a bd 58 ff 06 3f
       0.15847155 0.4849529 -0.045554247 0.52733374
000280 62 94 be 3e 60 f7 32 3d 06 07 f5 bd 63 51 30 bd
       0.37222582 0.043692946 -0.1196423 -0.043046366
000290 b9 57 80 bd 39 33 30 bf 9b 45 fa be 63 27 c8 be
       -0.06266732 -0.6882816 -0.4888123 -0.3909255
0002a0 6e cb 99 3c b6 4f 04 be 5b 92 93 bd c5 71 0c bd
       0.01877376 -0.12921032 -0.072056495 -0.034288187
0002b0 8d 1d 5c bd cc 9b b5 3c 31 8c 0e 3e ce 52 b6 bd
       -0.05373912 0.022169016 0.13920666 -0.089025125
0002c0 db 69 23 3f 4a 5b 04 bf f5 e4 73 bd 91 d9 06 3f
       0.638334 -0.51701796 -0.059544522 0.5267573
0002d0 7d f1 e1 bc 42 d8 8b be a0 46 b4 3d 63 fc 82 bb
       -0.02758097 -0.2731343 0.08802533 -0.003997372
0002e0 03 d8 0d 3e 87 85 51 be b0 59 5d be 18 48 aa be
       0.13851933 -0.20461093 -0.21616244 -0.33258128
0002f0 0e 54 0e 3f 27 cf 1e 3d bf 47 2c 3e 9a 9d e8 3d
       0.5559701 0.038771775 0.16824244 0.11358185
000300 ea ec c4 3e f5 68 d9 3a 81 19 b0 3e 59 cf ce 3e
       0.38462 0.0016587066 0.34394458 0.4039257
000310 d2 c0 0a 3d 5c b4 97 3e 9a 53 11 3f d5 be 4e be
       0.033875294 0.2962979 0.5676819 -0.20189984
000320 f8 04 a8 3f 82 bc 20 bb 11 4c 89 3d 8f d3 9f 3f
       1.3126516 -0.0024526422 0.06703962 1.2486438
000330 09 c0 7c 3d f9 5b 92 3f 77 38 7d bd 6b 77 0a 3e
       0.061706576 1.1434318 -0.061821427 0.13522117
000340 28 cb 92 3d 14 bb 0f 3f 4d 12 b5 3d fa d5 c2 bd
       0.07167655 0.56144834 0.08841381 -0.09513469
000350 c3 10 06 3f 56 5a db 3d f8 fe 0c 3e 56 13 31 3e
       0.52369326 0.107105896 0.13769138 0.17292532
000360 a2 6e df 3d 6b bb 08 3f cb d5 71 bc 98 7c a4 3e
       0.109097734 0.5341098 -0.014760445 0.32126307
000370 54 a2 3a 3c b1 b3 aa 3d ba 74 49 3e 44 df a3 3f
       0.011391241 0.08335055 0.19673434 1.280251
000380 e8 4e 96 3f 19 8a b7 bb 03 89 84 3c d9 f7 bc bb
       1.174283 -0.0056011793 0.016178614 -0.0057668504
000390 77 f5 0b 3e bc 63 6c 3f 3c cd 3b 3d 55 cc 7b 3e
       0.13667856 0.9233968 0.045850024 0.24589665
0003a0 d5 d8 0c 3e db 63 cf bd 70 4e 61 3f 6a ba ba 3d
       0.1375459 -0.10126468 0.8801031 0.09117587
0003b0 e1 74 3b 3e 5a fa bb 3e 6f 1e 06 3e 5b 2e 0c 3d
       0.18306305 0.3671444 0.13097547 0.034223896
0003c0 4d e2 6f 3e cb bb 8e 3f fa df 5b 3e 88 e7 50 3d
       0.2342617 1.115106 0.21472159 0.051002055
0003d0 81 f4 57 3d 89 a2 a8 3c c9 af d4 3d 99 b1 70 bb
       0.05272341 0.020585315 0.10385091 -0.003672695
0003e0 da a0 ee bc 48 ef a8 bc 86 05 f1 3e 31 7c 82 3d
       -0.029129434 -0.02062191 0.47074527 0.06371344
0003f0 85 93 0e 3e a0 69 95 3d f4 7b 5c 3e 68 e3 09 3e
       0.13923462 0.07295537 0.2153166 0.13465655

encoder.bias_hh_l0 f4 [256]
000000 e8 cb 81 3d af 8a 25 3e db 66 93 bd 75 d0 ff 3d
       0.0633772 0.16166185 -0.071973525 0.12490932
000010 47 e8 8c bd da 3e ca bd 89 2b 93 3d c6 97 16 be
       -0.06880241 -0.09875269 0.07186038 -0.14706334
000020 31 25 aa 3f 39 f7 82 3d da 5e dd bd 06 e2 99 3f
       1.32926 0.0639481 -0.10809107 1.2022102
000030 94 76 6d be 77 83 a1 3f de 8d a5 bd 98 b3 ed bc
       -0.23189765 1.2618245 -0.080837 -0.029016301
000040 59 87 ef bd c9 62 2b 3f 66 fd 41 3c 37 cd 2e 3d
       -0.116957374 0.6694761 0.0118402 0.042676177
000050 7d 0d bc 39 74 05 37 be f7 71 25 3f 75 82 39 3d
       0.00035868204 -0.17873174 0.6462702 0.04529043
000060 8f a8 09 be 35 e2 76 3f d8 01 18 bd d3 da 9e 3b
       -0.13443206 0.96438915 -0.037111133 0.004847863
000070 0e 0e 67 bc b6 16 a8 3c de 33 ae 3d 67 54 b2 3f
       -0.014102472 0.020518642 0.08505987 1.3932008
000080 6a 8e c2 3c b2 12 c8 bb 74 9b 7c bd 7e 4b 4a 3d
       0.023749549 -0.0061057443 -0.06167169 0.0493884
000090 8a 5f 95 bd 18 98 a5 3f 3d b1 8e bd d3 c9 52 3e
       -0.07293613 1.293704 -0.06967399 0.20584802
0000a0 84 7d a2 3d b0 00 39 3d 93 5b 7e bc a8 c4 de 3d
       0.079340965 0.04516667 -0.015524763 0.10877353
0000b0 1b 1e 7f 3e cb 57 88 3d 0c 74 87 3d 23 a8 81 3c
       0.24913828 0.0665737 0.06613931 0.015827244
0000c0 ec 9e eb bd 6f 25 06 3f 5f f0 5e 3d 05 e4 e4 3c
       -0.11504921 0.5240087 0.054428454 0.02794076
0000d0 7d 8b 3f bd 20 38 13 3f dd 9b 9e bd 1c b1 5e bd
       -0.046763886 0.57507515 -0.07744572 -0.054368123
0000e0 4e cd 44 3d 54 26 de 3e 31 61 a3 3e a7 eb d2 bd
       0.048047356 0.43388617 0.3191009 -0.10298853
0000f0 69 1f a9 3e 82 84 dc 3d 88 b3 fd 3d 59 d4 a2 3d
       0.33031777 0.10767461 0.123877585 0.07950658
000100 bb fc 8b 3c ea 18 85 bd 05 75 30 3b 0b 9f 5d 3d
       0.017088285 -0.064988926 0.0026925218 0.054106753
000110 36 12 7c bd b9 d1 98 bd 7d b6 a2 bd 9a f8 c9 3d
       -0.061540805 -0.074618764 -0.07944963 0.0986187
000120 f9 6b 05 3e b7 bf f7 bd a8 6b 57 3c d1 12 2a 3e
       0.1302947 -0.120971136 0.013148226 0.1660874
000130 ad 3f 61 3e fe 6c c2 3e 9c 51 02 be b1 04 09 bd
       0.21996947 0.3797378 -0.12726444 -0.03345174
000140 e7 41 ff bd 48 3e 31 bd a7 1a b2 bc 04 27 9e bd
       -0.12463742 -0.043272287 -0.021741224 -0.077222854
000150 fd f5 8a bd 44 72 3f 3e b0 b5 b5 ba 80 d6 3d 3d
       -0.067852 0.18695933 -0.0013863351 0.04634714
000160 0d b7 54 3e 91 62 87 3d 85 35 c7 3d a7 1d 9e bc
       0.20772953 0.06610597 0.09727005 -0.019301249
000170 9a ac a7 3d a4 d6 3d 3e 64 35 a4 3c e7 96 fd 38
       0.08187218 0.1853891 0.02004499 0.00012092088
000180 74 0a f0 bc 51 88 13 bc b0 d1 32 bd 63 e0 20 bd
       -0.02930186 -0.009004668 -0.043657005 -0.03927649
000190 06 00 5e bb f3 eb 70 3c f3 b2 ca 3c d5 46 8a bd
       -0.0033874526 0.014704692 0.024743533 -0.067517914
0001a0 b4 9d c1 bd ac 19 0d be 1d e3 37 3d d0 cb 1d be
       -0.094539076 -0.13779324 0.044894326 -0.1540978
0001b0 d9 c6 09 3d bd c7 78 3d 87 6d fc 3d 32 1e bf 3d
       0.0336369 0.06073736 0.12325578 0.09331931
0001c0 68 e4 64 bd f4 33 aa 3d 2b 7a ee bc ac e6 7d bc
       -0.055881888 0.083106905 -0.029110989 -0.015496891
0001d0 9a f4 f1 bd 7d c6 31 3d 1d f7 fb bd 6b ca 13 3e
       -0.11814232 0.043402184 -0.123029925 0.14432685
0001e0 3b c8 f0 3d cf 1c 9b 3d 8b 38 37 be 87 14 e0 3d
       0.11756941 0.07573854 -0.17892663 0.10941415
0001f0 13 cf 36 bc 3b e7 23 3e b6 bb 9e 3d c2 47 10 3e
       -0.011157769 0.16006176 0.07750647 0.14089873
000200 e8 61 d8 3e 67 32 f1 3d be 3d 2e 3f db c7 1c bf
       0.42262197 0.117771916 0.6806296 -0.61242455
000210 6f 5f 21 bd 2b eb aa bc fe a2 a6 3d 67 00 1c bf
       -0.039397653 -0.02086409 0.08136557 -0.60938114
000220 34 45 19 3f ad d2 f2 3d 72 a7 1e 3f 06 f2 36 bf
       0.5987122 0.118565895 0.6197425 -0.7146305
000230 b8 6f 74 bd cb c5 1f bf d7 ee 5b bc a0 fa 0d be
       -0.059676856 -0.62411183 -0.013423643 -0.13865137
000240 c4 cc f4 3d 4b 4d 71 bf b5 6c 0a bc e2 6e e6 bd
       0.119531184 -0.94258565 -0.008448769 -0.11251618
000250 e3 a9 db be 45 37 92 bd e7 b2 ab bd ce b6 58 3d
       -0.4290305 -0.07139448 -0.08383732 0.05290871
000260 8a 0d 9f bd 25 13 1a be f2 17 e6 bd 88 5d b5 3d
       -0.07766254 -0.15046366 -0.11235036 0.0885573
000270 7a c9 ed 3c 0c ab 01 3f 35 fd a9 bd 4a 52 0f 3f
       0.029026736 0.5065162 -0.083002485 0.5598494
000280 2e 73 55 3e 46 3a db 3d c5 e1 9a bd 28 d1 76 be
       0.20844719 0.10704474 -0.07562593 -0.24103224
000290 0b 8a 0f be c9 e1 32 bf 61 3a fc be f3 a7 88 be
       -0.14017503 -0.6987577 -0.4926329 -0.26690635
0002a0 2e 20 81 3c 47 47 3d bd e6 6a ef bd 54 ff d4 bd
       0.015762415 -0.046210553 -0.11690311 -0.104002625
0002b0 db 67 8f bd 12 17 a1 3c 27 3a 6c 3d cc 00 30 3d
       -0.07002231 0.019664321 0.057672646 0.04296951
0002c0 29 8f 1d 3f c4 03 09 bf 24 19 08 be af 21 1b 3f
       0.6154657 -0.5352137 -0.1329084 0.6059827
0002d0 2a 7f e3 bc 0f 41 11 be 66 09 1f bd f9 77 60 be
       -0.027770597 -0.14184974 -0.038827322 -0.21920766
0002e0 c1 b1 95 3d 46 27 f3 bd e0 82 1e be 13 90 3c be
       0.073092945 -0.11872725 -0.15479612 -0.18414335
0002f0 54 e3 32 3f f0 81 15 3d 20 6a 01 3e 80 73 e8 3d
       0.69878125 0.03650087 0.1263814 0.11350155
000300 19 f4 ca 3e 8c 2c 64 3d 39 44 cc 3e 1e 58 92 3e
       0.39639357 0.055706546 0.398958 0.28582853
000310 bd 4c 8e 3e 16 e0 96 3d 40 6e 1c 3f bb 88 b4 bd
       0.27792922 0.0736696 0.6110573 -0.08815142
000320 91 67 8e 3f d4 1b 7e 3d 74 2b d9 bc f2 c8 9e 3f
       1.1125356 0.062038258 -0.026509978 1.2405074
000330 61 d2 62 3e 05 a1 9b 3f 40 50 2f bd 24 10 91 3d
       0.22150566 1.2158514 -0.04280114 0.07083157
000340 41 24 06 bd 77 3e 19 3f 2a 03 fe 3d 0e e5 87 bd
       -0.03274942 0.5986094 0.12402947 -0.066354856
000350 95 c5 e4 3e 21 a0 f5 3c be 8c 40 3e b9 da af 3d
       0.44681993 0.029983582 0.18803689 0.0858664
000360 87 89 1c 3d 00 5f 9d 3e 9d 9f 78 3d 70 2b b2 3e
       0.038217094 0.30736542 0.060699094 0.34798765
000370 0f ef cb bd 5d 93 aa bd 18 05 e2 3d 30 d4 8b 3f
       -0.09957706 -0.083288886 0.11036128 1.092413
000380 cb 3d 91 3f 21 ca ee 3d c4 58 64 bd a8 e9 e0 bc
       1.1346983 0.11659647 -0.055748716 -0.027455166
000390 1b 8f 94 3e 35 20 8b 3f bc 19 65 bd 44 cb 8a 3e
       0.2901543 1.0869204 -0.055932745 0.27108204
0003a0 a0 c7 ad bd 17 23 b6 bd 95 7b 5c 3f bd ad 39 3e
       -0.08485341 -0.088934116 0.8612607 0.18132682
0003b0 b6 db 84 bb 7e a2 53 3e 22 81 b6 3d 1b 79 99 3b
       -0.004054512 0.20667455 0.08911349 0.0046836264
0003c0 9b ba e6 3e 8c e0 89 3f cb 31 75 3e af e0 ba 3d
       0.45064244 1.0771651 0.23944776 0.09124886
0003d0 09 17 61 bd c6 95 ed bc 41 82 c9 3d a6 6a 01 3e
       -0.05495361 -0.029002082 0.09839297 0.1263834
0003e0 8e 0d c1 bc 7f f5 98 3d ad cd 98 3e 8d f6 39 be
       -0.023566034 0.074687 0.29844418 -0.18160458
0003f0 45 bb 23 3e 8f 7b 22 3e 44 c7 4e 3e 69 59 fe 3d
       0.15989406 0.15867446 0.20193201 0.124193974

latent.weight_ih_l0 f4 [128, 64]
000000 84 69 17 be fc cd e9 bd d1 96 22 3e b5 2f 60 be
       -0.14786345 -0.114162415 0.15877844 -0.21893199
000010 b5 ec aa 3c 20 29 2f 3e fe ab 41 be c6 8c 5f be
       0.020864824 0.17105532 -0.18913266 -0.21831045
000020 b1 1f 82 3e 31 a6 10 3d 47 a0 63 3e 8e 8a a7 be
       0.25414804 0.035314742 0.2222911 -0.32722896
000030 b1 d2 7d 3e 74 96 a3 be 89 ba a6 3d 78 67 a5 bd
       0.24787404 -0.31950724 0.081410475 -0.08076376
000040 32 5f 32 be 39 59 bb bc 81 a8 96 3e fd af d2 3d
       -0.17419127 -0.022869693 0.29425433 0.10287473
000050 06 c0 0b 3d 09 6a 95 3e 37 4e 38 3c db 81 83 3e
       0.034118675 0.2918246 0.011249117 0.2568501
000060 8e 1d e4 3e 3a f1 62 3c 8f 61 90 bd af 9a dd 3d
       0.44553798 0.013851458 -0.07049858 0.10820519
000070 5c 48 25 3e c8 20 73 3e 89 9c 96 3e 88 11 02 3e
       0.16140884 0.23742974 0.29416302 0.12702
000080 68 2f a7 bc 14 2e 15 bd e1 ba 4f be d2 3c 66 be
       -0.020408347 -0.036420897 -0.20286132 -0.22484139
000090 17 da 49 be e0 72 34 be 31 fe 10 bc bc 47 61 be
       -0.19712101 -0.17621946 -0.008849666 -0.2200002
0000a0 1f 6d b6 3e 55 2f 3b bf c7 bd 96 bd 1e bd 9f bd
       0.35630128 -0.731191 -0.07360416 -0.07799743
0000b0 b4 7a ec be 47 f3 98 be c3 5d 39 be 26 d6 b4 3d
       -0.46187365 -0.29873106 -0.18102174 0.08829908
0000c0 9c 60 b8 3c 12 06 72 be 84 e4 db bd 74 a6 81 3e
       0.022507004 -0.23635128 -0.10736945 0.25322306
0000d0 d9 b3 98 be 20 ec 72 be 28 91 55 be 77 1d 58 3d
       -0.29824713 -0.23722887 -0.20856154 0.052762475
0000e0 20 6f 8b 3e 3b 4e 69 be 8d 44 58 be 50 bc 71 3b
       0.2723322 -0.22783749 -0.211199 0.0036885925
0000f0 54 b9 6d 3d 88 ee ab be 3f 24 9e be e3 ec dc 3e
       0.05803807 -0.33580422 -0.3088703 0.4314948
000100 3c 13 85 bd ab 27 a2 3d 2e 31 aa 3e a0 f3 03 3d
       -0.06497809 0.07917722 0.33240646 0.03221476
000110 0f a0 9a be de 6f 09 bf 7b 00 1c be 62 ad 8b be
       -0.3020024 -0.5368632 -0.15234558 -0.27280718
000120 01 66 81 3e 68 39 33 3d 63 fb 86 3d 74 c0 60 be
       0.25273135 0.04375592 0.06590917 -0.21948415
000130 69 b4 00 3e 44 b2 34 be 37 ab c0 bc 6f bf 81 be
       0.12568821 -0.17646128 -0.023519142 -0.25341365
000140 e8 fb 21 be e5 bf eb bd 7c d9 a3 3e 9c f9 48 3e
       -0.15818751 -0.1151121 0.32001865 0.19626468
000150 c0 80 f0 bd 6e 85 b9 3e d4 72 f5 3b c4 4c 89 3e
       -0.11743307 0.3623461 0.007490495 0.2681638
000160 eb b7 a0 3e 74 2d 98 bd b8 ed dd 3d 89 c9 14 bf
       0.31390318 -0.074305445 0.10836357 -0.5812002
000170 d8 e5 0c bd a2 1f 35 3d 1e 81 8a 3e 18 51 19 3e
       -0.034398884 0.04421962 0.27051634 0.14972341
000180 a8 d9 c3 bd 28 67 8a bd 81 67 97 be 5d 10 8f bd
       -0.09562999 -0.06757957 -0.29571155 -0.06985543
000190 a0 27 51 be 7f 15 2a be bf 00 85 bd e7 d4 02 be
       -0.20425272 -0.16609763 -0.06494283 -0.12776528
0001a0 87 0b 72 3e a5 ee 23 bf db f5 31 bd d5 68 72 be
       0.2363721 -0.6403602 -0.043447357 -0.23672803
0001b0 12 0d fb be 1a 92 ec bd 06 04 8e 3d 00 47 14 3d
       -0.4903341 -0.11551304 0.06934361 0.036200523
0001c0 97 ee 11 3d be d7 4b be cf 3d 73 be a1 b2 0f be
       0.035627928 -0.19906518 -0.23754047 -0.14032985
0001d0 a7 13 dd bd 61 d6 05 be ee f1 41 be 88 db c1 3b
       -0.10794764 -0.1307006 -0.18939945 0.0059160627
0001e0 ba 27 f0 bd 8b 45 c6 bd 29 04 85 bd 5d ec 26 be
       -0.11726327 -0.09681233 -0.06494934 -0.16301103
0001f0 a3 a1 14 3d f8 86 0c be 09 da 5c bd 28 d0 b9 3d
       0.03628696 -0.13723361 -0.053918872 0.09072906
000200 19 42 17 3c 9b b3 3a 3e 9c aa d9 bd 71 6b 18 3d
       0.0092320675 0.18232577 -0.10628244 0.03721184
000210 97 58 0f bf ca 15 78 be 09 96 07 bf 2d 58 a6 be
       -0.5599455 -0.24227062 -0.5296331 -0.32489148
000220 5b 0d 8c 3e ea a3 cb 3c 99 b6 1e 3e 49 f5 a1 3c
       0.2735394 0.024858434 0.15499343 0.019770281
000230 bc 6e 9c 3e 29 ef dd bd 34 0a a5 be 7b 4c 0d bd
       0.30553234 -0.10836632 -0.32234347 -0.034496766
000240 dd d8 11 be e7 f2 c2 bc c5 49 b6 3e a0 0a f9 3d
       -0.14242883 -0.023797465 0.35603157 0.1216023
000250 58 f1 ba bd 61 2b ae 3b c7 9d ca 3c 6b 2a 13 3e
       -0.09128064 0.0053152298 0.024733437 0.1437165
000260 a6 23 73 3e 17 b7 31 be 0d 1f bd 3d 86 16 fb be
       0.23744068 -0.17355 0.09234438 -0.49040622
000270 3d 59 68 3e c3 d6 c0 3d 67 59 8f 3e fa 04 7b 3e
       0.22690292 0.094159625 0.27997896 0.24513617
000280 8e c4 01 3f ba c4 92 be c6 a8 89 3c 66 e6 93 be
       0.50690544 -0.28665715 0.01680411 -0.28886718
000290 59 7c 1e be 46 ee 79 be ae 93 6e 3c 04 fa cd 3c
       -0.15477122 -0.244073 0.014561577 0.02514363
0002a0 15 17 e9 bd bd 43 0a 3e f3 14 19 be 82 f6 33 3d
       -0.11381356 0.13502403 -0.14949398 0.04393626
0002b0 aa 12 44 3e aa 34 07 be 3f 08 fd 3a d4 77 e6 3d
       0.19147745 -0.13203683 0.0019304826 0.11253324
0002c0 2b 6a b2 bc 25 66 7c be 43 33 ef ba 7e 86 13 bc
       -0.02177914 -0.2464834 -0.001824953 -0.009004233
0002d0 7d a3 30 3d 64 e0 c6 bd 16 d2 ee bd f6 a0 af bc
       0.043124665 -0.09710768 -0.116611645 -0.021439057
0002e0 b5 6a 3b be 48 35 5e be 56 cd a2 be e0 f2 be be
       -0.18302424 -0.21700013 -0.31797284 -0.37294674
0002f0 ca 53 9b 3e 9f bc 4e 3d cb 21 08 be 8e 46 0d 3e
       0.30337363 0.05047285 -0.13294141 0.13796446
000300 15 37 73 be 03 21 5a bc 89 20 7a 3e e6 f0 d9 bd
       -0.23751481 -0.013313535 0.24426474 -0.10641651
000310 21 4d bd bb 9e 97 12 be 26 0c 78 bc 1a ab 55 bc
       -0.0057770167 -0.1431565 -0.015139615 -0.013041282
000320 d0 f1 70 3e 2a c8 e8 3d b0 db 4a 3c 54 13 8d be
       0.23529744 0.11366303 0.012381479 -0.2755381
000330 6a c9 97 3e 2f 25 9d bd ba 39 a4 bd 73 44 14 be
       0.29645854 -0.07673108 -0.08018823 -0.14479236
000340 e3 c6 c2 bd 96 8b 19 bd 22 dc 2a bd 0d 07 9f bd
       -0.09510591 -0.037486635 -0.04171384 -0.07765017
000350 ac b7 99 be 96 12 01 3e 8c c5 98 3d 40 7d 20 3b
       -0.30022943 0.12604746 0.07459554 0.0024488717
000360 d9 45 b6 3e ce 75 06 be 1b 4a 95 3e e4 29 c3 3d
       0.35600165 -0.13130876 0.291581 0.095294744
000370 35 e2 e6 3c c5 6a 1c 3e 1d f0 00 3d 54 22 6c 3e
       0.028184036 0.15275104 0.03147899 0.2305997
000380 52 7c 6e 3e 0a fc c4 bd ed 2c 1c be f3 c6 54 be
       0.23289612 -0.09618385 -0.15251513 -0.20779018
000390 b0 c8 96 be 67 97 76 3c 97 1b 99 bd 86 9c 2f b9
       -0.29449987 0.015050746 -0.074759655 -0.0001674761
0003a0 7b 05 21 3f 3c d7 08 be 8e fa 8a bd 33 b9 3a bd
       0.6289899 -0.13363355 -0.06786071 -0.045586776
0003b0 ff 54 08 be 19 2c f5 be 8d d6 f9 bc c6 7b 37 3e
       -0.13313673 -0.47885206 -0.030497814 0.1791831
0003c0 3e 16 59 bb e6 6f 21 be d5 0b 37 be 6c 20 d8 3d
       -0.003312483 -0.15765342 -0.17875607 0.10553059
0003d0 91 2b f2 bc a6 0a 7d be 57 87 f0 bd 47 fe e3 bd
       -0.02956179 -0.24711093 -0.11744564 -0.11132484
0003e0 97 3d e9 bd ce 4b 37 3d 03 19 68 be 0f c3 27 be
       -0.113887005 0.044750027 -0.22665791 -0.16383003
0003f0 1f ff 99 3d 57 fc f0 bd 5a ce 87 bd 68 0c 63 3e
       0.075193636 -0.1176688 -0.06631155 0.22172701

latent.weight_hh_l0 f4 [128, 32]
000000 93 e0 1f 3f 22 cd 1c be 3b 9e b1 3e a8 cd af be
       0.6245205 -0.15312627 0.34691033 -0.3433659
000010 44 8c 45 3d 13 06 bd 3d 1c fe ee 3d 22 c1 84 3e
       0.04822947 0.09229674 0.11669561 0.259286
000020 98 b4 37 bd cd e8 bc 3d 04 3e 76 be c5 04 a2 3e
       -0.044849962 0.09224091 -0.24047095 0.31644264
000030 59 c7 1c bd 10 64 24 be 8c c6 a4 3d e2 1a a3 3d
       -0.03827605 -0.16053796 0.08045682 0.07964112
000040 ea 0e 27 be 5d 5d 5d 3e 71 8c 6e 3e 33 f8 b0 3e
       -0.16314283 0.21617647 0.23295762 0.3456436
000050 92 cd 68 bc a8 7d 96 bd 67 84 b0 be 1c 6b 4d 3e
       -0.014209168 -0.07348186 -0.34476015 0.2006039
000060 c7 94 3c 3e 31 99 f3 3d c4 25 9d bd c7 1d 83 be
       0.18416129 0.11894453 -0.07673219 -0.25608656
000070 58 63 15 3e b3 82 b0 bc 3b 0f f5 3c 82 75 08 3f
       0.14588678 -0.021546697 0.029914489 0.533043
000080 0c de 29 be 8e 94 d6 3d e1 b4 02 3e e2 2e 3f bc
       -0.1658861 0.10477553 0.12764312 -0.011668893
000090 56 98 05 3e 79 e3 aa 3e 3c 1a 46 3e ee 77 cd bd
       0.13046393 0.33376673 0.19345945 -0.100326404
0000a0 ed f4 00 be 57 e3 9f 3d 73 58 48 be 65 5f b7 3c
       -0.12593432 0.078070335 -0.1956499 0.022384355
0000b0 a9 bb ac bc c1 69 36 bc de c5 84 3c c8 dc e7 3d
       -0.021085577 -0.011133612 0.016207632 0.113214076
0000c0 ba cd 88 3e 90 75 30 3c 83 f4 3d be 4b 45 06 bc
       0.26719457 0.010770217 -0.18550305 -0.008195232
0000d0 59 5e 56 3e d5 7c 8b 3e 9a c5 18 3e 96 f9 f9 bd
       0.20934428 0.27243677 0.14919129 -0.12205808
0000e0 47 4d a2 be 2f d5 a2 3d 55 10 19 be 52 ae 73 3d
       -0.31699583 0.07950818 -0.14947636 0.059492417
0000f0 d8 fa 45 3d 35 d9 0d be 51 09 13 bd bb 60 c9 bd
       0.048334926 -0.13852389 -0.035897557 -0.09832903
000100 3c a1 78 be a4 24 89 3e 52 71 da bd 49 e6 12 bf
       -0.24280256 0.26785767 -0.106661454 -0.5738264
000110 7c a8 90 be 50 83 10 bf 29 ef 15 3f b4 a3 68 3e
       -0.28253543 -0.56450367 0.58568054 0.22718698
000120 e6 22 4a be 21 ac ee bd 66 a9 11 bf 63 36 a1 3c
       -0.19739875 -0.11653925 -0.56899107 0.019679254
000130 75 e0 a7 bd 14 b3 16 be f6 58 8b bd dc ed ab bc
       -0.08197109 -0.1471675 -0.06804077 -0.020987444
000140 39 e3 38 bd 6e b3 d2 3e 70 d8 24 be cd 1d 67 be
       -0.04513857 0.4115252 -0.1609819 -0.22569962
000150 ac 37 f6 bd ce 64 83 bd c8 01 17 3a 82 79 8a be
       -0.12022337 -0.06415711 0.00057604583 -0.27045828
000160 ae bc 81 3d d5 2c 6b be fe f3 0b bf fb 6b 10 3e
       0.06334816 -0.22966321 -0.5466918 0.14103691
000170 73 51 f4 bb ef 3c 0f 3f bf 70 4b be aa 81 3c 3d
       -0.0074559986 0.5595235 -0.19867228 0.046022095
000180 00 24 a5 3d b2 cc 3d 3e 8f cf dd be 6b 2b c3 bd
       0.08063507 0.18535116 -0.43322417 -0.09529766
000190 20 5e 2a be d3 37 60 be 66 22 de 3c 89 9f 70 bd
       -0.16637468 -0.21896295 0.027116012 -0.058745895
0001a0 9f c6 3b 3e 75 c1 de bd ab a1 ad be 65 fe ad bd
       0.18337487 -0.10876743 -0.33912405 -0.084957875
0001b0 dd 95 79 be 7c 9d 1a be d3 c9 ef 3c a8 85 15 3e
       -0.24373575 -0.15099138 0.029271042 0.14601767
0001c0 a1 94 25 bd ef 70 f4 3e 2e ac 62 3b 34 4c 93 3c
       -0.040424947 0.47742411 0.003458749 0.017980672
0001d0 d5 0c 1d bb 78 04 2a be fd 1f 48 3e cb ca 22 3e
       -0.0023963947 -0.16603267 0.19543453 0.15897672
0001e0 30 45 3b be d0 7a 23 3e bd 1c ae bc 6d 78 3e be
       -0.18288112 0.15964818 -0.021253938 -0.18600626
0001f0 9f c6 28 be c9 84 bd 3d be f6 89 3e bb f2 b7 bd
       -0.16482018 0.092538424 0.26946062 -0.08981844
000200 ab c9 08 bc e8 db f9 3d 32 0f 14 3e 13 36 41 3e
       -0.008348863 0.12200147 0.14458922 0.18868284
000210 eb 4f 04 3e 24 46 d1 3d de 0c 28 be 89 8a 5e 3e
       0.12921111 0.102184564 -0.16411158 0.21732534
000220 b3 37 ae bd f4 7b 34 be d6 fd c0 bd 7e b6 f1 3c
       -0.085067175 -0.1762541 -0.09423415 0.029505964
000230 fd bd 63 be 8b d5 ae bd 8d a7 02 be a6 7c 88 be
       -0.22240444 -0.08536824 -0.12759228 -0.266576
000240 33 31 d3 3d 5a 91 30 3e 22 ca 26 be a3 e8 97 be
       0.103121184 0.17242947 -0.16288045 -0.29669675
000250 38 f7 57 bd 71 79 8c 3e 5a 1e 63 3d 5e da 75 be
       -0.052726 0.27436402 0.055448867 -0.24009082
000260 d7 b1 77 bd da 52 19 be 50 96 2b be c1 81 35 3c
       -0.060472336 -0.14973012 -0.16756558 0.011078299
000270 a5 40 0e be 1d d4 4a 3e f0 01 07 3e e7 d4 a1 3b
       -0.13891847 0.19807477 0.13184333 0.00493871
000280 70 67 36 bd a6 07 d8 3d 43 d8 7b be 69 a1 51 be
       -0.04453224 0.10548334 -0.24594216 -0.2047173
000290 dd a0 d3 be 7e a1 fe be 64 99 ab 3e cc 2c 73 3e
       -0.41333666 -0.49732584 0.33515465 0.23747557
0002a0 52 9a ae bc 8d f0 a5 bd 26 0c 99 bd 2a cf 19 3d
       -0.02131382 -0.08102522 -0.0747302 0.037551083
0002b0 18 86 8a bd 1c 2d 4d bd 5a 0d 83 3d 75 d3 16 3d
       -0.067638576 -0.050091848 0.06399031 0.036822755
0002c0 e1 42 43 3e 42 f6 31 bc 07 e7 ea bc 37 ee 31 be
       0.19068481 -0.010861935 -0.028674616 -0.17376028
0002d0 9e 9b cd 3a 32 02 1e 3d ca ae d5 3c 95 89 a7 3d
       0.0015686636 0.038576312 0.026084322 0.081805386
0002e0 25 54 37 3d ad df 02 bd de 75 35 be 3c b0 47 bd
       0.04475798 -0.031951595 -0.17720744 -0.048752055
0002f0 c5 44 a4 be 2e 0a ed bd dc 87 6c 3e 7d 5f 93 3e
       -0.32083717 -0.11574207 0.23098701 0.2878379
000300 97 77 5a 3e f1 f6 23 3e 5e 62 57 3c 77 f4 f8 bd
       0.21334682 0.1601217 0.013146011 -0.12156003
000310 3e 48 dd bd 67 46 a1 be 68 dd ed 3e 1d f1 84 3e
       -0.10804795 -0.31499025 0.46457982 0.25965205
000320 49 bf 8a 3d 57 b9 cc 3d 4c a9 55 be a6 65 58 3e
       0.06774766 0.09996288 -0.20865363 0.21132526
000330 49 f9 8a 3e 47 0b 41 bc f8 c1 f3 3a bf cc 39 3c
       0.27143314 -0.011782474 0.0018597236 0.011340319
000340 3d 30 81 be f7 58 bd 3e 9d 95 f3 3d 7d 78 73 3e
       -0.25232115 0.36981937 0.11893771 0.23776431
000350 ef ce 8d be 90 43 2b be 6f e4 c6 bd 5b b1 49 3e
       -0.2769694 -0.16724992 -0.09711539 0.19696562
000360 96 8e 74 3e 47 56 49 3e 72 29 7d 3d b0 98 1d bd
       0.23882517 0.19661818 0.061807103 -0.038475692
000370 4f b8 8c 3e fa 2d 6d 3d 92 6f f9 3c 5c cf ee bd
       0.27484366 0.057905175 0.030448709 -0.116606444
000380 cc f9 ef 3c 28 b2 3d 3e 76 51 04 3e d7 54 04 3d
       0.029293917 0.18524992 0.129217 0.032307472
000390 cb 84 16 3e 5e 26 b1 be d3 f5 b4 3d a0 13 1b 3c
       0.14699094 -0.34599584 0.0883595 0.009465128
0003a0 58 5d 04 3f 9a 15 5a 3e 3f 66 eb be 50 4d a1 bd
       0.5170493 0.21297303 -0.45976445 -0.07876074
0003b0 86 fa e5 bd 9f fc 01 3d c0 d4 9e 3c 53 11 89 3d
       -0.11229424 0.03173506 0.019388556 0.066927575
0003c0 4b 32 09 bc 64 27 a6 3e 68 f5 bf bd 96 d2 ec bd
       -0.008373807 0.32451928 -0.093729794 -0.115636036
0003d0 34 4d a7 bd 32 98 90 bd ef 69 3a 3e 2d 62 92 bd
       -0.08169022 -0.07060279 0.18204473 -0.07147632
0003e0 be dd b8 bc 9c dc 8e 3d 66 1e d8 3c e0 b4 bb 3e
       -0.022566672 0.06975672 0.026381683 0.36661434
0003f0 8f 1a 84 3e 9c bd 42 3e 65 99 27 3e 9d 40 70 be
       0.25801513 0.19017643 0.16367109 -0.23462148

latent.bias_ih_l0 f4 [128]
000000 61 86 8c 3c 7a 3d a7 bc 9f b8 14 3e 51 f9 31 3e
       0.01715392 -0.020415056 0.14523552 0.17380263
000010 6c ba 4a bd 0f 99 55 3e 76 4d 28 3e e1 e5 14 3e
       -0.049494192 0.20859168 0.16435799 0.14540817
000020 16 8c 4e 3e ff f0 22 3e e0 74 b2 3c 6c 40 80 3c
       0.20170626 0.15912245 0.021784246 0.015655719
000030 bf 93 48 3e 73 5d 8a bc af b9 8e 3e e3 a5 42 bc
       0.1958761 -0.016890263 0.2787604 -0.011880371
000040 a8 48 05 3e 0e ba 53 3e 10 22 6a bd 53 6d 44 3e
       0.13015997 0.20676443 -0.05716139 0.19182329
000050 58 a5 cb 3d fa ab be 3b f3 61 d0 3d f1 02 72 3e
       0.09943646 0.005818841 0.10174932 0.23633935
000060 dd 2e 58 3e f9 a6 02 3e 75 dc 03 3f d0 42 99 bd
       0.21111627 0.12759008 0.51508266 -0.074834466
000070 c8 26 eb 3d 67 ba a6 3e de b4 63 3e 51 c5 7a 3e
       0.11482006 0.3256409 0.22236964 0.24489333
000080 9e 00 04 3d 7b 79 3b 3e 36 9f a6 3d cd 27 10 bd
       0.03222715 0.1830806 0.08135836 -0.035194207
000090 20 17 e7 ba 0f 35 fe 3d f5 84 e8 3c 00 d6 81 3e
       -0.0017630793 0.12412464 0.028383711 0.25358582
0000a0 7d 2e e3 bc f2 a1 10 be 91 ce ce bd a5 58 3f bd
       -0.027732128 -0.14124277 -0.10097993 -0.046715397
0000b0 ae 2d ba bc a8 7b d5 bd 7a 4c c1 bd 24 84 23 3e
       -0.02272686 -0.10423976 -0.09438415 0.15968376
0000c0 76 dc 98 3a 6b 1d 58 3e 2d 95 bc bd 17 0c b5 bd
       0.0011662382 0.21104972 -0.092081405 -0.088401966
0000d0 3c 29 2b 3d c0 70 1c bd 3e cd d3 bd c1 c1 03 3c
       0.04178737 -0.038193464 -0.10341881 0.0080418
0000e0 5f 0a e0 b8 f4 96 8e 3d d7 c6 df bd e0 dd cf bc
       -0.00010683084 0.06962386 -0.109265976 -0.025374353
0000f0 c2 98 31 3e 8c fd f5 3b 39 a2 97 bd 23 6f b2 bd
       0.17343429 0.007507032 -0.074039884 -0.08712604
000100 50 18 e9 3d a1 81 91 bd bb 84 81 3d 2f b7 40 bd
       0.1138159 -0.07104803 0.063241445 -0.047049697
000110 8e d2 28 3e 9e 4b fd 3d 0c c9 55 bb 71 bf e5 3d
       0.1648657 0.123679385 -0.0032621054 0.11218155
000120 7a 8d 1d be ba c6 5d bd 5a 66 92 bd 21 2b 83 3d
       -0.15386 -0.0541446 -0.07148428 0.064047106
000130 fc 11 bf 3c 6f 34 27 be 39 16 c9 3c 1c 2d c6 bd
       0.023324005 -0.16328596 0.02454673 -0.09676573
000140 6c 72 9e 3d ae 85 f1 bd ed 29 02 be 9b e1 a2 bc
       0.07736668 -0.117930755 -0.12711306 -0.019882968
000150 e0 d4 c8 bc 42 56 10 3e c1 90 4d 3c c8 ad 16 be
       -0.02451557 0.14095405 0.012546719 -0.1471473
000160 32 84 dc 3d 44 c3 76 3d 20 ef 3d 3e 44 64 9d 3d
       0.10767402 0.060244814 0.1854825 0.0768514
000170 62 3a d9 3c d2 47 1e 3b 45 b8 2c be c6 c5 c5 bd
       0.026517097 0.0024151695 -0.16867168 -0.09656863
000180 48 9c 8f 3e db ce 47 3e 28 bf 97 3e 40 d5 96 3e
       0.2804892 0.19512503 0.29638028 0.29459572
000190 84 05 01 3d 55 a6 bb 3d e7 e6 09 3e e2 6d 00 3b
       0.0314994 0.09162585 0.13466989 0.0019596745
0001a0 cb 15 7e 3e 7a 58 d7 3d 24 08 55 3d 92 f4 57 3e
       0.24813001 0.105149224 0.052009717 0.2108939
0001b0 01 aa 57 3e 0b 0a b0 3e b9 2c 68 3e e7 0e d4 bd
       0.21060945 0.34382662 0.2267331 -0.10354405
0001c0 35 7c 25 3d 0f ce 54 3e 8a 3b 7a 3d 9e 3f da 3d
       0.040401656 0.2078173 0.061091937 0.10656665
0001d0 a7 99 43 3d 0d 16 57 3e 22 9e e9 3d 8c ac 35 3e
       0.047753956 0.21004505 0.114071146 0.17741603
0001e0 59 7f 38 3e 8a c3 a4 3e ee 95 9f 3e 75 3e b0 3c
       0.1801733 0.32180434 0.31169075 0.021514157
0001f0 f8 7b f3 3b 81 f3 8c 3d af eb 59 3d 4b ad f7 3d
       0.0074305497 0.06882382 0.05320328 0.120936

latent.bias_hh_l0 f4 [128]
000000 33 39 bf 3c 75 50 7e bd aa fe 96 3d 59 d1 bc 3d
       0.023342704 -0.06208845 0.07372792 0.092196174
000010 aa 9f f9 bc d2 53 e3 3d c0 93 2a 3d 6b 9b 5e 3d
       -0.030471642 0.11099972 0.04164481 0.054347437
000020 ff ab c8 3d e9 4c 0f 3e 36 61 e7 bc 25 15 9c 3c
       0.09798431 0.13994183 -0.028244596 0.019053051
000030 25 07 bf 3c 9a 3d 77 3e 03 1a a2 3a 4a 12 11 be
       0.023318836 0.24144593 0.0012367371 -0.14167133
000040 89 e3 06 bd ed ee 68 bd 1e 94 b7 3d e5 06 9d 3c
       -0.03293184 -0.056868482 0.08963798 0.019168327
000050 e1 80 84 3e 06 ec 53 3e 64 28 e4 bd 59 9f 51 3e
       0.25879577 0.20695505 -0.111405164 0.20470943
000060 9e 5f 3c 3d 5a 71 8f 3e b0 f7 78 3e e6 f8 a5 bb
       0.045989625 0.28016168 0.24313235 -0.0050650714
000070 e5 67 41 3e 28 38 b8 3e 55 41 64 3c 9b b3 24 3e
       0.18887289 0.35980344 0.013931592 0.16084139
000080 3f 87 89 bd 39 78 be 3d fe 5f f1 3d 4b 66 c6 3d
       -0.06715249 0.093002744 0.11785887 0.096874796
000090 fa 75 4b 3e 94 eb 28 be 32 f0 f3 3c e6 c3 20 3e
       0.19869223 -0.16496116 0.02977762 0.1569973
0000a0 bd 9b 88 bd 91 bd 0d bd 23 7b 80 bd e0 91 f2 bd
       -0.0667033 -0.034604613 -0.062734865 -0.1184423
0000b0 de 3e b8 3d d5 86 5c bd 35 c3 7f bd 70 a2 89 bd
       0.08996366 -0.053839523 -0.062442023 -0.067204356
0000c0 7c 16 57 bd 7f 36 af 3d 4a 5d 59 be 5a a5 c9 bd
       -0.052511677 0.08555316 -0.21226993 -0.098459914
0000d0 d4 35 a9 3d ee ef ac bb f2 f8 1a 3e c4 fe eb bc
       0.0826222 -0.0052776253 0.15134028 -0.028808005
0000e0 dd ee 2a be c2 34 2e be 0c 6e c8 3d b2 af 51 3d
       -0.16692682 -0.17012313 0.09786615 0.051192947
0000f0 07 16 1a 3d 74 05 2c 3e e7 f5 f7 bd 70 36 e1 bc
       0.037618663 0.16798955 -0.12107449 -0.027491778
000100 50 17 09 be b5 2d 34 bd 73 7b 92 bd 6d 00 27 be
       -0.133878 -0.043988902 -0.07152452 -0.16308756
000110 fe 6a 91 3b 4e 7d 17 3e 55 b8 07 be 0a ea a0 3d
       0.0044378033 0.14793894 -0.13253911 0.078571394
000120 4b 89 20 bd a0 91 57 3d 84 2b 73 bd 1e 6c 90 bd
       -0.039193433 0.052629113 -0.05936767 -0.07051872
000130 db 07 86 3d 88 9b 15 be be ac dd 3d d7 94 b8 3d
       0.06544467 -0.14610112 0.108239636 0.09012764
000140 8c a3 b3 3d 38 a3 8a 3d 4a 16 c3 3d 22 56 ef 3c
       0.087714285 0.06769413 0.09525736 0.029215876
000150 ff b7 c7 bc 45 52 d2 3d 6b 0c 4d 3d 1f e7 98 bb
       -0.024379728 0.10269598 0.05006067 -0.0046662237
000160 95 2c 47 bd 82 e8 0b 3e ea 16 cc bd 43 94 3a be
       -0.0486265 0.13662913 -0.09965308 -0.1822062
000170 e2 25 14 3d 34 bb 43 bd 6a 0c 00 bd 18 0c 49 3d
       0.03616894 -0.047785953 -0.03126184 0.0490838
000180 70 bd fa 3d 89 df d1 3d f8 f4 fe 3e 52 99 fb 3d
       0.122431636 0.10247714 0.4979627 0.12285103
000190 3b 6f 17 3e dc 6c 47 3e fa d1 af 3d a0 fa 60 3e
       0.14788525 0.1947512 0.08584972 0.21970606
0001a0 95 de 83 3e fe 38 e1 3d 02 71 86 3d d1 2a b5 3e
       0.25755754 0.109971985 0.06564523 0.3538423
0001b0 3d bc 63 3e 27 55 64 3d 92 3c af 3d e4 55 d5 bd
       0.22239776 0.05574527 0.08556475 -0.10416773
0001c0 95 3d 82 3d dd 1f 05 bc 4c 9f 12 3e 2d f7 07 3e
       0.06359402 -0.008125273 0.1431858 0.13277884
0001d0 09 7d 55 bb 37 08 78 3e 2d f3 0f 3e 04 d7 cb 3e
       -0.0032575747 0.24221884 0.14057608 0.3981248
0001e0 08 63 b4 3d ed c5 74 3e c5 8e b0 3e 66 94 b9 bc
       0.08807951 0.23903628 0.34483925 -0.02265377
0001f0 ed b1 53 3e 64 48 80 3e c9 56 89 3e 7a c6 78 3e
       0.20673342 0.2505523 0.26824024 0.24294463
