saved_models/AD_autoencoder_ep10_loss1.6492.pth (torch, 257627 bytes, 14 tensors)

encoder.weight_ih_l0 f4 [256, 28]
0	0xbc74a3d2	-0.014931636
1	0x3ae4cf89	0.001745687
2	0xb98edeb7	-0.00027250286
3	0xb897c130	-7.236225e-05
4	0x3ac0d6cc	0.0014712452
5	0x39845961	0.00025243594
6	0x37a49759	1.96208e-05
7	0x38337d69	4.2793723e-05
8	0xb7b9269c	-2.2071697e-05
9	0x38c56460	9.412388e-05
10	0x391de2c7	0.00015057168
11	0xb93bec45	-0.00017921727
12	0xbaa53a59	-0.001260589
13	0xbacf7294	-0.0015826994
14	0x3b192c46	0.0023372336
15	0xb9027935	-0.00012442919
16	0x391738b4	0.00014421606
17	0x381f0504	3.7913225e-05
18	0x3c7422bf	0.014900862
19	0xb9e6bce1	-0.00044009744
20	0x3b87db35	0.0041460046
21	0x38bee35b	9.102254e-05
22	0x3801212e	3.0786898e-05
23	0xbb92cfa4	-0.004480319
24	0x3b5144b2	0.0031931815
25	0x3b93f484	0.0045152325
26	0xb91d629a	-0.00015009419
27	0xba54d0d2	-0.0008118275
28	0xbc934ac0	-0.01797998
29	0x3b5efe13	0.0034025952
30	0x3be7433f	0.007057577
31	0xbd72f3ce	-0.05931454
32	0x3c8fecd1	0.017568978
33	0x3b3a5d45	0.002843694
34	0xbbbc9f48	-0.0057562925
35	0x3b2eca6f	0.0026670953
36	0xbba38948	-0.0049907304
37	0xbadfe72d	-0.0017082446
38	0xba9b4a6c	-0.0011847741
39	0xbd03ee00	-0.032209396
40	0xbb967de4	-0.004592644
41	0xbc8dcfea	-0.017311055
42	0x3c01a5d3	0.007913071
43	0xb99aea7a	-0.00029547868
44	0xba7da1aa	-0.0009675274
45	0xbacf717a	-0.0015826665
46	0x3c8b2f7d	0.016990418
47	0xbbacc58b	-0.0052725724
48	0x3c95d0ca	0.018288035
49	0x3c04cdda	0.008105719
50	0x392a49e8	0.00016239996
51	0x3a72b3c4	0.00092583545
52	0x3ec2c689	0.38042095
53	0x3c4a78a7	0.012357867
54	0xbb9e8ebc	-0.0048387926
55	0xba28a7dc	-0.00064337044
56	0xb99dddf8	-0.00030110753
57	0x38913b01	6.925129e-05
58	0x387b1496	5.9862236e-05
59	0x398dffd7	0.0002708423
60	0x39620892	0.00021556232
61	0xb887b98e	-6.471864e-05
62	0xb700ad5e	-7.66976e-06
63	0x389dd159	7.5253374e-05
64	0x38d6d224	0.00010243457
65	0x381fdbd7	3.8113296e-05
66	0xb8276d7e	-3.9917875e-05
67	0x38044218	3.1532807e-05
68	0xb96ea10f	-0.00022757448
69	0xb9838dff	-0.00025092062
70	0x3a142977	0.00056519307
71	0xb894dbd3	-7.0981354e-05
72	0xb892f663	-7.0077156e-05
73	0xb7d0e42f	-2.4901788e-05
74	0x39220a1c	0.0001545329
75	0x3881fa9f	6.197881e-05
76	0x398a5651	0.00026385722
77	0x38c18c4e	9.229091e-05
78	0xb8830faf	-6.249488e-05
79	0xb9f6fc9f	-0.00047108994
80	0xba81cb85	-0.0009902572
81	0x3abc64ad	0.0014373265
82	0xb78d8946	-1.6872433e-05
83	0x3c9d2bae	0.019185867
84	0x3cf3de15	0.029768983
85	0xbb7ff69b	-0.00390569
86	0xba0709c6	-0.00051512977
87	0xbac5a1c1	-0.0015078114
88	0x393721d0	0.00017464836
89	0x3945d5b6	0.00018866998
90	0x38fe2e9c	0.000121203455
91	0x386a47d1	5.585683e-05
92	0xb98d67b7	-0.0002697089
93	0xb963db0a	-0.00021730005
94	0x3971d789	0.00023063844
95	0xb903c689	-0.00012567094
96	0xba848a1e	-0.0010111963
97	0x39b05dde	0.00033639272
98	0x3a99c1c3	0.0011730719
99	0x392abf93	0.0001628383
100	0xba039ae9	-0.0005020337
101	0x36ff1da3	7.6030424e-06
102	0xbcf096c8	-0.029368773
103	0x3997cefd	0.00028955183
104	0x3a95131c	0.0011373493
105	0x38c364c4	9.317094e-05
106	0x38cfa995	9.902116e-05
107	0xbb86d21f	-0.004114404
108	0x3a55fca4	0.00081629516
109	0x3b835453	0.004007855
110	0xb94e134a	-0.00019652877
111	0xbae0ff40	-0.0017165914
112	0x3c56d411	0.013112084
113	0xba1cf86c	-0.00059879455
114	0x3810aa1f	3.4490713e-05
115	0x3b3fd7da	0.0029272945
116	0x3ae3dc93	0.0017384462
117	0xb95e1916	-0.00021180915
118	0x399b8b73	0.00029667802
119	0xba289cef	-0.00064320763
120	0xba0b5bcb	-0.00053161074
121	0x3a8dee8f	0.0010828542
122	0xb8fc45eb	-0.000120293196
123	0x3a248c26	0.0006276987
124	0xbb070cc8	-0.0020606983
125	0xbad6a4d0	-0.0016376022
126	0x3b848172	0.0040437514
127	0xb9b47c81	-0.00034425038
128	0x3a4843a5	0.00076394744
129	0xbab3aee9	-0.0013708743
130	0xbc517936	-0.012785247
131	0x3a924655	0.0011159877
132	0xbc2fc0ba	-0.010727102
133	0xb9bcf5f6	-0.0003604141
134	0xb9334cfb	-0.00017099448
135	0x3c007a69	0.007841685
136	0x3991432b	0.000277066
137	0x3c33e085	0.010978823
138	0xbb3aa03b	-0.0028476852
139	0xbdb24bcb	-0.087058626
140	0x3a5acf78	0.00083469553
141	0x3990f02f	0.0002764477
142	0x384942ce	4.798435e-05
143	0x3a4f6616	0.00079116353
144	0xb98686bb	-0.00025658854
145	0x3821cb39	3.8574657e-05
146	0x3912230a	0.00013936698
147	0xb891d152	-6.953128e-05
148	0xb818c15d	-3.6419708e-05
149	0xb89e4d3b	-7.5484124e-05
150	0x376d7286	1.4152965e-05
151	0xb940f8c7	-0.00018403224
152	0x38c50e2f	9.396334e-05
153	0x3941bc3b	0.00018476036
154	0xb9e905dd	-0.00044445592
155	0x383648bb	4.3459917e-05
156	0xb91b759d	-0.00014825766
157	0xb91e170e	-0.00015076643
158	0xba3d0c9b	-0.0007211656
159	0x393bbd79	0.00017904294
160	0xb98fa164	-0.0002739533
161	0x370b51c7	8.304086e-06
162	0xb89cd23e	-7.47782e-05
163	0x3a6f6d87	0.00091334473
164	0x39927e57	0.0002794142
165	0xba632315	-0.00086645904
166	0x3784c78c	1.5828547e-05
167	0xb8c635da	-9.4514064e-05
168	0x39bce88e	0.0003603142
169	0x397f084d	0.00024321787
170	0x38f0408e	0.00011456116
171	0x399ac9a7	0.00029523412
172	0x3953fae2	0.00020215989
173	0xb8fdee4f	-0.000121083685
174	0x38e7a65f	0.000110459274
175	0xb8f9f529	-0.0001191891
176	0x38839d93	6.275917e-05
177	0x38858257	6.366212e-05
178	0xb7d93c4d	-2.5896496e-05
179	0xb9494d94	-0.00019197754
180	0x38e393f2	0.000108517605
181	0xb860ff88	-5.3643744e-05
182	0xb81bfa57	-3.7188027e-05
183	0xb837f42c	-4.3858003e-05
184	0xb65a56bf	-3.2535024e-06
185	0x37423b0b	1.1577048e-05
186	0xb95fd1d8	-0.0002134511
187	0x391cbe2f	0.00014948168
188	0x3518663d	5.677319e-07
189	0xb7a1ef81	-1.9304223e-05
190	0xb90a7962	-0.00013205924
191	0xb82c09ce	-4.1017127e-05
192	0xbbc33dc5	-0.0059582912
193	0xb8b21714	-8.492e-05
194	0xb8ce14e7	-9.826739e-05
195	0xb9a407d5	-0.00031286353
196	0xbd0da393	-0.034579825
197	0x3bca2bb9	0.006169763
198	0x3a41f0fb	0.00073982746
199	0xbc034dea	-0.008014182
200	0xbb326ec5	-0.0027226668
201	0xbab4a629	-0.001378243
202	0x3a3da831	0.00072348403
203	0x3ab5553a	0.0013834604
204	0x3b90c6e3	0.0044182404
205	0x3a0ec0cf	0.0005445601
206	0x3a856cf1	0.0010179562
207	0xbbd085d1	-0.0063636084
208	0xbbf54d11	-0.0074859937
209	0xb9a8b76f	-0.00032180126
210	0x3ca4f642	0.020136956
211	0x3aa98743	0.0012933988
212	0xbb25c339	-0.0025293364
213	0x3a8bd8fd	0.0010669526
214	0x3d130d3e	0.0359013
215	0xbc288c66	-0.01028738
216	0x3de70f42	0.11282207
217	0x3bd1380d	0.0063848556
218	0xb73a4af0	-1.1103912e-05
219	0xbd969eef	-0.07354533
220	0x3adb94db	0.0016752736
221	0x3d34281d	0.043983568
222	0x3b605c6f	0.0034234782
223	0x3d0c7d3b	0.034299117
224	0xbc84b029	-0.016197281
225	0xbe943d07	-0.2895281
226	0xbe64d4e8	-0.22346842
227	0xbf47826f	-0.779334
228	0xbd894214	-0.067020565
229	0xbdfac7fe	-0.12245177
230	0x3c8ae737	0.016955955
231	0x3d204f9c	0.03913842
232	0xbd6bf714	-0.05760868
233	0x3c6bc7f8	0.014390938
234	0xbd7a0796	-0.06104239
235	0xbef339ec	-0.47505128
236	0xbcf63667	-0.030055238
237	0x3e027b04	0.12742239
238	0x3e3ce68f	0.18447326
239	0xbc7724da	-0.01508447
240	0x3cfb7248	0.030694142
241	0xbc432c4b	-0.011912416
242	0xbc824ba8	-0.015905216
243	0xbd43d710	-0.04781252
244	0x3fbc178a	1.4694684
245	0x3fa92de0	1.3217125
246	0x3f17a051	0.59229
247	0x3e8c5a01	0.27412418
248	0x3f392857	0.7232718
249	0x3eb63c20	0.35592747
250	0x3e35ab7b	0.17741196
251	0x3faec0ef	1.3652629
252	0xbbb1339c	-0.0054077636
253	0x39ecb3ed	0.00045147483
254	0xba447992	-0.0007494922
255	0x3b9045ba	0.0044028433

encoder.weight_hh_l0 f4 [256, 64]
0	0x3d61585e	0.055015914
1	0xbd69112d	-0.056901146
2	0x3dabe2f8	0.083929
3	0xbddbf295	-0.10739628
4	0xbd1bb4f7	-0.03801438
5	0x3db6838a	0.08911808
6	0x3d0f86c2	0.035040624
7	0xbc2385ed	-0.009980661
8	0x3da7eee4	0.08199862
9	0x3e083501	0.1330147
10	0x3dc80866	0.09767227
11	0xbe24dd48	-0.16100037
12	0xbd1c9cb4	-0.03823538
13	0xbe12dede	-0.1434283
14	0x3e896bcb	0.26840052
15	0xbd4d3e70	-0.050108373
16	0x3e17aa2d	0.1481101
17	0xbe510a3a	-0.20414057
18	0x3a5472d2	0.0008104268
19	0x3d6a3bd7	0.057185974
20	0x3d98bdde	0.07458089
21	0x3cfa4953	0.030552542
22	0x3d638e8b	0.05555586
23	0xbca847df	-0.020542083
24	0xbe338ca8	-0.17534125
25	0x3d8769a1	0.06611944
26	0xbdd656d4	-0.1046578
27	0x3da5b924	0.080919534
28	0x3d902fe9	0.07040388
29	0x3c995883	0.018718963
30	0x3d68e018	0.056854337
31	0x3e0a8acc	0.1352951
32	0x3dadfc02	0.08495332
33	0x3e05d011	0.13067652
34	0xbbb11d25	-0.0054050856
35	0x3ebc1860	0.36737347
36	0xbc8ca3a4	-0.017167874
37	0xbd8e77e8	-0.06956464
38	0xbd9c2c93	-0.07625689
39	0x3d83ea57	0.06441181
40	0xbd3e8b10	-0.04651934
41	0x3dcc7592	0.09983362
42	0xbd86feb9	-0.06591553
43	0x3d7b15df	0.061300155
44	0x3dc548f2	0.09633054
45	0x3db08175	0.08618442
46	0x3d1921d5	0.03738578
47	0x3dc91a3c	0.09819457
48	0x3d7398ea	0.059472002
49	0xbdbb4f5d	-0.09145997
50	0x3c8d3cd9	0.017240928
51	0xbd418c39	-0.047252867
52	0xbd0976c6	-0.033560537
53	0xbe026270	-0.12732863
54	0xbdaebce2	-0.0853212
55	0xbdab0303	-0.08350184
56	0x3d785357	0.060626354
57	0x3d89ace1	0.06722427
58	0xbd519a0d	-0.051172305
59	0x3d304e92	0.04304368
60	0x3d23e6f1	0.040015165
61	0xbda85b89	-0.08220584
62	0x3cc1baf1	0.02364871
63	0xbde23356	-0.11044948
64	0xbf0c0c8f	-0.5470666
65	0x3fd22446	1.641732
66	0x3e9116d2	0.28337723
67	0x3ea2671e	0.31719297
68	0xbe218859	-0.15774669
69	0xbfbdd0ab	-1.4829305
70	0x403a0c5b	2.907004
71	0x3df27c86	0.11840157
72	0x3e282016	0.1641849
73	0x3f81b034	1.0131898
74	0x3f519acf	0.81876844
75	0xbe84beb5	-0.25926748
76	0x3ea839b7	0.32856533
77	0xbe5dabd7	-0.21647583
78	0x3d48bbbf	0.049007174
79	0x3e765dd4	0.2405923
80	0xbe472fa5	-0.19451769
81	0xbe7f827a	-0.24952117
82	0x3f9c49e2	1.2210047
83	0x3e03086a	0.12796178
84	0xbe2a573c	-0.1663484
85	0xbf821f27	-1.0165757
86	0x404d3725	3.2064908
87	0xbddb38a2	-0.10704161
88	0xbe3bbe2e	-0.18334267
89	0xbfcf05c2	-1.6173632
90	0x3eeeeb3b	0.46663842
91	0xbf1ab142	-0.60426724
92	0x3e2dc786	0.16970643
93	0x40198624	2.3988123
94	0x3e9606ff	0.29302213
95	0x3d87585d	0.06608651
96	0xbe359e58	-0.17736185
97	0xbeb0cd4c	-0.3453163
98	0x3da59fbc	0.080871075
99	0xbebc0176	-0.36719865
100	0xbc7250bb	-0.014789755
101	0xbd8cce6e	-0.06875311
102	0xbe67fe7e	-0.22655675
103	0xbda21e52	-0.079159394
104	0x3fc178bf	1.5114974
105	0x3f7cf610	0.9881296
106	0xbe3f4498	-0.1867851
107	0xbfdef4f5	-1.7418505
108	0xbe80417f	-0.2504997
109	0x40398734	2.8988771
110	0x401e64b9	2.4748976
111	0x3f16f05b	0.58960503
112	0x3e3ae837	0.18252645
113	0xbdeb04f8	-0.11475557
114	0xbfb1eba8	-1.3900042
115	0x3f00f6d9	0.5037666
116	0xc0575e5d	-3.3651345
117	0xbfa84916	-1.3147304
118	0x3f0dd0e2	0.55396855
119	0xbb6553d7	-0.00349926
120	0xbd12ed09	-0.035870586
121	0xbfc9ed7b	-1.5775598
122	0xbeabff14	-0.33593047
123	0x3dae1a2c	0.08501086
124	0x3e4d4147	0.20044433
125	0xbe652301	-0.22376634
126	0x3e3d97d9	0.18514957
127	0x3d561721	0.05226815
128	0x3ddbbe9f	0.107297175
129	0x3d29d3dc	0.04146181
130	0x3d33fdec	0.04394333
131	0x3cc523d9	0.024064945
132	0x3da660b9	0.08123917
133	0xbd122270	-0.035677373
134	0x3e613f97	0.21996914
135	0x3cc1f383	0.023675686
136	0xbceaac9d	-0.028646762
137	0x3d0c5196	0.034257494
138	0xbdc1f2be	-0.094701275
139	0x3b61265d	0.0034355142
140	0xbd8c0221	-0.068363436
141	0x3d90b5c7	0.07065921
142	0xbe1768f8	-0.14786136
143	0x3cce6410	0.025194198
144	0x3dc71ccb	0.09722289
145	0x3cbb6817	0.022876782
146	0x3e08b0e6	0.13348731
147	0x3c4a99a0	0.012365729
148	0x3d924a7b	0.07143112
149	0xbd248144	-0.04016234
150	0xbb477096	-0.0030432097
151	0xbd2a6fca	-0.041610517
152	0xbe4509a6	-0.19241962
153	0x3b27a4fb	0.0025580514
154	0x3e019d7b	0.1265773
155	0xbe0ff644	-0.14058787
156	0xbdecdb73	-0.11565294
157	0xbd5e276e	-0.05423682
158	0x3b4de850	0.0031418987
159	0xbcc932b2	-0.024560306
160	0x3d31a6bd	0.043371905
161	0x3d3a5f00	0.045500755
162	0x3d503482	0.050831325
163	0x3dc753f2	0.09732808
164	0xbdd45674	-0.10368052
165	0x3dcae7f4	0.09907523
166	0x3cab993b	0.02094709
167	0x3d8e6159	0.06952161
168	0x3eacd8d0	0.33759165
169	0xbe10e437	-0.14149557
170	0xbd50c75d	-0.050971378
171	0xbd24c069	-0.04022256
172	0x3e8dc184	0.27686703
173	0x3d6f8fb7	0.058486667
174	0x3d41fde4	0.04736127
175	0xbc82f2d1	-0.015984925
176	0x3b6394a9	0.003472606
177	0xbd8242ff	-0.06360435
178	0xbd9ed9ba	-0.07756372
179	0x3dba778e	0.091048345
180	0xbd30d046	-0.043167375
181	0x3dd9e77b	0.106398545
182	0x3c4fb360	0.012677044
183	0x3c97c29c	0.018525414
184	0x3d9dbdab	0.07702192
185	0xbe2730dc	-0.16327232
186	0x38d92263	0.00010353771
187	0xbcee4be1	-0.029088916
188	0xbe2edb8c	-0.17075938
189	0x3eee1fae	0.46508545
190	0xbdd7cc8e	-0.105370626
191	0x3cf21213	0.029549634
192	0xbc0c335e	-0.008557169
193	0xbca95ed8	-0.020675108
194	0xbd13d3e5	-0.03609075
195	0x3c03d076	0.008045306
196	0x3cec5113	0.028847253
197	0x3ea31ee2	0.318595
198	0x3d825a51	0.06364883
199	0xbe2cdf2b	-0.16882007
200	0xbd0dba66	-0.03460159
201	0xbd990576	-0.07471745
202	0xbc5e5c5f	-0.013571828
203	0xbd253afe	-0.040339462
204	0x3e2a0620	0.16603899
205	0xbd9ec4ae	-0.077523574
206	0xbc987d4c	-0.018614434
207	0x3d623682	0.055227764
208	0x3df19448	0.117958605
209	0xbb4523b8	-0.0030081104
210	0xbd6344fd	-0.055485714
211	0x3e37e00c	0.17956561
212	0xbdcc56fa	-0.09977527
213	0x3eaaac6b	0.3333467
214	0xbb6b9dc5	-0.0035952192
215	0x3c811c82	0.015760664
216	0x3e7448d5	0.23855908
217	0x3d3c1305	0.045916576
218	0x3d5f5160	0.054520965
219	0x3e9a9a29	0.3019574
220	0x3c9f460a	0.019442577
221	0x3d30ddf3	0.043180417
222	0x3cbb7364	0.022882171
223	0x3e063134	0.13104707
224	0x3d00eea7	0.031477597
225	0xbd552715	-0.052039225
226	0xbde5ffbe	-0.112304196
227	0xbdcd000b	-0.10009774
228	0xbe33f9ae	-0.17575714
229	0x3d20f717	0.039298143
230	0x3d7b3586	0.06133034
231	0xbda25c81	-0.079278
232	0x3e762814	0.24038726
233	0xbe2441e7	-0.16040765
234	0xbc809082	-0.015693907
235	0xbd65660b	-0.05600552
236	0x3f013510	0.5047159
237	0xbf517e10	-0.8183298
238	0x3b7ba10a	0.0038395547
239	0x3da6b8e9	0.081407376
240	0x3b840d38	0.004029896
241	0x3d074ec9	0.03303412
242	0x3d3536b1	0.04424161
243	0x3dfdd460	0.12394023
244	0xbe4b1fe0	-0.19836378
245	0xbce7e104	-0.028305538
246	0xbdc33f45	-0.09533552
247	0xbaff532b	-0.0019479742
248	0x3d3ab691	0.045584265
249	0x3d05ff44	0.032714143
250	0x3c6870e9	0.014187076
251	0xbdb07482	-0.08615972
252	0x3db58e0d	0.08864985
253	0xbd92f50b	-0.071756445
254	0xbe0442f2	-0.12916163
255	0x3d1a31e8	0.03764525

encoder.bias_ih_l0 f4 [256]
0	0x3d16bd2c	0.036801502
1	0x3e92b580	0.286541
2	0xbae565c7	-0.0017501645
3	0x3d3eeca5	0.0466124
4	0x3dd1cca2	0.10244109
5	0xbd960247	-0.07324653
6	0xbc2a4fda	-0.010395015
7	0xbc11c664	-0.008897398
8	0x3fa4918e	1.285692
9	0x3da6b8d8	0.08140725
10	0xbd574084	-0.05255176
11	0x3fb0b681	1.3805696
12	0xbd6f4524	-0.058415547
13	0x3f8cd192	1.1001456
14	0xbe030ac5	-0.12797077
15	0xbe1948dc	-0.149692
16	0x3d288fb6	0.04115268
17	0x3f15a663	0.5845701
18	0xbe13baa4	-0.14426666
19	0xbdb5f158	-0.08883923
20	0xbd8d3b3c	-0.06896064
21	0xbdddb3f8	-0.10825342
22	0x3fa10b42	1.2581561
23	0xbdf9452f	-0.12171399
24	0xbd1104f8	-0.03540513
25	0x3f82223b	1.0166696
26	0xbd64ffa7	-0.05590787
27	0x3e00f785	0.12594421
28	0xbd8892ad	-0.06668601
29	0x3d2aeb0d	0.04172807
30	0x3e2e72f7	0.17036043
31	0x3fa83740	1.3141861
32	0xbdfa4a70	-0.12221229
33	0x3d2580bc	0.040405974
34	0xbda491f7	-0.08035653
35	0xbdc1f116	-0.094698116
36	0x3da67e47	0.08129554
37	0x3fa41507	1.2818917
38	0xbe1cd473	-0.15315418
39	0x3ead28de	0.33820242
40	0x3dc7b39c	0.09751055
41	0xbd992222	-0.074772134
42	0x3c9b3f5b	0.018951109
43	0x3d792d36	0.060834132
44	0x3ec2805c	0.37988555
45	0x3d779371	0.060443345
46	0x3e88aa6e	0.26692528
47	0xbd9ce9cb	-0.0766178
48	0xbe47cf4a	-0.19512668
49	0x3f04af5c	0.5183008
50	0x3d8b7f92	0.068114415
51	0x3e99977d	0.2999839
52	0xbd9cdf72	-0.07659806
53	0x3f4ec3e4	0.80767655
54	0xbe115690	-0.14193177
55	0xbe5c8f1f	-0.21538971
56	0x3cc1df64	0.023666091
57	0x3f0270e6	0.5095352
58	0x3f06b69e	0.526224
59	0x3d81ec6e	0.063439235
60	0x3e87c153	0.26514682
61	0xbcd16d27	-0.025564743
62	0x3e0e4e66	0.13897094
63	0xbd1e68cc	-0.03867416
64	0xbdaf3db9	-0.085566945
65	0xbe266251	-0.16248442
66	0xbd8aa0da	-0.06768961
67	0x3deb8315	0.11499611
68	0x3e048e92	0.12945011
69	0xbd8e11cd	-0.06936989
70	0xbd512fda	-0.051071025
71	0x3dbd8e3b	0.09255644
72	0x3dae5ce2	0.0851381
73	0x3dab3791	0.08360208
74	0x3d253010	0.04032904
75	0x3d00fd5f	0.031491634
76	0x3e989427	0.2980053
77	0x3f03d574	0.5149758
78	0xbd154d81	-0.036450867
79	0x3d066b68	0.032817274
80	0x3d20d57b	0.03926609
81	0xbc2f2fe0	-0.010692567
82	0x3d9444c3	0.07239678
83	0xbdb0fb9d	-0.086417414
84	0x3c61b2c3	0.01377553
85	0x3dfaea9a	0.12251778
86	0x3e38e716	0.18056902
87	0xbd205688	-0.039145023
88	0x3ddf9906	0.10917859
89	0x3dc2f907	0.095201544
90	0xbd0dd7e0	-0.034629703
91	0x3d8f2a11	0.069904454
92	0x3dd252da	0.10269709
93	0x3cdb56e9	0.02677484
94	0xbdc27da3	-0.094966196
95	0xbe2246cc	-0.1584732
96	0x3d3ad9d1	0.045617882
97	0xbe120296	-0.14258799
98	0x3dfc2309	0.1231137
99	0x3d150190	0.036378443
100	0x3c5d5cee	0.013510926
101	0x3d182bab	0.03715102
102	0x3d29df5e	0.041472785
103	0x3dd0f86b	0.10203632
104	0xbd88f2f3	-0.06686964
105	0x3d9bd9ac	0.07609877
106	0xbe07f9d4	-0.13278896
107	0x3b32a8e7	0.0027261318
108	0xbd8e3cfd	-0.06945226
109	0x3db30488	0.08741099
110	0xb9842a5f	-0.0002520857
111	0x3db94cb0	0.0904783
112	0xbd8d4332	-0.06897582
113	0x3cbe6600	0.023241997
114	0xbcd24340	-0.025666833
115	0x3bd61194	0.006532857
116	0xbd75142d	-0.059833694
117	0xbc8e2c74	-0.017355181
118	0xbc3d1739	-0.011541181
119	0x3d9876f8	0.074445665
120	0xbdb2bf70	-0.0872792
121	0x3d3f189b	0.046654325
122	0x3d5f82c2	0.05456806
123	0x3e079e97	0.13244091
124	0x3d63795a	0.05553565
125	0x3dcad84a	0.09904535
126	0x3bdc023d	0.006714134
127	0xbc4bbe4a	-0.012435505
128	0x3f09ea1f	0.53872865
129	0x3d93e9e4	0.072223455
130	0x3f776ebe	0.96653354
131	0xbf71436d	-0.9424351
132	0xbe0494e4	-0.12947422
133	0xbdc4ba6e	-0.09605871
134	0x3e00063b	0.12502377
135	0xbf1c0849	-0.6095014
136	0x3f343386	0.7039112
137	0x3e20b18f	0.15692733
138	0x3f1c15de	0.60970867
139	0xbf1537ab	-0.5828807
140	0xbda759d6	-0.08171432
141	0xbf3be42d	-0.73395044
142	0xbe68ea1e	-0.22745559
143	0xbcccf39e	-0.02501851
144	0xbdf4ce83	-0.119534515
145	0xbf5af335	-0.85527354
146	0x3b17c980	0.0023160875
147	0xbd0e9502	-0.034810074
148	0xbf642e14	-0.8913281
149	0x3e0ce270	0.13758254
150	0xbd3b377b	-0.045707207
151	0x3e0253e4	0.12727314
152	0x3ddfe250	0.109318376
153	0xbe67eca6	-0.22648868
154	0xbe8136a0	-0.25236988
155	0xbda68c28	-0.081322014
156	0x3e30802a	0.1723639
157	0x3f16e419	0.589418
158	0xbddd08fd	-0.1079273
159	0x3f0e8142	0.5566598
160	0x3eac52bc	0.3365687
161	0x3d8187ad	0.06324706
162	0xbe071955	-0.13193257
163	0xbd34e195	-0.044160444
164	0xbd888fb1	-0.06668032
165	0xbf38e0c6	-0.7221798
166	0xbf5d90ba	-0.8654896
167	0xbefd251f	-0.49442384
168	0x3cad7ddb	0.021178177
169	0xbe0b0c7c	-0.13578981
170	0xbd95ff6d	-0.07324109
171	0xbcf535a9	-0.029932814
172	0xbd4746d6	-0.04865154
173	0x3caddcf9	0.021223532
174	0x3e252de6	0.1613079
175	0xbd93459f	-0.071910135
176	0x3ee752dc	0.45180404
177	0xbf16612f	-0.5874204
178	0xbd6a64fd	-0.057225216
179	0x3f0cfe2d	0.5507534
180	0xbd49ad36	-0.049237452
181	0xbe9d126d	-0.3067812
182	0x3dae91ed	0.08523927
183	0x3d16388f	0.036675032
184	0x3e037c97	0.12840496
185	0xbeb730ef	-0.3577952
186	0xbe80a2ba	-0.2512415
187	0xbea997b2	-0.33123547
188	0x3f091d5c	0.53560424
189	0x3d27067a	0.04077766
190	0x3e23f347	0.16010772
191	0x3de8be65	0.1136444
192	0x3f2c5de8	0.6733079
193	0x3c524894	0.012834687
194	0x3f0f372f	0.5594358
195	0x3ee746ca	0.45171195
196	0x3cea030f	0.028565912
197	0x3ea1f034	0.31628573
198	0x3f2fa480	0.6861038
199	0xbe55a6be	-0.20864388
200	0x3fac051e	1.3439062
201	0xbb8b1a7a	-0.0042450996
202	0x3d758201	0.059938435
203	0x3fa45bde	1.2840536
204	0x3d6d5ebf	0.057951685
205	0x3f944453	1.1583351
206	0xbd87501f	-0.06607079
207	0x3e26b3d4	0.16279536
208	0x3d9f2aa4	0.07771805
209	0x3f4a608a	0.79053557
210	0xbdf9d4bc	-0.12198779
211	0xbdc8d598	-0.09806365
212	0x3f34c0de	0.7060679
213	0x3de58c85	0.112084426
214	0x3e2508b7	0.16116606
215	0x3e2ebe7a	0.17064849
216	0x3dce9c6d	0.100884296
217	0x3f272c36	0.65301836
218	0xbc11399e	-0.008863835
219	0x3ea3c8be	0.31989092
220	0x3be4f1b9	0.0069868234
221	0x3dad55b3	0.084636115
222	0x3e7ea8af	0.24869035
223	0x3fb1573e	1.3854749
224	0x3f92fb23	1.1482891
225	0x3ae895ec	0.0017744876
226	0x3c200e09	0.009768971
227	0x3b3ac7e0	0.0028500482
228	0x3e207037	0.15667807
229	0x3f86e0eb	1.053739
230	0x3d976a6d	0.07393346
231	0x3ea29090	0.31750917
232	0x3e048f74	0.12945348
233	0xbdce6739	-0.10078282
234	0x3f8ab5de	1.0836751
235	0x3d9ee5c4	0.07758668
236	0x3e3347d8	0.17507875
237	0x3ebea176	0.3723256
238	0x3de9af16	0.11410348
239	0x3d71c38d	0.059024382
240	0x3eae2ff7	0.3402097
241	0x3fc0d613	1.506533
242	0x3e852118	0.2600181
243	0x3d7eacc7	0.062176492
244	0x3d85a93d	0.0652642
245	0x3c9c06bc	0.01904618
246	0x3debd722	0.11515643
247	0x3c86a48e	0.016435888
248	0xbcf08544	-0.029360421
249	0xbc941c7e	-0.018079992
250	0x3f008ee0	0.5021801
251	0x3d6c8df5	0.05775257
252	0x3e01fba0	0.12693644
253	0x3dd0be4e	0.10192548
254	0x3e81a460	0.2532072
255	0x3e26229a	0.16224137

encoder.bias_hh_l0 f4 [256]
0	0x3d68794d	0.056756306
1	0x3e94f44d	0.29092637
2	0xbd96e3bf	-0.07367658
3	0x3df83f87	0.12121492
4	0xbd5f7a88	-0.054560214
5	0xbda92a5f	-0.08260035
6	0x3da590c9	0.08084256
7	0xbdad06db	-0.08448573
8	0x3faecadd	1.3655659
9	0x3d9c10da	0.07620402
10	0xbcad695e	-0.021168407
11	0x3f9ee23c	1.2412791
12	0xbe702644	-0.23452097
13	0x3fa343e9	1.27551
14	0xbd955d49	-0.07293183
15	0xbdad236e	-0.08454023
16	0xbdb30e35	-0.08742944
17	0x3f1e830d	0.6191872
18	0x3c406487	0.011742718
19	0x3cd9d7df	0.026592193
20	0x3d01729f	0.03160345
21	0xbe3ceca1	-0.18449642
22	0x3f9df00e	1.2338884
23	0x3d436b8e	0.047709994
24	0xbe1f4657	-0.15554176
25	0x3f99f90d	1.2029129
26	0xbc9f0f1e	-0.019416388
27	0x3a4e640d	0.0007873185
28	0xbca00356	-0.01953284
29	0x3d6df113	0.058091234
30	0x3e3fe09f	0.1873803
31	0x3fc3a9aa	1.5286152
32	0x3d1ed445	0.038776655
33	0x3d303f68	0.04302922
34	0xbd82c423	-0.06385066
35	0x3dc48706	0.09596066
36	0xbdbd72af	-0.0925039
37	0x3fb04db6	1.3773715
38	0xbd9b5938	-0.075853765
39	0x3eb39124	0.3507167
40	0x3dac5590	0.08414757
41	0x3ce9fc97	0.028562827
42	0xbdadd34e	-0.08487569
43	0x3df15693	0.11784091
44	0x3ea64f7a	0.3248251
45	0x3dba85e8	0.09107572
46	0x3d56d727	0.05245128
47	0xbd6627fd	-0.05619048
48	0xbdd249f3	-0.10268011
49	0x3f1ad7e5	0.6048568
50	0x3d81a678	0.063305795
51	0x3d6b32d0	0.057421505
52	0x3d17629b	0.036959272
53	0x3f3c18e3	0.73475474
54	0xbd8329e0	-0.064044714
55	0xbd835034	-0.06411782
56	0x3cb5b4c4	0.022180922
57	0x3ef3097a	0.47468168
58	0x3eb1a20e	0.3469395
59	0xbdc36415	-0.095405735
60	0x3ea8abac	0.32943475
61	0x3dc83238	0.097752035
62	0x3e23a4a2	0.15980771
63	0x3d918811	0.07106031
64	0x3c83870b	0.016055604
65	0xbd6c99cb	-0.057763856
66	0x3bdbc1b4	0.006706441
67	0x3d6c1762	0.057639487
68	0xbd4cdc0a	-0.050014533
69	0xbd85d6ba	-0.065350965
70	0xbda3a352	-0.07990135
71	0x3d46d186	0.04853966
72	0x3e06617a	0.13123122
73	0xbded7131	-0.11593855
74	0x3c1ff38b	0.009762655
75	0x3e253b5d	0.16135927
76	0x3e7f442e	0.24928352
77	0x3ed75005	0.42053238
78	0xbe03cb75	-0.12870581
79	0xbd5cc850	-0.05390197
80	0xbdfe5bde	-0.12419866
81	0xbd427276	-0.04747244
82	0xbcb405dd	-0.021975452
83	0xbd98df24	-0.07464436
84	0xbd9afafb	-0.07567402
85	0x3e36ad94	0.17839652
86	0xbb2b8066	-0.002616906
87	0x3d1438b3	0.036186885
88	0x3e6490f6	0.22320923
89	0x3d879a45	0.066212215
90	0x3d9fa976	0.07795994
91	0xbc056d31	-0.008143709
92	0x3d9f5576	0.07779972
93	0x3e44f394	0.19233543
94	0xbc425267	-0.011860467
95	0xbb68954d	-0.003548938
96	0xbd3c68fa	-0.04599855
97	0xbd663ad0	-0.05620843
98	0xbd38843f	-0.045047995
99	0xbcf86bf4	-0.030324914
100	0x3b8c241c	0.0042767655
101	0x3ca61394	0.020273007
102	0x3cf76ea4	0.030204125
103	0xbd02a8c0	-0.031899214
104	0xbdd19385	-0.10233215
105	0xbdf408b4	-0.119157225
106	0xbbe9de02	-0.007137061
107	0xbe1716cb	-0.14754789
108	0x3d4611e2	0.048356898
109	0x3d70fb96	0.05883368
110	0x3ded2715	0.1157972
111	0x3dc178df	0.094468825
112	0xbd7665ed	-0.060155798
113	0x3da22a08	0.07918173
114	0xbcbb0694	-0.022830285
115	0xbd0fcf14	-0.035109594
116	0xbdc734fa	-0.09726901
117	0x3d3b1553	0.045674633
118	0xbdfb8297	-0.122807674
119	0x3df6b1aa	0.120456055
120	0x3de76839	0.11299176
121	0x3deebb43	0.11656811
122	0xbe3817ea	-0.17977872
123	0x3dd5ed94	0.10445705
124	0xbbed5838	-0.0072431825
125	0x3e23ccb6	0.1599606
126	0x3da4c41c	0.080452174
127	0x3e15560f	0.1458361
128	0x3ee91ef3	0.45531425
129	0x3e0b4ec0	0.1360426
130	0x3f55e4a6	0.83552015
131	0xbf6d644e	-0.9273118
132	0xbd3ca028	-0.046051174
133	0xbcbea97e	-0.02327418
134	0x3daddbc0	0.084891796
135	0xbf17ada0	-0.59249306
136	0x3f32a3dc	0.6978128
137	0x3e046f3e	0.1293306
138	0x3f4ce8b4	0.80042577
139	0xbf3a7b9f	-0.7284488
140	0xbd250a27	-0.040292885
141	0xbf20ddbe	-0.6283835
142	0xbc309962	-0.010778757
143	0xbe1ab7c8	-0.1510917
144	0x3db6f676	0.089337274
145	0xbf8958f9	-1.0730277
146	0xbbd6d897	-0.0065565812
147	0xbde32e6c	-0.11092839
148	0xbf542eac	-0.82883716
149	0xbd92f8cf	-0.07176363
150	0xbdac1a63	-0.0840347
151	0x3d917423	0.071022294
152	0xbd9d8a28	-0.07692367
153	0xbe223072	-0.15838793
154	0xbe1f4c7f	-0.15556525
155	0x3db5e3fa	0.08881374
156	0x3d2fc83d	0.04291557
157	0x3f1c694f	0.6109819
158	0xbe14dd76	-0.14537606
159	0x3f16d434	0.58917546
160	0x3e30ecd8	0.17277849
161	0x3e01a40a	0.12660232
162	0xbdb40c35	-0.08791391
163	0xbe77f6fe	-0.24215314
164	0xbe13a1b8	-0.1441716
165	0xbf3b8f56	-0.7326559
166	0xbf5e8b3d	-0.8693121
167	0xbebda5af	-0.3704047
168	0x3c94d1d8	0.018166468
169	0xbd583cba	-0.05279229
170	0xbdf1d7f8	-0.11808771
171	0xbdcc13bd	-0.09964702
172	0xbd84fc1f	-0.06493401
173	0x3c99583f	0.018718837
174	0x3da35e86	0.07977013
175	0x3d761d8c	0.06008677
176	0x3edb9d2b	0.42893347
177	0xbf1b09a9	-0.60561615
178	0xbe05b8e2	-0.13058808
179	0x3f21464b	0.62997884
180	0xbd4a7409	-0.049427066
181	0xbe33bbec	-0.17552155
182	0xbd2a7438	-0.04161474
183	0xbe36d14d	-0.1785328
184	0x3d80f5a6	0.06296854
185	0xbe8b39ab	-0.27192435
186	0xbe426fec	-0.18988007
187	0xbe3b27ac	-0.18276852
188	0x3f2daca2	0.6784154
189	0x3d1db943	0.038506757
190	0x3df2319a	0.11825867
191	0x3de8944b	0.1135641
192	0x3f2f61f3	0.68508834
193	0x3d88fa9d	0.06688426
194	0x3f1d4e2a	0.61447394
195	0x3eaacf8f	0.3336148
196	0x3e8b9551	0.27262357
197	0x3dbfd9bc	0.093677014
198	0x3f3abf26	0.7294792
199	0xbdc25cd1	-0.094903596
200	0x3f9267b7	1.1437901
201	0x3d76c677	0.060247865
202	0xbd09abbc	-0.033611044
203	0x3fa35141	1.2759172
204	0x3e5ef65f	0.2177367
205	0x3f9d895f	1.2307547
206	0xbd40b8d4	-0.047051266
207	0x3dc986be	0.09840153
208	0xbcdacfa6	-0.026710343
209	0x3f53e3ed	0.8276966
210	0xbdb0e71e	-0.08637832
211	0xbd8de4ac	-0.06928381
212	0x3f21117f	0.6291732
213	0x3d0f378f	0.034965094
214	0x3e58967d	0.21151157
215	0x3dab2dc9	0.08358342
216	0x3cf5cab3	0.030003881
217	0x3eda3eca	0.4262603
218	0x3d88633b	0.06659552
219	0x3eb17796	0.3466155
220	0xbdd4f4f8	-0.103982866
221	0xbda7f15b	-0.08200332
222	0x3e26371e	0.16231963
223	0x3f994c2a	1.1976368
224	0x3f8dea06	1.1087043
225	0x3dfde447	0.12397056
226	0xbd7e97f7	-0.062156644
227	0xbc9a5475	-0.0188391
228	0x3e9ecd66	0.31016082
229	0x3f9bcf16	1.2172573
230	0xbce42597	-0.027849955
231	0x3eaf7577	0.34269306
232	0xbdbe62fd	-0.09296224
233	0xbdb52675	-0.08845226
234	0x3f884c66	1.0648315
235	0x3e2bc750	0.1677525
236	0xbc45678d	-0.012048614
237	0x3e58fc31	0.21189953
238	0x3d93f37e	0.07224177
239	0x3cf18c15	0.029485742
240	0x3f0e7c2b	0.55658215
241	0x3fbbfad4	1.4685922
242	0x3e91c968	0.28473973
243	0x3dd1c590	0.1024276
244	0xbd2db6ed	-0.04241078
245	0xbcfa3301	-0.030541899
246	0x3de0a99a	0.10969849
247	0x3e1602e5	0.14649542
248	0xbcc2f1f8	-0.02379702
249	0x3d9e2337	0.077215604
250	0x3ea8e862	0.32989794
251	0xbe401458	-0.1875776
252	0x3e172360	0.14759588
253	0x3e4027b4	0.18765146
254	0x3e759379	0.23982038
255	0x3e1b6aef	0.1517751

latent.weight_ih_l0 f4 [128, 64]
0	0xbe19e462	-0.15028527
1	0xbde792fd	-0.11307333
2	0x3e0bc63c	0.13649839
3	0xbe6229d5	-0.2208627
4	0x3c7ac57d	0.015305874
5	0x3e25b71c	0.16183132
6	0xbe724c3f	-0.23661898
7	0xbe63b28a	-0.22236076
8	0x3e82e660	0.25566387
9	0x3d0928b3	0.03348608
10	0x3e6516f5	0.22372039
11	0xbea894b0	-0.3292594
12	0x3e80a285	0.25123993
13	0xbea48bc9	-0.32137898
14	0x3d94275b	0.07234069
15	0xbda8f029	-0.08248932
16	0xbe2c5b1f	-0.16831635
17	0xbcd9d9b2	-0.026593063
18	0x3e89917e	0.26868814
19	0x3db9aa23	0.09065654
20	0x3d02a5b6	0.031896316
21	0x3ea3305f	0.31872842
22	0x3c50c57e	0.012742398
23	0x3e8222cd	0.25417176
24	0x3ed270a4	0.41101563
25	0x3c865d63	0.016401952
26	0xbd94a973	-0.072588824
27	0x3e0816ce	0.1328995
28	0x3e1214e3	0.1426578
29	0x3e6ccad0	0.23124242
30	0x3e985a8c	0.29756582
31	0x3e00110e	0.12506506
32	0xbce61863	-0.0280878
33	0xbd232b57	-0.039836254
34	0xbe4a3540	-0.19746876
35	0xbe54c897	-0.20779644
36	0xbe47b891	-0.19504
37	0xbe366db8	-0.17815292
38	0xbc3d3468	-0.011548139
39	0xbe64d1f6	-0.22345719
40	0x3e7afa7d	0.24509616
41	0xbf10d6c1	-0.5657769
42	0xbe5ded29	-0.216725
43	0xbd95d20d	-0.07315455
44	0xbf19fed5	-0.6015447
45	0xbeaa3cd1	-0.33249524
46	0xbe3c76e8	-0.18404734
47	0x3db29927	0.08720618
48	0x3cc29623	0.023753231
49	0xbe7445f4	-0.2385481
50	0xbdd84dd7	-0.10561722
51	0x3e857a45	0.26069847
52	0xbe97bcfb	-0.29636368
53	0xbe70d238	-0.23517692
54	0xbe5848cc	-0.2112152
55	0x3d677929	0.05651203
56	0x3e8b072c	0.2715391
57	0xbe55b3b1	-0.20869328
58	0xbe562491	-0.20912386
59	0x3bc3cd38	0.0059753917
60	0x3d79e991	0.061013762
61	0xbeaca7ef	-0.33721873
62	0xbe9f4045	-0.3110372
63	0x3ee702ce	0.45119327
64	0xbd66edf2	-0.056379266
65	0x3d725ce3	0.059170615
66	0x3ebb9e93	0.3664442
67	0x3d03b0ac	0.03215091
68	0xbe933ba2	-0.28756434
69	0xbf0a4020	-0.54004097
70	0xbda56558	-0.080759704
71	0xbe8798bc	-0.26483715
72	0x3e81f89c	0.25384986
73	0x3d2e77be	0.042594664
74	0x3de878dd	0.11351178
75	0xbe63fb8e	-0.22263929
76	0x3e02cc5a	0.12773266
77	0xbe3815d1	-0.17977072
78	0xbba96eb1	-0.005170666
79	0xbe825973	-0.2545887
80	0xbe267d4a	-0.16258731
81	0xbdf7c200	-0.120975494
82	0x3ea3a8a1	0.3196459
83	0x3e70f8f1	0.23532464
84	0xbdf7c8df	-0.1209886
85	0x3eb5c68c	0.35503042
86	0x3c05e413	0.008172053
87	0x3e87940d	0.2648014
88	0x3e98b2d9	0.2982395
89	0xbd9273c1	-0.071509846
90	0x3dddfabb	0.10838839
91	0xbf22a540	-0.635334
92	0xbd5d0001	-0.05395508
93	0x3d615b2e	0.055018596
94	0x3e8bad88	0.2728083
95	0x3e19cc31	0.15019299
96	0xbe1c010c	-0.15234774
97	0xbd8e3e42	-0.069454685
98	0xbe92d49f	-0.28677842
99	0xbdbcb22e	-0.092136726
100	0xbe4e63d6	-0.20155272
101	0xbe2cc686	-0.16872606
102	0xbd8aeed8	-0.06783837
103	0xbe04aef2	-0.12957361
104	0x3d9a008a	0.07519634
105	0xbf28da6c	-0.65958285
106	0xbe1c59dc	-0.15268654
107	0xbe698c04	-0.22807318
108	0xbef258dd	-0.47333422
109	0xbeb56958	-0.35431933
110	0x3d88591e	0.06657623
111	0x3d14d4de	0.03633582
112	0x3d270e19	0.04078493
113	0xbe502aaa	-0.20328775
114	0xbe711491	-0.23543002
115	0xbe1236a6	-0.14278659
116	0xbdda69d0	-0.106647134
117	0xbe01b341	-0.12666036
118	0xbe4180bb	-0.18896763
119	0x3c7332f2	0.014843689
120	0xbe086ff2	-0.13323954
121	0xbdf249e2	-0.11830498
122	0xbd7a5746	-0.061118387
123	0xbe31e0d8	-0.17370927
124	0x3d2a1b60	0.041530013
125	0xbe0282fb	-0.12745278
126	0xbd68152a	-0.05666081
127	0x3dd3135d	0.10306428
128	0x3c05e133	0.008171367
129	0x3e47b190	0.19501328
130	0xbe224456	-0.1584638
131	0x3d3412fb	0.043963414
132	0xbf0f246c	-0.5591495
133	0xbe85eb30	-0.26155996
134	0xbf0ee418	-0.55816793
135	0xbea9aff4	-0.33142054
136	0x3e8d9236	0.27650613
137	0x3cc6679d	0.024219329
138	0x3e1f6766	0.15566787
139	0x3c9d74b3	0.019220686
140	0x3e9d4f98	0.30724788
141	0xbddf1c9b	-0.10894128
142	0xbea56da6	-0.32310218
143	0xbd0bfb98	-0.034175485
144	0xbe1617c3	-0.14657502
145	0xbcb4e5a0	-0.02208215
146	0x3ebddfec	0.370849
147	0x3d8df40e	0.06931315
148	0xbdbc1187	-0.091830306
149	0x3cab6932	0.020924184
150	0x3cc8659c	0.024462514
151	0x3e124a17	0.14286076
152	0x3e795333	0.24348144
153	0xbe31138c	-0.17292613
154	0x3dcab2cb	0.09897383
155	0xbef60c76	-0.48056382
156	0x3e7802d5	0.2421983
157	0x3d96c72c	0.07362208
158	0x3e8f9036	0.28039712
159	0x3e77df07	0.24206172
160	0x3f28f278	0.6599498
161	0xbe93edcb	-0.2889236
162	0x3d463ba1	0.04839671
163	0xbe8ec070	-0.27881193
164	0xbe1dbd85	-0.15404327
165	0xbe7a1cfb	-0.24425118
166	0x3c995c7e	0.018720862
167	0x3cc906ac	0.024539314
168	0xbde9ab12	-0.11409582
169	0x3e206e2a	0.15667024
170	0xbd8bbb74	-0.06822863
171	0x3d42a7ce	0.047523312
172	0x3da90df0	0.082546115
173	0xbe09132a	-0.13386217
174	0x3ac3720e	0.001491131
175	0x3de3a681	0.111157425
176	0xbcb248c5	-0.021763215
177	0xbe7c9f3b	-0.24670117
178	0xbacf49df	-0.0015814862
179	0x3caba10a	0.020950813
180	0x3d3e9b98	0.046535105
181	0xbdc118d4	-0.09428564
182	0xbdf3b7b1	-0.11900271
183	0xbca1bf18	-0.01974444
184	0xbe38c75c	-0.180448
185	0xbe53859c	-0.20656437
186	0xbea38b1a	-0.31942064
187	0xbebd959a	-0.370282
188	0x3e978265	0.2959167
189	0x3d20db12	0.03927142
190	0xbe096ef0	-0.13421226
191	0x3e366df3	0.1781538
192	0xbe6bfe69	-0.23046269
193	0xba57dea5	-0.0008234776
194	0x3e511047	0.20416366
195	0xbdb63cd9	-0.088983245
196	0xbba48ee3	-0.0050219162
197	0xbe2c1f8b	-0.16808908
198	0xbc8d9e2c	-0.017287336
199	0xbba2068a	-0.004944627
200	0x3e6ce411	0.23133875
201	0x3df4451c	0.11927244
202	0x3c56a0fc	0.013099905
203	0xbe8a05ce	-0.26957554
204	0x3e94b995	0.29047838
205	0xbd90e8f8	-0.07075685
206	0xbd9a2f91	-0.07528604
207	0xbe0bed52	-0.1366475
208	0xbdc190af	-0.09451424
209	0xbcf01958	-0.02930896
210	0xbd078c55	-0.033092815
211	0xbdc91a63	-0.09819486
212	0xbe96040e	-0.29299968
213	0x3e038cc8	0.12846673
214	0x3d84d975	0.06486789
215	0x3c072e2e	0.008250756
216	0x3eb66663	0.3562499
217	0xbe0c661a	-0.13710824
218	0x3e920c2e	0.28524917
219	0x3dd2de24	0.10296276
220	0x3cfbe46a	0.030748565
221	0x3e0e9102	0.13922504
222	0x3cd0fa38	0.025509939
223	0x3e63ef84	0.22259337
224	0x3e891000	0.2677002
225	0xbdbb8dd7	-0.09157913
226	0xbe11ca7d	-0.142374
227	0xbe4468a0	-0.19180536
228	0xbe99b028	-0.3001721
229	0x3cacf678	0.02111362
230	0xbd8613d1	-0.065467484
231	0x3baafa2b	0.0052178106
232	0x3f144434	0.5791657
233	0xbe15922c	-0.14606541
234	0xbdc05ec0	-0.09393072
235	0xbd4a032e	-0.04931944
236	0xbd6a8897	-0.05725917
237	0xbf1e4eed	-0.6183918
238	0xbcc545cc	-0.024081133
239	0x3e3d4f3a	0.18487254
240	0xbc1d8d62	-0.009616228
241	0xbe1bc211	-0.15210749
242	0xbe3f6c51	-0.18693663
243	0x3df73be6	0.120719716
244	0xbd102482	-0.035191067
245	0xbe817eba	-0.25291997
246	0xbde2c57c	-0.110728234
247	0xbdb585b4	-0.088633925
248	0xbde8aa56	-0.11360614
249	0x3d73b5ac	0.059499428
250	0xbe6ee410	-0.23329186
251	0xbe147509	-0.1449777
252	0x3d83b4b2	0.06430949
253	0xbdeded49	-0.11617524
254	0xbd77e8f8	-0.06052491
255	0x3e80ff4f	0.25194785

latent.weight_hh_l0 f4 [128, 32]
0	0x3f1bc0f8	0.6084132
1	0xbe24c757	-0.16091667
2	0x3eb4b98b	0.35297808
3	0xbeab48b7	-0.33453915
4	0x3d38a740	0.045081377
5	0x3dc2391b	0.09483548
6	0x3dc3e958	0.09565991
7	0x3e703434	0.23457414
8	0xbd296698	-0.041357607
9	0x3dcf1393	0.10111155
10	0xbe6fa42a	-0.23402467
11	0x3e9d5781	0.30730823
12	0xbd2898c7	-0.041161325
13	0xbe1ef2a2	-0.15522245
14	0x3d9ef974	0.07762423
15	0x3d86035d	0.0654361
16	0xbe20520f	-0.15656303
17	0x3e4b98fd	0.19882579
18	0x3e5f01ef	0.21778081
19	0x3eab8751	0.33501676
20	0xbc9250c7	-0.017860783
21	0xbda33adb	-0.0797021
22	0xbeb1e2a1	-0.34743217
23	0x3e51b8d2	0.2048066
24	0x3e4162d3	0.18885355
25	0x3e028234	0.12744981
26	0xbd9cf07a	-0.07663055
27	0xbe894aa0	-0.26814747
28	0x3e0fffa5	0.14062364
29	0xbd51477f	-0.051093575
30	0x3ccffc02	0.025388721
31	0x3f0a0f96	0.5393003
32	0xbe273566	-0.16328964
33	0x3df528c5	0.11970667
34	0x3debec77	0.115197115
35	0xbc254b6c	-0.010088783
36	0x3e0b0676	0.13576683
37	0x3ec136e4	0.3773719
38	0x3e30a5fd	0.1725082
39	0xbdb7f3d1	-0.08982051
40	0xbe02f679	-0.12789334
41	0x3da6ba2c	0.08140978
42	0xbe75a478	-0.23988521
43	0x3d013d29	0.031552467
44	0xbc8febd0	-0.017568499
45	0xbc6f80e9	-0.014618137
46	0x3c9f3341	0.01943362
47	0x3e032742	0.12807944
48	0x3e84906d	0.25891438
49	0xbd1f8c91	-0.038952414
50	0xbe2f7560	-0.17134619
51	0xbbbe6a35	-0.0058110007
52	0x3e555d55	0.20836385
53	0x3e89c9c6	0.26911753
54	0x3e15a892	0.14615086
55	0xbdf500b5	-0.119630255
56	0xbea7a821	-0.3274546
57	0x3daa385f	0.08311533
58	0xbe171f3b	-0.14758007
59	0x3d78b7c8	0.060722142
60	0x3d52bfcc	0.051452443
61	0xbe0c845d	-0.13722368
62	0xbd03de07	-0.032194164
63	0xbdf1b858	-0.11802739
64	0xbe76b1a8	-0.24091208
65	0x3e837ae7	0.25679705
66	0xbdc67e8d	-0.096921064
67	0xbf10e790	-0.56603336
68	0xbe93b6dd	-0.2885045
69	0xbf0fab74	-0.5612099
70	0x3f15897f	0.5841293
71	0x3e4e4610	0.20143914
72	0xbe33ac54	-0.17546207
73	0xbdee6802	-0.11640932
74	0xbf111a87	-0.566811
75	0x3b109875	0.0022063528
76	0xbda2c530	-0.07947767
77	0xbe17ce50	-0.14824796
78	0xbd896140	-0.06708002
79	0xbd05256e	-0.0325064
80	0xbd31df2d	-0.043425728
81	0x3ec749ab	0.38923392
82	0xbe22007f	-0.15820502
83	0xbe676f15	-0.22600968
84	0xbdf88df1	-0.12136448
85	0xbd8b8c8b	-0.06813916
86	0xbb559a6c	-0.0032593263
87	0xbe8f9360	-0.28042126
88	0x3d5fb22f	0.05461329
89	0xbe6a93f0	-0.22907996
90	0xbf0bc5f4	-0.5459893
91	0x3e0da34b	0.13831823
92	0xbbd0b87f	-0.00636965
93	0x3f0e2ee0	0.55540276
94	0xbe478eb1	-0.19488026
95	0x3de99ecd	0.11407242
96	0x3d9a3691	0.07529939
97	0x3e3eff7f	0.18652152
98	0xbedba9bf	-0.42902943
99	0xbd99e69c	-0.075146884
100	0xbe38eea7	-0.18059789
101	0xbe66e67d	-0.22548862
102	0x3d024389	0.031802688
103	0xbd442745	-0.047889013
104	0x3e4ebd32	0.2018936
105	0xbdeb52be	-0.11490391
106	0xbeb273b4	-0.348539
107	0xbdc9f810	-0.09861767
108	0xbe810076	-0.25195664
109	0xbe12fe7d	-0.14354892
110	0x3cb6efcd	0.022331143
111	0x3e0fd50f	0.14046119
112	0xbcf6286d	-0.030048573
113	0x3eefd179	0.46839502
114	0x3bbb70f1	0.005720251
115	0x3c26b13f	0.010174095
116	0x3bcdc508	0.0062795915
117	0xbe3500c7	-0.17676078
118	0x3e4e064e	0.20119593
119	0x3e2de81f	0.16983078
120	0xbe06086d	-0.13089152
121	0x3e264594	0.1623748
122	0xbcec37b6	-0.028835159
123	0xbe488552	-0.19582108
124	0xbe307bd8	-0.17234743
125	0x3dafea82	0.08589651
126	0x3e93567d	0.28776923
127	0xbdba403a	-0.090942815
128	0xbc0a3e87	-0.008437759
129	0x3e04479c	0.12917942
130	0x3e1eaec1	0.15496351
131	0x3e414fb9	0.18878068
132	0x3df94e35	0.1217312
133	0x3dcb50e7	0.0992754
134	0xbe263027	-0.16229306
135	0x3e7236d1	0.23653723
136	0xbda358ba	-0.079759076
137	0xbe34bb53	-0.17649584
138	0xbdc6e32d	-0.09711299
139	0x3cbfc3eb	0.02340885
140	0xbe61b4ea	-0.2204167
141	0xbdb34381	-0.0875311
142	0xbe01374c	-0.1261875
143	0xbe892621	-0.26786903
144	0x3ddaf09d	0.106904246
145	0x3e3e907c	0.18609804
146	0xbe256f0d	-0.16155644
147	0xbe96be84	-0.29442227
148	0xbd5b2e6e	-0.053511076
149	0x3e8d2503	0.275673
150	0x3d5f9e69	0.05459443
151	0xbe78388f	-0.24240325
152	0xbd8207a0	-0.063491106
153	0xbe18f819	-0.14938392
154	0xbe2a94dd	-0.1665835
155	0x3bfb2d39	0.007665303
156	0xbe0d5887	-0.13803302
157	0x3e5037e9	0.20333828
158	0x3e117209	0.14203657
159	0xbbbae673	-0.005703741
160	0xbd837573	-0.06418886
161	0x3e1f82d8	0.15577257
162	0xbe869d8d	-0.26292077
163	0xbe5ac672	-0.21364763
164	0xbee13e38	-0.43992782
165	0xbf05d41a	-0.52276766
166	0x3eb35825	0.35028186
167	0x3e81a71d	0.2532281
168	0xbd0107f4	-0.031501725
169	0xbdc39a59	-0.09550924
170	0xbdb96d54	-0.09054056
171	0x3cfcd0c8	0.030861273
172	0xbdb11109	-0.08645827
173	0xbd1aee15	-0.03782471
174	0x3d5131b1	0.05107278
175	0x3d1dc0e0	0.038514018
176	0x3e537828	0.20651305
177	0x3c91b5a3	0.017786806
178	0xbd4b6093	-0.049652647
179	0xbe3c910f	-0.1841471
180	0x3c606c63	0.013697716
181	0x3d440d49	0.047864232
182	0x3d42d061	0.047562007
183	0x3d9c37e8	0.07627851
184	0x3d29d457	0.04146227
185	0xbd30b6a6	-0.043142937
186	0xbe41e9ae	-0.18936798
187	0xbd2479ae	-0.040155105
188	0xbeaa47c8	-0.3325789
189	0xbdbe784e	-0.0930029
190	0x3e57ffd7	0.21093689
191	0x3e8b6f7e	0.272335
192	0x3e60482a	0.21902528
193	0x3e26e706	0.16299066
194	0x3d07ccd0	0.03315431
195	0xbdda6741	-0.10664225
196	0xbdec4e13	-0.11538329
197	0xbea2cc05	-0.3179628
198	0x3ee9b262	0.45643908
199	0x3e86df0b	0.26342043
200	0x3dac739d	0.08420489
201	0x3de1fe0d	0.110347845
202	0xbe5e237a	-0.2169322
203	0x3e607b55	0.21922047
204	0x3e8cfc8a	0.27536422
205	0xbc8d87d5	-0.017276684
206	0x3bfc8c9d	0.007707192
207	0x3c1ea01b	0.009681727
208	0xbe832636	-0.2561509
209	0x3ec1116e	0.3770861
210	0x3dfad722	0.122480646
211	0x3e7a5933	0.2444809
212	0xbe8fd631	-0.28093103
213	0xbe38a9d9	-0.18033542
214	0xbdd61f2b	-0.104551636
215	0x3e79c85c	0.24392837
216	0x3e6b72eb	0.22993056
217	0x3e55d204	0.20880896
218	0x3d87acdf	0.066247694
219	0xbd8564c7	-0.065133624
220	0x3e90a598	0.28251338
221	0x3d6e351d	0.05815612
222	0x3d28f746	0.041251443
223	0xbdc44e58	-0.095852554
224	0x3cb85055	0.022499243
225	0x3e454569	0.19264759
226	0x3e030cd3	0.12797861
227	0x3cab70ce	0.020927813
228	0x3e360b44	0.17777735
229	0xbeb17b56	-0.3466441
230	0x3dc814ab	0.09769567
231	0x3cc6e2b6	0.024278026
232	0x3f0216e1	0.5081616
233	0x3e578d0d	0.210499
234	0xbeeb9897	-0.46014854
235	0xbd9996a8	-0.074994385
236	0xbdf1c767	-0.11805611
237	0x3cff3cab	0.031156858
238	0x3ca9b193	0.020714557
239	0x3d0a4121	0.033753518
240	0xbb2cd347	-0.0026371048
241	0x3ead7974	0.33881724
242	0xbdde4b33	-0.10854187
243	0xbdf41f45	-0.11920027
244	0xbdaaa4e2	-0.0833223
245	0xbd82d2d5	-0.06387869
246	0x3e4119ab	0.18857448
247	0xbda9559b	-0.08268281
248	0xbc8294c2	-0.015940074
249	0x3d88806d	0.0666512
250	0x3ce7a3ae	0.02827629
251	0x3ebc92e3	0.36830816
252	0x3e83836d	0.25686207
253	0x3e405d1f	0.18785523
254	0x3e12568b	0.14290826
255	0xbe776406	-0.2415925

latent.bias_ih_l0 f4 [128]
0	0x3c9bfbb9	0.01904093
1	0xbc8c0b62	-0.017095271
2	0x3e154e2c	0.14580601
3	0x3e2be0a9	0.1678492
4	0xbd3d214e	-0.04617434
5	0x3e5193b1	0.20466496
6	0x3e280ca8	0.16411078
7	0x3e196d99	0.14983214
8	0x3e680895	0.22659524
9	0x3e2628ad	0.16226454
10	0x3d0c5139	0.034257147
11	0xbc390382	-0.01129234
12	0x3e428470	0.18995833
13	0xbcc52096	-0.02406339
14	0x3e8ab2ac	0.2708944
15	0xbc6eb53a	-0.014569575
16	0x3e09c1c6	0.13452825
17	0x3e563845	0.20919903
18	0xbd68f601	-0.056875233
19	0x3e40bf57	0.1882299
20	0x3dc56aa7	0.09639483
21	0x3c36688f	0.011133327
22	0x3dd1c49d	0.10242579
23	0x3e716783	0.23574643
24	0x3e591b20	0.21201754
25	0x3e16fa90	0.1474402
26	0x3f03165f	0.5120601
27	0xbda4c34a	-0.08045061
28	0x3dfaab6d	0.12239728
29	0x3ea90b5b	0.33016476
30	0x3e5e710b	0.2172281
31	0x3e7aa150	0.24475598
32	0x3d03287d	0.032021035
33	0x3e3c0101	0.18359758
34	0x3d9f23a5	0.077704705
35	0xbd12ed7c	-0.035871014
36	0x3afedb60	0.0019444041
37	0x3e01ce7a	0.12676421
38	0x3cd67abf	0.026181577
39	0x3e83eaea	0.25765163
40	0xbd07795f	-0.033074733
41	0xbe14e5f6	-0.14540848
42	0xbdced477	-0.10099118
43	0xbd4adfb3	-0.049529742
44	0xbcc289c5	-0.023747334
45	0xbdd5da23	-0.10441997
46	0xbdc73674	-0.09727183
47	0x3e2285e5	0.15871389
48	0x3ab711cc	0.0013967096
49	0x3e5314b3	0.20613365
50	0xbdc26d8b	-0.0949355
51	0xbdb7a89d	-0.08967707
52	0x3d260244	0.040529504
53	0xbd21d062	-0.03950537
54	0xbdd5a88f	-0.104325406
55	0x3c2c8c4a	0.010531494
56	0xbb3a1f28	-0.0028399918
57	0x3d8bc146	0.06823973
58	0xbde72d90	-0.11287987
59	0xbce69034	-0.028144933
60	0x3e315adc	0.17319816
61	0x3af0b8fe	0.0018365679
62	0xbd8fb022	-0.070160165
63	0xbdbf21d0	-0.09332621
64	0x3deb7605	0.1149712
65	0xbd93184f	-0.07182371
66	0x3d8274f9	0.06369967
67	0xbd4ef918	-0.050530523
68	0x3e2aa724	0.16665322
69	0x3dfdbc28	0.123894036
70	0xbb80700b	-0.0039196066
71	0x3de1bae1	0.110219724
72	0xbe218238	-0.15772331
73	0xbd604dd8	-0.054761738
74	0xbd8a0f21	-0.06741167
75	0x3d82e111	0.06390584
76	0x3cb9c5ab	0.022677263
77	0xbe29580b	-0.16537492
78	0x3ce1db14	0.027570285
79	0xbdc12739	-0.09431309
80	0x3d98a7db	0.07453891
81	0xbdf3f957	-0.11912792
82	0xbe01ef10	-0.12688851
83	0xbc9e0e54	-0.019293942
84	0xbccaa761	-0.024738016
85	0x3e111d13	0.14171247
86	0x3c217646	0.009854859
87	0xbe15e2c9	-0.14637293
88	0x3ddbf8ef	0.1074084
89	0x3d6abc92	0.05730874
90	0x3e3ed264	0.18634945
91	0x3d9e8307	0.07739835
92	0x3cdc1268	0.026864246
93	0x3b19460d	0.00233877
94	0xbe2c2370	-0.16810393
95	0xbdc37b5e	-0.09545015
96	0x3e873104	0.26404583
97	0x3e3c5506	0.18391809
98	0x3e9b4ff7	0.30334446
99	0x3e9246d9	0.28569677
100	0x3c888fba	0.016670097
101	0x3dc1a435	0.09455148
102	0x3e09e858	0.13467538
103	0x3b9da487	0.004810873
104	0x3e835372	0.256496
105	0x3dda63df	0.1066358
106	0x3d5d9484	0.054096714
107	0x3e4e560d	0.20150013
108	0x3e5981e3	0.21240954
109	0x3eababbb	0.33529457
110	0x3e5bc321	0.21461155
111	0xbdd42a9c	-0.103596896
112	0x3d2e0e88	0.042494327
113	0x3e540596	0.20705256
114	0x3d9009d1	0.07033122
115	0x3dd8f401	0.10593415
116	0x3d1e56dd	0.038657058
117	0x3e593004	0.21209723
118	0x3df49e5d	0.11944268
119	0x3e3439f1	0.17600228
120	0x3e34bcbc	0.17650121
121	0x3ea62099	0.32446745
122	0x3e60f187	0.21967135
123	0x3cada7f1	0.021198245
124	0x3bb7f11c	0.0056134593
125	0x3d867045	0.065643825
126	0x3d659a33	0.05605526
127	0x3df80c4f	0.12111723

latent.bias_hh_l0 f4 [128]
0	0x3cceae8b	0.025229713
1	0xbd70bb8c	-0.05877261
2	0x3d982c19	0.07430286
3	0x3db09518	0.086221874
4	0xbcde751f	-0.027155457
5	0x3ddb50c9	0.10708768
6	0x3d299748	0.04140404
7	0x3d70b7fb	0.058769207
8	0x3dfba758	0.12287778
9	0x3e128497	0.14308392
10	0xbc8139a3	-0.015774554
11	0xbc015b75	-0.00789534
12	0x3c8ea2be	0.017411586
13	0x3e6fe5a6	0.23427448
14	0xbbd8ef05	-0.00662029
15	0xbe13d167	-0.1443535
16	0xbce9d2b0	-0.028542846
17	0xbd5eff22	-0.054442532
18	0x3db82a06	0.0899239
19	0x3c7f0110	0.015564218
20	0x3e82f3ee	0.2557673
21	0x3e595d9d	0.21227117
22	0xbde2c5ba	-0.110728696
23	0x3e5103eb	0.20411651
24	0x3d401d9f	0.04690325
25	0x3e999aee	0.30001014
26	0x3e75dafa	0.24009314
27	0xbc2effa6	-0.0106810685
28	0x3e49292a	0.19644609
29	0x3eba891c	0.3643273
30	0x3c0fd408	0.0087785795
31	0x3e248f9a	0.16070405
32	0xbd89f3f4	-0.067359835
33	0x3dbf827c	0.0935106
34	0x3de9e46d	0.11420522
35	0x3dc505e9	0.09620268
36	0x3e4f4066	0.2023941
37	0xbe26382f	-0.1623237
38	0x3ce1e5fc	0.027575485
39	0x3e24e910	0.16104531
40	0xbd939153	-0.07205453
41	0xbd1ec564	-0.038762465
42	0xbd808234	-0.06274834
43	0xbdf85454	-0.12125459
44	0x3db6290b	0.08894547
45	0xbd5d474b	-0.05402307
46	0xbd85cbde	-0.06533025
47	0xbd8b9e66	-0.068173215
48	0xbd5624f1	-0.052281324
49	0x3da528d5	0.08064429
50	0xbe5c4b69	-0.21513142
51	0xbdcc41e0	-0.09973502
52	0x3da69e87	0.081357054
53	0xbbd7e714	-0.006588826
54	0x3e1a0a23	0.1504293
55	0xbcd79848	-0.02631773
56	0xbe2dbeaa	-0.16967264
57	0xbe2f99d5	-0.17148526
58	0x3dc10753	0.09425225
59	0x3d465805	0.048423786
60	0x3d191840	0.037376642
61	0x3e26358d	0.16231366
62	0xbdf003d0	-0.11719477
63	0xbd09fb2b	-0.033686798
64	0xbe07e890	-0.1327231
65	0xbd376126	-0.044770382
66	0xbd918b35	-0.0710663
67	0xbe2a8e1e	-0.16655776
68	0x3bcc243c	0.0062299054
69	0x3e17bab6	0.14817318
70	0xbe08634c	-0.13319129
71	0x3d9ce57a	0.07660957
72	0xbd305bea	-0.043056406
73	0x3d550a82	0.052011974
74	0xbd627cb8	-0.055294722
75	0xbd90b62e	-0.07065998
76	0x3d84b649	0.06480081
77	0xbe17bf24	-0.14819008
78	0x3de3dc56	0.1112601
79	0x3dbd9aba	0.092580274
80	0x3dadd8fb	0.08488651
81	0x3d882f8f	0.06649696
82	0x3dc39054	0.09549013
83	0x3cf42969	0.029804902
84	0xbcc98a80	-0.024602175
85	0x3dd3dc34	0.10344735
86	0x3d420636	0.047369204
87	0xbb7ec37f	-0.003887385
88	0xbd484620	-0.048895
89	0x3e08e624	0.13369042
90	0xbdca5739	-0.09879918
91	0xbe3a060c	-0.18166369
92	0x3d159746	0.03652122
93	0xbd4407e3	-0.047859084
94	0xbcfb8620	-0.030703604
95	0x3d4d9828	0.050193936
96	0x3dd906cb	0.10596999
97	0x3dbae5a3	0.09125831
98	0x3f01436e	0.50493515
99	0x3de95c1e	0.11394523
100	0x3e0841d9	0.13306369
101	0x3e4a692c	0.19766682
102	0x3dafcf08	0.0858441
103	0x3e63e64b	0.22255819
104	0x3e882624	0.265916
105	0x3de44463	0.11145856
106	0x3d8abcb8	0.067742765
107	0x3eb05ae8	0.34444356
108	0x3e65941f	0.22419785
109	0x3d417008	0.047225982
110	0x3d966779	0.073439546
111	0xbdd57199	-0.10422058
112	0x3d86844d	0.06568203
113	0xbc11d16f	-0.0089000305
114	0x3e1c13e9	0.1524197
115	0x3e075005	0.13214119
116	0xbc4a6d35	-0.012355139
117	0x3e7a222e	0.24427101
118	0x3e1572f9	0.1459464
119	0x3ecb1cdd	0.39670458
120	0x3dacd9d8	0.08439988
121	0x3e778352	0.24171188
122	0x3e817427	0.2528393
123	0xbcbc2aea	-0.022969682
124	0x3e51d416	0.2049106
125	0x3e7d5396	0.24738917
126	0x3e8acdd6	0.27110165
127	0x3e78f5c2	0.24312499
