saved_models/AD_autoencoder_ep9_loss1.6572.pth (torch, 257618 bytes, 14 tensors)

encoder.weight_ih_l0 f4 [256, 28]
000000 35 17 9c bc 4b 18 16 3b 30 56 fa b9 2c b3 34 ba
       -0.019054035 0.0022902663 -0.0004774793 -0.0006893154
000010 7b 59 12 3b 87 93 26 39 f9 1c d4 38 5b aa ae 39
       0.0022331167 0.00015885952 0.00010114344 0.0003331479
000020 1c a9 3c 39 e8 14 ab 37 e8 7a 77 b7 f4 c1 66 b9
       0.00017992075 2.0394524e-05 -1.4750964e-05 -0.00022006762
000030 a5 a4 0e bb 0c 28 24 bb c9 c5 86 3b 01 d0 97 b8
       -0.0021765616 -0.0025048284 0.0041129333 -7.238985e-05
000040 4c 61 09 39 44 09 eb 38 d0 53 9a 3c 48 f2 45 ba
       0.00013101584 0.00011207399 0.018838793 -0.00075510563
000050 d7 56 01 3c 48 bb 87 38 1e 2a b3 38 e9 4b 11 bc
       0.007894239 6.4721855e-05 8.54323e-05 -0.008868196
000060 d6 22 a1 3b f6 a3 03 3c 18 e1 1e b8 a3 93 97 37
       0.004917483 0.008034697 -3.787977e-05 1.8069351e-05
000070 d5 8d a3 bc 50 1c 92 bb 75 80 ce 3b a0 69 9b bd
       -0.019965092 -0.0044589415 0.0063019344 -0.07588506
000080 cc 9f 38 3c e8 fc fa b9 d7 01 9e bb ba 56 ad 3b
       0.011268567 -0.00047872146 -0.0048219967 0.0052898796
000090 db 6f 5d bb bd 84 07 bb d6 6a e0 ba a8 9d 90 bc
       -0.0033788595 -0.0020678483 -0.0017121683 -0.017653301
0000a0 0b 9c b6 ba 71 a5 55 bc 59 18 da 3b 3e 67 cc b9
       -0.0013932002 -0.013039933 0.0066557345 -0.00038986834
0000b0 9b 24 4c 39 3b e3 70 39 bb 42 82 3c 5d 07 ab bb
       0.00019468593 0.00022972834 0.01590096 -0.0052193836
0000c0 68 b9 38 3c 56 40 fe 3b 1a 3e 78 39 71 93 db bb
       0.011274673 0.0077591343 0.00023674258 -0.006700926
0000d0 8f c2 95 3e 58 d6 31 3c 8e 3c 66 bc 70 1d ba ba
       0.2925 0.010854326 -0.014052523 -0.0014199447
0000e0 b7 5f 4a 3a d0 d1 ca b7 fe 67 8e 38 75 8a 94 39
       0.0007719951 -2.4177978e-05 6.790458e-05 0.00028331918
0000f0 79 06 dd 38 c8 22 19 b9 26 01 35 b8 05 40 5b 39
       0.00010539307 -0.00014604174 -4.3154832e-05 0.00020909317
000100 38 a1 db 38 ef 56 25 38 f1 a3 5f 38 04 57 74 38
       0.00010472763 3.942003e-05 5.3320025e-05 5.8255173e-05
000110 29 24 84 b9 fc e2 c8 b8 a5 62 c0 39 0c fc 0b 39
       -0.00025203943 -9.579022e-05 0.0003669459 0.00013349968
000120 c7 9d 8e 36 f9 d4 98 38 64 f4 53 ba 91 de bb 38
       4.2502975e-06 7.287594e-05 -0.0008085428 8.958311e-05
000130 10 fc 05 b9 92 37 48 b5 24 9a a9 37 1e d3 06 ba
       -0.00012777769 -7.458667e-07 2.0218147e-05 -0.0005143153
000140 b6 60 77 ba cc e1 6f 3a a1 7b 62 b9 14 73 91 3c
       -0.00094367133 0.0009150773 -0.00021599095 0.017755069
000150 31 e6 10 3d 36 58 9e bb 2b df ee b9 5f f9 20 bb
       0.035375778 -0.004832293 -0.0004556117 -0.00245627
000160 61 57 ad 38 be 1b 15 39 fb 2b 2f 39 31 23 28 b8
       8.2655584e-05 0.00014220082 0.00016705685 -4.0087096e-05
000170 2a d3 16 b9 cb 26 33 b9 d6 29 52 39 00 bb bf b9
       -0.0001438378 -0.00017085222 0.00020042746 -0.00036569685
000180 30 f6 b4 ba 03 ae 26 3a b8 25 01 3b 51 f9 d8 39
       -0.001380628 0.0006358327 0.001970632 0.00041384486
000190 00 18 f6 b9 7a 5d 70 b9 46 38 10 bd 2b 1f 9a 39
       -0.00046938658 -0.00022923006 -0.035209917 0.0002939639
0001a0 fc cc 25 3b 42 66 21 38 d9 ec ac 38 df a4 cf bb
       0.0025299182 3.8480626e-05 8.2457154e-05 -0.006336793
0001b0 d3 89 8b 3a e0 32 c0 3b 7d 4d ad b9 c7 d1 ce ba
       0.0010645933 0.00586544 -0.00033054865 -0.0015779071
0001c0 0f 02 60 3c 8e b9 81 ba 71 3a d3 b7 52 76 c8 3a
       0.013672366 -0.0009897219 -2.5180374e-05 0.0015294051
0001d0 32 42 0a 3a 82 1d 6f 38 cd ae 4a b9 4c 34 fb b9
       0.0005274146 5.700952e-05 -0.0001932934 -0.00047913415
0001e0 46 a2 a8 b9 63 3d ec 39 d4 e0 13 38 b5 7a 90 b7
       -0.0003216436 0.00045059164 3.525692e-05 -1.7223278e-05
0001f0 59 3e 1c bb 6b 44 b9 ba 4d f8 94 3b 04 d7 fc b9
       -0.0023840873 -0.001413477 0.0045462013 -0.00048225385
000200 f1 9d 48 38 5c 4d a5 b9 a9 06 6b bc 1c 38 b0 3a
       4.783081e-05 -0.0003152889 -0.01434485 0.0013444456
000210 19 61 07 bc 74 24 be 38 97 51 05 b9 af f8 2b 3c
       -0.008262896 9.066696e-05 -0.00012714263 0.0104963025
000220 9e fb ab 38 d1 57 58 3c 42 bb e6 ba 53 d4 ad bd
       8.200783e-05 0.013204531 -0.0017603415 -0.08487763
000230 3d af 33 3a 25 99 07 39 68 8c 8a 38 70 9c 28 3a
       0.00068544206 0.00012931654 6.6065055e-05 0.00064320024
000240 f5 3d a9 b8 1c f2 76 37 fb 0a f8 37 34 4d 99 b7
       -8.0700884e-05 1.4719113e-05 2.9569017e-05 -1.8274972e-05
000250 12 3c 67 b7 59 25 f1 38 bc 30 cb b7 e8 cf f5 b6
       -1.3782659e-05 0.00011498732 -2.422218e-05 -7.3257725e-06
000260 ac 9c 6c 39 7f 9f d0 b8 2f 5f e1 b9 7d 14 94 b8
       0.00022565079 -9.947921e-05 -0.00042986262 -7.061006e-05
000270 ea 3a b4 38 4b 87 63 39 48 9d 32 ba 85 65 28 38
       8.5940424e-05 0.00021698808 -0.0006813598 4.014887e-05
000280 b8 3e fb b9 9f cf 81 b7 34 b6 3b b9 3f 4a 94 3a
       -0.0004792118 -1.547468e-05 -0.00017901586 0.0011313631
000290 0e 87 a4 39 10 47 8c ba f2 8b 7d b9 dd 61 d8 b8
       0.0003138114 -0.0010702331 -0.00024180094 -0.00010317911
0002a0 14 ca 43 3a 08 cb d6 39 18 f2 02 39 4f 02 f8 38
       0.00074687717 0.0004096853 0.00012487953 0.000118259915
0002b0 c4 92 a3 39 99 41 66 b8 96 03 c2 37 f2 3b 37 39
       0.00031199132 -5.4897366e-05 2.3128272e-05 0.00017474571
0002c0 53 ae 5a 37 e7 92 c4 b8 1b 5c 8a b8 2c f9 bd b7
       1.3034401e-05 -9.373371e-05 -6.597509e-05 -2.2646585e-05
0002d0 0b 30 ba b8 6e eb 7f b9 f7 61 a1 38 14 09 07 b9
       -8.87812e-05 -0.000244064 7.6953256e-05 -0.00012877985
0002e0 9a cc 8b b8 d9 29 69 38 a0 b3 60 ba 20 1d 69 39
       -6.6661465e-05 5.5590503e-05 -0.0008571688 0.00022231461
0002f0 32 7d 0c 39 0e 73 41 b7 55 84 ab b8 d3 2f 43 b6
       0.0001339808 -1.1530485e-05 -8.178564e-05 -2.9085102e-06
000300 a1 f3 d0 bb e8 3f b8 39 45 de 80 38 96 72 8f b9
       -0.006376699 0.0003514283 6.1449166e-05 -0.0002736046
000310 02 66 20 bd b1 3b d5 3b 90 fc fc ba d9 28 ff bb
       -0.039159782 0.00650736 -0.0019301344 -0.007786852
000320 71 67 f9 ba 4d bb fa b9 a1 a1 42 3b 93 ca 8a 3b
       -0.001902802 -0.00047823266 0.002969839 0.0042355745
000330 c5 7a 5f 3b 09 a6 be 3a 07 1b 6d ba 99 48 47 bc
       0.0034100276 0.0014545332 -0.000904486 -0.012163305
000340 33 ce c4 bb 1f ff 4c bb 26 97 8f 3c b6 72 5c ba
       -0.006006026 -0.0031279994 0.017528128 -0.0008409427
000350 d6 8c fa ba ed 35 fa ba a8 b8 1f 3d 49 21 2d bc
       -0.0019115459 -0.0019089557 0.03899446 -0.010567018
000360 de 90 ea 3d ff 5d b3 3b ae df cd b9 00 29 85 bd
       0.114534125 0.0054738517 -0.000392673 -0.06501961
000370 68 aa 25 3b 75 30 30 3d a3 b4 63 3b ae eb f5 3c
       0.0025278572 0.043014962 0.003474512 0.030019607
000380 bf d4 7e bc 35 7f 91 be 3c 8c 5f be aa 58 42 bf
       -0.015553652 -0.28417364 -0.21830839 -0.7591654
000390 55 e1 87 bd bc e4 f7 bd cc 19 79 3c f5 13 1b 3d
       -0.066347755 -0.121041745 0.015203904 0.03786083
0003a0 55 78 6e bd bb 47 65 3c 8b 41 7a bd ab 76 ef be
       -0.058220226 0.013994153 -0.061097663 -0.46770224
0003b0 ca 8f ef bc 0e d9 02 3e 34 a5 3b 3e 42 0e 7b bc
       -0.029243369 0.12778112 0.18324739 -0.015323224
0003c0 01 23 fc 3c 13 6a 4b bc 9d e8 82 bc c3 f1 4c bd
       0.03077841 -0.012415427 -0.01598006 -0.05003525
0003d0 ba d0 b8 3f 3d 2b a7 3f df aa 13 3f fc 53 8c 3e
       1.4438698 1.306007 0.57682604 0.27407825
0003e0 1b 79 37 3f 6a 28 b5 3e 79 77 35 3e 76 a8 ab 3f
       0.7166917 0.35382396 0.17721356 1.3410785
0003f0 7d 57 c0 bb 0b 73 b7 39 8e 68 16 ba b4 f6 a4 3b
       -0.0058698044 0.00034990194 -0.0005737626 0.005034292

encoder.weight_hh_l0 f4 [256, 64]
000000 69 d0 59 3d 9e 6a 67 bd ba b7 b7 3d 7c db e0 bd
       0.05317727 -0.056498162 0.0897059 -0.10979363
000010 b6 b1 2e bd ea bc b5 3d 6b 22 23 3d 75 0c 0f bc
       -0.042649947 0.08873923 0.039827745 -0.008730997
000020 2a 7c a9 3d 1e 77 06 3e 0c b6 c1 3d 6c 1e 26 be
       0.082756355 0.13131377 0.09458551 -0.16222543
000030 f5 98 17 bd e6 0f 14 be 9b b0 7e 3e 2c 62 53 bd
       -0.037011106 -0.1445919 0.24872057 -0.051607296
000040 88 ef 12 3e 32 3b 53 be 24 76 db ba ea c8 87 3d
       0.14349186 -0.2062805 -0.0016743583 0.06630118
000050 8f 6a 97 3d fc f0 ec 3c 18 8f 6f 3d 98 60 b3 bc
       0.07393371 0.028923504 0.058486074 -0.021896645
000060 1c 74 34 be ea c7 8a 3d 14 66 dd bd 05 f9 9e 3d
       -0.17622417 0.06776412 -0.108104855 0.077623405
000070 34 89 85 3d d1 17 63 3c 2c e3 6c 3d b4 fd 0b 3e
       0.0652031 0.013860659 0.057833835 0.13670999
000080 de 9d 9d 3d a0 ec 03 3e 41 d2 e2 bb 83 41 b7 3e
       0.076961264 0.12883234 -0.006922037 0.3579217
000090 37 cd 87 bc ab e2 91 bd ac af a4 bd 9d 15 81 3d
       -0.016577346 -0.071233116 -0.08041319 0.063029505
0000a0 a6 f5 44 bd dc 18 a1 3d a9 b5 5a bd f4 17 80 3d
       -0.04808583 0.0786607 -0.0533959 0.06254569
0000b0 bd b6 e1 3d e2 0f 92 3d b3 cd 0f 3d 92 76 c5 3d
       0.11021183 0.07131936 0.03510828 0.09641756
0000c0 a4 52 76 3d d1 ba bd bd 6e 30 a0 3c 9b f0 35 bd
       0.060137406 -0.09264148 0.019554343 -0.044418912
0000d0 66 a4 03 bd 65 33 00 be 2a 20 b2 bd 40 e7 b7 bd
       -0.032139204 -0.12519605 -0.08697541 -0.08979654
0000e0 3b 82 8b 3d 0f 3e 87 3d 1c 25 49 bd f4 c3 1d 3d
       0.06811949 0.066036336 -0.049107656 0.038516954
0000f0 f7 56 0b 3d 61 6b a7 bd 98 7d bc 3c d2 d2 dd bd
       0.034018483 -0.08174778 0.023009107 -0.108312264
000100 34 0a e0 be 2d d2 af 3f 76 7b 3d 3e 4d d8 88 3e
       -0.43757784 1.3736016 0.18504128 0.26727524
000110 c6 7b cc 3b 96 70 70 bf 9f cb 13 40 d4 df 91 3d
       0.006240341 -0.9392179 2.309303 0.0712277
000120 20 b4 f1 3d 0c b0 4e 3f 4a 8b 25 3f 8d f9 56 be
       0.11801934 0.80737376 0.64665663 -0.20993634
000130 8d 11 90 3e 3b 67 2a be 07 37 db bb 5c 00 67 3e
       0.2813839 -0.16640942 -0.0066899094 0.22558731
000140 c8 dc 5c be 95 eb 4e be e3 0c 76 3f be 62 d6 3d
       -0.21568596 -0.20207055 0.96113414 0.10468052
000150 cd ce e2 bd d3 a0 5f bf e2 65 23 40 20 79 8c bd
       -0.110746 -0.87354773 2.5530934 -0.0685904
000160 7b 34 3f be 6e 45 a1 bf a3 5f b7 3e 19 ad 2a bf
       -0.18672363 -1.2599313 0.35815153 -0.66670376
000170 8c 1f 1c 3e 88 79 dc 3f 01 ab 7a 3e d5 79 07 3d
       0.15246409 1.7224588 0.24479295 0.033075172
000180 68 1c 06 be fa 9a 2c be 7c de 12 3b 16 0a d1 bd
       -0.13096774 -0.16855994 0.0022410443 -0.10207002
000190 a2 c8 7f bd 15 84 c7 bc 2b e2 c3 bd 72 f8 35 bd
       -0.062447198 -0.024354974 -0.095646225 -0.04442639
0001a0 1e dd a1 3f 71 7c da 3d 15 6f 37 be 00 53 b0 bf
       1.2645605 0.106682666 -0.17913468 -1.377533
0001b0 e0 c4 95 be df 42 e5 3f 00 63 e3 3f cf c9 d8 3e
       -0.29251766 1.7911032 1.7764587 0.42341468
0001c0 f8 0d 0e 3e d6 5f 4b bd 12 66 80 bf e9 13 d1 3e
       0.13872516 -0.049651943 -1.0031149 0.40835503
0001d0 ea 2d 10 c0 48 cd 80 bf 7f bd d2 3e 28 10 c3 bc
       -2.2528024 -1.0062647 0.411602 -0.023811415
0001e0 f4 8f c3 3c 73 7f bf bf 45 61 95 be 12 d0 2b 3d
       0.023872353 -1.496077 -0.29175773 0.04194648
0001f0 b6 0d 2b 3e 3e bc 44 be 2f b7 43 3e f1 9c ae 3c
       0.16704449 -0.19212434 0.19112848 0.02131507
000200 da ee d6 3d 6f d1 3e 3d a0 cc 2b 3d 02 68 ab 3c
       0.10494776 0.04658645 0.041943192 0.020923618
000210 10 84 9c 3d 2d 7e 1f bd 1e 61 5e 3e 98 05 9e 3c
       0.076423764 -0.03893869 0.21716735 0.019289777
000220 d1 4b e2 bc 8d f5 08 3d 4e bb bc bd cf d7 25 3b
       -0.027624043 0.0334373 -0.09215413 0.0025305634
000230 b2 7c 8a bd 22 8b 8e 3d d9 b9 06 be 04 e3 c4 3c
       -0.06762065 0.06960131 -0.13156833 0.02403403
000240 09 b3 c5 3d 33 23 b3 3c df 7a 0e 3e 82 e7 36 3c
       0.09653289 0.02186737 0.13914059 0.011163594
000250 ab 71 90 3d c3 8c 17 bd 42 60 dd b9 84 40 30 bd
       0.070529304 -0.036999475 -0.00042224122 -0.043030277
000260 71 d8 42 be 4e e4 7c 3b 3c 59 05 3e ec 3c 0a be
       -0.19027878 0.0038588229 0.13022321 -0.13499802
000270 c3 bc e7 bd 37 09 50 bd 7d 79 8f 3b 3c 4a ba bc
       -0.113153 -0.050790038 0.004378496 -0.022740476
000280 5b a6 63 3d 5c 9e 32 3d be 7e 53 3d ba 07 c0 3d
       0.05557857 0.043608055 0.051634543 0.09376474
000290 43 ea d2 bd 3a 1d c9 3d 9f 4f a4 3c 27 14 8e 3d
       -0.10298588 0.09820028 0.020057498 0.069374375
0002a0 d0 a6 ae 3e fa e5 03 be 77 e5 88 bd a1 6e 26 bd
       0.34111643 -0.12880698 -0.06684392 -0.040632848
0002b0 8e 07 98 3e 2b 90 48 3d 30 e3 42 3d 51 da 8a bc
       0.29693264 0.048965614 0.047579944 -0.016949804
0002c0 60 70 9c 3b 8a 7e 83 bd c4 7d 9b bd b2 74 ac 3d
       0.0047741383 -0.0642062 -0.07592347 0.08420695
0002d0 96 9d 28 bd ec c7 da 3d c1 88 39 3c 45 04 8b 3c
       -0.04116591 0.10682663 0.011324109 0.01696981
0002e0 44 8a 88 3d 07 6e 27 be d4 82 b2 3a 0d 0f 11 bd
       0.06666997 -0.16350566 0.0013619312 -0.035414744
0002f0 c9 2e 27 be d9 ac ed 3e 84 e8 d6 bd a1 8a fa 3c
       -0.16326441 0.46420935 -0.104935676 0.030583682
000300 f9 97 31 bc b4 90 8e bc bf ce 06 bd b6 cc fa 3b
       -0.010839456 -0.017402984 -0.032912012 0.007653798
000310 70 c9 b3 3c 63 7c a0 3e 29 76 84 3d b7 b4 2f be
       0.021946639 0.313449 0.0646785 -0.17158781
000320 54 d4 05 bd 89 24 9d bd 50 03 1f bc 16 37 2a bd
       -0.032673195 -0.07672984 -0.00970538 -0.04155644
000330 91 d1 2b 3e 12 52 a1 bd db 57 bb bc 86 1b 5f 3d
       0.16779162 -0.07876982 -0.022869041 0.054469608
000340 2b 9d f1 3d ba 0d 83 bb 26 57 53 bd ce 0a 31 3e
       0.117975555 -0.003999439 -0.051596783 0.17289278
000350 18 25 cf bd db 1a aa 3e 30 94 2e bb 75 d8 65 3c
       -0.10114497 0.33223614 -0.002663862 0.014028658
000360 33 0a 75 3e 97 b6 45 3d 5b 13 62 3d 46 5b 97 3e
       0.23929672 0.048269834 0.05519424 0.29561824
000370 35 17 c4 3c 01 c8 30 3d 36 ba c6 3c 6d 77 07 3e
       0.023936847 0.04315949 0.024258714 0.13229151
000380 e1 84 e9 3c cb ce 64 bd d4 6a de bd 4e 8f d8 bd
       0.028505744 -0.055861276 -0.108602196 -0.10574208
000390 cf 6f 32 be d3 da 1a 3d f6 05 78 3d 0c 50 a7 bd
       -0.17425464 0.037806343 0.06055256 -0.081695646
0003a0 e6 b9 80 3e 50 ac fc bd 0f c4 81 bc cc 37 58 bd
       0.2514183 -0.123375535 -0.015840558 -0.052787587
0003b0 2c 29 01 3f 1b e3 4f bf e6 9b 4b ba 23 89 a4 3d
       0.5045345 -0.8120591 -0.0007767066 0.08033969
0003c0 7f a8 9e 3b f4 5f 01 3d 1d 70 3c 3d 40 a1 01 3e
       0.0048418636 0.03158565 0.046005357 0.12659168
0003d0 b6 e0 48 be 86 cc d8 bc 67 52 c6 bd d6 cb 31 39
       -0.1961697 -0.026464712 -0.09683686 0.0001695597
0003e0 b9 9b 30 3d 0a a5 f1 3c c6 88 81 3c bf e7 ac bd
       0.04311726 0.029497642 0.015812289 -0.084426396
0003f0 df 43 b5 3d 4f 35 99 bd de 1c 07 be 61 22 2d 3d
       0.08850836 -0.07480871 -0.13194606 0.042269114

encoder.bias_ih_l0 f4 [256]
000000 24 16 1a 3d 94 0f 45 3e 25 5d 78 ba cd 80 43 3d
       0.03761877 0.19244224 -0.0009474329 0.047730256
000010 1b 2c d2 3d 4d 23 98 bd 1e e9 2f bc 23 f6 f3 bc
       0.10262319 -0.07428608 -0.010736732 -0.029780453
000020 c0 b4 a2 3f 65 72 a4 3d 7d 94 8a bd 68 2a af 3f
       1.271141 0.080296315 -0.06766603 1.3684816
000030 fb f3 65 bd 0d c9 8b 3f a3 ba 05 be af 2e 07 be
       -0.05614088 1.0920731 -0.13059478 -0.13201402
000040 5c 70 04 3d f7 09 18 3f 3c 51 12 be af e3 9a bd
       0.032333717 0.59390205 -0.14288801 -0.075629584
000050 17 9d 95 bd ea fb d9 bd d2 ce 87 3f 18 77 ee bd
       -0.07305353 -0.10643752 1.0609992 -0.11643809
000060 00 a9 fe bc f5 9a 7b 3f 67 89 5b bd f1 20 00 3e
       -0.031086445 0.9828332 -0.053597834 0.12512566
000070 34 6c 83 bd fd db 27 3d 81 99 23 3e 91 2b a6 3f
       -0.064171225 0.04098128 0.15976526 1.2982045
000080 df 2d 0b be de 9d dd 3c d3 81 a1 bd 40 8b cb bd
       -0.13591717 0.027052816 -0.0788609 -0.09938669
000090 1b 3c af 3d 6c fc a1 3f ba ff 18 be 90 bf 98 3e
       0.08556386 1.2655158 -0.14941302 0.2983365
0000a0 5b c1 c1 3d a9 f2 8b bd 23 69 b3 3c 8b 54 6a 3d
       0.09460708 -0.06833393 0.021900719 0.057209533
0000b0 66 74 c2 3e 98 a4 63 3d 8a 2d 89 3e f6 0d 84 bd
       0.3797943 0.05557689 0.26792556 -0.06447975
0000c0 75 52 4d be 57 23 01 3f c0 e5 8f 3d 41 9c 96 3e
       -0.20050986 0.5044455 0.07026243 0.29416087
0000d0 56 01 ca bd d3 fa 45 3f 39 ea 12 be e9 21 55 be
       -0.09863536 0.7733585 -0.14347161 -0.20813717
0000e0 c3 b3 ae 3c d7 e5 00 3f 81 91 04 3f 99 ed 80 3d
       0.021325951 0.5035071 0.5178452 0.06295318
0000f0 f1 e6 88 3e 93 96 a4 bc d0 72 ff 3d 66 1a 13 bd
       0.26738694 -0.02009133 0.124730706 -0.035913847
000100 b0 74 aa bd db c7 28 be 01 45 89 bd 4f 92 e9 3d
       -0.083230376 -0.16482489 -0.067026146 0.11404859
000110 bf a0 f4 3d 23 fe 8e bd 98 d3 52 bd 76 16 da 3d
       0.119447224 -0.069820665 -0.051471323 0.10648815
000120 aa cd ae 3d 9e 23 ad 3d 56 3b 2c 3d 0a b7 10 3d
       0.08535321 0.08454059 0.042048775 0.03533081
000130 d6 80 97 3e a0 7c 03 3f f8 3d 1a bd dd 52 17 3d
       0.29590482 0.5136204 -0.037656754 0.03694426
000140 ac f3 1d 3d da 6f 40 bc 18 57 94 3d 11 60 b4 bd
       0.03856246 -0.0117454175 0.07243174 -0.08807386
000150 e4 aa 5c 3c 11 53 fe 3d f4 50 39 3e 99 a9 16 bd
       0.013468478 0.124181874 0.18097287 -0.036782835
000160 34 4f d7 3d 20 0c be 3d cc f9 ea bc 57 91 88 3d
       0.10513154 0.092796564 -0.028683566 0.066683464
000170 59 ef d1 3d 1d c5 bb 3c 15 c2 a2 bd f9 1d 21 be
       0.1025073 0.02292114 -0.079471745 -0.1573409
000180 26 eb 51 3d fc 1a 07 be 52 56 ff 3d c6 51 0c 3d
       0.051249646 -0.13193887 0.12467636 0.034257673
000190 be 80 5b 3c 58 2e 32 3d 55 40 1d 3d 7e 61 b4 3d
       0.013397394 0.043501228 0.03839143 0.08807658
0001a0 6a cd 87 bd 20 7c 92 3d 00 29 f8 bd 90 89 13 3b
       -0.066309765 0.07152581 -0.12117195 0.0022512414
0001b0 c0 bb 93 bd d3 19 a5 3d a3 17 9b ba 4e 23 be 3d
       -0.07213545 0.08061566 -0.0011832606 0.092840776
0001c0 17 ec 87 bd 00 8c d8 3c 09 41 d0 bc 4c 63 41 3c
       -0.066368274 0.026433945 -0.025421636 0.011803459
0001d0 ac 1d 8f bd f2 b0 86 bc 44 de 37 bc 06 e0 9f 3d
       -0.06988081 -0.016441796 -0.011222426 0.07806401
0001e0 4f 57 bf bd 8e 1e 0e 3d 1c 4f 5a 3d 30 c0 06 3e
       -0.09342825 0.034697108 0.0532981 0.13159251
0001f0 a3 88 69 3d ce 2e c9 3d 2d bf 13 3c cb a7 5d bc
       0.057015073 0.098233804 0.009017748 -0.0135287745
000200 5b 5c fe 3e 33 0d 8d 3d c7 9b 6e 3f 0c 66 64 bf
       0.49679837 0.06887283 0.9320645 -0.8921821
000210 b1 bd 04 be 37 c2 c3 bd fb 88 fe 3d b2 c3 1b bf
       -0.12962987 -0.09558528 0.12428471 -0.6084548
000220 58 c9 2c 3f b6 ed 1d 3e 40 75 1c 3f 28 17 14 bf
       0.67494726 0.15422711 0.6111641 -0.57847834
000230 31 6b a9 bd 14 1f 3b bf 53 bc 67 be 6c 9f b2 bc
       -0.08272398 -0.73094296 -0.22630434 -0.021804534
000240 4d 3f d6 bd ab 43 50 bf 88 00 14 3b f0 4e 12 bd
       -0.104612924 -0.81353253 0.0022583324 -0.035719812
000250 28 41 61 bf a7 f1 0c 3e 01 b8 3a bd a7 b7 fa 3d
       -0.87990046 0.13764058 -0.045585636 0.1224206
000260 e7 27 de 3d 21 b3 66 be 61 48 76 be 35 e3 a6 bd
       0.108474545 -0.2252927 -0.24051048 -0.08148805
000270 a9 df 2f 3e d3 ab 13 3f fd b7 bc bd 12 69 0d 3f
       0.17175163 0.5768406 -0.092147805 0.5523845
000280 fe 30 b0 3e 95 59 63 3d 87 4f 07 be 0a 94 30 bd
       0.34412378 0.055505354 -0.13213931 -0.04310993
000290 34 3b 85 bd 20 23 37 bf 4c 82 5a bf c8 9b ed be
       -0.06505433 -0.7153797 -0.8535507 -0.46407914
0002a0 44 ec ac 3c 60 e3 08 be e5 43 95 bd 2c 75 f3 bc
       0.021108754 -0.13367987 -0.072883405 -0.029718958
0002b0 83 b9 48 bd 6b 93 b2 3c 32 72 21 3e 6b d7 9c bd
       -0.049005043 0.02179881 0.15766218 -0.07658275
0002c0 01 e6 e8 3e 76 c3 14 bf d4 dd 61 bd cb 01 0c 3f
       0.4548798 -0.5811075 -0.055143192 0.54690236
0002d0 1b cd 46 bd 48 29 9a be 44 b4 ae 3d 52 a9 88 3c
       -0.048535448 -0.3010962 0.08530477 0.0166823
0002e0 ab 83 06 3e 3f 72 86 be 44 3a 77 be ad 05 a9 be
       0.13136165 -0.26259038 -0.2414332 -0.33012143
0002f0 40 a5 08 3f de 57 26 3d f1 70 27 3e 03 c0 e7 3d
       0.5337715 0.04061114 0.16351677 0.1131592
000300 45 95 15 3f c2 6e 21 3c 2f 96 04 3f 49 6b e5 3e
       0.5843089 0.009853067 0.5179166 0.44808415
000310 f9 55 07 3d e8 5f a0 3e 74 84 2d 3f 31 fe 53 be
       0.033040974 0.3132317 0.6778023 -0.20702435
000320 06 11 aa 3f 79 c8 7a bb da e3 7a 3d ca e9 a2 3f
       1.3286445 -0.0038266464 0.061252452 1.2727597
000330 1b 96 71 3d 0a 01 93 3f 37 66 84 bd 7b 58 21 3e
       0.058981042 1.1484692 -0.064648084 0.15756409
000340 69 00 9a 3d 72 59 47 3f 21 66 9e bd 50 05 ce bd
       0.075196095 0.7787086 -0.07734323 -0.10059607
000350 98 00 27 3f 83 75 e4 3d 8c 4f 24 3e 1d 1f 2f 3e
       0.6523528 0.11155226 0.1604597 0.17101713
000360 b1 1c ce 3d 1b a1 1c 3f fe f5 2c bc 9b e5 a4 3e
       0.10064066 0.6118333 -0.010556696 0.32206425
000370 ce dc d4 3b 90 99 ad 3d 1e 0b 79 3e 5d a3 af 3f
       0.0064960485 0.08476555 0.24320647 1.372173
000380 5b 4f 93 3f 29 31 d4 3a 67 39 38 3c 21 87 a9 3a
       1.1508592 0.0016188967 0.011244155 0.0012933948
000390 d1 96 1f 3e 7a f4 85 3f 0d 32 86 3d 5f 30 9e 3e
       0.15584876 1.0465233 0.06552515 0.3089628
0003a0 65 84 08 3e 2f bd ca bd 81 d4 88 3f 16 70 a5 3d
       0.13331755 -0.09899365 1.0689851 0.08078019
0003b0 8b cd 34 3e 79 2c bd 3e 40 17 eb 3d 5d 98 51 3d
       0.17656533 0.36947992 0.11479044 0.051170696
0003c0 01 ea 92 3e e3 e5 b6 3f 30 d2 7d 3e e1 b7 76 3d
       0.28694156 1.4288906 0.24787211 0.060233954
0003d0 ef 3d 86 3d e0 a1 9c 3c 81 a1 ee 3d eb 58 65 3c
       0.06554782 0.019120157 0.11651898 0.0139982505
0003e0 50 7b f2 bc 59 87 a0 bc e6 d3 00 3f 38 b3 7f 3d
       -0.029599816 -0.019595789 0.5032333 0.062426776
0003f0 a7 69 03 3e 2e 0b d2 3d 7c 60 75 3e 17 29 1d 3e
       0.12833272 0.102560386 0.23962587 0.15347706

encoder.bias_hh_l0 f4 [256]
000000 45 d2 6b 3d 91 8c 49 3e e0 3d 95 bd 4b 89 fa 3d
       0.057573576 0.19682528 -0.07287192 0.12233218
000010 47 bc 5e bd 65 4b ab bd 69 db a4 3d 29 cb d7 bd
       -0.054378774 -0.0836399 0.08049662 -0.105367966
000020 0f ee ac 3f 67 ca 99 3d a7 9f 14 bd 23 56 9d 3f
       1.351015 0.07509308 -0.03628507 1.2291912
000030 b4 d3 6d be 64 3b a2 3f ba bb 9a bd ef f0 88 bd
       -0.2322529 1.2674375 -0.07555337 -0.066865794
000040 22 1d c5 bd a1 e6 20 3f 14 f7 56 3c fe 06 23 3d
       -0.09624697 0.6285191 0.013120431 0.03980159
000050 3c 5c e1 3c 0a 11 3b be 9e b3 84 3f 97 07 59 3d
       0.027509801 -0.18268219 1.0367315 0.052985754
000060 34 da 1a be 93 a3 95 3f 97 21 8c bc 3d aa 07 b8
       -0.151223 1.1690544 -0.01710586 -3.2345055e-05
000070 e3 65 8b bc 03 e2 6a 3d 29 07 35 3e fb 9d c1 3f
       -0.017016357 0.057344448 0.17678513 1.5126337
000080 4f 67 cd 3c ed 1b f3 3c 77 68 7f bd dc ec ba 3d
       0.025073675 0.029676402 -0.062355485 0.091272086
000090 db b4 b4 bd 1b 35 ae 3f 35 ad 93 bd d6 27 9f 3e
       -0.08823558 1.3609957 -0.07210771 0.3108508
0000a0 4f 63 a6 3d 20 5d 0f 3d 40 c7 a7 bd 9e e9 e9 3d
       0.0812441 0.03500092 -0.08192301 0.11421512
0000b0 84 43 a6 3e 58 8d b0 3d c4 f0 5a 3d e6 70 34 bd
       0.32473385 0.08620709 0.05345227 -0.04405298
0000c0 11 50 dd bd e0 4b 17 3f a6 0c 86 3d e9 62 53 3d
       -0.10806287 0.5910015 0.06545381 0.051608
0000d0 b1 80 74 3c d2 4f 33 3f 58 54 86 bd c6 e9 68 bd
       0.014923261 0.7004367 -0.06559056 -0.05686357
0000e0 23 89 a2 3c 02 f5 ef 3e fd 5a ad 3e ea 62 c4 bd
       0.019840783 0.46866614 0.3385848 -0.09589179
0000f0 4a d1 a9 3e d1 67 d3 3d 5a 0f 15 3e ba 2f 97 3d
       0.33167487 0.10322536 0.14556637 0.0738215
000100 f0 a6 96 3c 5c 39 76 bd 0a 7e f1 3b 74 34 68 3d
       0.018390149 -0.060113296 0.0073697614 0.05669065
000110 36 d5 75 bd 10 c3 86 bd fb 73 a4 bd 6e df 7f 3d
       -0.060017787 -0.06580174 -0.08029934 0.06246894
000120 29 97 06 3e 24 85 eb bd 04 1b 3c 3c ad 2a 29 3e
       0.131436 -0.11500004 0.01148105 0.16520186
000130 f9 1a 7d 3e 39 99 d6 3e d6 07 05 be db e0 4b bd
       0.2471732 0.41913775 -0.1299127 -0.049774986
000140 16 ce ff bd a1 c0 46 bd d2 bf b3 bc 98 43 9c bd
       -0.1249048 -0.04852355 -0.021942053 -0.0763008
000150 f1 9b 9b bd d9 61 38 3e a0 89 10 bb a2 e5 1d 3d
       -0.07598103 0.18006076 -0.0022054687 0.038549073
000160 f9 6a 60 3e 5e ad 82 3d 6e d6 ab 3d 50 34 3a bc
       0.21915807 0.063807234 0.083905086 -0.011365011
000170 f5 f1 9e 3d 29 fe 40 3e e2 39 6e 3b 4c 6e 1e bb
       0.077609934 0.18846954 0.0036350419 -0.0024174629
000180 a5 57 25 bd b5 96 3a bd d1 1b 32 bd b4 e4 04 bd
       -0.040366787 -0.04555388 -0.04348356 -0.03244467
000190 00 6e 88 3b 03 18 da 3c a1 33 de 3c f6 d4 3b bd
       0.0041635036 0.026622778 0.027124228 -0.045857392
0001a0 fc 6d d0 bd 40 66 fd bd 03 ae 92 3b 40 93 17 be
       -0.10177228 -0.12373018 0.00447631 -0.14802265
0001b0 24 13 3b 3d 6c 29 55 3d 16 40 eb 3d 7d 4f c6 3d
       0.04567255 0.052041456 0.11486833 0.0968313
0001c0 e8 b9 6b bd a2 b3 a8 3d 5d 04 b9 bc ed 70 f4 bc
       -0.05755034 0.08237387 -0.022585088 -0.029839003
0001d0 37 c9 db bd 19 d4 3e 3d 83 da fa bd b8 1a fe 3d
       -0.10731738 0.04658899 -0.12248709 0.1240744
0001e0 5a d0 da 3d 77 3d d6 3d b5 64 39 be b4 2f d4 3d
       0.10684271 0.10460942 -0.18104823 0.10360661
0001f0 b7 e6 bc bb 8d f8 22 3e c5 7b a9 3d e7 38 14 3e
       -0.005764808 0.15915127 0.0827556 0.14474832
000200 99 a5 d3 3e ef de 07 3e af 11 4d 3f ed 86 60 bf
       0.41337278 0.13268636 0.8010511 -0.8770588
000210 23 49 3d bd c5 cf ba bc 66 58 ac 3d 09 69 17 bf
       -0.046212327 -0.02280415 0.08415298 -0.59144646
000220 ae 39 2b 3f 65 ab 01 3e 16 48 4d 3f 1c 5b 39 bf
       0.6688489 0.12663038 0.8018812 -0.72404647
000230 73 2c 29 bd a5 18 20 bf da b6 1d bc 00 6d 17 be
       -0.041302156 -0.62537605 -0.009626115 -0.14787674
000240 ac 85 d5 3d 34 00 84 bf f2 bc d8 bb 65 0c e5 bd
       0.104258865 -1.0312562 -0.006614321 -0.11184005
000250 c0 41 51 bf 37 d8 92 bd ee dc ab bd 3c 84 87 3d
       -0.8174095 -0.07170146 -0.08391748 0.066170186
000260 91 44 9f bd ed f6 20 be 62 29 13 be ed 8c b5 3d
       -0.0777675 -0.15719195 -0.14371255 0.0886477
000270 fb 45 2d 3d 09 31 19 3f d5 b4 04 be 04 bc 15 3f
       0.042303067 0.59840447 -0.12959607 0.58490014
000280 ba ac 38 3e 42 6c f3 3d c3 79 b4 bd ad e3 76 be
       0.1803464 0.11885883 -0.08812287 -0.24110289
000290 e4 f8 11 be b0 d1 39 bf cf 7c 5b bf 58 1c ae be
       -0.142551 -0.7258558 -0.8573732 -0.34006
0002a0 41 40 94 3c ff 9a 4f bd 70 1c f1 bd a2 a1 cb bd
       0.018097045 -0.050684925 -0.11773002 -0.099429384
0002b0 fd b5 85 bd b1 0e 9e 3c 8d e2 9b 3d c2 f8 62 3d
       -0.06528852 0.019294115 0.076115705 0.055413015
0002c0 50 30 dd 3e f0 6b 19 bf a5 95 03 be e9 49 20 3f
       0.43200922 -0.59930325 -0.12850054 0.6261278
0002d0 ee 93 47 bd 56 ea 2d be 36 31 2a bd 18 4c 4b be
       -0.04872506 -0.16983923 -0.041550837 -0.19853246
0002e0 e8 04 87 3d ab f5 34 be 74 63 38 be 84 04 3a be
       0.06592733 -0.1767184 -0.18006688 -0.18165785
0002f0 86 34 2d 3f a7 0a 1d 3d 0b 2d f9 3d e9 95 e7 3d
       0.6765827 0.038340237 0.121667944 0.1130789
000300 50 99 18 3f 0e df 82 3d 2a ad 12 3f 0e f4 a8 3e
       0.59608936 0.063902006 0.5729548 0.329987
000310 af e0 8d 3e 9e 95 b9 3d 1a 9f 38 3f 17 0a bf bd
       0.27710482 0.0906174 0.7211777 -0.09328096
000320 9f 73 90 3f a2 7e 78 3d e3 49 04 bd 2d df a1 3f
       1.1285285 0.06066764 -0.032297026 1.2646233
000330 27 06 60 3e 16 46 9c 3f 87 e4 3a bd ba d1 be 3d
       0.21877347 1.2208889 -0.045628097 0.09317346
000340 3e 7a ef bc d5 dc 50 3f cc f2 2a bd 64 14 93 bd
       -0.029233094 0.8158696 -0.041735455 -0.071816236
000350 39 51 13 3f 02 03 0d 3d 52 dd 57 3e 6e f0 ab 3d
       0.5754581 0.034426697 0.21080521 0.08395468
000360 bf c9 f3 3c a1 29 c5 3e b8 eb 84 3d 73 94 b2 3e
       0.029759286 0.38508323 0.06490272 0.34878883
000370 1e f6 d5 bd 7e ad a7 bd 8d 99 20 3e 49 98 97 3f
       -0.10447334 -0.08187388 0.15683575 1.1843349
000380 3e 3e 8e 3f 3e 92 fd 3d 6c 90 78 bd f7 13 a7 bc
       1.1112745 0.12381409 -0.060684606 -0.020395262
000390 db 5f 9e 3e a5 e2 9a 3f 08 82 14 bd 46 15 ab 3e
       0.30932507 1.2100416 -0.03625682 0.33414668
0003a0 0a 77 b6 bd 6b 7c b1 bd 09 6b 86 3f 14 09 2f 3e
       -0.08909424 -0.08666309 1.0501415 0.17093307
0003b0 8d e8 2c bc 71 10 56 3e a8 5b 95 3d 8a 32 b1 3c
       -0.010553491 0.2090471 0.07292873 0.021630544
0003c0 b7 d9 00 3f a4 0a b2 3f 68 91 8b 3e 19 cb cd 3d
       0.50332206 1.3909497 0.27259374 0.100485034
0003d0 01 94 2c bd dd 97 f9 bc f9 73 e3 3d 34 83 13 3e
       -0.042133335 -0.030467922 0.111061044 0.14405519
0003e0 04 e8 c4 bc bc 0a 9b 3d c4 6f a9 3e 60 4b 3b be
       -0.024036415 0.07570407 0.33093083 -0.18290472
0003f0 67 91 18 3e 5c cd 40 3e cc ab 67 3e 6c 71 12 3e
       0.14899217 0.18828338 0.22624129 0.1430108

latent.weight_ih_l0 f4 [128, 64]
000000 bc 5a 1d be 8a a2 e0 bd b8 ad 0e 3e 41 6e 66 be
       -0.15366644 -0.10968502 0.13933456 -0.22502996
000010 a6 ce 6e 3c 65 45 1f 3e 24 ec 6a be 26 1a 66 be
       0.014575636 0.15553816 -0.22941643 -0.22470912
000020 d8 69 84 3e 5e b6 f9 3c db 49 62 3e 26 18 aa be
       0.25862002 0.030482467 0.22098486 -0.3322155
000030 93 dc 81 3e f6 16 a6 be 1c fe 8e 3d 66 07 af bd
       0.25363597 -0.32439393 0.06982061 -0.08546333
000040 86 ec 33 be 25 5f f4 bc bf c8 89 3e 50 a2 c3 3d
       -0.17570695 -0.029830525 0.2691097 0.09552443
000050 9b 93 ee 3c a0 7d 9e 3e e7 b6 81 3c 14 c5 80 3e
       0.029123118 0.3095522 0.015834285 0.2515036
000060 34 12 d8 3e c5 09 9d 3c 59 a4 91 bd 3e 56 fe 3d
       0.42201388 0.019169698 -0.07111425 0.12418793
000070 0f 71 15 3e c0 bb 70 3e 74 9f 99 3e 52 8c 04 3e
       0.1459391 0.23509121 0.30004466 0.12944153
000080 a9 c6 02 bd fe 3a 2d bd cb 0d 4c be a5 25 5a be
       -0.03192774 -0.042292587 -0.19927137 -0.21303423
000090 d0 af 44 be 9b bd 39 be 92 f8 76 bc f8 60 67 be
       -0.19207692 -0.18138735 -0.015073912 -0.22595584
0000a0 a0 d7 8a 3e e9 e1 0a bf ff b5 bc bd 52 e2 90 bd
       0.27117634 -0.5425096 -0.092144005 -0.07074417
0000b0 f1 02 04 bf 2f 0e ad be 5c 30 3f be 3e 10 ac 3d
       -0.5156699 -0.33799884 -0.18670791 0.084015355
0000c0 29 8d d5 3c 10 2e 77 be 10 37 d2 bd b3 56 85 3e
       0.026068287 -0.24138665 -0.102644086 0.2604271
0000d0 50 4a 96 be 92 4f 6e be 14 24 5b be 53 06 53 3d
       -0.2935357 -0.23272541 -0.21400481 0.051519703
0000e0 93 c1 8a 3e 53 96 5c be 5c d6 52 be 8e 44 c1 ba
       0.2710081 -0.21541719 -0.20589584 -0.0014745162
0000f0 8b b4 82 3d b1 1b ae be 58 aa a0 be 49 b1 e6 3e
       0.06382092 -0.34005502 -0.31379962 0.45057133
000100 95 4c 68 bd a1 a2 6f 3d 89 58 b2 3e b4 d2 1a 3d
       -0.05671366 0.058504704 0.34833172 0.0377986
000110 40 01 93 be a5 1b 0b bf 12 0b d0 bd 9a de 89 be
       -0.2871189 -0.5433906 -0.101583615 -0.26927644
000120 c0 40 81 3e 6e 70 35 3d 9d b0 d0 3d 2a aa 61 be
       0.25244713 0.044296674 0.10189936 -0.22037569
000130 ac 59 01 3e 8a b8 35 be e9 03 c5 bb ca 6f 81 be
       0.12631863 -0.17746177 -0.006012429 -0.252806
000140 bb e6 23 be 8f 11 f1 bd 10 f1 a3 3e c9 87 54 3e
       -0.16005985 -0.11770927 0.32019854 0.20754923
000150 d5 3b f3 bd 9f 8f b6 3e bc d7 de 3b 73 b0 88 3e
       -0.118766464 0.3565645 0.00680062 0.2669712
000160 d9 11 99 3e e1 ed 96 bd 1f 28 dc 3d e7 9d 20 bf
       0.2989643 -0.073695906 0.1074984 -0.6274094
000170 32 f7 30 bd b3 62 52 3d 50 a0 8a 3e 8c 1d 17 3e
       -0.043204494 0.05136366 0.27075434 0.14757365
000180 f3 c6 f0 bd e3 3b 8a bd 5a 45 92 be 61 93 ad bd
       -0.117566966 -0.06749704 -0.28568536 -0.08475376
000190 7e a4 50 be f7 a4 2a be a7 8f 85 bd 5b 97 02 be
       -0.20375249 -0.16664492 -0.0652154 -0.1275305
0001a0 fe 55 dd 3d 98 30 1b bf 52 74 25 be 6b e0 6a be
       0.10807417 -0.60621023 -0.16157654 -0.22937171
0001b0 25 8e f0 be a1 11 a8 be 59 79 8c 3d ad 29 19 3d
       -0.46983448 -0.3282595 0.06859083 0.03739326
0001c0 98 a6 19 3d 27 a2 4d be 53 01 73 be b6 a4 11 be
       0.03751239 -0.20081387 -0.23730974 -0.14222988
0001d0 97 56 dd bd 47 e7 03 be 5d 13 40 be 54 78 60 3c
       -0.10807531 -0.12881194 -0.18757387 0.013700563
0001e0 de fa 01 be 88 e6 e6 bd 24 ad 82 bd 05 f9 27 be
       -0.12693354 -0.11274439 -0.0638068 -0.16403587
0001f0 4e 3c 20 3d 81 1f 05 be 90 b9 5f bd 15 72 ca 3d
       0.03912001 -0.13000299 -0.054620326 0.09885041
000200 8d 7a c5 3b 6a 36 47 3e 99 16 fc bd 8f e0 18 3d
       0.006026572 0.19454351 -0.12308998 0.03732353
000210 d0 b0 0e bf 62 ad 89 be 33 d8 0a bf 1a 4d a9 be
       -0.55738544 -0.26890093 -0.54236144 -0.33066636
000220 d2 ba 8e 3e 7f 3e b1 3c 32 44 24 3e 61 b6 88 3c
       0.27876908 0.021636246 0.1604164 0.016688528
000230 59 58 9e 3e 4e 4a e4 bd d2 41 a6 be e1 a8 14 bd
       0.3092678 -0.11146985 -0.32472092 -0.036293868
000240 99 50 17 be 99 eb cd bc f3 5b b9 3e 4f da b0 3d
       -0.1477684 -0.025136756 0.36202964 0.08635389
000250 b9 61 c0 bd 57 19 6d 3c 64 3f d8 3c 54 e7 0f 3e
       -0.09393639 0.0144713735 0.026397415 0.14053088
000260 d5 eb 79 3e 3a 86 2e be bf 7d c8 3d 9e 20 f6 be
       0.24406369 -0.17043391 0.09789609 -0.4807176
000270 1e a1 71 3e 41 75 aa 3d 4d de 90 3e b3 27 7c 3e
       0.23596618 0.08323146 0.28294602 0.24624519
000280 a6 5a 14 3f af be 94 be e4 fd 19 3d 08 6e 95 be
       0.5795082 -0.2905173 0.037595645 -0.2918551
000290 3b 29 1b be 60 d0 7c be b1 25 8c 3c df 13 b4 3c
       -0.15152447 -0.24688864 0.017107816 0.021982132
0002a0 5c 31 00 be a9 aa 46 3e cc 4f b0 bd 97 6a 3f 3d
       -0.12518829 0.19401039 -0.0860897 0.04673251
0002b0 51 5f 21 3e be a4 fc bd c8 14 9d ba a8 1c e0 3d
       0.15759017 -0.123361096 -0.0011984343 0.10942966
0002c0 4f 85 97 bc 62 54 7f be 43 47 0d 3a b7 d5 28 3c
       -0.018496184 -0.24934533 0.0005389342 0.01030486
0002d0 40 67 45 3d 09 43 bd bd 3d c4 f7 bd 5e c3 9d bc
       0.04819417 -0.092413016 -0.12097976 -0.019258197
0002e0 05 99 3f be 13 34 5f be 27 22 a2 be c3 db c5 be
       -0.18710716 -0.21797208 -0.3166668 -0.38644227
0002f0 18 e0 9a 3e d0 f1 22 3d a8 df 0b be d2 6f 33 3e
       0.30249095 0.03978139 -0.13659537 0.17523125
000300 4f 03 6f be 0d 5f d0 ba 03 12 5e 3e 2d 49 c0 bd
       -0.23341106 -0.0015897468 0.21686558 -0.09388957
000310 8c 22 1c bc 72 9b 2f be 9c fc 6e bc d0 6e 01 bc
       -0.009529721 -0.17149141 -0.014586594 -0.007899955
000320 bc ef 6e 3e ac cc ef 3d 6d de 74 3c 5a 42 8b be
       0.23333639 0.1170896 0.014945609 -0.2719906
000330 b9 a7 95 3e 88 df 95 bd e3 70 98 bd 41 d4 0e be
       0.29229525 -0.07318026 -0.074434064 -0.13948156
000340 fb 61 cd bd 60 86 05 bd 37 46 19 bd 06 3a bd bd
       -0.10028454 -0.032598853 -0.037420478 -0.09239583
000350 f2 66 97 be 3a ec 02 3e a0 6a 8b 3d 09 8f c0 3b
       -0.2957073 0.12785426 0.068074465 0.005876426
000360 28 5a b6 3e 2f ff 09 be 52 f3 93 3e d7 cc d3 3d
       0.3561566 -0.13476251 0.28896576 0.103418045
000370 cb 75 f3 3c 70 8f 14 3e 51 cf e4 3c 40 01 67 3e
       0.029719254 0.14507842 0.027930887 0.2255907
000380 5f 21 84 3e 28 9b bf bd 43 50 14 be 45 a1 4c be
       0.2580671 -0.093557656 -0.14483742 -0.19983394
000390 04 8d 98 be 66 8d 98 3c ca 41 8c bd 40 dc 4a 3b
       -0.29795086 0.018622112 -0.06848486 0.0030954033
0003a0 3b cd 16 3f 5d 62 d6 bd 7d ed f7 bd 4e e1 44 bd
       0.58906907 -0.1046798 -0.12105844 -0.04806643
0003b0 a8 03 05 be 1a 1d 27 bf 75 fc da bc 1f dc 3a 3e
       -0.12989676 -0.6527878 -0.026731709 0.18248032
0003c0 d4 09 ef bb 71 26 1e be fb 5d 3c be 98 60 f0 3d
       -0.007294873 -0.15444352 -0.18395226 0.11737174
0003d0 31 a1 07 bd ff 4a 80 be 88 30 e8 bd 56 1e c2 bd
       -0.03311271 -0.25057217 -0.113373816 -0.09478442
0003e0 f6 d2 ec bd b7 fe 4c 3d 5e 18 6c be 22 9f 1c be
       -0.11563675 0.050047603 -0.2305617 -0.1529508
0003f0 c1 89 8d 3d de a1 ef bd 27 ea 80 bd 77 7c 7d 3e
       0.0691104 -0.117007956 -0.06294661 0.24754511

latent.weight_hh_l0 f4 [128, 32]
000000 4f 0f 1d 3f d2 b7 24 be 2d fc b7 3e 43 d0 aa be
       0.61351484 -0.16085747 0.35934582 -0.33362016
000010 e3 de 3e 3d f1 db c1 3d b9 3c c4 3d b3 21 71 3e
       0.04659928 0.094657786 0.095818944 0.23548011
000020 20 56 2c bd b0 40 cb 3d 7e 11 6f be 51 a4 9d 3e
       -0.042074323 0.099244475 -0.23346516 0.30789426
000030 7d 8f 25 bd 11 02 20 be 74 36 a0 3d e6 5d 89 3d
       -0.040420044 -0.15625788 0.07822886 0.06707363
000040 c3 7d 21 be 96 d1 4a 3e a2 8b 5f 3e be c5 ac 3e
       -0.1577063 0.19806513 0.2183061 0.33744615
000050 7b dc 8e bc 2d 12 a2 bd 80 a1 b2 be ea 3c 52 3e
       -0.017439118 -0.07913623 -0.3488884 0.2053105
000060 c0 35 39 3e 4d 7b 07 3e dd d3 99 bd 84 ab 88 be
       0.1808691 0.1323063 -0.07511113 -0.26693356
000070 47 f9 10 3e 97 04 50 bd 43 a5 c8 3c f6 06 09 3f
       0.14157592 -0.050785627 0.024492865 0.53526247
000080 02 ba 27 be 7a 0c 00 3e ae 36 f7 3d 68 b7 21 bc
       -0.1637955 0.1250476 0.12070976 -0.009870388
000090 64 7e 0a 3e c9 68 bf 3e 91 76 34 3e 94 fd c1 bd
       0.13524777 0.37384632 0.17623354 -0.09472194
0000a0 de b0 02 be 00 33 a4 3d 70 67 7e be aa 46 e5 3c
       -0.12762782 0.0801754 -0.24844146 0.027987797
0000b0 b5 94 92 bc 6e 1c 5b bc 5c 0f 96 3c d5 2a f4 3d
       -0.017893175 -0.013373477 0.01831787 0.11922232
0000c0 cd 17 87 3e 21 71 0e bd d6 01 34 be 9b ea ea bb
       0.26385346 -0.034775857 -0.17578825 -0.0071690804
0000d0 18 00 57 3e be e7 89 3e 49 a5 16 3e 5e 06 f9 bd
       0.2099613 0.26934618 0.14711489 -0.121594176
0000e0 4a 59 a7 be db b4 a9 3d ca 75 18 be de f6 7a 3d
       -0.3268531 0.082864486 -0.14888683 0.061270587
0000f0 2e 07 4e 3d 8c bc 0d be 68 12 fd bc 18 02 f4 bd
       0.050299816 -0.13841456 -0.030892566 -0.11914462
000100 3f f6 73 be ad 81 82 3e ac e6 d2 bd 4d 20 11 bf
       -0.23824404 0.2548956 -0.102979034 -0.5668991
000110 d6 2c 91 be 24 77 0f bf 2b ea 14 3f 82 79 4c 3e
       -0.2835452 -0.5604117 0.5816981 0.19968227
000120 40 f5 3b be 36 f8 e7 bd 47 61 10 bf 74 b7 6f 3c
       -0.18355274 -0.11326639 -0.56398433 0.014631141
000130 9a 78 9e bd 77 67 1a be f7 68 84 bd aa 3a b1 bc
       -0.07737847 -0.15078531 -0.06465333 -0.021634419
000140 4e 3a 44 bd 5b 65 c4 3e 89 a0 20 be 8d b1 63 be
       -0.047907166 0.38358578 -0.1568624 -0.22235699
000150 db 87 fd bd c7 91 8a bd ff a3 ad bb 0c 4e 88 be
       -0.12379428 -0.06766086 -0.005299091 -0.26622045
000160 9f 00 37 3d ce a9 67 be 68 24 0b bf 74 4f 10 3e
       0.044678327 -0.22623369 -0.54352427 0.14092809
000170 f5 de 80 bb 1c a6 0d 3f 30 b6 46 be 69 2b c9 3d
       -0.0039328285 0.5533159 -0.19405437 0.09822733
000180 21 f2 a0 3d dd 00 3e 3e 4b c5 d9 be 84 57 a2 bd
       0.078586824 0.18555017 -0.42533335 -0.079268485
000190 5d 9b 34 be 91 84 63 be 72 ed f6 3c a6 38 5c bd
       -0.17637391 -0.22218539 0.03014252 -0.05376496
0001a0 28 a6 48 3e f8 ef e2 bd 20 c0 b0 be ce 9e c5 bd
       0.19594634 -0.11080927 -0.3452158 -0.0964943
0001b0 a7 61 7e be 07 a8 16 be 3e b5 d3 3c 07 09 14 3e
       -0.24841939 -0.14712535 0.025843259 0.14456569
0001c0 88 18 0d bd 37 bf ef 3e b3 42 26 3b bc 0a 6b 3c
       -0.034447223 0.46825573 0.0025369346 0.014345821
0001d0 5c 8e 4c 3b b4 0f 2f be eb 19 4a 3e 79 19 2e 3e
       0.0031212782 -0.17095834 0.1973645 0.17001905
0001e0 d7 90 15 be 77 76 28 3e 40 ee d3 bc 1d ea 46 be
       -0.14606033 0.16451441 -0.025870442 -0.19425245
0001f0 94 25 2c be 5b 75 ae 3d aa 9c 90 3e 3d 24 ba bd
       -0.1681121 0.085184775 0.28244525 -0.09088943
000200 d8 a4 fe bb e6 c9 01 3e 12 e3 19 3e 52 4c 41 3e
       -0.0077711158 0.12674674 0.15028027 0.1887677
000210 02 88 00 3e 32 ff d2 3d 47 5e 27 be 7c f8 6d 3e
       0.12551883 0.10302581 -0.16344558 0.2323932
000220 e5 99 a3 bd 81 d7 33 be 18 9a c4 bd f6 68 dc 3c
       -0.079883374 -0.17562677 -0.095997036 0.026905518
000230 06 3f 61 be 12 6b b4 bd 36 a1 00 be 1c 03 86 be
       -0.21996698 -0.088094845 -0.12561497 -0.26174247
000240 11 43 d5 3d 4e 95 3b 3e 24 d8 23 be c6 50 96 be
       0.104131825 0.18318674 -0.1600042 -0.293585
000250 fd f7 5d bd 43 a9 8c 3e d9 8d 5e 3d 09 5e 75 be
       -0.05419158 0.27472886 0.054334495 -0.23961653
000260 be 58 80 bd 9e 4d 18 be 60 da 29 be ce 97 08 3c
       -0.06266926 -0.14873359 -0.1658721 0.008336974
000270 3e 97 0c be f8 73 4e 3e 33 ae 10 3e ac 7f df bb
       -0.1372957 0.20161426 0.14128952 -0.0068206396
000280 b3 e6 73 bd 36 f2 14 3e 07 b7 8a be ba 85 58 be
       -0.059546184 0.14545521 -0.27092764 -0.21144763
000290 45 a8 dd be c6 f7 04 bf 15 ac b1 3e f6 2f 81 3e
       -0.43292442 -0.5194057 0.347016 0.25231904
0002a0 00 dc e6 bc e2 ae bc bd e9 7e a9 bd 84 dc 08 3d
       -0.028181076 -0.09213044 -0.08276159 0.033413425
0002b0 f6 5c aa bd f0 40 23 bd 54 f1 5a 3d a7 1c 37 3d
       -0.08318512 -0.03985685 0.053452805 0.04470506
0002c0 3b 1a 50 3e 60 34 89 3c 3b bb 37 bd f1 11 3b be
       0.20322506 0.016748607 -0.04485629 -0.18268563
0002d0 1c c9 41 3c 6d 12 2d 3d 05 49 34 3d ec 5a a2 3d
       0.011827733 0.0422539 0.04401495 0.07927498
0002e0 6c 21 39 3d cd 1a 25 bd c3 14 40 be fc 95 2f bd
       0.04519789 -0.040308762 -0.1875792 -0.042867646
0002f0 70 20 a9 be 0d d8 c9 bd b2 d1 5e 3e 4f d0 8c 3e
       -0.3303256 -0.098556615 0.2175968 0.27502677
000300 74 e0 60 3e 2b e5 27 3e 24 69 08 3d 67 b2 d4 bd
       0.21960622 0.16396014 0.033303395 -0.1038559
000310 3e 52 ea bd 70 a9 a2 be 11 b7 ea 3e e2 f0 86 3e
       -0.11441468 -0.31769896 0.45842794 0.26355654
000320 c8 94 b2 3d 9b 38 dc 3d 33 29 5c be 98 60 5e 3e
       0.08719784 0.10752984 -0.21500091 0.21716535
000330 7e dd 8c 3e fc 16 81 bc 06 f8 d4 3b bc 0b 02 3c
       0.27512735 -0.01575803 0.0064992933 0.007937368
000340 28 74 82 be 5e 04 be 3e 25 04 fa 3d ca 93 77 3e
       -0.25479245 0.37112707 0.12207822 0.24177471
000350 ba 3c 8f be 9b 9e 3a be 2f b9 d2 bd 1b d4 6f 3e
       -0.27976018 -0.18224566 -0.10289227 0.23420756
000360 33 45 73 3e 55 43 55 3e 63 5c 85 3d 85 3f 9e bd
       0.23756866 0.20826466 0.06511762 -0.07726959
000370 9c 40 8f 3e c4 f4 69 3d 84 d1 24 3d 34 62 b3 bd
       0.2797898 0.057118192 0.040238872 -0.08758965
000380 29 82 c1 3c 74 1e 42 3e c8 bc f6 3d 1c f6 b4 3c
       0.023621636 0.1895693 0.12047726 0.02209001
000390 3e 93 44 3e 9b 20 b1 be d4 e6 c1 3d 71 72 a4 3c
       0.19196793 -0.34595188 0.09467855 0.020074101
0003a0 13 1b 02 3f 61 5b 59 3e 35 65 ea be 4f 22 9a bd
       0.5082256 0.21226265 -0.4578034 -0.07526075
0003b0 bc a2 ed bd 81 6a f3 3c e2 ae b5 3c 5b f2 2c 3d
       -0.11603305 0.029713871 0.022178117 0.042223316
0003c0 85 15 f3 bb 02 f7 ae 3e 52 0e d6 bd bd 88 f0 bd
       -0.007418337 0.34172827 -0.1045195 -0.11744831
0003d0 14 5d ad bd 7f 71 85 bd 4c a6 3f 3e 52 b3 a2 bd
       -0.08465019 -0.06515788 0.18715781 -0.07944359
0003e0 ff 64 78 bc de 18 88 3d 7b 6f f1 3c f7 a2 bc 3e
       -0.015160798 0.06645368 0.029472103 0.36843082
0003f0 f0 22 85 3e 83 c4 41 3e 2e 58 14 3e e9 63 76 be
       0.26003218 0.1892262 0.14486763 -0.2406155

latent.bias_ih_l0 f4 [128]
000000 fc 8b b4 3c ff f9 9e bc 6b e4 17 3e cd 5a 2e 3e
       0.022039406 -0.019406317 0.14833228 0.17026825
000010 47 08 3b bd a6 26 52 3e fb 10 25 3e f3 90 1a 3e
       -0.04566219 0.20522556 0.16119759 0.15094356
000020 f6 fe 64 3e aa 31 29 3e de b9 09 3d d9 6e f4 bb
       0.22362885 0.16522852 0.033624522 -0.007459503
000030 44 05 44 3e 4a 04 cd bc 46 a7 8a 3e e9 d1 58 bc
       0.19142634 -0.02502646 0.27080745 -0.01323364
000040 14 c7 08 3e e5 d7 54 3e d8 b6 66 bd 2e b1 40 3e
       0.13357192 0.20785482 -0.056326717 0.18817589
000050 5b 81 c6 3d 5d 4f 8b 3c 59 1b d1 3d 42 7d 70 3e
       0.09692641 0.017005617 0.10210294 0.23485282
000060 3b 9d 58 3e ae f0 14 3e 74 46 03 3f 41 cb a3 bd
       0.21153729 0.14544937 0.5127938 -0.07997752
000070 90 53 fb 3d f9 d3 a8 3e ae 24 5e 3e 77 cc 7a 3e
       0.12271798 0.32974222 0.2169368 0.2449206
000080 13 0d 05 3d bc ce 3b 3e b7 fe a2 3d 4b 87 16 bd
       0.03248317 0.18340582 0.07958739 -0.03675012
000090 d3 9a a2 39 4e 19 00 3e 49 f2 d9 3c 2c b4 83 3e
       0.000310144 0.12509653 0.026604788 0.25723398
0000a0 33 0b 06 bd 4c 51 14 be 0c c5 ce bd 23 6e 48 bd
       -0.032725524 -0.14484137 -0.100961775 -0.04893316
0000b0 09 be c4 bc 23 6b d5 bd dc 2f c8 bd 1c 09 22 3e
       -0.024016397 -0.10420825 -0.097747535 0.15823787
0000c0 4f 34 87 3a 93 ac 54 3e 8d dc c0 bd 71 e4 b6 bd
       0.0010315272 0.20768957 -0.09417067 -0.089302905
0000d0 7d 19 26 3d 66 5d 1d bd 8f af d5 bd ca a2 1f 3c
       0.04055165 -0.03841915 -0.10433876 0.009743402
0000e0 ce c2 10 bb 30 b7 8b 3d a0 87 e6 bd 88 0f d7 bc
       -0.002208877 0.068220496 -0.11256337 -0.026252523
0000f0 0d 83 31 3e 3c 65 38 3b 39 87 8b bd e7 66 b8 bd
       0.17335148 0.0028136512 -0.06812901 -0.09004002
000100 e0 76 eb 3d 73 1a 94 bd 05 8b 81 3d 17 f7 4b bd
       0.11497283 -0.07231607 0.06325344 -0.04979619
000110 85 7c 2a 3e c8 b1 fc 3d 4f cf 81 bb 0e e3 e1 3d
       0.16649063 0.123385966 -0.0039614807 0.11029635
000120 22 37 21 be 40 f4 5f bd b9 bb 8a bd b7 eb 83 3d
       -0.15743688 -0.054676294 -0.067740865 0.064414434
000130 50 04 bd 3c e9 b6 28 be 27 97 d9 3c 68 ed c3 bd
       0.023073345 -0.16476025 0.026561333 -0.09566766
000140 84 91 99 3d 6a c8 f1 bd 49 e5 01 be 3b 6b a1 bc
       0.07498458 -0.11805804 -0.12685122 -0.019704452
000150 35 06 c7 bc a4 ba 10 3e df a9 25 3c 48 49 16 be
       -0.024294952 0.14133698 0.010111301 -0.14676392
000160 83 d8 db 3d f3 29 6e 3d 4c 61 3e 3e f8 e2 9e 3d
       0.10734656 0.058145475 0.18591803 0.077581346
000170 3b d2 d4 3c 21 a2 28 3b 4a 5a 2c be 2d 66 c3 bd
       0.025979152 0.0025731402 -0.16831318 -0.09540973
000180 9e 1b 87 3e 5c f0 3c 3e 8f 14 9b 3e 52 6a 94 3e
       0.26388258 0.18451065 0.30289122 0.28987366
000190 54 71 b6 3c 2d 1f c4 3d 71 c2 05 3e 8c 12 b1 3b
       0.022270836 0.09576259 0.13062455 0.0054038223
0001a0 0c da 81 3e 3f 45 dc 3d fa 4f 5b 3d 35 e9 4f 3e
       0.2536167 0.10755395 0.05354307 0.20303805
0001b0 8f de 5a 3e 77 a8 ac 3e c1 91 60 3e f4 11 d4 bd
       0.21373962 0.33722278 0.219306 -0.10354987
0001c0 7f d6 37 3d 0c ca 53 3e 6b 75 8e 3d 5f 18 d9 3d
       0.044882294 0.20682544 0.069559895 0.106003515
0001d0 04 27 1f 3d 7f 81 5b 3e 54 63 f3 3d ce 11 34 3e
       0.038855568 0.21436118 0.1188418 0.17584917
0001e0 ef 49 35 3e 38 97 a7 3e 6a e3 65 3e bd 53 ac 3c
       0.17703985 0.32732558 0.22450033 0.021036023
0001f0 fd 6c f2 3b eb 6d 86 3d fd 61 63 3d 74 a0 ff 3d
       0.0073982463 0.06563934 0.05551337 0.12481776

latent.bias_hh_l0 f4 [128]
000000 ce 3e e7 3c a1 32 7a bd ce 59 9d 3d ae 8b b5 3d
       0.02822819 -0.06108344 0.076831445 0.088645324
000010 0f 42 da bc 28 79 dc 3d 75 a5 1d 3d dc 4a 75 3d
       -0.026642827 0.10765296 0.03848787 0.059885845
000020 23 94 f5 3d 94 8d 15 3e d7 63 86 bc 23 1f 85 bb
       0.119911455 0.14604789 -0.01640503 -0.0040625497
000030 d0 91 9a 3c be e9 6e 3e b6 07 dc bb 1f 72 12 be
       0.018868357 0.23331353 -0.0067147864 -0.14301346
000040 2e a2 f1 bc 58 7e 64 bd 7c 49 b9 3d 9d 24 7e 3c
       -0.029496279 -0.055784553 0.09047219 0.015511659
000050 58 3a 83 3e f0 61 5f 3e fe 6e e3 bd aa 19 50 3e
       0.2563045 0.21814704 -0.111051545 0.2032229
000060 a5 21 3e 3d 32 97 98 3e 01 9a 76 3e bb 41 27 bc
       0.046418805 0.29802853 0.24082185 -0.010208542
000070 31 7d 49 3e ba 51 ba 3e 20 3a 0b 3c c1 ba 24 3e
       0.19676663 0.36390477 0.008497745 0.16086866
000080 1d 01 89 bd b4 1f bf 3d 7f bf ed 3d 6a 3a c3 3d
       -0.066896655 0.09332219 0.116087906 0.09532626
000090 0a 94 4d 3e 5b ed 27 be 86 5d e5 3c 84 7e 24 3e
       0.20076004 -0.16399138 0.027998697 0.16063887
0000a0 3a d6 92 bd d3 6b 1c bd c9 72 80 bd 3e 1b f7 bd
       -0.07169767 -0.038188767 -0.062718935 -0.12065743
0000b0 8b 9b b5 3d cd 6b 5c bd 46 c5 86 bd 30 95 8c bd
       0.08867558 -0.053813744 -0.06580596 -0.06864393
0000c0 b2 a5 57 bd c6 55 a8 3d b1 81 5b be b4 7d cb bd
       -0.052648254 0.08219485 -0.21436192 -0.09936085
0000d0 05 aa a6 3d e0 49 b4 bb 11 06 1a 3e 41 0e de bc
       0.081378974 -0.0055019706 0.15041377 -0.027106406
0000e0 0e 18 2d be 65 a0 2f be 43 ad c1 3d f9 15 4e 3d
       -0.16903707 -0.1715103 0.09456875 0.050313924
0000f0 b9 bb 19 3d 9a 36 27 3e e7 da eb bd 9c 0d f9 bc
       0.037532542 0.16329423 -0.11516362 -0.030401997
000100 88 e7 07 be d4 60 39 bd 29 75 92 bd e6 ce 29 be
       -0.13271916 -0.045258358 -0.07151253 -0.16582832
000110 70 c4 c6 3b 21 33 17 3e c9 6d 08 be a7 0d 9d 3d
       0.0060658976 0.14765598 -0.1332313 0.076686196
000120 69 2e 2f bd 1a 64 55 3d f3 d6 63 bd 88 ab 8f bd
       -0.04276887 0.052097417 -0.055624913 -0.07015139
000130 b1 86 85 3d 02 1e 17 be e9 ca e1 3d 8b d4 ba 3d
       0.06519831 -0.14757541 0.1102503 0.091225706
000140 a4 c2 ae 3d 7c 60 8a 3d e3 a4 c3 3d 82 cc f0 3c
       0.085332185 0.06756684 0.09552934 0.029394392
000150 54 e9 c5 bc 32 1a d3 3d 3b 12 43 3d 2b 34 8c bb
       -0.024159111 0.10307731 0.047624808 -0.00427868
000160 18 87 48 bd 28 c0 09 3e 04 38 cb bd ee d4 39 be
       -0.04895696 0.13452208 -0.099227935 -0.18147632
000170 fb f3 11 3d 1f 12 43 bd 35 3d fd bc 1d c7 4d 3d
       0.03563307 -0.047624703 -0.030912975 0.050238717
000180 7a af d8 3d 32 1d bc 3d ba 24 01 3f 8e e5 f1 3d
       0.105803445 0.09185256 0.50446665 0.11811362
000190 a5 fe 0d 3e bf a5 4b 3e b0 84 a7 3d 72 82 64 3e
       0.1386667 0.19887446 0.08179605 0.22315386
0001a0 be ac 86 3e c3 25 e6 3d 03 98 89 3d 46 23 b1 3e
       0.26303667 0.11237671 0.06718447 0.34597224
0001b0 cb f0 66 3e 88 54 49 3d 1a 02 a0 3d f1 58 d5 bd
       0.22552793 0.04915288 0.07812901 -0.10417355
0001c0 67 68 8b 3d 5e 94 15 bc 3a 4a 1b 3e 90 60 07 3e
       0.068070225 -0.009129612 0.15165034 0.1322043
0001d0 e6 32 47 bc a9 73 7c 3e 14 d6 14 3e b6 06 cb 3e
       -0.012158131 0.24653496 0.1453479 0.39653558
0001e0 70 f2 ad 3d ed 74 7a 3e 79 eb 83 3e 1e 7f bd bc
       0.08493507 0.24458666 0.2576559 -0.023131903
0001f0 c0 a6 53 3e ca 51 7d 3e b6 87 8a 3e a8 bf 7c 3e
       0.20669079 0.24738231 0.27056664 0.24682486
