saved_models/AD_autoencoder_ep2_loss1.8698.pth (torch, 257618 bytes, 14 tensors)

encoder.weight_ih_l0 f4 [256, 28]
000000 d7 40 05 bd b7 09 fb 3b 70 37 31 3c 7a 2c d1 bc
       -0.03253254 0.00766107 0.01081644 -0.025533903
000010 37 3e 3e bc 79 c5 f6 3b 1c eb b4 3b af 0e eb ba
       -0.011611513 0.007530865 0.0055211913 -0.0017933453
000020 91 39 75 3a 55 e7 bd ba a1 d5 24 3b 28 7f 42 bc
       0.00093545864 -0.0014488498 0.0025151747 -0.011871137
000030 21 4b db ba d4 c6 22 3b 30 1f 9f 3c f5 f7 3b 3c
       -0.0016730764 0.002483775 0.019424051 0.011472692
000040 d2 e0 92 bb 0c d0 83 3b f5 34 05 3d fa 73 67 bc
       -0.004482367 0.004022604 0.032521207 -0.014126772
000050 ce 37 29 3d b8 a3 ba 3c e9 18 95 39 42 c3 46 3d
       0.041312985 0.022783145 0.00028438054 0.048526056
000060 ff 53 35 3d ab f7 10 3d 64 ea 19 3c e0 bc ce 3c
       0.044269558 0.035392445 0.009394262 0.025236547
000070 0c 3f 89 bd b3 37 83 3c 43 31 38 3c c1 b9 94 bc
       -0.06701478 0.01601777 0.011242214 -0.01815498
000080 4d a7 0e 3d b8 92 9d 3a 7e 0e bb 3a 95 c8 83 3b
       0.03482752 0.0012021875 0.0014271287 0.004021714
000090 1a dc 32 3c b0 c5 b4 ba 00 fb 06 3b b5 87 ad bb
       0.010916734 -0.0013791826 0.0020596385 -0.0052957186
0000a0 01 93 cb bc 2f e8 ba bc 08 69 87 3c 45 20 f2 ba
       -0.02485037 -0.022815792 0.016529575 -0.0018472752
0000b0 87 93 26 bb e2 58 6a 3a ac 60 88 3d ce 36 23 bc
       -0.0025417523 0.0008939636 0.06659064 -0.009961797
0000c0 24 e4 70 3d be 27 25 3c a8 2d 0c 39 4c 5f 97 bc
       0.05881132 0.010080276 0.00013368449 -0.018478058
0000d0 e6 9e cb 3d a7 bd e8 3c 62 9b 59 3c 74 b5 4c 3c
       0.09942417 0.028410746 0.013281675 0.012494434
0000e0 55 cd 1b 3d f8 ae 9d bb 75 a9 0a ba 72 4e 0f bb
       0.038037617 -0.0048121177 -0.00052895333 -0.0021866825
0000f0 7f a0 26 3c 7c ad 7a ba 09 e8 80 ba e3 6d a3 3a
       0.010170101 -0.00095625944 -0.0009834777 0.0012468662
000100 22 ab 1f b9 ab e1 60 ba 0b 20 22 3a 33 da 14 39
       -0.00015227174 -0.0008578549 0.00061845843 0.00014195665
000110 b2 1d 01 bb 99 e3 d5 bb c0 be 9c bb 9e 6d 9c 39
       -0.0019701538 -0.006527376 -0.0047834814 0.0002983631
000120 71 04 d7 ba 19 3a 99 b9 6f fc 17 bd d0 0a d9 38
       -0.0016404522 -0.0002922572 -0.037105974 0.0001034938
000130 98 44 12 3c 6b a2 ef b9 75 6a bf b8 fe eb cd bc
       0.008927487 -0.00045706643 -9.127419e-05 -0.025136944
000140 d3 fc 80 b9 8f fe ae bb 13 ed 34 3a a8 b7 98 3c
       -0.0002460243 -0.0053404043 0.0006901782 0.018642262
000150 09 9b cc 3d 6d 01 c0 bc 60 6b a8 bc 07 0a 77 bc
       0.09990508 -0.02343818 -0.020559013 -0.015078074
000160 c2 22 02 bd 6d e3 24 3a e4 35 f0 bb 96 4d bd bb
       -0.03177143 0.00062899926 -0.007330643 -0.005777071
000170 89 9e 94 bc 5d 50 0e 3b bf 1b 19 bb 71 0d 41 39
       -0.018142002 0.002171538 -0.0023362485 0.00018410922
000180 59 2d a9 bc 64 12 d7 3c a1 0d 2a 3d 49 87 7d ba
       -0.020651506 0.026253887 0.041516904 -0.0009671343
000190 ea 79 e9 3a a2 32 46 39 32 01 c8 bd c4 17 21 bc
       0.0017812822 0.00018901614 -0.09765853 -0.009832326
0001a0 cb ca 4e 3d c1 96 5a 3b 4d 4f 2e 3a 35 7d d6 bc
       0.050486367 0.0033354016 0.000664939 -0.02618275
0001b0 5e d9 a3 3b de 25 9b 3d 30 f9 dd 3b df 5e 89 3c
       0.0050002774 0.07575582 0.00677409 0.01676887
0001c0 90 c5 90 3c c9 47 9a ba bc 47 ae b9 32 20 c2 39
       0.01767233 -0.0011770661 -0.00033241312 0.0003702655
0001d0 22 c6 3e bc 71 05 ac ba 0e 24 8d ba 43 98 36 ba
       -0.011643918 -0.001312418 -0.0010768191 -0.0006965438
0001e0 fb 93 d8 b9 6d 8f 63 3a 21 21 54 37 af 14 a2 39
       -0.00041308985 0.0008680735 1.2643898e-05 0.00030914458
0001f0 fd d5 18 ba 7c 33 0c 3c 59 e2 2f 3c 1b c2 65 ba
       -0.00058302266 0.008557197 0.010735118 -0.00087645807
000200 b7 16 bd 39 4c 38 c3 b9 59 02 8f bc e4 e3 1f 3b
       0.00036065813 -0.00037235243 -0.017457174 0.0024397308
000210 10 34 73 bc e2 be c7 38 c1 e1 fd b8 2c 63 90 3b
       -0.014843956 9.524614e-05 -0.0001210603 0.0044063535
000220 0d ea d1 b9 8c 3b b4 3c 88 d6 ff b9 2a ce 9e bd
       -0.00040037968 0.02200105 -0.00048797228 -0.077541664
000230 8f f1 bc 3c fa f4 5c bb 76 9d 8f 3a e6 b5 d7 bb
       0.023064403 -0.0033715353 0.0010956961 -0.0065829633
000240 20 37 af 3a cb 59 ad b9 70 ff eb b9 48 78 13 ba
       0.0013367869 -0.00033064032 -0.0004501301 -0.0005625528
000250 b2 8b da b7 c5 39 51 b8 34 44 ad 38 f7 34 b4 36
       -2.6052676e-05 -4.9883285e-05 8.261987e-05 5.370584e-06
000260 f0 7b a2 ba 06 c0 40 b9 b9 1b 1a 39 46 66 15 3a
       -0.0012396555 -0.00018382081 0.00014696912 0.0005699139
000270 a3 a5 bb 38 13 ef 67 b9 65 b4 b9 bc de 03 6d 39
       8.947707e-05 -0.00022118939 -0.022669027 0.00022603522
000280 b5 92 9b bb 5e 1f 01 ba eb e8 1c b8 6a 13 33 3b
       -0.0047477135 -0.00049256335 -3.741022e-05 0.0027324804
000290 e5 ae 68 3b 2f 8e 05 bb f3 d2 49 bb a4 0f a4 ba
       0.0035504636 -0.0020378937 -0.0030795902 -0.0012516868
0002a0 f8 dd c0 bb af d6 e3 3a f3 f6 3a 3a 04 ee 92 bb
       -0.0058858357 0.0017382706 0.0007132135 -0.00448394
0002b0 68 ea 4e 3b 20 85 f6 39 22 69 4d 39 61 f4 24 b9
       0.0031572822 0.00047019962 0.00019589489 -0.00015731297
0002c0 52 58 c3 38 b8 2c 0d ba 3f 9e 51 39 95 90 d1 39
       9.3147755e-05 -0.0005385387 0.00019990744 0.00039971308
0002d0 db 8a 9b ba ac b8 2a bb 30 2e 85 3a b6 2b 06 ba
       -0.0011866944 -0.0026050014 0.001016086 -0.0005118208
0002e0 5e 8c 0f ba 19 57 4a b7 e6 11 c7 3b 0c 61 59 ba
       -0.00054759334 -1.2060417e-05 0.0060751317 -0.0008292354
0002f0 e5 86 16 bb 79 8f 45 39 4a 03 b2 38 f1 03 1b 3b
       -0.0022968587 0.00018840832 8.488314e-05 0.0023653472
000300 84 fe 0d bb 75 2b f3 3a 29 60 05 ba 07 7e cb ba
       -0.0021666596 0.001855238 -0.00050878763 -0.001552523
000310 f4 71 80 bb 82 19 91 bc 56 f9 14 bd 1b ac aa bd
       -0.0039198343 -0.017712358 -0.036370598 -0.08333608
000320 62 9a 4a 3c fd 21 13 3d e4 c8 bc 3c b2 af b1 3c
       0.012365909 0.035921086 0.02304501 0.021690223
000330 7b 13 7e bc 1c 21 5b bc ec 09 05 bc 69 7e 73 bc
       -0.015507574 -0.013374593 -0.008120041 -0.0148616815
000340 d6 de f7 bc 8f a9 82 bc ef b5 3d 3d 4a 1c ad bc
       -0.030257624 -0.015949992 0.046316084 -0.021131653
000350 3b cc b6 39 da 5b 6d bc 49 8b a9 3c 6e 91 00 bb
       0.0003486591 -0.014487231 0.0206963 -0.0019617933
000360 35 d8 48 3e ef 57 8a 3c 57 ec 5f ba 80 0d c7 bd
       0.19613726 0.016887633 -0.0008541992 -0.09719372
000370 a9 2a a6 3a e2 73 9c 3d 9b 8d 90 3c 18 4f a1 3c
       0.0012677509 0.076392904 0.017645648 0.019691035
000380 ba e8 41 bc 88 ea 7a be 19 66 28 be c4 ca 14 bf
       -0.0118352715 -0.24503529 -0.16445197 -0.58121896
000390 d5 b4 87 bd 7a 48 d0 bd 88 54 c1 3a df 9c 2b 3d
       -0.06626288 -0.10170074 0.0014749924 0.04189765
0003a0 6a 91 29 bd 46 e1 b9 3c ca 27 00 bd a4 c6 d1 be
       -0.041398443 0.022690427 -0.031287946 -0.40971863
0003b0 ed 02 be bc 19 24 fe 3d 9f 80 25 3e 10 94 a2 bc
       -0.023194754 0.12409229 0.16162346 -0.019845992
0003c0 15 5c c6 3c a6 2c 28 bc 5b 38 a5 bc 7a 2f 6b bd
       0.02421383 -0.010264551 -0.020168474 -0.057418324
0003d0 aa 7c 8e 3f 76 b2 89 3f 0d 47 bb 3e c3 04 86 3e
       1.1131794 1.0757587 0.36577645 0.26175508
0003e0 67 d2 16 3f 92 04 a6 3e 46 b9 31 3e ba d2 83 3f
       0.589148 0.32425362 0.17355832 1.0298684
0003f0 b5 c1 8d bd bf 3f 03 3c d9 3e b3 ba df 6b 6a bc
       -0.06921712 0.008010804 -0.0013675346 -0.014307945

encoder.weight_hh_l0 f4 [256, 64]
000000 be 5a d9 3c 9b ba b7 bd be 85 68 3d 6b f4 9d bd
       0.026532527 -0.08971139 0.05676817 -0.07712635
000010 a2 07 27 bd 41 4c 70 3b 7b f1 df bc ee 31 c7 bc
       -0.040778764 0.0036666545 -0.027336827 -0.0243158
000020 84 e7 7c 3d d0 75 1d 3e d1 5e 03 3e b0 17 0f be
       0.061744228 0.15376973 0.12829138 -0.1397388
000030 71 73 73 bd 46 fb f8 bd 49 30 d0 3d 0b b2 85 bd
       -0.059436265 -0.121573016 0.1016546 -0.065280996
000040 c0 fa 94 3d 91 f3 41 be bf 30 8c bd 4d c5 ca 3d
       0.07274389 -0.1894057 -0.06845235 0.099009134
000050 9c 89 b7 3d d8 e6 cd 3c 49 62 7f 3d f1 98 a2 bc
       0.08961794 0.025134489 0.06234959 -0.019848319
000060 93 38 18 be bf 55 a2 3d 48 f6 c0 bd fb a8 82 3d
       -0.14865331 0.07926511 -0.094219744 0.06379887
000070 ab 59 91 3d f4 73 88 bd 04 e1 88 3d f6 3e e3 3d
       0.07097181 -0.06662741 0.06683543 0.11095993
000080 dc cb 61 3d a4 41 e2 3d 5f 3e 70 3d 3b b8 0c 3e
       0.055126056 0.11047676 0.05865323 0.13742153
000090 8b 6e 6a bc a1 94 53 bd 4b 96 ba bd 81 b6 a5 3d
       -0.014308582 -0.051655415 -0.09110697 0.080914505
0000a0 d8 fc a5 3b f9 c0 ea 3d 37 59 5b bd aa 02 44 3c
       0.0050655417 0.11462588 -0.05355188 0.011963526
0000b0 e1 74 74 bc d0 f2 8c 3d 47 d4 fc 3c be 66 aa 3d
       -0.014920444 0.0688225 0.03086294 0.08320378
0000c0 59 4d 0c 3d 53 06 93 bd 62 53 1a 3c fc fe e6 bc
       0.034253452 -0.071789406 0.009419294 -0.028197758
0000d0 d8 42 b6 3c 1b 15 e7 bd cb 1f d7 bd 28 e5 1e be
       0.02224867 -0.112833224 -0.10504111 -0.15517104
0000e0 1e 68 6a 3d da 2b 74 bd 35 ca 7f bc 9c b8 7c 3d
       0.0572282 -0.059612133 -0.015612175 0.061699495
0000f0 f5 ae 17 bd b1 da 8f bd aa 79 1f 3d 97 09 1c be
       -0.037032086 -0.07024134 0.038934387 -0.15238033
000100 fe 73 8f be 7d bf 0e 3f 82 e6 03 bc 77 a6 42 3d
       -0.28018183 0.5576094 -0.008050563 0.047522034
000110 15 81 58 bd f5 34 30 be b2 e0 9f 3f 04 5e e5 bd
       -0.052857477 -0.17207702 1.2490447 -0.11199573
000120 d6 ef c5 3d 6c 64 e8 3e 92 e3 cc 3d 88 93 2a be
       0.09664886 0.45389116 0.10004343 -0.16657841
000130 85 72 6a 3e fc 65 0c be ca 31 dc bc 4f a8 c5 3c
       0.22895248 -0.13710779 -0.02687921 0.024128107
000140 bb b7 fc bc dc 71 36 be ce d9 e4 3e 51 49 3f bd
       -0.030849328 -0.17816871 0.44697422 -0.04670078
000150 77 46 0e be 56 dd 29 be d1 ca 07 3f 06 c5 d7 3c
       -0.13894068 -0.16588339 0.5304385 0.026339065
000160 f5 91 6a be a9 ac b2 be e5 d4 29 3e 72 8f a3 bd
       -0.2290724 -0.34897354 0.16585119 -0.079863444
000170 2c a6 e9 3d 9a 67 aa 3e 9a d2 66 3e d3 e5 c2 3c
       0.11408648 0.33282167 0.22541276 0.02379123
000180 a9 f2 00 3d 77 71 a9 bc d3 23 96 bd d9 8f c2 be
       0.03148142 -0.020683987 -0.07331052 -0.38000372
000190 93 5b 55 3d a9 3c 32 3c 6d 48 3f bd b1 59 67 3c
       0.052089285 0.01087872 -0.04669993 0.014120505
0001a0 16 f5 2c 3f 0d da 67 be 48 5a 17 3d a4 f6 fe bd
       0.6756147 -0.22641774 0.036951333 -0.12449387
0001b0 31 3e 57 be 08 9f 8f 3d d2 21 03 3e cf f2 96 3d
       -0.21019818 0.07012755 0.1280587 0.07370531
0001c0 ea 44 ef 3d f9 76 f4 3c 71 de 90 bd 5b 42 c5 3d
       0.11683066 0.029841887 -0.07073677 0.09631797
0001d0 54 35 ca 3b 69 ca d9 be 8d 7c 53 bd cc bf 6a be
       0.006170908 -0.4253724 -0.051632453 -0.22924727
0001e0 9c b6 24 be 9a ea 1f 3e 55 7b 21 be d2 81 59 be
       -0.16085285 0.15616837 -0.15769704 -0.21240929
0001f0 52 e4 3b 3e 93 75 12 3c a5 04 28 bd 6e be 19 3d
       0.18348816 0.008939165 -0.041020054 0.037535124
000200 c7 7a f9 3d 23 7f a4 bc 39 37 af 3c 54 a1 98 3c
       0.12181621 -0.020080155 0.021388637 0.018631615
000210 2e b1 cd 3d ab 2e 4b 3d 95 57 eb 3d 67 bf 98 3c
       0.1004356 0.049605053 0.11491314 0.018645955
000220 40 0b 5a bd f7 ee 71 3d 72 c4 f0 bd ea 00 f0 3c
       -0.053233385 0.059065785 -0.11756219 0.02929731
000230 e7 2b b6 bd 31 c8 c3 3d c2 83 69 3d ce b2 4b 3d
       -0.088950925 0.09559668 0.05701042 0.04973107
000240 d6 70 05 3e d7 71 42 3d ce 15 14 3e c2 94 85 3d
       0.13031325 0.047471847 0.14461443 0.06522514
000250 e8 a4 b5 3d 0e 00 43 3d b7 b8 b2 bc a3 8e 9b bc
       0.08869344 0.047607474 -0.021816595 -0.018988913
000260 4d b2 50 be c4 05 82 bc cb f9 b0 3d 8d c1 eb bd
       -0.20380516 -0.01587189 0.08641394 -0.11511526
000270 3e 59 10 be 1c 70 93 bd 90 fa ae bc 42 cb 2e bd
       -0.14096543 -0.071991175 -0.021359712 -0.04267431
000280 1e 23 f4 3c a2 c2 7b 3d 8c 9b a9 bb d5 7e 11 3e
       0.029801901 0.061464913 -0.0051760133 0.14208539
000290 0f 73 04 be f5 c7 ff 3d 5b d8 76 3d d6 f0 ce 3d
       -0.12934516 0.12489311 0.060264926 0.101045296
0002a0 f4 79 bb 3e 2e b6 41 bd aa a1 9a bd e3 52 c1 bd
       0.3661648 -0.04729288 -0.07550366 -0.094396375
0002b0 6f 43 dd 3e cb b7 f2 3c 9e df a5 3d 8f c6 03 3c
       0.4321551 0.029628655 0.08099292 0.0080429455
0002c0 53 ba 68 bc 40 69 17 bd 2e 72 bd bd 38 d2 82 bd
       -0.014204579 -0.03696561 -0.09250294 -0.06387752
0002d0 6c 1b 07 be 59 22 a4 3d a8 e3 2d 3d 8e 3a 8c 3d
       -0.13194054 0.08014364 0.042453438 0.06847106
0002e0 0d 1a d5 bc 81 de e2 bd 4f 57 ae bc 79 f9 f3 bc
       -0.026013399 -0.110775955 -0.021281866 -0.029782044
0002f0 a4 f2 1c be ca 39 f6 3e 39 b7 b0 bd 46 da b5 bc
       -0.15326935 0.48090965 -0.08628697 -0.022198807
000300 f2 de 1b bd 2c db 67 3c 7c 2d cb bc 62 74 c0 bc
       -0.038054414 0.014151376 -0.024801962 -0.023492996
000310 ad a3 16 bd 46 dc 55 3e cc f2 54 3d cf 07 3c be
       -0.036777187 0.20884809 0.05198936 -0.18362354
000320 1c 13 00 bc 0e dc d6 bd 00 9e fd 3c bf e0 7d bd
       -0.007817056 -0.10491191 0.03095913 -0.061981913
000330 12 85 47 3e 03 2a cc bd 7b 12 f6 bd d4 7e e3 3c
       0.19484356 -0.099689506 -0.120152436 0.027770437
000340 ac 6b 36 3d 1b 63 e3 bc e6 cd 91 bd 53 7f 38 3e
       0.044536278 -0.027757218 -0.0711935 0.1801732
000350 44 50 0c be c0 3a a9 3e e0 8f 3a 3d 19 da 59 bc
       -0.13702494 0.33052635 0.045547366 -0.013296627
000360 73 92 89 3e ec 99 a4 3d db 5f 58 3d ba 58 96 3e
       0.26869544 0.08037171 0.05282579 0.29364568
000370 ed 7d 40 3d ec 21 48 3d 90 57 42 3d d3 ec 1b 3e
       0.046995092 0.048860475 0.047446787 0.1522706
000380 fc 7c 9a 3d 29 4d c2 bd bc 17 4f bd 50 32 0a be
       0.0754337 -0.094873734 -0.050559744 -0.13495755
000390 c7 7f 13 be 04 16 46 3c 7b 75 22 3d cc fc d8 bd
       -0.14404212 0.01209021 0.03966282 -0.10595092
0003a0 71 f5 7f 3e b4 76 f2 3d 5b 61 3c bd ec 76 3c bc
       0.24995972 0.11839047 -0.045991283 -0.011502963
0003b0 18 2b ec 3e 8b 0a 2f bd 10 3b 74 bd 9f 9a 58 3d
       0.46126628 -0.042734664 -0.05962664 0.052881833
0003c0 53 09 c1 3c 85 5e d9 3b e1 87 9d 3d 44 56 21 3e
       0.023564016 0.006633582 0.076919325 0.15755564
0003d0 72 2d 22 be eb b1 fe 3b 26 c3 08 be 5c 58 10 bd
       -0.15837649 0.0077726743 -0.13355693 -0.035240516
0003e0 d9 c4 b6 3d 3a 94 5b bd 7e 8f 3e 3d 73 2d e7 bd
       0.089242645 -0.053608157 0.046523564 -0.112879656
0003f0 12 9b ba 3d b4 04 f6 bd 90 03 2d be 4e f2 9c 3d
       0.091116086 -0.12012616 -0.1689589 0.076634035

encoder.bias_ih_l0 f4 [256]
000000 70 68 5f bc 43 82 e2 3d b2 f7 f1 bc ae fe 84 3d
       -0.01363574 0.11060002 -0.029537056 0.06493889
000010 e8 1d 99 3d 28 63 ca bd a5 9a c2 bc 18 d9 6b bd
       0.07476407 -0.09882194 -0.02375538 -0.057580084
000020 2b 9d 88 3f 9b cc 72 3d 70 33 fe bd 59 ed 96 3f
       1.0672964 0.05927716 -0.12412155 1.1791183
000030 fd 78 70 bc a4 89 75 3f 3c b3 18 be 30 79 81 bd
       -0.014677283 0.9591315 -0.14912122 -0.06321943
000040 0f 14 fa bb dc d0 a3 3e ba c3 0f be a5 cb 85 bd
       -0.0076317857 0.31995285 -0.14039508 -0.06532983
000050 15 58 ed bd 8a f7 c6 bd 02 e9 c3 3e ef ea 03 be
       -0.11589066 -0.09715183 0.38263708 -0.12882589
000060 3a 95 59 3c b1 4a a9 3e 01 99 ec bd 57 6b f5 3d
       0.013280207 0.33064798 -0.11552621 0.11983364
000070 e9 0f 6f bd dc b8 d5 bb 78 da 69 3c 30 91 3a 3e
       -0.058364782 -0.006522281 0.014273278 0.18219447
000080 12 53 0b be 00 5c 28 bd 3d 03 8e bd 71 e5 f6 bd
       -0.13605908 -0.041103363 -0.069342114 -0.12055481
000090 b4 aa c0 3d f6 b6 7d 3f a2 82 05 be fd c1 66 3e
       0.09407559 0.991073 -0.13038114 0.22534938
0000a0 c8 1b b6 3d 0f 34 a9 bd 7c 44 4e 3e eb 06 80 3d
       0.088920176 -0.082618825 0.20143312 0.062513195
0000b0 2e 54 5e 3e 42 e2 24 bc 42 d5 27 3e 23 84 50 3d
       0.217118 -0.01006371 0.16389945 0.050907265
0000c0 e6 dd 71 bd 89 2c 10 3e 39 07 8c 3c aa 07 84 3e
       -0.05904951 0.14079489 0.017093288 0.25787097
0000d0 2d cd c5 bd b5 ff ff 3d 75 8d 13 be 1f f2 6f be
       -0.09658275 0.12499944 -0.1440943 -0.23432206
0000e0 d7 0c 51 3d 28 55 cc 3d a5 2e cf 3e ac 71 58 3d
       0.051037636 0.0997718 0.40465274 0.05284278
0000f0 5b d0 27 3e c6 6f 06 3b f5 a8 85 3d b5 55 ae bc
       0.16388075 0.00205134 0.065263666 -0.021281103
000100 cc 08 4a bd df e8 19 be f7 9e 10 bd 4e 4b f5 3d
       -0.049324796 -0.1503024 -0.03530785 0.11977254
000110 0b 7b 09 3e 19 89 b9 bd 48 ad 2f bd 62 7c 02 3e
       0.13425843 -0.090593524 -0.042889863 0.12742761
000120 c7 ce a1 3d b0 62 a7 3d 9e e2 91 3d da 32 33 bc
       0.07900768 0.0817312 0.07123302 -0.010937417
000130 88 3a 47 3e b0 c3 b4 3e 6d b9 bc bc 45 4f 8d 3d
       0.19455922 0.35305548 -0.023037637 0.06899885
000140 75 85 00 3d 87 70 89 bc d5 3c 81 3d d6 bb ae bd
       0.031377275 -0.01677729 0.06310431 -0.085319206
000150 2c 79 34 3d c3 46 18 3e 3a 01 26 3e ee 88 e0 bc
       0.04406087 0.14870743 0.16211405 -0.027409043
000160 56 71 93 3d ec 88 aa 3d e6 7d 11 bd 37 36 76 3d
       0.071993515 0.08326897 -0.035520457 0.060110297
000170 c4 be eb 3d 93 2d ee bb b0 59 db bd 31 84 13 be
       0.11510995 -0.0072686165 -0.10710466 -0.14405896
000180 13 14 9b 3d d5 b6 b2 bd fe b4 00 3e ab 78 1d 3d
       0.07572188 -0.08726279 0.12569043 0.038445156
000190 e5 62 a1 bb 30 37 c6 3c e5 ba 68 3d 1c 12 02 3e
       -0.004925119 0.024196237 0.05681886 0.1270222
0001a0 d0 88 4e bd f0 9f 96 3d 6d 20 0f 3c 18 90 3a 3b
       -0.050423443 0.073547244 0.008735758 0.0028467234
0001b0 c3 53 a4 bd 49 09 b5 3d 70 83 01 bc 2b 6b 9f 3d
       -0.08023789 0.08839662 -0.007904872 0.077841125
0001c0 74 88 31 bd da ed 21 3c cd 67 9c bc 4e ad 8f 3c
       -0.043343022 0.009883368 -0.019092465 0.017538693
0001d0 b6 1d 9e bd e5 c5 61 bc bf a6 2a bc b9 38 ad 3d
       -0.07720511 -0.013780092 -0.010415732 0.084580846
0001e0 d6 b8 cb bd b2 f4 8b 3c ae f2 21 3d ec 87 13 3e
       -0.09947364 0.017084453 0.039538078 0.14407319
0001f0 df e7 90 3d aa 0f b3 3d 10 5d bc bc a5 78 01 bd
       0.07075476 0.08743222 -0.022993594 -0.031609196
000200 f2 26 81 3e 77 d0 45 3c b5 ce a3 3e bb 64 35 be
       0.25225025 0.012073628 0.31993642 -0.17714207
000210 7a 80 d1 bd df dd b8 bd ab 41 f1 3d 43 59 18 bf
       -0.10229583 -0.090266936 0.11780103 -0.595112
000220 8e 8d b2 3e d9 39 05 3e 29 35 0f 3e 89 a0 06 bf
       0.34873623 0.13010348 0.13985123 -0.5258871
000230 6f 8d 9b bd 88 12 30 bf f3 5a 77 be 16 73 15 3c
       -0.07595336 -0.68778276 -0.24155788 0.009121677
000240 89 27 20 bd 1c 0f bb be 59 3b bc 3b 4b 99 7b bd
       -0.039100204 -0.36534965 0.0057443795 -0.06142549
000250 29 6c fd be d6 03 0a 3e c4 4e 4b bd c0 41 89 3d
       -0.49496582 0.13478026 -0.049635664 0.06701994
000260 0c 62 df 3d 89 07 4b be 8c 19 1d be 04 0f ab bd
       0.10907373 -0.19827093 -0.15341777 -0.083524734
000270 16 70 0a 3e 7c a2 a5 3e 23 4f 01 3d e6 f8 e0 3e
       0.1351932 0.32350528 0.03156961 0.43939894
000280 1f a8 a3 3e ef f6 ce 3c cd 0c de bd 84 04 87 bc
       0.31964204 0.025264231 -0.10842285 -0.016481645
000290 ff a9 32 bd bf 8e 20 bf af fb b3 be 55 9f b8 be
       -0.043619152 -0.62717813 -0.35152957 -0.3605906
0002a0 f0 0b 57 3c 5b 2a f8 bd 4f 7f a1 bd e1 e8 21 bd
       0.013125405 -0.12117454 -0.0788561 -0.03952873
0002b0 9b b3 61 bd 65 7a a8 3c b9 6e ca 3d 41 fd dd bd
       -0.055102926 0.020566175 0.098844 -0.1083932
0002c0 c8 6a 0a 3f 0c 6c d6 be 47 e7 76 bd 13 ec ab 3e
       0.54069185 -0.41879308 -0.060279157 0.33578548
0002d0 9e 3a f8 bc 96 94 58 be d6 5c c0 3d c5 ce d1 3d
       -0.030301388 -0.21150431 0.09392707 0.10244516
0002e0 33 04 01 3e 0d 62 24 be c9 9e 22 be 93 88 ad be
       0.12599258 -0.16053028 -0.15880884 -0.3389326
0002f0 ae d9 fd 3e ec 36 21 3d 16 35 2c 3e b1 4e eb 3d
       0.4958014 0.03935902 0.16817126 0.114896186
000300 e2 6b 01 3e ac 04 3e bb 74 8b 23 3e 61 7e b8 3e
       0.1263881 -0.0028994484 0.15971166 0.3603392
000310 23 2b a5 3c 6b d8 7c 3d 4a f5 90 3e a1 62 41 be
       0.02016217 0.06172983 0.2831214 -0.1888528
000320 50 c3 92 3f 44 d8 c2 bc 90 1f ad 3d 8a 1a 8f 3f
       1.1465855 -0.023784764 0.08453286 1.1179974
000330 67 de db 3d 86 33 83 3f 62 bd 50 bd b7 ed ee 3d
       0.10735779 1.0250099 -0.05096186 0.11666434
000340 a4 a5 db 3d cb cf 9a 3e 4a 70 6e 3e b5 5d de bd
       0.10724953 0.30236658 0.23285022 -0.10857717
000350 e2 b6 9b 3e 3c f9 d0 3d 4f 7f ca 3d ca 0d 22 3e
       0.30412966 0.10203788 0.098875634 0.15825573
000360 f4 85 f1 3d d4 9b a0 3e 65 98 48 bc c7 6f 87 3e
       0.11793128 0.31368887 -0.012243365 0.26452467
000370 2b c8 f4 3c d4 9d a7 3d 19 3e 21 3e 05 07 0e 3f
       0.029880604 0.081844 0.15746345 0.5547946
000380 4c 56 85 3f 47 d3 87 3c 95 c3 20 3d 11 65 20 3b
       1.0416961 0.016580237 0.03924902 0.0024474303
000390 ed 8e bf 3d f0 90 a9 3e f5 a7 7b 3d 95 b7 fe 3d
       0.09353433 0.3311839 0.061439473 0.12437359
0003a0 4d 33 17 3e 17 8a 80 bd 7f d7 dd 3e dd 72 ad 3d
       0.14765663 -0.062763385 0.43328473 0.08469174
0003b0 a8 0a 41 3e 43 7d 83 3e d1 44 18 3e 99 4f a1 3c
       0.18851721 0.25681505 0.14870001 0.019691275
0003c0 17 32 25 3e 8f 10 bd 3e d5 28 1e 3e 02 76 4d 3d
       0.16132389 0.36926696 0.15445264 0.05016137
0003d0 48 57 ff 3c a8 17 c5 3c 84 c0 a9 3d 47 b3 f4 bc
       0.031169549 0.024059132 0.082886726 -0.029870642
0003e0 b5 d8 41 bd f9 46 35 3c de e6 d6 3e 84 f0 9b 3d
       -0.04732581 0.0110642845 0.41973013 0.07614234
0003f0 60 9a 1a 3e c9 13 db 3c 87 61 52 3e 29 9f ac 3d
       0.15097952 0.026742833 0.20545016 0.08428795

encoder.bias_hh_l0 f4 [256]
000000 cd 08 cf 3b c0 7a eb 3d 36 c3 cf bd 04 e6 0e 3e
       0.006318188 0.11498022 -0.101446554 0.13954931
000010 61 6c a8 bd 40 8b dd bd 6d 34 8a 3d 6b 60 08 be
       -0.08223797 -0.108175755 0.06748281 -0.1331803
000020 7a d6 92 3f 4b 7d 5d 3d bd f1 bd bd 14 19 85 3f
       1.1471703 0.054074567 -0.092746235 1.0398278
000030 1d 5f 43 be f8 37 91 3f 71 ae c0 bd 24 ac fb 3a
       -0.19079252 1.1345205 -0.09408272 0.0019201082
000040 85 7b 0b be 35 8a b5 3e 8e c5 7f 3c 59 34 4d 3d
       -0.13621338 0.35457006 0.015611066 0.05009875
000050 97 34 7b bc 88 8f 31 be 8d 7b b7 3e f1 47 26 3d
       -0.015332363 -0.17339909 0.3583645 0.040595952
000060 b1 dd da bd 58 4f 04 3f 3a df a1 bd db bc ae bb
       -0.106868155 0.5168357 -0.07903905 -0.005332572
000070 09 b7 37 bc 87 3d 21 3c cb 32 00 3d 15 0c cb 3e
       -0.011213073 0.009841329 0.03129844 0.39657655
000080 3f 43 cc 3c 65 9c 1d bd 2f 6b 58 bd 46 96 8f 3d
       0.02493441 -0.038479228 -0.052836593 0.07011084
000090 42 46 a3 bd 13 14 8b 3f b2 59 59 bd a5 94 73 3e
       -0.07972385 1.0865501 -0.053064056 0.23787172
0000a0 bc bd 9a 3d 72 ae a9 3c da e3 c7 3d f2 c8 f4 3d
       0.0755572 0.020713065 0.09760256 0.1195239
0000b0 ef f1 25 3e ba 90 a8 3c 3a 46 4f bd d5 18 92 3d
       0.16205572 0.020576824 -0.050604083 0.071336426
0000c0 d8 b9 08 3d 86 ce 68 3e 14 4c 49 3c b2 2c 7b 3c
       0.03338036 0.22735032 0.012286205 0.01533048
0000d0 3b 01 8b 3c cd 53 55 3d c7 97 87 bd c6 16 aa bd
       0.01696836 0.05208187 -0.06620746 -0.08305125
0000e0 30 f8 4a 3d 9e f0 84 3d 2e c1 66 3e 1d 1b d9 bd
       0.049553096 0.064912066 0.2253463 -0.106008746
0000f0 a8 a5 69 3e 23 64 00 3e ce 56 b0 3d f9 29 b5 3d
       0.22817099 0.12538199 0.08610307 0.08845896
000100 76 2f 56 3d 50 c0 3a bd 38 22 20 3d d2 ad 7f 3d
       0.052291356 -0.04559356 0.039095134 0.062421627
000110 09 38 39 bd 06 4e b1 bd 18 e3 92 bd ab d5 aa 3d
       -0.045219455 -0.0865746 -0.07172221 0.08341535
000120 94 15 00 3e 12 46 f1 bd 07 8d 26 3d 64 8c f3 3d
       0.12508231 -0.11780943 0.040661838 0.11892012
000130 22 51 15 3e cc 5d 84 3e 87 23 ec bd 09 35 91 bc
       0.14581731 0.2585281 -0.11530214 -0.017725484
000140 fe 47 07 be 1e 5c 5b bd 79 1e 00 bd 5d 9f 96 bd
       -0.13211057 -0.053554647 -0.03127906 -0.07354615
000150 4d e9 39 bd 5c 7f 51 3e ab 79 ac bc 41 49 44 3d
       -0.04538851 0.2045874 -0.02105411 0.047921423
000160 79 7a 3e 3e 35 55 5e 3d 14 d7 9d 3d 0d fa 92 bc
       0.18601407 0.05428048 0.077070385 -0.0179415
000170 60 c1 b8 3d f2 14 22 3e 46 99 c4 bc ef d1 31 3c
       0.09021258 0.15828303 -0.023998868 0.010853275
000180 19 3a 82 bc 6d c2 65 ba 5a e9 2d bd e4 7b e7 bc
       -0.015896844 -0.00087646284 -0.04245887 -0.028257318
000190 ac fb 67 bc 6c cf ef 3b 80 97 3a 3d 24 1a e2 bb
       -0.014159124 0.007318428 0.045554638 -0.006900089
0001a0 66 e8 af bd 81 3b f9 bd 5f 9c 09 3e 95 fa 16 be
       -0.08589248 -0.121695526 0.13438557 -0.14744027
0001b0 a4 da 19 3d e1 04 75 3d 71 76 dd 3d 5a 97 a7 3d
       0.037562028 0.059819106 0.108136065 0.08183165
0001c0 85 69 0d bd 6a cb 86 3d b4 2d 85 bc 3b 76 c5 bc
       -0.03452446 0.06581767 -0.016257145 -0.024104228
0001d0 5b ca ea bd 62 be 49 3d f0 36 f9 bd 93 ba 05 3e
       -0.114643775 0.04925383 -0.121686816 0.13059454
0001e0 d3 6e ce 3d 9f 27 b2 3d ff 7b 47 be 65 c3 ed 3d
       0.10079732 0.086989634 -0.19480895 0.11609534
0001f0 8b 92 02 3c 00 e8 17 3e ef d4 4f 3d 8f b6 01 3e
       0.007969509 0.14834595 0.05074018 0.12667297
000200 b9 e6 2c 3e 67 6f 9b 3d 39 71 41 3e fc e6 25 be
       0.16884889 0.07589608 0.18890847 -0.16201395
000210 f6 8a 9a bc 59 36 8f bc 16 11 9f 3d 9a fe 13 bf
       -0.01886509 -0.01748197 0.07766931 -0.57810366
000220 92 6e af 3e 36 f1 d1 3d b4 3e a9 3e 7d e4 2b bf
       0.34264046 0.102510855 0.3305565 -0.6714552
000230 c0 69 0d bd 19 0c 15 bf 12 f0 cb bc fe 7e ef bd
       -0.03452468 -0.58221585 -0.024894748 -0.11694144
000240 33 db 2d 3e 8d 45 15 bf 95 03 4d bb d8 d9 0c be
       0.16978149 -0.5830925 -0.0031282653 -0.13754976
000250 a0 6f dd be be b9 98 bd 74 2a b4 bd 1f 88 30 3c
       -0.43249226 -0.074573025 -0.0879716 0.010774641
000260 6c 0a 9e bd 55 4b 05 be fc f3 67 bd 1e 61 b1 3d
       -0.077168316 -0.13017018 -0.056629166 0.08661102
000270 fd 7d bc 3b 1c ac b0 3e 79 9c c0 bb aa a3 f1 3e
       0.0057523237 0.3450631 -0.005878028 0.47195178
000280 9a 92 1f 3e 31 7c b5 3d 8c e7 83 bd 07 9a 5b be
       0.15583268 0.08861578 -0.064406484 -0.21445476
000290 7c 12 f8 bd 4f 3d 23 bf 75 f0 b5 be 12 3d 72 be
       -0.121129006 -0.63765424 -0.35535017 -0.23656109
0002a0 06 bb 25 3c af 5f 1c bd da 57 fd bd a7 bb df bd
       0.010115391 -0.03817719 -0.12370272 -0.10924464
0002b0 7d 35 92 bd ab f5 93 3c f9 b3 8d 3c 9e 4c c1 3c
       -0.07139108 0.01806148 0.017297732 0.023596104
0002c0 16 90 04 3f 48 b7 df be 04 db 08 be 3d 78 d4 3e
       0.5178236 -0.4369452 -0.13364798 0.41497985
0002d0 71 c8 f9 bc 1e 44 a4 bd 40 e0 06 bd 4c f5 e6 bd
       -0.030491086 -0.08020805 -0.032928705 -0.112772554
0002e0 b1 11 78 3d f0 de 98 bd 5b 96 c7 bd b8 12 43 be
       0.060563747 -0.07464397 -0.09745475 -0.1905011
0002f0 48 7c 23 3f b5 e9 17 3d 77 57 01 3e 97 24 eb 3d
       0.63861513 0.037088115 0.12631021 0.11481588
000300 1f 7a 0d 3e 29 7d 51 3d ae dc 5b 3e cd 0e 78 3e
       0.13816117 0.051144753 0.21470901 0.24224396
000310 bc 45 87 3e f3 c7 24 be bb 25 a7 3e 4d d5 99 bd
       0.2642039 -0.160919 0.32645974 -0.07511387
000320 55 4d 72 3f ba bc 26 3d 13 c7 13 bc ed 0f 8e 3f
       0.9464925 0.040707327 -0.009019631 1.109861
000330 9b c5 88 3e 92 78 8c 3f 2b d5 02 bd 97 14 56 3d
       0.2671326 1.0974295 -0.031941574 0.05226573
000340 ef 40 39 3b dc d6 ad 3e eb 73 89 3e c9 6c a3 bd
       0.0028267463 0.33952987 0.2684625 -0.079797335
000350 ec b8 68 3e f3 1f cc 3c 8a cc 18 3e 1b d1 91 3d
       0.22726792 0.024917578 0.14921775 0.07119962
000360 1c b5 40 3d 3c f6 b1 3d c1 76 81 3d 9f 1e 95 3e
       0.04704772 0.086895436 0.06321479 0.29124925
000370 6c 13 a6 bd 3a a9 ad bd 6c 92 91 3d c2 de bb 3e
       -0.08109173 -0.08479543 0.07108006 0.36693388
000380 2f 45 80 3f 53 1a 0e 3e 13 d8 05 bd 75 a6 9d bc
       1.0021113 0.1387723 -0.032676768 -0.019244412
000390 86 ed 7c 3e 52 42 fd 3e ea 40 25 bd f6 22 19 3e
       0.24699983 0.4946466 -0.04034511 0.14954743
0003a0 aa 1d 99 bd 33 93 4e bd ce 31 d4 3e a4 09 33 3e
       -0.07476361 -0.05043335 0.41444248 0.17484146
0003b0 fc e1 b6 3a 3a 58 c5 3d 02 c9 da 3d d2 59 21 bc
       0.0013952847 0.096359685 0.106828704 -0.009848075
0003c0 10 5f c1 3e d0 a5 a9 3e a6 7a 37 3e 77 26 b9 3d
       0.3776784 0.33134317 0.1791788 0.0904054
0003d0 c7 b0 9c bd 93 23 d1 bc fc 92 9e 3d 3b 2d cd 3d
       -0.07650905 -0.025529658 0.07742879 0.10018393
0003e0 c3 0f 2b bd 58 d8 d9 3d 52 5e 7d 3e 38 3f 2d be
       -0.04176308 0.106369674 0.24743012 -0.16918647
0003f0 20 c2 2f 3e 49 57 e6 3d d7 ac 44 3e 82 2f 97 3d
       0.17163897 0.11247117 0.19206558 0.07382108

latent.weight_ih_l0 f4 [128, 64]
000000 76 d2 38 be 61 f2 08 bc e5 a7 51 3e ce 58 70 be
       -0.18049034 -0.008358569 0.20474203 -0.23471376
000010 d4 6e 84 bd 0b 6c 1d 3e ea 5e 61 be 9b 6d 77 be
       -0.06466451 0.15373246 -0.22008863 -0.24162905
000020 2e 65 91 3e b5 86 d4 3b 9d 34 75 3e e5 bc b5 be
       0.28397506 0.006485785 0.23945852 -0.35495678
000030 13 d6 8a 3e fb b9 b1 be 48 b6 02 3d 82 77 e5 bd
       0.2711645 -0.34712204 0.03191212 -0.11204435
000040 c9 c1 61 be 66 d9 4e bd dd 7c 80 3e 4b 1a dc 3d
       -0.2204658 -0.050500296 0.25095263 0.107472025
000050 98 82 0a 3c 1a 25 37 3e 45 1c 1c 3d c8 8d 6a 3e
       0.008453988 0.17885247 0.038112897 0.22905648
000060 fb 2a 08 3f 95 75 2a 3d 72 4d 82 bc 59 15 c8 3d
       0.53190583 0.04161604 -0.01590607 0.09769697
000070 6c d2 43 3e bf f5 76 3e c9 d7 a4 3e 7c 18 21 3e
       0.19123238 0.24117182 0.3219588 0.15731996
000080 f3 f1 7e 3c 88 b7 83 bd 99 eb 39 be fb e0 7e be
       0.015560615 -0.0643149 -0.1815628 -0.2489051
000090 6f 64 2d be e7 08 52 be 4d 22 0c bd ae a4 7b be
       -0.16932844 -0.20511208 -0.0342124 -0.24574539
0000a0 40 e0 25 3f 4c 18 33 bf 9a c5 ab be 73 56 74 bd
       0.64795303 -0.6995895 -0.33549196 -0.059652757
0000b0 45 1f 1c bf 45 66 81 3e 4c 97 57 be 53 f7 75 3d
       -0.60985214 0.25273338 -0.21053809 0.06005032
0000c0 a1 70 4b 3d 73 0c 85 be 1e a8 a1 bd 73 e4 98 3e
       0.04966796 -0.2598606 -0.07893394 0.29861793
0000d0 14 e2 8d be cc 19 55 be b5 0d 71 be dc 6c cc 3c
       -0.27711546 -0.20810622 -0.23540385 0.024954252
0000e0 4a ac 40 3e ef a2 95 be f6 e7 39 be e1 e7 83 bd
       0.18815723 -0.2922587 -0.18154892 -0.06440712
0000f0 07 a7 ab 3d 43 35 c1 be 72 98 ac be 73 55 c3 3e
       0.08381467 -0.37735948 -0.33710057 0.3815113
000100 4a 5d 98 bd 29 cf 50 3e 1a 64 a8 3e d7 2d 06 3d
       -0.074396685 0.20391525 0.3288887 0.03275856
000110 c5 18 a2 be b9 0b dd be 56 5c 68 be f1 c0 72 be
       -0.31659523 -0.43173006 -0.22691473 -0.23706414
000120 f3 34 81 3e 79 d5 2e 3d 0c d9 78 3d e0 d7 60 be
       0.2523571 0.042684052 0.060753867 -0.2195735
000130 3f ec f7 3d d0 9d 34 be 2f c8 0d be 8f 2d 7f be
       0.12105607 -0.17638326 -0.13845895 -0.24919723
000140 4a d0 3c be c8 1e ec bd de 06 ab 3e ba 37 7c 3e
       -0.18438831 -0.115293086 0.33403677 0.24630633
000150 1c 11 e1 bd a7 9e b3 3e 4f c7 a3 3b 70 65 88 3e
       -0.109895915 0.3508198 0.0049981247 0.2663989
000160 33 96 bb 3e 8d 13 96 bd 6a e2 19 3e 1a 9e e5 be
       0.3663803 -0.07327948 0.15027776 -0.44847184
000170 fd 4e b8 3a 69 b5 60 3d 12 fc 8a 3e 80 db 1b 3e
       0.0014061626 0.054860506 0.2714544 0.15220451
000180 cc d4 5f bd 17 5e 8f bd 9e 22 89 be c4 5e 2a bd
       -0.0546463 -0.07000368 -0.26784223 -0.04159428
000190 e9 a0 4d be e3 ce 2d be a6 0a 91 bd a8 b3 06 be
       -0.20080914 -0.16973452 -0.07082109 -0.13154471
0001a0 1b 19 8d 3e 94 35 d4 be 28 57 cb bd 20 42 73 be
       0.27558216 -0.41447127 -0.09928733 -0.23755693
0001b0 4f 41 f8 be 48 52 40 be c5 04 90 3d f0 92 18 3d
       -0.48487327 -0.18781388 0.0703216 0.037249506
0001c0 2d ef 12 3d 2e 1e 4a be 47 d9 73 be 0f 3f da bc
       0.035872627 -0.19738075 -0.23813353 -0.026641397
0001d0 dd 1b fa bd d2 e5 f2 bd 7f 7c 43 be 88 7d 6d 3c
       -0.12212346 -0.11860241 -0.1909046 0.014495261
0001e0 d5 78 08 bd 29 90 ef bd 51 1c 81 bd 30 e1 23 be
       -0.03331836 -0.11697418 -0.06304229 -0.16003871
0001f0 d4 de 72 3c 27 6d 1a be d5 7f 60 bd 91 aa 02 3e
       0.014823634 -0.15080701 -0.05480941 0.12760378
000200 7f bd 58 3c e3 e3 0f 3e 98 df a2 bd 63 55 0a 3d
       0.013228773 0.14051776 -0.079528034 0.033772837
000210 a5 bd df be 35 7d 36 be 22 34 e6 be f5 2e 96 be
       -0.43699375 -0.178212 -0.4496165 -0.293327
000220 73 ad 89 3e 88 82 f1 3c 77 18 19 3e ed 29 b7 3c
       0.26890144 0.029481187 0.14950739 0.022358859
000230 2b 6d 9b 3e de 9d d8 bd 88 ba 8a be 48 e4 d8 bc
       0.30356726 -0.10576986 -0.27095437 -0.02647604
000240 68 de 93 bd 41 6a 50 bc 70 1a d1 3e 05 3e 0a 3e
       -0.07220155 -0.012720645 0.40840483 0.13500221
000250 5b bf b0 bd ac 7f 0d bd a0 52 99 3c 39 ea 16 3e
       -0.08630248 -0.034545586 0.018716156 0.14737786
000260 82 5d 61 3e 6f 82 34 be a9 6b aa 3d 94 58 16 bf
       0.22008327 -0.17627881 0.08321316 -0.5872891
000270 ad d1 61 3e b4 72 2e 3e 12 03 8e 3e a4 6f 76 3e
       0.22052641 0.17035943 0.27736717 0.24066025
000280 a0 26 ca 3e 8b b6 8e be 3b c1 b7 bc 72 ad 80 be
       0.39482594 -0.27873644 -0.022431007 -0.25132328
000290 8a 1d 23 be db 50 73 be 6f 0c 81 3c 74 22 ff 3c
       -0.15929237 -0.23761313 0.015753 0.031144358
0002a0 05 f2 ce bd 35 21 d9 bd 3d 8e 44 be f2 8a 5d 3d
       -0.10104755 -0.10602037 -0.19194885 0.054087587
0002b0 ca ac 4e bd 7d 16 57 3d 30 3a ef 3b 99 24 f6 3d
       -0.050457753 0.05251168 0.0073006377 0.12018699
0002c0 96 5e b7 bc ae 6a 78 be 35 e1 e4 bb de 5c 57 bc
       -0.02238397 -0.24259445 -0.0069848546 -0.0131447
0002d0 f2 71 32 3d ab e4 e3 bd 0b 26 ce bd bf 9c fe 3b
       0.043565698 -0.11127599 -0.1006585 0.0077701504
0002e0 94 63 3d be c0 f5 18 be e4 51 a5 be 4f 87 8c be
       -0.18495017 -0.14937496 -0.3228904 -0.27446982
0002f0 d6 f2 9b 3e 37 40 eb 3d 00 b7 01 be 6e 7e ff 3d
       0.30458707 0.114868574 -0.12667465 0.124752864
000300 b5 05 75 be 97 b9 0c bd 38 39 8f 3e 2b bb f5 bd
       -0.23927958 -0.03435668 0.27973342 -0.1199859
000310 15 16 d7 bc cb 63 ac bd 79 47 b9 bc ca e7 35 bc
       -0.026255647 -0.084174715 -0.022617089 -0.011102626
000320 dc d0 73 3e e9 09 e2 3d 61 dd 7f bb 28 1f 8f be
       0.23810142 0.110370465 -0.0039041864 -0.27953458
000330 13 fb 98 3e f7 2e a5 bd 73 5f e9 bd 9c ef 14 be
       0.29879054 -0.080655985 -0.113951586 -0.14544529
000340 81 80 a7 bd ad bd 20 bd c2 bc 05 bd 2a 3a 88 bd
       -0.08178807 -0.03924339 -0.032650717 -0.06651719
000350 91 a5 9b be 38 f2 06 3e 3d a1 a5 3d 3c 9b 93 ba
       -0.30399755 0.13178337 0.080873944 -0.0011261473
000360 7e b7 a5 3e 6c b0 02 be ad f0 90 3e 99 7b 09 3e
       0.32366556 -0.12762612 0.2830862 0.13426055
000370 bc 1f db 3c 89 30 33 3e 0f 77 11 3d a9 ce 6e 3e
       0.02674853 0.17498983 0.035513934 0.23321022
000380 84 2a 39 3e 3c f9 c1 bd 0e 9d 2d be 24 8f 78 be
       0.18082625 -0.09471366 -0.16954443 -0.24273354
000390 21 96 95 be 34 35 4c 3c c9 36 99 bd aa 8e b5 3a
       -0.29216102 0.0124638565 -0.074811526 0.0013851721
0003a0 2c a9 ed 3e 56 45 37 be 6e cf c6 3d 89 30 2a bd
       0.4641813 -0.17897543 0.09707533 -0.041550193
0003b0 3d bf 30 be 83 bb 35 bd ff a4 0c bd 93 8c 38 3e
       -0.17260452 -0.04436828 -0.03433704 0.18022375
0003c0 11 51 c0 39 6e b3 21 be 24 af 31 be 83 5c e9 3d
       0.00036681493 -0.15791103 -0.17351967 0.11394598
0003d0 24 d3 b0 bc da a2 7b be 29 74 f9 bd 34 1f eb bd
       -0.021585055 -0.24573842 -0.12180359 -0.11480561
0003e0 f6 59 db bd b8 56 79 3d c2 1c 65 be 80 7f 3d be
       -0.10710518 0.060873717 -0.22374251 -0.18505669
0003f0 ba 0a 8b 3d 44 7c e3 bd b1 9e 8c bd 1e 3c 44 3e
       0.06789155 -0.11107686 -0.068662055 0.19163558

latent.weight_hh_l0 f4 [128, 32]
000000 40 08 1a 3f ff ff 51 be 12 73 a0 3e 3e 07 c0 be
       0.6016884 -0.20507811 0.31337792 -0.37505525
000010 05 ef d0 3d aa 87 07 3e 27 17 aa 3d f9 6b 35 3e
       0.10201839 0.13235345 0.08305197 0.1771697
000020 03 00 a0 bd 1f 46 f6 3d 7c 08 2e be 33 9e c1 3e
       -0.07812502 0.12025093 -0.16995424 0.3781601
000030 c9 00 6f bc b4 7e 3c be 41 81 e6 3d c2 58 e3 3d
       -0.01458759 -0.18407708 0.11255122 0.111009136
000040 b3 f4 40 be 4d 2a 37 3e 82 73 90 3e df 06 b8 3e
       -0.18843345 0.1788723 0.28213125 0.35942742
000050 b4 d0 34 bd ad 8c ac bc bf 57 ab be ab 73 34 3e
       -0.044144347 -0.021063173 -0.33465382 0.17622249
000060 0f e8 6d 3e 19 ed ba 3d 9a 00 35 bd 81 2b 4f be
       0.23233055 0.09127254 -0.044190027 -0.20231439
000070 fa d4 22 3e 54 4c da bc 40 69 75 3d f1 2a e9 3e
       0.15901557 -0.026647724 0.059914827 0.45540574
000080 5d bc 38 be 00 b5 7b bc 00 e0 e9 3d f3 d3 82 bc
       -0.18040605 -0.015362978 0.11419678 -0.015970206
000090 d0 21 be 3d ec 3a a2 3e 5d 41 22 3e 5d 93 db bd
       0.09283793 0.3168558 0.15845247 -0.10721467
0000a0 c2 04 01 be e5 c9 8f 3d c8 e3 6f bd 55 a2 ba 39
       -0.12599471 0.0702093 -0.05856684 0.0003559763
0000b0 45 a1 0e bd de c9 40 3b f0 60 e5 3a 57 f5 d0 3d
       -0.034821767 0.0029417197 0.0017500203 0.10203045
0000c0 f1 82 86 3e f7 7e 46 be e0 5c 50 be 2e 78 9e bc
       0.26271775 -0.1938437 -0.20347929 -0.019344416
0000d0 a1 bd 45 3e 1f 58 93 3e 5c d9 25 3e e3 2d f7 bd
       0.19310619 0.2877817 0.16196197 -0.12069299
0000e0 11 b4 96 be d2 23 7e 3d fd 40 38 be 60 b5 87 3d
       -0.29434255 0.06204588 -0.17993541 0.066263914
0000f0 4a d9 0b 3d 58 de 2b be f6 86 55 bd 73 6d 81 bd
       0.03414277 -0.16784036 -0.052130662 -0.06319704
000100 3f ed 78 be e3 d7 8c 3e 0f 60 ae bd 2f a6 16 bf
       -0.24309252 0.27508458 -0.085144155 -0.58847326
000110 93 c7 96 be b4 bf 0d bf 64 b7 15 3f f6 bd 8a 3e
       -0.29449138 -0.5537064 0.58482957 0.27098054
000120 dc 5e 4e be 4d 66 f5 bd 0b 93 1b bf 94 ef 9d 3c
       -0.20153373 -0.11982403 -0.60771245 0.019279279
000130 a8 4a ad bd 53 4c 16 be ce 4a 89 bd e1 f9 dd bc
       -0.08461505 -0.14677553 -0.06703721 -0.02709669
000140 22 d8 2e bd 61 9c e3 3e 15 bd 2c be 73 91 70 be
       -0.04268659 0.44455245 -0.16869004 -0.23492984
000150 24 fe f6 bd a3 1b 89 bd 62 95 dd 3b 38 5c 9a be
       -0.12060192 -0.066947244 0.0067621926 -0.30148482
000160 b7 51 0c 3e e3 34 66 be a3 ae 0a bf 78 cf 4b 3e
       0.13703047 -0.22481112 -0.54172724 0.19903362
000170 90 99 16 bc a0 e1 0e 3f b8 c1 53 be 98 f0 e6 bd
       -0.009191886 0.55813026 -0.20679367 -0.11276358
000180 22 e5 b3 3d d9 fe 26 3e a7 29 ce be 41 c1 b2 bd
       0.08783938 0.16308154 -0.40266153 -0.087282665
000190 3e db 1c be 8c 75 4d be 57 07 a1 b9 d8 91 8d bd
       -0.1531801 -0.20064372 -0.00030713782 -0.06912583
0001a0 61 19 3a 3e 91 8f da bd 03 6f a4 be b7 d1 8a bd
       0.18173744 -0.10671914 -0.32115945 -0.06778281
0001b0 d4 0e 6f be 75 df 1e be aa d5 06 3d a8 2c 0b 3e
       -0.233455 -0.1551493 0.03291861 0.13591254
0001c0 43 9a 3a bd 10 83 c9 3e be 7c 05 3d 83 dc a0 3c
       -0.04555727 0.39357805 0.032589667 0.019636398
0001d0 b2 1d d0 bc 90 88 17 be 5b 42 3e 3e 3f f2 2f 3e
       -0.025404785 -0.14798188 0.1858 0.17182253
0001e0 15 f3 85 bd aa f8 17 3e 9a f4 1f 3c 1e 1f 68 be
       -0.06540505 0.14840952 0.009762907 -0.2266812
0001f0 c5 17 26 be 86 20 a0 3d 82 10 8d 3e bf 35 01 be
       -0.16220005 0.07818703 0.27551657 -0.12618159
000200 a2 2f 77 3c c3 b1 93 3d 83 8e 26 3e 2a 8b 5c 3e
       0.01508704 0.0721164 0.16265301 0.21537462
000210 bb 56 33 3e 5b 49 c5 3d 95 a6 4d be 0e da e0 3d
       0.17513554 0.09633132 -0.20083077 0.10979091
000220 70 35 07 bd e8 c3 16 be 52 ff a1 bd c8 cb 85 3d
       -0.033009946 -0.1472317 -0.079100266 0.06533009
000230 a3 b4 49 be a9 12 dd bd b0 d1 ce bd 4c b0 84 be
       -0.19697814 -0.10794575 -0.100985885 -0.25915754
000240 c4 fe a2 3d 76 ba 27 3e 79 30 18 be 4b fa 8b be
       0.07958749 0.16379723 -0.14862241 -0.27339396
000250 7e 44 ad bd 57 fd 7e 3e bc 1e 09 3d 9d 20 52 be
       -0.084603295 0.24901329 0.033476576 -0.20520253
000260 f5 89 f6 bc 7b f9 fd bd cc ad 10 be 7d 58 f5 bc
       -0.03009508 -0.124011 -0.14128798 -0.029949421
000270 5b 07 f1 bd 6b a2 27 3e 00 dd 0a 3e e6 22 5b 3d
       -0.11768981 0.16370551 0.13560867 0.05350008
000280 30 72 5a bd 8e 5d 46 3d 46 5f 83 be 0a b3 56 be
       -0.053331554 0.048429064 -0.25658625 -0.20966735
000290 e0 c5 ac be d8 bf ce be a8 6c af 3e f7 ed b5 3d
       -0.33744717 -0.4038074 0.34262586 0.08883279
0002a0 3f 32 8c bc 4b d4 c1 bd ea 3b 3c be 2e a2 2e 3c
       -0.017113803 -0.0946432 -0.1838223 0.010658784
0002b0 39 e8 8b bd dd 0a 1a bd d1 5c 57 3d aa 43 15 3c
       -0.06831402 -0.037608016 0.05257875 0.009110371
0002c0 7e a3 53 3e f0 f2 85 bc 48 46 53 bd 60 48 46 be
       0.20667836 -0.016351193 -0.051580697 -0.19363546
0002d0 57 60 85 3c f0 2c 70 3d c9 0b fd 3c 39 9d 91 3d
       0.01628129 0.058636606 0.030889409 0.07110066
0002e0 43 ed f8 bd d2 e2 1d bd 3e 78 49 be 85 8d 02 bd
       -0.12154629 -0.03854639 -0.19674775 -0.031873245
0002f0 36 cc a9 be 8f 46 08 be b8 d3 4c 3e 27 2b 9f 3e
       -0.33163613 -0.13308166 0.2000264 0.3108761
000300 b9 85 49 3e 8e c8 0f 3e 3c 3a 53 3d 62 92 07 be
       0.19679917 0.1404135 0.05156921 -0.13239434
000310 e1 a3 d7 bd 82 c4 9f be 7f b8 f3 3e 71 9a 8a 3e
       -0.10529304 -0.3120461 0.47601697 0.27070954
000320 66 de ac 3d af 08 8b 3d d8 da 56 be e3 c9 44 3e
       0.08440857 0.06788766 -0.2098192 0.19217639
000330 2a 69 7c 3e 84 ae 51 3c 48 8f d0 bc ac bd cf bb
       0.24649492 0.012797955 -0.025458947 -0.0063397493
000340 ef 75 6a be ec 65 ab 3e f9 c7 ca 3d b6 33 5c 3e
       -0.2289655 0.33476198 0.09901423 0.21504101
000350 1f f0 85 be 3b d3 25 be 9f d4 96 bd c0 e1 bc 3d
       -0.2615976 -0.1619386 -0.07364773 0.09222746
000360 25 d0 44 3e f4 c3 22 3e d7 74 29 3d e9 45 8c 3d
       0.19220026 0.15895063 0.041371193 0.06849272
000370 66 70 7f 3e c2 0f a0 3d 70 b9 8f 3d 43 2c dc bd
       0.2494522 0.078155056 0.07017791 -0.1075063
000380 63 57 48 3d 39 2c 2d 3e 02 d1 a4 3e 25 1d b2 3d
       0.048911463 0.16911401 0.3219071 0.08696965
000390 b1 d5 bf bd 45 1c a9 be b0 53 30 3d d0 6c 1c bc
       -0.0936693 -0.3302938 0.04304856 -0.009547427
0003a0 a6 00 12 3f c6 3c 50 3e 11 d9 b9 be 75 3f df bd
       0.5703224 0.20335683 -0.3629842 -0.10900775
0003b0 af f6 e2 bd 37 45 13 3d 70 e3 41 3c 83 e6 b3 3c
       -0.110822074 0.03595468 0.0118340105 0.021960502
0003c0 62 44 50 3c 51 4f 74 3e d8 5f 1e bd 6f f1 c9 bd
       0.012711616 0.23858382 -0.038665622 -0.09860503
0003d0 8f da 91 bd e8 91 d3 bd 60 44 3d 3e c4 78 af bc
       -0.07121765 -0.10330564 0.18483114 -0.02141989
0003e0 4b 7d 46 3d 24 32 01 3e 5d 73 03 3d 52 ed b0 3e
       0.048459332 0.12616783 0.03209244 0.3455606
0003f0 b9 74 81 3e ab bb 3e 3e 77 e2 8f 3e 73 c2 14 be
       0.25284365 0.18626277 0.28102466 -0.14527301

latent.bias_ih_l0 f4 [128]
000000 5d 4e 37 3d 46 d8 a7 bc 52 16 12 3e 2e 01 36 3e
       0.044752467 -0.02048887 0.14266327 0.17773888
000010 85 fe 13 bd 87 64 52 3e fb 0d 12 3e de b6 0a 3e
       -0.0361314 0.2054616 0.14263146 0.13546321
000020 c4 cd 39 3e e2 2a 09 3e 86 8b 01 bb ec 07 05 3d
       0.181449 0.13395265 -0.0019767 0.032478258
000030 c7 d9 4d 3e e4 03 c6 bb 33 6a 90 3e ca 5e a1 bc
       0.20102607 -0.0060429443 0.28206024 -0.01969852
000040 c7 cd ff 3d 49 26 46 3e 62 e8 61 bd ca 11 48 3e
       0.12490421 0.19350542 -0.05515326 0.19538036
000050 47 3c 73 3d 8b 45 5b bc 88 ef e8 3d 1a 98 6c 3e
       0.059383657 -0.01338328 0.11373812 0.23104897
000060 18 33 62 3e 1f 7b 25 3e 17 e3 01 3f b8 c5 a2 bd
       0.22089803 0.16160248 0.50737137 -0.07947868
000070 76 97 fc 3d 51 fb 9a 3e 59 a9 6e 3e a1 49 81 3e
       0.123335764 0.30269864 0.23306789 0.25251487
000080 51 12 1c 3d 70 81 39 3e 96 60 d9 3d 06 d6 92 bc
       0.038103405 0.18115783 0.106141254 -0.01792432
000090 cd e1 6c bc 10 9d e4 3d f3 d3 cf 3c 1b 57 7f 3e
       -0.014458132 0.1116277 0.02536962 0.24935572
0000a0 a7 bd 2e bd 13 3c 0e be 9f 84 e6 bd bf d6 21 bd
       -0.042661335 -0.13890104 -0.11255764 -0.03951144
0000b0 09 b7 87 bc 08 88 d2 bd 53 cf d9 bd ad ee 20 3e
       -0.01656677 -0.10279852 -0.10635247 0.15716048
0000c0 c9 bf 78 ba db 6c 51 3e 76 03 b8 bd ad 8f ac bd
       -0.00094890274 0.20451681 -0.08985035 -0.084258415
0000d0 1c 28 07 3d d2 f0 cf bc c5 85 db bd 79 b1 0e 3c
       0.032997236 -0.025383387 -0.10718874 0.008709305
0000e0 ff bb 03 bb 4f 88 95 3d b4 46 d9 bd b0 83 5f bc
       -0.0020101068 0.073013894 -0.10609189 -0.013642237
0000f0 b4 8b 33 3e 15 ca cc 3b a8 1c a2 bd 68 56 bd bd
       0.17533761 0.006249676 -0.07915622 -0.09244996
000100 c2 9f e3 3d 3c 3f 92 bd 56 fe 7b 3d 65 25 26 bd
       0.11114456 -0.07140967 0.06152185 -0.040563006
000110 cf 75 25 3e a8 8e e5 3d 35 d3 f0 ba f6 9f e9 3d
       0.16158222 0.1120885 -0.0018373491 0.11407463
000120 12 3d 19 be 0b e2 35 bd d5 04 99 bd 31 89 8a 3d
       -0.14964703 -0.044405024 -0.07471625 0.067644484
000130 95 03 a0 3c a4 40 21 be 0f 1c 0b 3d 9f 1d ca bd
       0.019532958 -0.15747315 0.033962306 -0.09868931
000140 cc 26 b3 3d d5 e9 f5 bd 50 03 02 be e3 51 fb bc
       0.08747634 -0.120074905 -0.12696576 -0.030678695
000150 a3 96 ca bc 64 e8 0f 3e b0 1a e5 3b 62 48 16 be
       -0.024730032 0.14053494 0.006991707 -0.1467605
000160 b0 d4 de 3d 50 04 80 3d 27 df 41 3e b0 71 9f 3d
       0.10880411 0.062508225 0.18932782 0.07785356
000170 12 5e c0 3c f7 c6 1c 3b 57 df 2a be 62 bf cb bd
       0.023482356 0.0023922303 -0.1668676 -0.09948613
000180 5f 97 91 3e a9 01 05 3e 40 43 80 3e 3e ec 96 3e
       0.284358 0.12988915 0.25051308 0.29477113
000190 d4 7d c6 3c 87 4a cc 3d ff 6e db 3d bf 99 b5 ba
       0.024229921 0.099751525 0.1071453 -0.0013855024
0001a0 03 02 6c 3e 74 81 f9 3d 17 89 5b 3d 87 a0 6b 3e
       0.23047642 0.12182894 0.053597536 0.23010455
0001b0 a7 8f 74 3e 20 6f bb 3e fb 34 52 3e 5d a0 d8 bd
       0.23882924 0.3660822 0.20528023 -0.10577462
0001c0 c8 80 1a 3d 09 5d 52 3e b9 1b 71 3d ae a0 ee 3d
       0.03772047 0.20543303 0.05886433 0.11651741
0001d0 09 6b e2 3d cf f0 60 3e ed 37 03 3e a3 e1 1c 3e
       0.110555716 0.21966861 0.12814303 0.15320449
0001e0 4f b9 62 3e db 24 9d 3e d2 bc e0 3e c5 41 bc 3c
       0.22141002 0.3069218 0.43894058 0.02298058
0001f0 25 3e 68 3c c5 13 86 3d 34 a5 33 3d 2b da 11 3e
       0.014174973 0.065467395 0.04385872 0.1424338

latent.bias_hh_l0 f4 [128]
000000 4f a6 50 3d 21 9b 7e bd 53 ad 91 3d 1b db c4 3d
       0.050939854 -0.06215966 0.07113137 0.096121036
000010 40 2e 8c bc 92 ee dc 3d 47 56 a3 3c 12 de 35 3d
       -0.017111897 0.10787691 0.019938601 0.044401236
000020 a7 31 9f 3d 10 0e eb 3d 60 02 55 bd 59 f0 12 3d
       0.07773142 0.114772916 -0.052004218 0.035873745
000030 0b 42 e9 3c d9 2b 81 3e bc c6 93 3b 83 12 19 be
       0.028473875 0.25228766 0.004509775 -0.14948468
000040 31 78 1c bd d0 a6 8f bd db ae bb 3d e2 45 ba 3c
       -0.03820056 -0.07014239 0.091642104 0.0227384
000050 2f fd 5f 3e 4c 44 40 3e cf 9a cb bd 82 34 4c 3e
       0.21873926 0.18776053 -0.09941637 0.19941905
000060 3e 6a 64 3d 39 df a0 3e 03 17 71 3e 35 0c 1f bc
       0.055765383 0.31420305 0.23543935 -0.0097075
000070 ef 21 4a 3e 12 79 ac 3e 8c d5 c9 3c 71 81 2c 3e
       0.19739507 0.3368612 0.02463796 0.16846253
000080 c0 fd 7a bd f1 88 ba 3d 76 11 12 3e 63 c3 e9 3d
       -0.06127715 0.09108151 0.14264473 0.1141422
000090 2f 74 3e 3e f8 b6 35 be 30 3f db 3c d9 68 1c 3e
       0.18599008 -0.17745578 0.026763529 0.15274371
0000a0 8d 2d a7 bd 4c 30 04 bd 21 32 98 bd 95 d0 e3 bd
       -0.08162985 -0.032272622 -0.07431436 -0.11123768
0000b0 bd dd c4 3d 48 a2 56 bd cf 64 98 bd b4 d3 8e bd
       0.09612606 -0.052400857 -0.07441103 -0.06973973
0000c0 47 c1 5f bd eb d4 a1 3d 2f 16 57 be f0 28 c1 bd
       -0.054627683 0.07901939 -0.21004556 -0.09431636
0000d0 2b 35 97 3d 59 b5 f6 3b 76 1e 17 3e d6 86 e6 bc
       0.07383188 0.0075289425 0.14757714 -0.028140467
0000e0 18 e3 2c be f5 b9 2a be 2f ee ce 3d 94 df 80 3d
       -0.16883504 -0.166725 0.10104024 0.06292644
0000f0 20 d4 21 3d 90 b7 2a 3e 72 37 01 be 27 6a 06 bd
       0.03950894 0.16671586 -0.12618807 -0.03281608
000100 03 d8 0b be 0d b1 35 bd de 01 96 bd e0 5c 20 be
       -0.1365662 -0.044358302 -0.07324575 -0.15660429
000110 c2 ae 97 3a 2b 9e 0b 3e 5e 41 06 be 8f ca a4 3d
       0.0011572468 0.13634555 -0.13110873 0.080464475
000120 ad 3f 0f bd 80 76 7f 3d e0 36 80 bd 0e 0e 89 bd
       -0.034972835 0.06236887 -0.062604666 -0.06692134
000130 1a 80 7c 3d bd a7 0f be b9 f8 f0 3d 54 a4 b4 3d
       0.061645605 -0.14028831 0.1176619 0.088204056
000140 ec 57 c8 3d 11 3f 86 3d 44 67 c3 3d da e5 96 3c
       0.09782395 0.06554998 0.09541181 0.018420149
000150 c2 79 c9 bc 98 72 d1 3d 52 49 36 3d 2f 52 8c bb
       -0.024594191 0.10226935 0.044503517 -0.004282258
000160 a9 8e 42 bd ac 3a 0e 3e f9 35 c4 bd f4 8a 39 be
       -0.047499333 0.13889569 -0.09580607 -0.18119413
000170 25 b6 07 3d 39 d7 43 bd f9 45 f1 bc aa 0f 3d 3d
       0.03313269 -0.047812674 -0.02945231 0.046157517
000180 b2 57 01 3e 61 89 18 3d 10 79 e7 3e a1 f0 fb 3d
       0.1263111 0.03724039 0.4520955 0.12301756
000190 f2 fa 0f 3e 07 bb 4f 3e d6 ea 6e 3d d7 8b 5d 3e
       0.14060572 0.20286189 0.058329426 0.21635376
0001a0 cf ac 75 3e 4d b1 01 3e a8 af 89 3d e8 00 bf 3e
       0.23991702 0.12665291 0.06722957 0.3730538
0001b0 6a 51 80 3e 85 c1 9f 3d 06 4d 83 3d 5a e7 d9 bd
       0.25062114 0.07800583 0.064111754 -0.1063983
0001c0 c4 80 79 3d 10 36 2c bc b3 57 10 3e b1 2b 12 3e
       0.060913816 -0.010510936 0.14095955 0.1427448
0001d0 58 e0 73 3d eb f0 80 3e ca 5f 1e 3e 7d 6c bf 3e
       0.059540123 0.25183806 0.15466228 0.37387457
0001e0 55 6b 04 3e 27 89 65 3e a9 b5 f1 3e 16 91 ad bc
       0.12931569 0.224156 0.47208908 -0.021187346
0001f0 3d 9d 5a 3e 47 25 7d 3e 00 8c 84 3e b3 65 87 3e
       0.21349044 0.24721251 0.25888062 0.26444778
