saved_models/AD_autoencoder_ep3_loss1.7857.pth (torch, 257618 bytes, 14 tensors)

encoder.weight_ih_l0 f4 [256, 28]
-0.028439919 0.0068888874 0.0065006292 -0.017965673 0.00082773506 0.004161854 0.0029429144 0.002287924
0.0031677322 -0.00078147574 0.0014366999 -0.00847098 -0.004218853 -0.0070758173 0.021997433 0.0032514385
-0.0010799421 3.485244e-05 0.02818254 -0.008750847 0.062369574 0.014285078 0.0002718967 0.027675297
0.041692477 0.051870268 0.009571095 0.01529464 -0.07174765 0.012680747 0.004570402 -0.014539654
0.022000497 -0.00022731401 -0.00022708383 0.002250121 0.0020299642 -2.4876827e-05 0.0013005139 0.0037375896
-0.012236867 -0.018233115 0.013144645 0.0014733515 -0.0016877787 0.0001456036 0.07260815 -0.004879356
0.019608527 0.00074632873 0.00018529687 -0.014106381 0.07881214 0.022308217 -0.005643634 -0.0034068015
0.03681211 -0.004402417 -0.0005190702 -0.0015944655 0.0057496177 7.002359e-05 0.0002566676 0.0010828321
-0.00069651386 -0.00044754424 0.00057275436 2.071993e-05 -0.0014143905 -0.0038632215 -0.00019535028 0.00066952937
-0.0013949982 -0.0002426766 -0.035869397 -0.00017761851 0.009047906 0.00068314216 -6.1984814e-05 -0.0202506
-0.0005969051 0.0035037068 0.0010678888 0.015240675 0.08030216 -0.01217373 -0.008035417 4.168992e-05
-0.005280163 0.00120949 -0.000581508 3.2490094e-05 -0.0035788072 0.00034349636 0.00038717224 0.0006134988
-0.011343452 0.005069186 0.020337544 0.00058363244 -0.001297487 -0.000515953 -0.07909645 9.1611895e-05
0.024528896 -0.0015443979 7.981819e-05 -0.03406443 4.393195e-05 0.0416175 0.0028085457 -0.0014550864
0.013517359 -0.0009425645 -0.00037094098 0.0005482684 -0.0066520083 -8.8458124e-05 -6.2802486e-05 -0.000372471
-0.0004951172 0.00012154122 0.00049668417 0.000579762 -0.0005231051 0.0041070455 0.006232142 0.00023365807
-0.00026892903 0.00019120402 -0.012725711 0.0009594777 -0.008381569 0.00029376123 -0.000115480485 0.010021579
0.00019032169 0.01378075 0.00023035165 -0.07405869 0.0038600208 0.00030429076 -0.00045282088 -0.0018485492
0.002370694 3.3906646e-05 -0.00016090722 0.0001816116 8.671094e-05 6.236944e-05 -0.00017177731 -0.0006911091
-0.00018469107 -0.0014079907 -0.00061172416 0.00040085742 -0.00011685451 -0.00032179302 -0.003276682 -9.227333e-05
-0.0014153667 -0.00012002263 6.203107e-05 0.00058023504 0.0016931534 -0.0015180139 -0.0006364129 0.00012402066
-0.0040832767 0.0009846628 0.0007423885 -0.0054683527 -0.0016622045 -6.129919e-05 -0.00032034365 -0.00041277186
6.8174566e-05 -0.00031042926 -7.225906e-05 -5.6504527e-05 2.5134255e-05 0.0012379937 0.00031616093 -0.00036283644
0.00030265318 0.00027893428 0.0034515802 0.00013578226 -0.0010028576 0.0003316773 -0.000111555484 0.0024679573
-0.0032277042 0.0008308539 -0.00087227207 -0.0006253193 -0.017846989 -0.004549996 -0.029022448 -0.03264096
0.008577097 0.022110837 0.008594006 0.00865782 -0.018856432 0.0005990813 -0.0016370591 0.0063697454
-0.024100682 -0.011172564 0.033524 -0.0067455363 -0.0013513308 -0.0008570775 0.019399531 -0.007288446
0.16564515 0.007327521 -0.0009183222 -0.07742544 0.0006653181 0.056119334 0.027788593 0.01592203
-0.010313156 -0.26467693 -0.19094735 -0.6615607 -0.056225725 -0.10977914 0.007740821 0.040473852
-0.050837055 0.022329245 -0.045811888 -0.44278768 -0.01868518 0.13547526 0.18041334 -0.01600551
0.023800818 -0.012889673 -0.016122038 -0.047319733 1.2287054 1.1699952 0.45180216 0.26689237
0.6255561 0.33432943 0.17501369 1.1420779 -0.047728848 0.0060978755 0.0029585077 -0.0037962096
00000000: d5fa e8bc 2dbc e13b 3b03 d53b bf2c 93bc
00000010: 5cfc 583a 2960 883b e9dd 403b fff0 153b
00000020: ba99 4f3b f3db 4cba a64f bc3a dec9 0abc
00000030: 4e3e 8abb 42dc e7bb f633 b43c 1616 553b
00000040: d88c 8dba 862e 1238 12df e63c b65f 0fbc
00000050: 3d77 7f3d f60b 6a3c 5b8d 8e39 4eb7 e23c
00000060: bbc5 2a3d eb75 543d 15d0 1c3c 5f96 7a3c
00000070: 6ff0 92bd e8c2 4f3c 50c3 953b bb37 6ebc
00000080: 633a b43c 245b 6eb9 5a1d 6eb9 c476 133b
00000090: 2609 053b 94ae d0b7 0176 aa3a 59f2 743b
000000a0: 247d 48bc 9d5d 95bc a35c 573c 791d c13a
000000b0: 7538 ddba 2bad 1839 95b3 943d 01e3 9fbb
000000c0: 10a2 a03c 46a5 433a 404c 4239 731e 67bc
000000d0: 4268 a13d b9bf b63c 3cee b8bb a544 5fbb
000000e0: 4cc8 163d 2742 90bb 3612 08ba 62fd d0ba
000000f0: 4a67 bc3b a1d9 9238 5891 8639 d1ed 8d3a
00000100: 4196 36ba 5fa4 eab9 e524 163a b6cf ad37
00000110: 1263 b9ba 1a2e 7dbb f1d6 4cb9 5b83 2f3a
00000120: 5fd8 b6ba 0177 7eb9 caeb 12bd 1b3f 3ab9
00000130: ab3d 143c e514 333a d8fd 81b8 96e4 a5bc
00000140: a079 1cba 729e 653b 67f8 8b3a 06b4 793c
00000150: 7575 a43d 5374 47bc fba6 03bc 36dc 2e38
00000160: 3805 adbb c087 9e3a 5770 18ba f945 0838
00000170: 6c8a 6abb 4d17 b439 61fd ca39 35d3 203a
00000180: e3d9 39bc 6a1b a63b ec9a a63c e9fe 183a
00000190: 7010 aaba 0541 07ba 52fd a1bd c31f c038
000001a0: d3f0 c83c 656d caba 1164 a738 2587 0bbd
000001b0: 9243 3838 1d77 2a3d 940f 383b 99b8 beba
000001c0: ea77 5d3c 6f16 77ba db7a c2b9 abb9 0f3a
000001d0: 17f9 d9bb 9882 b9b8 d4b4 83b8 3648 c3b9
000001e0: c1ca 01ba f2e3 fe38 e933 023a 2bfb 173a
000001f0: fd20 09ba 6594 863b ff36 cc3b 1c02 7539
00000200: 0bff 8cb9 f07d 4839 807f 50bc 7585 7b3a
00000210: d952 09bc f703 9a39 1d2e f2b8 8d31 243c
00000220: 1791 4739 a8c8 613c 8d8a 7139 15ac 97bd
00000230: 67f8 7c3b 3789 9f39 9768 edb9 054b f2ba
00000240: a55d 1b3b fc36 0e38 34b9 28b9 fe6e 3e39
00000250: 95d8 b538 57cc 8238 1f1f 34b9 8c2b 35ba
00000260: a2a9 41b9 548c b8ba 1d5c 20ba 2c2a d239
00000270: ca0f f5b8 54b6 a8b9 9abd 56bb de82 c1b8
00000280: d383 b9ba a9b4 fbb8 ad16 8238 ea1a 183a
00000290: cdec dd3a 18f8 c6ba f2d4 26ba 8b0b 0239
000002a0: 02cd 85bb cd0f 813a d99c 423a de2f b3bb
000002b0: 54de d9ba c18d 80b8 ccf3 a7b9 4d69 d8b9
000002c0: f1f8 8e38 1cc1 a2b9 ca89 97b8 46ff 6cb8
000002d0: 67d7 d237 2d44 a23a 67c2 a539 153b beb9
000002e0: 6cad 9e39 ed3d 9239 e833 623b c660 0e39
000002f0: 5172 83ba f9e4 ad39 e5f2 e9b8 74bd 213b
00000300: e487 53bb a9cd 593a 30a9 64ba 78ec 23ba
00000310: d933 92bc 2218 95bb 7cc0 edbc 87b2 05bd
00000320: f486 0c3c c921 b53c e0cd 0c3c 87d9 0d3c
00000330: ce78 9abc aa0b 1d3a 9792 d6ba 4cb9 d03b
00000340: cb6e c5bc 210d 37bc 7650 093d a909 ddbb
00000350: 231f b1ba 7fad 60ba c4eb 9e3c ebd3 eebb
00000360: e29e 293e b41b f03b 8fbb 70ba 3b91 9ebd
00000370: be68 2e3a 63dd 653d e7a4 e33c eb6e 823c
00000380: 83f8 28bc bc83 87be b487 43be 0b5c 29bf
00000390: f24c 66bd e3d3 e0bd b7a6 fd3b e9c7 253d
000003a0: 843a 50bd d2eb b63c 3fa5 3bbd 11b5 e2be
000003b0: aa11 99bc 07ba 0a3e 46be 383e fd1d 83bc
000003c0: eff9 c23c 352f 53bc 5d12 84bc 56d2 41bd
000003d0: 3846 9d3f 67c2 953f 9d52 e73e 1ea6 883e
000003e0: 7224 203f 3a2d ab3e ca36 333e 9c2f 923f
000003f0: 537f 43bd b0d0 c73b 86e3 413b d4c9 78bb

encoder.weight_hh_l0 f4 [256, 64]
0.03952235 -0.004433458 0.06451489 -0.08707083 -0.052673906 -0.0063893483 0.012069725 -0.020457696
0.07504221 0.14221448 0.11960811 -0.15432148 -0.053656757 -0.13579154 0.08435263 -0.062040422
0.07420024 -0.20161286 -0.050562076 0.08382501 0.08392626 0.012519585 0.0707224 -0.02345892
-0.17057046 0.07933711 -0.089508176 0.0742142 0.06863691 -0.06402179 0.065994754 0.12440924
0.08518181 0.109230444 0.06373057 0.16212243 -0.013755929 -0.0645786 -0.10147495 0.06953945
0.008300981 0.13475049 -0.0034793806 0.053130403 0.0016304563 0.0047357073 0.012408444 0.08309309
0.045193166 -0.08557536 0.020222401 0.0074157044 0.012845644 -0.111395314 -0.106064156 -0.14353414
0.058643512 -0.01779546 -0.02258237 0.060249288 -0.028481537 -0.09071282 0.038982894 -0.15406626
-0.31859413 0.72823405 -0.012813528 0.04524126 -0.020475762 -0.37858126 1.2897774 -0.1281412
0.1078502 0.42231745 0.1137955 -0.17703022 0.24064004 -0.14563197 -0.022531696 0.041571952
-0.13776736 -0.18687621 0.38592964 -0.058601536 -0.17625226 -0.15657374 0.51770496 -0.018350365
-0.22431114 -0.47162163 0.17409872 -0.01165836 0.10029585 0.43950477 0.23566653 0.030449087
0.03722506 -0.031503104 -0.084837414 -0.21631168 0.049444355 0.002590108 -0.0716391 -0.00045205242
0.72154 0.17225343 0.05658576 -0.5383616 -0.002231756 0.07751614 0.5508099 0.06250863
0.12575966 0.023251705 -0.088579684 0.09138812 -0.05273647 -0.42232996 0.081177264 -0.31761605
-0.1168168 0.27492815 -0.13399786 -0.23582368 0.184349 0.07780074 -0.06968653 0.05263351
0.110573925 0.00024447704 0.027642716 0.013487571 0.08561851 0.02932372 0.15024047 0.012670035
-0.041331407 0.048657585 -0.124471515 0.016737984 -0.077304035 0.08337544 0.04412306 0.041641343
0.121450834 0.035699062 0.15058237 0.052575313 0.08390973 0.013604888 -0.020485919 -0.029557656
-0.1861002 -0.009148192 0.10300055 -0.116557576 -0.13075945 -0.07604316 -0.009217226 -0.030946298
0.054595478 0.051806547 0.0060639316 0.13811691 -0.1232428 0.11417716 0.050515227 0.09076358
0.3557242 -0.05160506 -0.10520249 -0.08845573 0.4368188 -0.051029854 0.07521642 0.00032725077
-0.0018697167 -0.048914943 -0.08821456 -0.038058553 -0.08498873 0.08923154 0.038776744 0.06428516
-0.033170205 -0.12641324 -0.012929702 -0.04856026 -0.14072005 0.5048185 -0.08663446 -0.0047577987
-0.021177258 -0.019465731 -0.04580259 -0.0017035347 0.0028747318 0.25990355 0.041093495 -0.17651163
-0.025039611 -0.087527975 -0.010450327 -0.04615317 0.17703024 -0.08372267 -0.08540218 0.04773565
0.092001125 -0.009867869 -0.069811404 0.16856468 -0.11273877 0.34107372 0.015112223 0.0056353686
0.2440682 0.060899235 0.04799491 0.3006412 0.026519611 0.03566197 0.030531956 0.13708903
0.06770791 -0.07487125 -0.085226476 -0.11619631 -0.16417827 0.031232389 0.05711961 -0.09052554
0.27960455 0.08889231 -0.014502933 -0.035459056 0.5136817 -0.60751224 -0.03019367 0.071458675
0.006963327 0.02485596 0.056728248 0.14927655 -0.18454906 -0.014404858 -0.10878952 0.00027948248
0.07037646 0.009107236 0.026745323 -0.08130117 0.080158904 -0.10281098 -0.1423954 0.056928653
00000000: 30e2 213d 8b46 91bb 6220 843d 3152 b2bd
00000010: 98c0 57bd bd5d d1bb 19c0 453c e696 a7bc
00000020: bbaf 993d aca0 113e 19f5 f43d 7306 1ebe
00000030: 30c7 5bbd f00c 0bbe 12c1 ac3d 191e 7ebd
00000040: 4cf6 973d 9a73 4ebe 2e1a 4fbd 72ac ab3d
00000050: 88e1 ab3d f21e 4d3c e8d6 903d ec2c c0bc
00000060: 06aa 2ebe 7f7b a23d 1050 b7bd 9dfd 973d
00000070: 8291 8c3d db1d 83bd 4228 873d 46ca fe3d
00000080: cd73 ae3d 36b4 df3d 2c85 823d 6c03 263e
00000090: 8c60 61bc c941 84bd 19d2 cfbd b36a 8e3d
000000a0: d600 083c 08fc 093e 5206 64bb 449f 593d
000000b0: 09b5 d53a fe2d 9b3b c94c 4b3c b62c aa3d
000000c0: 781c 393d 2242 afbd 73a9 a53c 70ff f23b
000000d0: 8976 523c 3a23 e4bd 2a38 d9bd 9dfa 12be
000000e0: 2e34 703d c9c7 91bc aafe b8bc f5c7 763d
000000f0: 1d52 e9bc a5c7 b9bd 87ac 1f3d 8cc3 1dbe
00000100: c51e a3be 8c6d 3a3f d5ef 51bc e64e 393d
00000110: c9bc a7bc 67d5 c1be 6d17 a53f 7237 03be
00000120: 91e0 dc3d fe39 d83e 9d0d e93d 6947 35be
00000130: 586a 763e 8c20 15be 6494 b8bc 5a47 2a3d
00000140: e312 0dbe 7a5c 3fbe 9298 c53e 2a08 70bd
00000150: 797b 34be de54 20be 5088 043f 8153 96bc
00000160: d2b1 65be 6478 f1be ef46 323e b502 3fbc
00000170: e967 cd3d c506 e13e 9152 713e 5d70 f93c
00000180: 4e79 183d 6609 01bd 3dbf adbd cf80 5dbe
00000190: 2a86 4a3d cdbe 293b 85b7 92bd 7301 edb9
000001a0: d8b6 383f 3463 303e 78c6 673d 11d2 09bf
000001b0: a742 12bb c8c0 9e3d e101 0d3f 8604 803d
000001c0: 24c7 003e 5c7a be3c 4469 b5bd b229 bb3d
000001d0: 3202 58bd a23b d8be 4440 a63d 929e a2be
000001e0: a53d efbd 62c3 8c3e bc36 09be c37b 71be
000001f0: fcc5 3c3e ff55 9f3d d0b7 8ebd 3c96 573d
00000200: 9574 e23d 272d 8039 fa72 e23c f9fa 5c3c
00000210: c258 af3d 4c38 f03c a3d8 193e fa95 4f3c
00000220: 1f4b 29bd 2d4d 473d ecea febd 191e 893c
00000230: 9451 9ebd bec0 aa3d 62ba 343d 1d90 2a3d
00000240: 37bb f83d 2e39 123d 4432 1a3e 3659 573d
00000250: ddd8 ab3d 09e7 5e3c 16d2 a7bc e622 f2bc
00000260: 0d91 3ebe 4ce2 15bc f4f1 d23d bdb5 eebd
00000270: cee5 05be 84bc 9bbd d903 17bc 1783 fdbc
00000280: 829f 5f3d 1a33 543d f2b3 c63b 856e 0d3e
00000290: b966 fcbd b7d5 e93d 0ee9 4e3d 41e2 b93d
000002a0: 7b21 b63e d45f 53bd 6774 d7bd 4728 b5bd
000002b0: b7a6 df3e ae04 51bd 110b 9a3d db92 ab39
000002c0: 4811 f5ba 095b 48bd d6a9 b4bd 49e3 1bbd
000002d0: 920e aebd 07bf b63d 5dd4 1e3d f0a7 833d
000002e0: 7bdd 07bd 7972 01be 1ad7 53bc 20e7 46bd
000002f0: eb18 10be c93b 013f 686d b1bd 4fe7 9bbb
00000300: ee7b adbc 9976 9fbc 7f9b 3bbd 2449 dfba
00000310: ff65 3c3b 1412 853e a751 283d 77bf 34be
00000320: df1f cdbc de41 b3bd d937 2bbc 1b0b 3dbd
00000330: 6a47 353e cb76 abbd 57e7 aebd 7586 433d
00000340: 166b bc3d d8ac 21bc 48f9 8ebd 389c 2c3e
00000350: 96e3 e6bd 37a1 ae3e 4299 773c e6a8 b83b
00000360: 04ed 793e 7a71 793d 5096 443d a5ed 993e
00000370: a83f d93c 4912 123d 271e fa3c 1161 0c3e
00000380: 72aa 8a3d 1956 99bd 388b aebd 55f8 edbd
00000390: 591e 28be 11db ff3c 41f6 693d 7465 b9bd
000003a0: 5428 8f3e 2c0d b63d b69d 6dbc 843d 11bd
000003b0: a580 033f ec85 1bbf b758 f7bc ed58 923d
000003c0: 9f2c e43b ba9e cb3c e15b 683d f4db 183e
000003d0: 6efa 3cbe 5b02 6cbc 0acd debd 8187 9239
000003e0: 8921 903d 8436 153c 0219 db3c 3a81 a6bd
000003f0: 5a2a a43d 908e d2bd 1ad0 11be 052e 693d

encoder.bias_ih_l0 f4 [256]
0.012015082 0.12807764 -0.016530963 0.05156857 0.077207014 -0.10570453 -0.025017943 -0.06038542
1.1506491 0.067294635 -0.12744148 1.2456577 -0.050721608 1.0083141 -0.14700657 -0.0745858
-0.0024447758 0.48489663 -0.13786007 -0.06493655 -0.10874331 -0.10101542 0.48279646 -0.13175571
0.0035366802 0.38512197 -0.111889504 0.12169751 -0.06025212 -0.0070576663 -0.001473559 0.3706592
-0.13495208 -0.047079343 -0.07402959 -0.1470055 0.09841634 1.1056149 -0.15251803 0.23487045
0.08639515 -0.071498744 0.17564891 0.078704804 0.24376686 0.011769356 0.21808152 0.04815344
-0.10978604 0.25011584 0.023808239 0.24928865 -0.1386404 0.2398329 -0.1412631 -0.2347712
0.036309075 0.23407128 0.45068404 0.04755192 0.21973261 0.00063315075 0.065371014 -0.022481969
-0.07022466 -0.1572359 -0.038747154 0.11080527 0.13132903 -0.08772 -0.048269786 0.0984778
0.076283075 0.078355044 0.07004742 0.009337533 0.20043138 0.29429445 -0.028815223 0.07151527
0.03242699 -0.018202078 0.069461904 -0.0883494 0.02796765 0.14424306 0.17209035 -0.022068892
0.081004106 0.09725119 -0.017153542 0.060247343 0.11299194 0.0054120147 -0.07856957 -0.14687596
0.07106275 -0.0750347 0.12571247 0.021093247 -0.0051040067 0.029986646 0.047354028 0.11699892
-0.056407776 0.06706379 -0.014265725 -0.0050719557 -0.0816736 0.099146865 -0.020600174 0.0845433
-0.061225694 0.010137601 -0.028167883 0.043165635 -0.07465768 -0.019308899 -0.007459864 0.08092031
-0.093151055 -0.00039068848 0.049209137 0.14898899 0.06543317 0.09148671 -0.021587925 -0.025745098
0.3472326 0.02992749 0.49488327 -0.32800624 -0.114215635 -0.09117739 0.11881075 -0.60813713
0.3681183 0.13918231 0.17217557 -0.5414835 -0.08838728 -0.70341223 -0.23678975 0.003060967
-0.03930219 -0.47723493 0.0031384735 -0.043992937 -0.39703688 0.1365616 -0.04835889 0.08096307
0.10805757 -0.20937671 -0.16713916 -0.08205647 0.14249337 0.2729242 0.011386979 0.46803957
0.35427937 0.03527612 -0.11244524 -0.02606938 -0.051921025 -0.6546194 -0.40107575 -0.3609334
0.016621402 -0.12686346 -0.07470315 -0.041564938 -0.054549318 0.023647511 0.11320019 -0.103088684
0.57424515 -0.45290786 -0.059803296 0.39002985 -0.024632506 -0.23647392 0.0893867 0.08455778
0.1359617 -0.18118623 -0.1748098 -0.32999152 0.51443243 0.038221683 0.16838238 0.11549026
0.2122994 -0.0063686823 0.19691512 0.37677285 0.050932884 0.17746074 0.36621767 -0.19172128
1.2180985 -0.012017655 0.07517614 1.1672068 0.08541511 1.0683112 -0.052099023 0.112539835
0.09087028 0.36623967 0.053161778 -0.100777306 0.3345297 0.1030423 0.11986242 0.17442779
0.11647655 0.3827874 -0.01621839 0.29294378 0.023139395 0.079806946 0.15611567 0.6195504
1.0937425 0.0032286688 0.027726723 0.005381541 0.1009544 0.43313736 0.04989506 0.18348706
0.15273896 -0.087603696 0.6647993 0.08135361 0.19101858 0.41603363 0.1540766 0.019133324
0.20122135 0.5909416 0.17238997 0.047115415 0.05205046 0.01300619 0.08868633 -0.020785797
-0.038550504 -0.007651906 0.43815696 0.0690459 0.1583667 0.04587298 0.21479653 0.098344624
00000000: e8da 443c c926 033e f16b 87bc 9139 533d
00000010: b61e 9e3d 9e7b d8bd 6ef2 ccbc b456 77bd
00000020: 7848 933f c5d1 893d 0580 02be b671 9f3f
00000030: 76c1 4fbd 7010 813f e488 16be 71c0 98bd
00000040: 8838 20bb 5f44 f83e 312b 0dbe 74fd 84bd
00000050: d0b4 debd 2ce1 cebd 1931 f73e f8ea 06be
00000060: a6c7 673b b52e c53e 5326 e5bd 8b3c f93d
00000070: edca 76bd ff43 e7bb 6f24 c1ba 0bc7 bd3e
00000080: e130 0abe 45d6 40bd d39c 97bd 9c88 16be
00000090: 828e c93d ca84 8d3f b02d 1cbe e181 703e
000000a0: f1ef b03d ef6d 92bd 4fdd 333e fc2f a13d
000000b0: 059e 793e 42d4 403c c350 5f3e 8b3c 453d
000000c0: 81d7 e0bd 2f0f 803e 7f09 c33c 8645 7f3e
000000d0: c0f7 0dbe c196 753e 46a7 10be dd67 70be
000000e0: d3b8 143d 62b0 6f3e 0fc0 e63e cdc5 423d
000000f0: 9601 613e 07fa 253a 3de1 853d 1b2c b8bc
00000100: f2d1 8fbd 7302 21be 56b5 1ebd e0ed e23d
00000110: 1e7b 063e 8ba6 b3bd 8ab6 45bd bbae c93d
00000120: 4d3a 9c3d 9c78 a03d 0675 8f3d 74fc 183c
00000130: e23d 4d3e c3ad 963e e70d ecbc 9976 923d
00000140: 2ad2 043d 861c 95bc 0b42 8e3d 88f0 b4bd
00000150: 6a1c e53c 74b4 133e 7438 303e d2c9 b4bc
00000160: 7be5 a53d a22b c73d 9685 8cbc ebc5 763d
00000170: 5168 e73d 4557 b13b 15e9 a0bd a766 16be
00000180: 5989 913d cbab 99bd c5ba 003e bfcb ac3c
00000190: 833f a7bb 8ea6 f53c 4cf6 413d 219d ef3d
000001a0: d70b 67bd be58 893d caba 69bc a632 a6bb
000001b0: 7d44 a7bd 830d cb3d b2c1 a8bc 0a25 ad3d
000001c0: cbc7 7abd 2e18 263c 55c0 e6bc 73ce 303d
000001d0: 20e6 98bd b22d 9ebc e071 f4bb 8cb9 a53d
000001e0: fbc5 bebd 52d5 ccb9 858f 493d 9290 183e
000001f0: d301 863d 625d bb3d 29d9 b0bc 62e7 d2bc
00000200: 79c8 b13e 7f2a f53c 5761 fd3e 6ff0 a7be
00000210: e3e9 e9bd 36bb babd 0d53 f33d e0ae 1bbf
00000220: 007a bc3e cf85 0e3e cb4e 303e aa9e 0abf
00000230: 6404 b5bd d312 34bf 0379 72be 819a 483b
00000240: 55fb 20bd 2358 f4be d9ae 4d3b f031 34bd
00000250: 6b48 cbbe ced6 0b3e f913 46bd f7cf a53d
00000260: 4a4d dd3d d966 56be 8726 2bbe 390d a8bd
00000270: c8e9 113e b9bc 8b3e 7490 3a3c e2a2 ef3e
00000280: 1b64 b53e b17d 103d b149 e6bd 748f d5bc
00000290: 24ab 54bd 2395 27bf cd59 cdbe 43cc b8be
000002a0: 9b29 883c 7fe8 01be f7fd 98bd ff3f 2abd
000002b0: 1b6f 5fbd 6db8 c13c 80d5 e73d 2920 d3bd
000002c0: bb01 133f 8ae3 e7be 4df4 74bd feb1 c73e
000002d0: 1cca c9bc 3826 72be 6010 b73d a12c ad3d
000002e0: 8b39 0b3e e288 39be 5701 33be a6f4 a8be
000002f0: d8b1 033f 578e 1c3d 6e6c 2c3e 2886 ec3d
00000300: 0465 593e 61b0 d0bb 1ea4 493e 5fe8 c03e
00000310: 009f 503d 45b8 353e e280 bb3e 9552 44be
00000320: a7ea 9b3f b3e5 44bc f3f5 993d 0867 953f
00000330: 1eee ae3d 6cbe 883f c965 55bd 497b e63d
00000340: 331a ba3d c483 bb3e 2ac0 593d 5564 cebd
00000350: 7a47 ab3e d707 d33d 6e7a f53d 339d 323e
00000360: 428b ee3d b6fc c33e 6edc 84bc bafc 953e
00000370: d48e bd3c d371 a33d c9dc 1f3e db9a 1e3f
00000380: c1ff 8b3f 1398 533b 2723 e33c a357 b03b
00000390: 2ec1 ce3d 2ec4 dd3e c35e 4c3d 08e4 3b3e
000003a0: 9a67 1c3e 9169 b3bd 4930 2a3f b99c a63d
000003b0: 609a 433e 5c02 d53e 42c6 1d3e 7dbd 9c3c
000003c0: f80c 4e3e f347 173f ff86 303e 18fc 403d
000003d0: dd32 553d ea17 553c 2ea1 b53d fa46 aabc
000003e0: 22e7 1dbd d7bc fabb 1c56 e03e f067 8d3d
000003f0: e12a 223e 4ee5 3b3d 9ff3 5b3e e868 c93d

encoder.bias_hh_l0 f4 [256]
0.03196855 0.13246068 -0.088443086 0.12617612 -0.079795025 -0.11505835 0.06622261 -0.13598253
1.230523 0.062090978 -0.09606729 1.1063672 -0.22683845 1.1836785 -0.091963366 -0.009447331
-0.13103028 0.5195096 0.018147668 0.05049083 -0.008180577 -0.1772537 0.45852387 0.037659056
-0.11660958 0.5713057 -0.07540235 -0.0034684653 -0.013103586 0.009305563 0.015552518 0.5850364
0.026044102 -0.044455282 -0.057524733 0.04365895 -0.0753831 1.2010947 -0.0751982 0.247384
0.07303218 0.031833697 0.07182387 0.13571642 0.18870458 0.04240856 0.0035752347 0.06858307
-0.017354632 0.33667627 0.019000825 0.0067431047 -0.025088733 0.16692124 -0.063383825 -0.083491005
0.034824535 0.19921054 0.27138656 -0.11129589 0.28401738 0.123954065 0.086211495 0.08725572
0.031393334 -0.052527793 0.03565583 0.053451497 -0.048147302 -0.083701074 -0.077101804 0.05447129
0.12235843 -0.121185586 0.039475437 0.13919432 0.15168947 0.19977573 -0.121077396 -0.015204945
-0.13105214 -0.054976758 -0.024922121 -0.076576345 -0.061480753 0.20012303 -0.011076101 0.053261258
0.19501577 0.06826186 0.09543791 -0.01780386 0.08809457 0.17096893 0.0045373244 0.008033085
-0.020553617 0.011353681 -0.042439334 -0.04560962 -0.014337895 0.013108947 0.036089804 -0.016926182
-0.09187376 -0.12818596 0.111384146 -0.15535897 0.03612538 0.070569746 0.09543946 0.088533826
-0.05240713 0.06606977 -0.025332563 0.0015222663 -0.11209635 0.04372401 -0.11873073 0.12692831
0.1071199 0.0695142 -0.18514168 0.1210154 0.002648044 0.15239674 0.052146748 0.13253728
0.26382723 0.09374939 0.3638518 -0.31287688 -0.030787382 -0.018391304 0.078679025 -0.59112877
0.36202252 0.111595474 0.3628855 -0.68705165 -0.04696063 -0.5978453 -0.020120338 -0.123004146
0.16957827 -0.69500357 -0.0057340334 -0.120111816 -0.33454633 -0.07278894 -0.086692445 0.024717396
-0.07818447 -0.14127596 -0.070350535 0.08807928 0.013055895 0.29448202 -0.026060201 0.5005998
0.19048204 0.09862577 -0.068428874 -0.22404233 -0.12942392 -0.6650955 -0.40489635 -0.23691852
0.0136107 -0.04386505 -0.119549766 -0.111279584 -0.07083511 0.021142816 0.031657524 0.028898641
0.5513769 -0.47105998 -0.13317297 0.4692242 -0.024822203 -0.105177484 -0.037469003 -0.13066208
0.07053035 -0.09529334 -0.11345417 -0.18155517 0.6572436 0.03595078 0.12652133 0.115409955
0.22407247 0.04767535 0.2519136 0.2586757 0.29497388 -0.045184657 0.409556 -0.07797416
1.0179825 0.052473284 -0.018377125 1.1590704 0.2452052 1.1407309 -0.033078738 0.04814384
-0.013553776 0.40340295 0.08877381 -0.07199747 0.25766337 0.025920188 0.17020738 0.087370865
0.04559513 0.15600722 0.05924237 0.31966835 -0.08783228 -0.086832486 0.06973682 0.4317051
1.0541577 0.12542437 -0.04419916 -0.016309459 0.2544232 0.5966123 -0.051889524 0.20866083
-0.06967177 -0.075273134 0.6459569 0.17150253 0.0038962099 0.2555684 0.1122117 -0.010406545
0.41758195 0.5530115 0.19711614 0.0873587 -0.05562656 -0.036580756 0.083228394 0.1092686
-0.032987773 0.08765854 0.26585588 -0.17627361 0.17902614 0.13159697 0.20141195 0.08787776
00000000: 74f1 023d c6a3 073e a621 b5bd 5034 013e
00000010: 936b a3bd b6a3 ebbd b89f 873d 013f 0bbe
00000020: c781 9d3f 1c53 7e3d edbe c4bd 719d 8d3f
00000030: 5748 68be c782 973f 4a57 bcbd fac8 1abc
00000040: cd2c 06be 95fe 043f 6baa 943c 79cf 4e3d
00000050: d407 06bc fe81 35be a4c3 ea3e 6240 1a3d
00000060: 01d1 eebd 1741 123f 8c6c 9abd 314f 63bb
00000070: 6cb0 56bc 5c76 183c fdcf 7e3c f2c4 153f
00000080: 715a d53c be16 36bd 0e9f 6bbd bad3 323d
00000090: 7462 9abd 79bd 993f 8401 9abd 3b52 7d3e
000000a0: e591 953d 0d64 023d 6518 933d 3ff9 0a3e
000000b0: c63b 413e 99b4 2d3d 7c4e 6a3b 4875 8c3d
000000c0: 4d2b 8ebc d560 ac3e 9ea7 9b3c 43f5 dc3b
000000d0: e386 cdbc 67ed 2a3e 61cf 81bd 55fd aabd
000000e0: 2ca4 0e3d d9fd 4b3e 2ef3 8a3e 19ef e3bd
000000f0: ba6a 913e a1db fd3d a78f b03d 20b3 b23d
00000100: 4c96 003d 6227 57bd d90b 123d f5ef 5a3d
00000110: 1b36 45bd 786b abbd 8de7 9dbd 4a1d 5f3d
00000120: 0e97 fa3d 2630 f8bd ffb0 213d f588 0e3e
00000130: 7c54 1b3e 0292 4c3e 6df7 f7bd 291e 79bc
00000140: 8832 06be 4f2f 61bd 7a29 ccbc 0fd4 9cbd
00000150: 3ed3 7bbd 0ded 4c3e 8978 35bc 7a28 5a3d
00000160: 37b2 473e e0cc 8b3d f374 c33d 67d9 91bc
00000170: ed6a b43d 7b12 2f3e d6ad 943b 339d 033c
00000180: 0f60 a8bc ca04 3a3c ded4 2dbd 27d1 3abd
00000190: 7ee9 6abc e9c6 563c e7d2 133d c7a8 8abc
000001a0: 4f28 bcbd 2e43 03be 5f1d e43d 6c16 1fbe
000001b0: 35f8 133d df86 903d c375 c33d 3951 b53d
000001c0: dca8 56bd 964f 873d 3c86 cfbc c886 c73a
000001d0: c592 e5bd f317 333d 1929 f3bd 7ff9 013e
000001e0: ae61 db3d 765d 8e3d c895 3dbe ecd6 f73d
000001f0: ce8a 2d3b e40d 1c3e d497 553d dab7 073e
00000200: 5d14 873e aeff bf3d c84a ba3e 6631 a0be
00000210: d235 fcbc 5ca9 96bc 7822 a13d 3754 17bf
00000220: 045b b93e 2b8c e43d 21cc b93e 9ee2 2fbf
00000230: ca59 40bd 640c 19bf 68d3 a4bc 99e9 fbbd
00000240: eda5 2d3e c1eb 31bf 8fe4 bbbb 2ffd f5bd
00000250: a849 abbe 5e12 95bd cf8b b1bd 237c ca3c
00000260: 2e1f a0bd a5aa 10be f113 90bd e962 b43d
00000270: 65e8 553c 59c6 963e 347c d5bc 4f27 003f
00000280: b90d 433e 4ffc c93d 7024 8cbd 5a6b 65be
00000290: b487 04be b343 2abf 934e cfbe c59a 72be
000002a0: 6aff 5e3c d7ab 33bd 82d6 f4bd 8de6 e3bd
000002b0: 0012 91bd b333 ad3c 52ab 013d d8bc ec3c
000002c0: 0927 0d3f c62e f1be 7f5e 08be 283e f03e
000002d0: ef57 cbbc 4b67 d7bd 1979 19bd 48cc 05be
000002e0: 3772 903d 2829 c3bd a95a e8bd 99e9 39be
000002f0: 1e41 283f 2041 133d cf8e 013e 0e5c ec3d
00000300: 4173 653e 3a47 433d d2fa 803e 2471 843e
00000310: d106 973e 8c13 39bd 53b1 d13e ebb0 9fbd
00000320: 404d 823f 3aee 563d a08b 96bc 6b5c 943f
00000330: 1217 7b3e 7803 923f 927d 07bd 7a32 453d
00000340: a810 5ebc d58a ce3e 0bcf b53d 6973 93bd
00000350: 74ec 833e 9356 d43c d84a 2e3e 7fef b23d
00000360: f6c1 3a3d 5bc0 1f3e 21a8 723d 92ab a33e
00000370: 69e1 b3bd 3bd5 b1bd 2ed2 8e3d 7308 dd3e
00000380: a4ee 863f 3f6f 003e 2e0a 35bd 6a9b 85bc
00000390: c243 823e 95bb 183f 1c8a 54bd 2fab 553e
000003a0: 13b0 8ebd cd28 9abd 6e5d 253f 5c9e 2f3e
000003b0: 8e57 7f3b dcd9 823e 3fcf e53d 3780 2abc
000003c0: 4dcd d53e 2992 0d3f d0d8 493e 1ee9 b23d
000003d0: add8 63bd b4d5 15bd a673 aa3d 37c8 df3d
000003e0: 301e 07bd 5286 b33d 431e 883e 1281 34be
000003f0: a152 373e 5bc1 063e ef3e 4e3e 41f9 b33d

latent.weight_ih_l0 f4 [128, 64]
-0.13515168 -0.14090098 0.16672261 -0.20392756 0.015860198 0.22934575 -0.22460717 -0.21461986
0.2417698 0.047843795 0.1889473 -0.31286108 0.22975832 -0.30517483 0.08542075 -0.06997683
-0.1628718 -0.0072693545 0.2649289 0.12248691 0.048938118 0.25371516 -0.0018680777 0.27151552
0.46338686 -0.00046809006 -0.07989623 0.15270011 0.14415213 0.22956538 0.27961448 0.11453128
-0.024716431 -0.021528402 -0.23134333 -0.22487731 -0.21125832 -0.16093011 0.0068110516 -0.20579237
0.47005075 -0.7589885 -0.36549816 -0.1005986 -0.735537 0.14364281 -0.16665849 0.10017408
0.008361916 -0.22087696 -0.12147908 0.23128285 -0.31055662 -0.25421414 -0.19512701 0.060402516
0.297963 -0.2376487 -0.22543259 -0.016643034 0.039663732 -0.33314973 -0.29459858 0.39528403
-0.06690262 0.123740345 0.3185747 0.03797059 -0.32081363 -0.41284543 -0.21650697 -0.24962696
0.24791288 0.048325744 0.05067129 -0.2144077 0.11435381 -0.17126107 -0.09942427 -0.2456014
-0.16093543 -0.10897528 0.34155637 0.23285231 -0.108710214 0.36339036 0.00026873892 0.27246487
0.34406582 -0.078745 0.14097252 -0.4519088 -0.01740437 0.05570137 0.26617298 0.14740568
-0.057975546 -0.063111566 -0.28359336 -0.06198243 -0.2075892 -0.16188471 -0.067090586 -0.124916315
0.3672449 -0.46274582 -0.14312609 -0.24513851 -0.5367508 -0.064111926 0.07563988 0.04062157
0.03094882 -0.19263124 -0.24324724 -0.07132543 -0.12572442 -0.13038865 -0.18593085 0.013142774
-0.037161417 -0.10618565 -0.069386505 -0.14836204 0.015075751 -0.1395361 -0.049056746 0.093038835
0.014085878 0.16080767 -0.07417947 0.037122026 -0.51442724 -0.2217214 -0.50645655 -0.293927
0.2662667 0.031456556 0.15830506 0.024953613 0.30128387 -0.10316804 -0.29288658 -0.026188305
-0.10428876 -0.015176618 0.32707444 0.15198639 -0.08521252 -0.010439464 0.016470011 0.1492229
0.21816422 -0.17866702 0.079961956 -0.5633057 0.21998039 0.12030787 0.274804 0.23927999
0.41812542 -0.27794686 -0.011644663 -0.24155004 -0.16058952 -0.23877333 0.017844312 0.031022334
-0.090232976 0.014361419 -0.22518696 0.043443702 -0.02408115 0.110188924 0.009345173 0.122489795
-0.024248745 -0.24074365 -0.009045448 -0.022483 0.03543765 -0.10804831 -0.1000525 0.0026901974
-0.20257944 -0.18287262 -0.3236073 -0.31998196 0.30357686 0.08588372 -0.12504889 0.113992445
-0.24463005 -0.0395712 0.28961122 -0.12453862 -0.036207024 -0.03953454 -0.0015970089 -0.025252135
0.24319355 0.10545103 0.012114477 -0.28421795 0.30395114 -0.085367315 -0.110391535 -0.15303564
-0.09128828 -0.045942247 -0.02421244 -0.08483254 -0.30918503 0.12312594 0.08643555 -0.0059958096
0.34151015 -0.12274304 0.28794956 0.118051045 0.033504184 0.16897017 0.04019529 0.23946352
0.18982913 -0.100447915 -0.1583448 -0.250637 -0.2866272 0.0072912597 -0.08182034 -0.005596094
0.61932474 -0.17436022 0.055765547 -0.036210883 -0.14291365 -0.18803611 -0.040272973 0.17305642
0.0066503664 -0.16514578 -0.16837803 0.106076464 -0.020407705 -0.241312 -0.12722132 -0.12812403
-0.10507644 0.036938082 -0.21776736 -0.19548681 0.07558176 -0.12454134 -0.074760355 0.21468641
00000000: 3465 0abe 5948 10be 55b9 2a3e 63d2 50be
00000010: 3fed 813c 9dd9 6a3e 6cff 65be 4fc5 5bbe
00000020: 8192 773e dbf7 433d 677b 413e 542f a0be
00000030: c445 6b3e e03f 9cbe 13f1 ae3d 0350 8fbd
00000040: ddc7 26be c433 eebb c3a4 873e 6bda fa3d
00000050: 5673 483d f4e6 813e 49da f4ba 1504 8b3e
00000060: 0b41 ed3e fc69 f5b9 a2a0 a3bd 6b5d 1c3e
00000070: 9e9c 133e 3013 6b3e a129 8f3e 608f ea3d
00000080: 1d7a cabc 555c b0bc 44e5 6cbe 3d46 66be
00000090: 1a54 58be ddca 24be 3e2f df3b 3cbb 52be
000000a0: 7eaa f03e 124d 42bf 9322 bbbe a406 cebd
000000b0: 274c 3cbf 1a17 133e 86a8 2abe 1128 cd3d
000000c0: 6b00 093c 922d 62be 06ca f8bd 69d5 6c3e
000000d0: 4701 9fbe 5b28 82be 60cf 47be a168 773d
000000e0: 9b8e 983e 2e5a 73be cdd7 66be f956 88bc
000000f0: 7076 223d 9a92 aabe a0d5 96be ab62 ca3e
00000100: 3e04 89bd 946b fd3d 391c a33e 0d87 1b3d
00000110: af41 a4be 7a60 d3be 01b4 5dbe 369e 7fbe
00000120: e0dc 7d3e 37f1 453d b38c 4f3d b18d 5bbe
00000130: 5532 ea3d 105f 2fbe f49e cbbd ef7e 7bbe
00000140: 42cc 24be 6e2e dfbd 7ae0 ae3e d670 6e3e
00000150: 76a3 debd 4d0e ba3e 87e5 8c39 8480 8b3e
00000160: 6529 b03e 0f45 a1bd 1a5b 103e 9760 e7be
00000170: 9c93 8ebc 1f27 643d d347 883e 84f1 163e
00000180: c477 6dbd a340 81bd 2633 91be 4ae1 7dbd
00000190: 4392 54be 1bc5 25be ca66 89bd 20d4 ffbd
000001a0: 8607 bc3e 05ed ecbe a58f 12be 9705 7bbe
000001b0: 8068 09bf 1d4d 83bd 15e9 9a3d ce62 263d
000001c0: 6188 fd3c 2041 45be ce15 79be 1113 92bd
000001d0: e7bd 00be 9a84 05be a864 3ebe ca54 573c
000001e0: 9236 18bd dd77 d9bd 831a 8ebd 38ec 17be
000001f0: 4800 773c 8de2 0ebe baef 48bd 258b be3d
00000200: 74c8 663c c4aa 243e 68eb 97bd 440d 183d
00000210: 81b1 03bf ef0a 63be 23a7 01bf 9a7d 96be
00000220: 1c54 883e 97d8 003d b91a 223e 856b cc3c
00000230: e141 9a3e c449 d3bd 3bf5 95be db88 d6bc
00000240: 5895 d5bd 59a7 78bc 4d76 a73e 52a2 1b3e
00000250: e783 aebd 490a 2bbc 1eec 863c e3cd 183e
00000260: 7166 5f3e 7df4 36be 18c3 a33d cd34 10bf
00000270: 8a42 613e f963 f63d 1cb3 8c3e d005 753e
00000280: 8914 d63e 0d4f 8ebe 42c9 3ebc e558 77be
00000290: 9471 24be ff80 74be 3c2e 923c 8d22 fe3c
000002a0: 11cc b8bd 284c 6b3c 6997 66be 06f2 313d
000002b0: d545 c5bc bbaa e13d 7f1c 193c eedb fa3d
000002c0: 4ea5 c6bc 8185 76be 5c33 14bc 452e b8bc
000002d0: 1227 113d 6f48 ddbd 53e8 ccbd 064e 303b
000002e0: fc70 4fbe f642 3bbe dbaf a5be add4 a3be
000002f0: 6d6e 9b3e cee3 af3d d10c 00be df74 e93d
00000300: 4d80 7abe 6915 22bd ec47 943e 1b0e ffbd
00000310: d14d 14bd f8ee 21bd ba52 d1ba 91dd cebc
00000320: bb07 793e b6f6 d73d cd7b 463c 0485 91be
00000330: 7c9f 9b3e 0fd5 aebd f514 e2bd 60b5 1cbe
00000340: 5af5 babd f02d 3cbd 2b59 c6bc afbc adbd
00000350: 804d 9ebe 7429 fc3d 1f05 b13d 7f78 c4bb
00000360: 6bda ae3e b460 fbbd 206e 933e bfc4 f13d
00000370: af3b 093d 8406 2d3e d1a3 243d ed35 753e
00000380: 9162 423e a3b7 cdbd 2425 22be 7e53 80be
00000390: cdc0 92be 85eb ee3b 6c91 a7bd 705f b7bb
000003a0: 118c 1e3f 7c8b 32be 6a6a 643d dd51 14bd
000003b0: f557 12be 8a8c 40be 46f5 24bd b435 313e
000003c0: 51eb d93b fa1b 29be 4a6b 2cbe 9e3e d93d
000003d0: 0f2e a7bc 7e1a 77be 4e46 02be f232 03be
000003e0: 5132 d7bd 634c 173d 68fe 5ebe b22d 48be
000003f0: 9cca 9a3d 880f ffbd f51b 99bd c1d6 5b3e

latent.weight_hh_l0 f4 [128, 32]
0.6586239 -0.15002841 0.30564597 -0.32982218 0.039636955 0.07944187 0.13201211 0.26182652
-0.02263398 0.074801944 -0.24948657 0.32277614 -0.051834334 -0.14729565 0.06610237 0.07414287
-0.14819339 0.19199118 0.24098921 0.33585337 0.00147114 -0.08318495 -0.32828245 0.22258402
0.17042719 0.12634231 -0.09533209 -0.28459832 0.12876298 -0.04233397 0.06589349 0.54051673
-0.18173853 0.050942875 0.124937184 -0.022986546 0.104226105 0.34836277 0.1883115 -0.113837205
-0.13274375 0.063665204 -0.09041736 -0.004311888 -0.037767004 0.005682937 -0.0017928727 0.09264836
0.27408856 -0.086098485 -0.20873895 -0.022472473 0.21019377 0.28951296 0.16277127 -0.13267261
-0.3096111 0.060192164 -0.17762908 0.06561498 0.031822525 -0.14483884 -0.04561956 -0.0741632
-0.25182575 0.2743361 -0.09612688 -0.5966768 -0.27130148 -0.5745017 0.58943856 0.26722965
-0.20071076 -0.1229406 -0.5773681 0.023040425 -0.08928333 -0.14254339 -0.071833126 -0.021346215
-0.040128727 0.48228955 -0.165864 -0.2342112 -0.116662644 -0.0658536 0.010720434 -0.29299456
0.13219161 -0.23229328 -0.5482608 0.1697983 -0.013752635 0.5635026 -0.21031019 -0.054109298
0.09823602 0.17192857 -0.40599585 -0.09924601 -0.1537209 -0.2027258 0.009440718 -0.08764221
0.16571078 -0.10404368 -0.3226355 -0.07270372 -0.23089214 -0.15941548 0.037004825 0.15114701
-0.05028582 0.45222375 0.010469452 0.022381661 -0.019194467 -0.14437392 0.17971654 0.14254452
-0.2457448 0.15800014 -0.0017544376 -0.19695051 -0.15797521 0.08100716 0.2666909 -0.100511186
0.0038664439 0.091522686 0.14936505 0.20164794 0.1957777 0.123743795 -0.18326603 0.13182095
-0.065079376 -0.16114236 -0.06721943 0.04472514 -0.20876424 -0.097410105 -0.112579696 -0.27177656
0.089552216 0.17387855 -0.15515986 -0.28656125 -0.0695225 0.26316455 0.043714873 -0.22544013
-0.04560281 -0.13543892 -0.15432431 -0.0037484516 -0.12799911 0.17860933 0.13529266 0.022100365
-0.024704784 0.07312148 -0.21360168 -0.19294617 -0.40295997 -0.47520247 0.32010466 0.20211913
-0.0045111845 -0.07487478 -0.14249197 0.039194625 -0.04948124 -0.0586124 0.07233782 0.03020934
0.18613012 -0.044801544 -0.016955763 -0.16532375 -0.0056484058 0.03445069 0.0032942565 0.08582982
0.004615855 -0.015798409 -0.16921753 -0.05984603 -0.3096624 -0.13271782 0.25649434 0.3224262
0.19974329 0.15089762 -0.0020797013 -0.1483542 -0.09708886 -0.31121218 0.47482634 0.26572892
0.07027429 0.08478752 -0.20251279 0.20167787 0.2557781 0.0018756879 -0.012390141 0.0046223644
-0.24060018 0.33235246 0.116599284 0.22455393 -0.26893923 -0.16191664 -0.0838212 0.13182203
0.22075123 0.1737339 0.051064562 0.07480738 0.25988704 0.0709458 0.051399574 -0.1510503
0.030561576 0.19392796 0.20853157 0.06913715 -0.064211525 -0.3246347 0.06915273 0.063306175
0.55979174 0.20005742 -0.43438944 -0.10303973 -0.12516506 0.04388922 0.007696601 0.020242361
0.017285973 0.25330853 -0.074390575 -0.112804115 -0.066134594 -0.09420311 0.19091268 -0.039346937
0.023650898 0.09842268 0.027613612 0.34901142 0.24187607 0.18786404 0.24659179 -0.18453862
00000000: 939b 283f 0ca1 19be a17d 9c3e 74de a8be
00000010: 5c5a 223d 6bb2 a23d 2f2e 073e 200e 863e
00000020: e56a b9bc c331 993d 6879 7fbe ea42 a53e
00000030: 3d50 54bd acd4 16be ae60 873d 38d8 973d
00000040: 02c0 17be 5699 443e e0c5 763e f9f4 ab3e
00000050: 44d3 c03a df5c aabd a314 a8be 11ed 633e
00000060: 7784 2e3e e15f 013e 793d c3bd dfb6 91be
00000070: 71da 033e 6366 2dbd 2bf3 863d 4e5f 0a3f
00000080: aa19 3abe 7aa9 503d 11df ff3d 484e bcbc
00000090: 7f74 d53d 9b5c b23e bbd4 403e 7b23 e9bd
000000a0: faed 07be e762 823d bd2c b9bd bd4a 8dbb
000000b0: 93b1 1abd ee37 ba3b d3fe eaba 6cbe bd3d
000000c0: 5655 8c3e 6754 b0bd aabf 55be 3118 b8bc
000000d0: 093d 573e 0b3b 943e 83ad 263e 54db 07be
000000e0: 5985 9ebe 0f8c 763d 66e4 35be 2661 863d
000000f0: 5658 023d a250 14be 93db 3abd e0e2 97bd
00000100: 4eef 80be c875 8c3e 2bde c4bd d0bf 18bf
00000110: 07e8 8abe 8b12 13bf 72e5 163f 53d2 883e
00000120: 1f87 4dbe 48c8 fbbd 65ce 13bf 46bf bc3c
00000130: 2eda b6bd e5f6 11be 3f1d 93bd 42de aebc
00000140: 055e 24bd a8ee f63e 41d8 29be 10d5 6fbe
00000150: d3ec eebd 41de 86bd c2a4 2f3c 6203 96be
00000160: 3d5d 073e 4ade 6dbe d25a 0cbf 9bdf 2d3e
00000170: bb52 61bc b541 103f 8e5b 57be b6a1 5dbd
00000180: f72f c93d 0b0e 303e b0de cfbe 7e41 cbbd
00000190: 0369 1dbe 5a97 4fbe 3ead 1a3c c27d b3bd
000001a0: 16b0 293e da14 d5bd 7b30 a5be b0e5 94bd
000001b0: fd6e 6cbe d03d 23be 5f92 173d 48c6 1a3e
000001c0: 81f8 4dbd df89 e73e 1088 2b3c bf59 b73c
000001d0: b73d 9dbc c2d6 13be 9d07 383e 31f7 113e
000001e0: 86a4 7bbe caca 213e 28f5 e5ba 65ad 49be
000001f0: 41c4 21be 15e7 a53d b68b 883e cfd8 cdbd
00000200: 2a64 7d3b 3f70 bb3d 27f3 183e cc7c 4e3e
00000210: f379 483e 636d fd3d 17aa 3bbe 12fc 063e
00000220: 5648 85bd 8102 25be 57aa 89bd b531 373d
00000230: 4bc6 55be f37e c7bd 2f90 e6bd 4c26 8bbe
00000240: 2767 b73d 380d 323e 3ae2 1ebe 28b8 92be
00000250: d061 8ebd 81bd 863e 5e0e 333d c7d9 66be
00000260: 03ca 3abd 80b0 0abe 3107 1ebe 95a8 75bb
00000270: 3312 03be 5de5 363e 298a 0a3e d30b b53c
00000280: b061 cabc b7c0 953d 66ba 5abe ae93 45be
00000290: c550 cebe bd4d f3be c2e4 a33e 51f8 4e3e
000002a0: 8fd2 93bb f357 99bd 6ae9 11be 8b8a 203d
000002b0: d7ac 4abd 8e13 70bd da25 943d 9479 f73c
000002c0: e598 3e3e d381 37bd d0e6 8abc a14a 29be
000002d0: 4316 b9bb 2b1c 0d3d 74e4 573b 8bc7 af3d
000002e0: 9940 973b aa6b 81bc 5c47 2dbe 1c21 75bd
000002f0: 128c 9ebe 2ee7 07be 3a53 833e 0c15 a53e
00000300: 8189 4c3e e884 1a3e 994b 08bb 2aea 17be
00000310: 86d6 c6bd 3457 9fbe 701c f33e 9f0d 883e
00000320: f8eb 8f3d 14a5 ad3d 835f 4fbe a584 4e3e
00000330: 59f5 823e a4d9 f53a 0500 4bbc 3477 973b
00000340: e55f 76be 1a2a aa3e 9bcb ee3d 77f1 653e
00000350: 67b2 89be 7acd 25be 73aa abbd 5bfc 063e
00000360: 9c0c 623e 4de7 313e 1329 513d 9d34 993d
00000370: ea0f 853e 084c 913d 5c88 523d eeac 1abe
00000380: 455c fa3c 0d95 463e 4d89 553e c797 8d3d
00000390: 5581 83bd 8536 a6be f29f 8d3d aba6 813d
000003a0: 834e 0f3f dadb 4c3e 4b68 debe 7e06 d3bd
000003b0: 452b 00be 2fc5 333d c533 fc3b 4fd3 a53c
000003c0: 509b 8d3c a8b1 813e 165a 98bd d805 e7bd
000003d0: 9371 87bd 8fed c0bd 9d7e 433e 412a 21bd
000003e0: 87bf c13c d491 c93d f135 e23c a0b1 b23e
000003f0: 5cae 773e 6e5f 403e 8f82 7c3e b1f7 3cbe

latent.bias_ih_l0 f4 [128]
0.0028103183 -0.02561201 0.14005592 0.1824493 -0.03912742 0.21885324 0.15275751 0.12665054
0.17844999 0.15033846 0.008900024 0.02090916 0.20331475 0.0015991449 0.28529385 -0.011670914
0.12624858 0.20443434 -0.05195529 0.19581209 0.07395397 -0.009160554 0.114426814 0.2349265
0.21880361 0.1110705 0.5050542 -0.083477244 0.13789785 0.31038707 0.22241546 0.23997231
0.03459897 0.18136346 0.09383393 -0.028521022 -0.014047931 0.11933051 0.025607426 0.26101646
-0.031022009 -0.1423812 -0.10872017 -0.045449875 -0.017789826 -0.10232163 -0.10215536 0.15951747
-0.000117706266 0.20430802 -0.09119042 -0.086323924 0.035654344 -0.030818129 -0.104055904 0.008859453
-0.00016095089 0.07084864 -0.10428422 -0.02136564 0.1757996 0.0077776783 -0.08166345 -0.08676655
0.11080298 -0.07247861 0.06270253 -0.04345031 0.16321902 0.11718036 -0.004184279 0.1154887
-0.15100387 -0.049161837 -0.07563142 0.065321766 0.021009719 -0.15865418 0.021087497 -0.09788071
0.08468195 -0.11792397 -0.12972586 -0.025018351 -0.027046317 0.14065833 0.0119474 -0.14748591
0.1077995 0.06312241 0.1866327 0.07750826 0.024891237 0.0024852108 -0.16712913 -0.09943793
0.27214006 0.16299331 0.264452 0.29772162 0.03405299 0.09811179 0.122759506 -0.0030643444
0.23544334 0.124399215 0.05131049 0.23135641 0.22692393 0.35733202 0.22244143 -0.10485663
0.03290828 0.20373265 0.06043063 0.11357839 0.0994095 0.20823358 0.119673826 0.15556479
0.21018893 0.30736378 0.42454544 0.016967248 0.027630711 0.06346588 0.047249433 0.1527471
00000000: 512d 383b 47d0 d1bc d26a 0f3e fdd3 3a3e
00000010: 1344 20bd 101b 603e 776c 1c3e aeb0 013e
00000020: 98bb 363e 53f2 193e 68d1 113c b049 ab3c
00000030: be31 503e 669a d13a 0912 923e 5c37 3fbc
00000040: 4f47 013e 3c57 513e 12cf 54bd f782 483e
00000050: 2e75 973d 2616 16bc 9b58 ea3d 9390 703e
00000060: 0e0e 603e ee78 e33d 3b4b 013f 1ef6 aabd
00000070: 1835 0d3e 0eeb 9e3e e1c0 633e 4dbb 753e
00000080: a6b7 0d3d 58b7 393e 012c c03d eba4 e9bc
00000090: 4b29 66bc 8e63 f43d aac6 d13c f3a3 853e
000000a0: de21 febc 61cc 11be aea8 debd a629 3abd
000000b0: f8bb 91bc 018e d1bd d436 d1bd 8c58 233e
000000c0: 12d9 f6b8 1f36 513e 0bc2 babd 99ca b0bd
000000d0: 4a0a 123d 4d76 fcbc 431b d5bd 3d27 113c
000000e0: edc4 28b9 1719 913d f792 d5bd ff06 afbc
000000f0: cf04 343e e5db fe3b 2b3f a7bd a9b2 b1bd
00000100: acec e23d aa6f 94bd 2f6a 803d f4f8 31bd
00000110: e322 273e 42fc ef3d 471c 89bb 5785 ec3d
00000120: c2a0 1abe ec5d 49bd a5e4 9abd 6bc7 853d
00000130: 931c ac3c 3e76 22be b0bf ac3c af75 c8bd
00000140: bb6d ad3d 1f82 f1bd dbd6 04be 49f3 ccbc
00000150: 3d90 ddbc bd08 103e 07bf 433c 8c06 17be
00000160: fcc5 dc3d 5246 813d a41c 3f3e a7bc 9e3d
00000170: b5e8 cb3c ebde 223b e623 2bbe 1da6 cbbd
00000180: f155 8b3e b8e7 263e 4166 873e f86e 983e
00000190: 267b 0b3d d6ee c83d 5669 fb3d 2bd3 48bb
000001a0: 0f18 713e 04c5 fe3d f32a 523d b2e8 6c3e
000001b0: bf5e 683e 39f4 b63e b0c7 633e 13bf d6bd
000001c0: d5ca 063d 4b9f 503e 1c86 773d c99b e83d
000001d0: 3597 cb3d 2f3b 553e 8d17 f53d 604c 1f3e
000001e0: c43b 573e c95e 9d3e 055e d93e e6fe 8a3c
000001f0: cd59 e23c 66fa 813d 9f88 413d bc69 1c3e

latent.bias_hh_l0 f4 [128]
0.0089980075 -0.06728531 0.06852958 0.10083241 -0.020107219 0.12126231 0.030053658 0.03559286
0.074728474 0.13115783 -0.041126538 0.024305524 0.030769484 0.2599329 0.007752114 -0.1414537
-0.0368497 -0.059209857 0.09484098 0.023160674 0.23330718 0.19197942 -0.09872767 0.20329659
0.053671394 0.26364866 0.2330993 -0.013708368 0.21195693 0.34454963 0.013980792 0.15592037
-0.06477835 0.09129139 0.13033584 0.10354649 0.18640171 -0.16975796 0.027001334 0.16440248
-0.06998925 -0.035754837 -0.07047689 -0.11717605 0.09490085 -0.05192464 -0.070213914 -0.06737334
-0.053796146 0.07881288 -0.21137543 -0.09638187 0.07649337 0.002094844 0.15070722 -0.027990587
-0.16698101 -0.16889447 0.102847904 0.055204686 0.039971907 0.16824344 -0.1286975 -0.027132694
-0.13690224 -0.045425035 -0.07206344 -0.15949264 0.002793931 0.14143556 -0.1334596 0.08187854
-0.036331568 0.057611875 -0.063519835 -0.06924406 0.06312515 -0.14146934 0.10478663 0.08901265
0.095029555 0.067700915 0.092642166 0.024080493 -0.026910476 0.10239213 0.049458787 -0.005005962
-0.048504777 0.13951328 -0.09849238 -0.18154116 0.034540936 -0.047719978 -0.029709185 0.04620292
0.11409981 0.07034462 0.46603444 0.12596607 0.15043333 0.20122735 0.07394147 0.21467665
0.24488394 0.12922272 0.06494275 0.37430716 0.23871224 0.069259785 0.08126993 -0.10548031
0.056101624 -0.012208153 0.14253007 0.13980564 0.048395094 0.24040736 0.14619204 0.37623325
0.11809509 0.2245983 0.45769393 -0.027200678 0.226945 0.24520056 0.26226854 0.27475283
00000000: 616c 133c e1cc 89bd 3d59 8c3d 3981 ce3d
00000010: e5b7 a4bc 6058 f83d 1733 f63c d2c9 113d
00000020: 3e0b 993d 3d4e 063e 4d74 28bd 611c c73c
00000030: 4910 fc3c ed15 853e 7205 fe3b 3dd9 10be
00000040: b6ef 16bd 0986 72bd fd3b c23d 74bb bd3c
00000050: 14e8 6e3e 4196 443e bc31 cabd fb2c 503e
00000060: 89d6 5b3d f5fc 863e 95b1 6e3e 1099 60bc
00000070: 3d0b 593e cf68 b03e b10f 653c 97a9 1f3e
00000080: 83aa 84bd fbf6 ba3d c276 053e 2f10 d43d
00000090: 17e0 3e3e 08d5 2dbe e731 dd3c 2059 283e
000000a0: 8656 8fbd aa73 12bd 3056 90bd fff9 efbd
000000b0: 605b c23d eeae 54bd 50cc 8fbd 09fb 89bd
000000c0: 5959 5cbd a668 a13d cd72 58be dc63 c5bd
000000d0: 8ea8 9c3d a649 093b fe52 1a3e 844c e5bc
000000e0: 12fd 2abe acf2 2cbe eca1 d23d 4f1e 623d
000000f0: 95b9 233d 0248 2c3e 47c9 03be 6245 debc
00000100: 1a30 0cbe 9a0f 3abd ff95 93bd 0a52 23be
00000110: 621a 373b 7cd4 103e a2a9 08be f0af a73d
00000120: 69d0 14bd 6efa 6b3d b016 82bd d4cf 8dbd
00000130: c247 813d 57dd 10be 5f9a d63d 444c b63d
00000140: db9e c23d c7a6 8a3d 2dbb bd3d 7444 c53c
00000150: 5c73 dcbc f7b2 d13d 4c95 4a3d 0e09 a4bb
00000160: f2ac 46bd 92dc 0e3e 5fb6 c9bd ede5 39be
00000170: cc7a 0d3d 0676 43bd ad60 f3bc 463f 3d3d
00000180: 29ad e93d d710 903d 119c ee3e 40fd 003e
00000190: 320b 1a3e 8b0e 4e3e a06e 973d 32d4 5b3e
000001a0: dbc2 7a3e f652 043e b400 853d 30a5 bf3e
000001b0: fb70 743e 13d8 8d3d d970 a63d 1006 d8bd
000001c0: d1ca 653d b404 48bc 67f3 113e 3629 0f3e
000001d0: ef39 463d 592d 763e 5eb3 153e a5a1 c03e
000001e0: d7db f13d 19fd 653e dc56 ea3e f5d3 debc
000001f0: 4564 683e db15 7b3e 1048 863e 67ac 8c3e

decoder.weight_ih_l0 f4 [256, 32]
0.33655232 -0.37855422 0.40463343 -0.6323614 0.4843007 0.70815456 0.50620955 0.78840137
-0.51543975 0.61297405 -0.7142972 0.58266294 -0.3235237 -0.653617 0.5218033 -0.43999127
0.3391596 0.65015817 -0.3301068 -0.30747098 -0.5769374 -0.5204488 0.49607053 0.7207287
0.7373165 0.3136582 -0.5460782 -0.49420598 -0.3715626 -0.5314248 -0.7194334 0.3258025
0.61147743 -0.670245 0.07038022 -0.52529347 0.64757067 0.54907805 0.83125836 1.2474874
-0.3641849 0.6407331 -0.481957 0.55844986 -0.4234505 -0.52608925 0.62226564 -0.42583534
0.49182793 0.64014214 -0.45377645 -0.38300988 -0.737264 -0.63763535 0.38090256 0.4151445
0.69279385 0.40206775 -0.53590715 -0.26881433 -0.48936015 -0.3916455 -0.9591856 0.76966065
0.3066788 -0.3044624 -0.14840609 -0.17206098 0.26252097 0.30109325 0.5081464 0.25728372
-0.06475885 0.29055834 -0.48050585 0.15343393 -0.7934902 -0.19974923 0.111858174 -0.8224373
0.86959386 0.10735236 -0.56523514 -0.8743237 -0.23835404 -0.9959188 0.8176897 0.8902067
0.42815992 0.58900195 -0.7667958 -0.7070859 -0.59336495 -1.6808525 -1.5325445 0.69368255
1.2237406 -0.53254944 0.19673747 -0.4037606 0.35512343 0.40201288 0.81643176 0.32726768
-0.3003694 0.4802571 -0.45534134 0.60573375 -0.50567985 -0.41178742 0.42751494 -0.48827323
0.5605039 0.4120344 -0.35907432 -0.44515854 -0.47702882 -0.70538294 0.2800505 0.8406416
0.39320028 0.8401736 -0.58452684 -0.5445572 -0.5717078 -0.68076336 0.046710007 0.5577978
1.0246716 -0.62008685 0.12220237 -0.7157574 0.4873159 0.7820011 1.1149371 0.7618054
-0.8984097 0.66965514 -0.46106556 0.7420817 -0.24539869 -0.7836399 0.70850074 -0.3708639
0.35038492 0.678481 -0.3288925 -0.22426693 -0.67110014 -0.65491545 0.28529608 0.8047872
0.6819118 0.42500055 -0.4988962 -0.50104356 -0.4747669 -0.33871076 -0.5187329 0.7473321
0.9668977 -0.6875257 0.3276923 -0.63662195 0.55864894 0.6895629 1.2438155 0.77964157
-0.6477714 0.75099677 -0.44725457 0.67049336 -0.2564827 -0.7721347 0.8742408 -0.4404369
0.18443052 0.7532826 -0.22134165 -0.12643653 -0.6888874 -0.5075528 0.2857863 0.43731502
0.91267186 0.37798852 -0.45841926 -0.92284024 -0.29167488 -0.39269876 -1.0654972 0.30034164
0.42851058 -0.24410169 0.003793237 -0.18718791 0.30559337 0.37721327 0.2650003 0.100092724
-0.33908442 0.2548977 -0.29962206 0.13981892 -0.6443813 -0.27477872 0.29798037 -0.5866753
0.78848094 0.1487474 -0.6672654 -0.6798807 -0.32012552 -0.4172424 0.49577788 0.64342296
0.3263423 0.7780655 -0.75427425 -0.81700367 -0.57145697 -1.0441164 -0.71373904 0.28211263
0.42554843 -0.5728814 0.2897643 -0.50890803 0.7364433 0.47636628 0.10016622 -0.19158533
-0.36827952 0.38341725 -0.1967097 0.49888048 -0.4461995 -0.32326877 0.27957645 -0.6481296
0.5619475 0.12511408 -0.6241355 -0.8155371 -0.40976766 -0.5448253 0.641714 0.3031457
0.4505634 0.285516 -0.33727458 0.06171396 -0.22525817 -0.73976797 -0.22568296 0.25371855
00000000: 9650 ac3e dcd1 c1be 1d2c cf3e 70e2 21bf
00000010: 43f6 f73e 9e49 353f f396 013f acd4 493f
00000020: dcf3 03bf deeb 1c3f 2edc 36bf 6629 153f
00000030: e6a4 a5be 7253 27bf e794 053f 8946 e1be
00000040: 54a6 ad3e c470 263f c203 a9be d66c 9dbe
00000050: 2bb2 13bf 223c 05bf f5fc fd3e ad81 383f
00000060: c6c0 3c3f cf97 a03e c8cb 0bbf 9108 fdbe
00000070: 743d bebe 750b 08bf ca2c 38bf 96cf a63e
00000080: c989 1c3f 2d95 2bbf 8123 903d a279 06bf
00000090: 31c7 253f 6190 0c3f 59cd 543f abad 9f3f
000000a0: 7176 babe 1607 243f 11c3 f6be 92f6 0e3f
000000b0: 81ce d8be c9ad 06bf cd4c 1f3f 1707 dabe
000000c0: dfd0 fb3e 5be0 233f 6355 e8be df19 c4be
000000d0: 55bd 3cbf 123c 23bf a905 c33e d28d d43e
000000e0: f05a 313f d3db cd3e 3631 09bf 08a2 89be
000000f0: 6a8d fabe c285 c8be 308d 75bf 7b08 453f
00000100: 0105 9d3e 7fe2 9bbe c4f7 17be c130 30be
00000110: 2669 863e e528 9a3e e215 023f b1ba 833e
00000120: 4aa0 84bd 10c4 943e dd04 f6be c91d 1d3e
00000130: 2c22 4bbf 108b 4cbe e615 e53d 408b 52bf
00000140: b49d 5e3f 8edb db3d 40b3 10bf aed3 5fbf
00000150: 1513 74be 89f4 7ebf 1d54 513f 96e4 633f
00000160: c737 db3e d5c8 163f bb4c 44bf 9503 35bf
00000170: c4e6 17bf 2d26 d7bf 6b2a c4bf 2e95 313f
00000180: 88a3 9c3f 2955 08bf 8c75 493e b6b9 cebe
00000190: bdd2 b53e a2d4 cd3e ac01 513f a18f a73e
000001a0: 05ca 99be 42e4 f53e 8022 e9be 5e11 1b3f
000001b0: 3c74 01bf cdd5 d2be 3de3 da3e f3fe f9be
000001c0: 2f7d 0f3f 2cf6 d23e 97d8 b7be d2eb e3be
000001d0: 1f3d f4be fa93 34bf c762 8f3e 4a34 573f
000001e0: 8c51 c93e 9e15 573f 8da3 15bf 1a68 0bbf
000001f0: 715b 12bf 8246 2ebf fe52 3f3d d6cb 0e3f
00000200: 7028 833f 03be 1ebf 3c45 fa3d e13b 37bf
00000210: 7881 f93e 3931 483f 42b6 8e3f ae05 433f
00000220: 2efe 65bf 856e 2b3f c910 ecbe 11f9 3d3f
00000230: cb49 7bbe a09c 48bf 4e60 353f e0e1 bdbe
00000240: a765 b33e eeb0 2d3f 9964 a8be 3ba6 65be
00000250: 38cd 2bbf 8aa8 27bf 5412 923e 8906 4e3f
00000260: c691 2e3f ac99 d93e 536f ffbe 6444 00bf
00000270: a614 f3be 7f6b adbe aecb 04bf 2851 3f3f
00000280: 9c86 773f af01 30bf 49c7 a73e a8f9 22bf
00000290: 9e03 0f3f 3287 303f 5935 9f3f 9796 473f
000002a0: 59d4 25bf 5341 403f 8dfe e4be 74a5 2b3f
000002b0: b351 83be 9faa 45bf 3fce 5f3f f280 e1be
000002c0: 5bdb 3c3e 21d7 403f 63a7 62be 9478 01be
000002d0: ed5a 30bf fbee 01bf 9552 923e c1e7 df3e
000002e0: dda4 693f b687 c13e eeb5 eabe 423f 6cbf
000002f0: 6956 95be d00f c9be 3662 88bf 61c6 993e
00000300: bd65 db3e cbf5 79be f597 783b 30ae 3fbe
00000310: bc76 9c3e 1922 c13e 1fae 873e 6afd cc3d
00000320: 799c adbe f481 823e 1068 99be b12c 0f3e
00000330: 2cf6 24bf ccaf 8cbe e290 983e 5a30 16bf
00000340: e3d9 493f 3d51 183e e8d1 2abf a90c 2ebf
00000350: 7ee7 a3be cca0 d5be 99d6 fd3e 5eb7 243f
00000360: 5716 a73e 4d2f 473f 1e18 41bf 2727 51bf
00000370: 014b 12bf 9ba5 85bf 9ab7 36bf 1171 903e
00000380: 7ce1 d93e 5ba8 12bf fd5b 943e cc47 02bf
00000390: 8c87 3c3f 48e6 f33e f223 cd3d f22e 44be
000003a0: 228f bcbe 444f c43e 456e 49be 436d ff3e
000003b0: 4374 e4be 7c83 a5be a524 8f3e d2eb 25bf
000003c0: cbdb 0f3f e81d 003e 58c7 1fbf 0ac7 50bf
000003d0: 11cd d1be ac79 0bbf 5e47 243f ea35 9b3e
000003e0: 3fb0 e63e 272f 923e 41af acbe c7c7 7c3d
000003f0: 14aa 66be 6f61 3dbf 6f19 67be 66e7 813e
