saved_models/AD_autoencoder_ep4_loss1.7358.pth (torch, 257618 bytes, 14 tensors)

encoder.weight_ih_l0 f4 [256, 28]
0	0xbce6c9cf	-0.028172402
1	0x3ba7afa0	0.0051173717
2	0x3adf2ead	0.001702746
3	0xbc8993ce	-0.016794112
4	0x3a073bde	0.0005158762
5	0x3b4aa221	0.003091939
6	0x3ae1403e	0.0017185283
7	0x3b3fc6d0	0.0029262789
8	0x3b8d7209	0.0043165726
9	0xb9e0b219	-0.00042857302
10	0x3a765917	0.00093974307
11	0xbb92c7be	-0.0044793775
12	0xbbc10fa0	-0.005891755
13	0xbbb207b1	-0.005433046
14	0x3cb5d703	0.022197252
15	0x3a50892a	0.00079550094
16	0xb9805d7a	-0.00024483708
17	0xb880f54c	-6.149206e-05
18	0x3ce45ec4	0.027877219
19	0xbba7f4ac	-0.0051256027
20	0x3d8348ca	0.06410368
21	0x3c08e9f0	0.008356556
22	0x399c1469	0.00029769845
23	0x3c1ba91b	0.009500767
24	0x3cf2a09d	0.029617602
25	0x3d59d58c	0.05318217
26	0x3be9ec1f	0.0071387435
27	0x3c0f112a	0.00873212
28	0xbda966d6	-0.082715675
29	0x3c404f57	0.011737666
30	0x3ad20422	0.001602296
31	0xbcc1ef0d	-0.023673559
32	0x3b954b79	0.004556116
33	0xb9a0a587	-0.00030640906
34	0xbb3b2081	-0.002855331
35	0x3a069ca0	0.0005135033
36	0xbaa2a0ce	-0.0012407543
37	0xbade4179	-0.0016956768
38	0xb6fc4b55	-7.518955e-06
39	0x3a9f31d8	0.0012145592
40	0xbb17a6d5	-0.002314021
41	0xbbe78a9a	-0.007066083
42	0x3beaf0c4	0.007169815
43	0xbb2a3c26	-0.0025975793
44	0xb9b5438c	-0.00034573337
45	0x3a62e260	0.00086549483
46	0x3da569a6	0.080767915
47	0xbb5c0e14	-0.0033577727
48	0xbb2ee049	-0.0026683977
49	0xba29b98b	-0.00064744864
50	0x3894bb9b	7.092134e-05
51	0x3b41807d	0.0029526048
52	0x3da672d6	0.08127372
53	0x3bf2b943	0.007407339
54	0xbb931bd6	-0.0044894023
55	0xbacb11fb	-0.001549303
56	0x3cbd8209	0.023133295
57	0xbb32a427	-0.0027258487
58	0xba87c37c	-0.0010357942
59	0x39373ae6	0.00017474181
60	0x3b119ae2	0.0022217561
61	0x39eb09f0	0.00044830097
62	0xb7e80a0f	-2.7661239e-05
63	0x3a11ded2	0.0005564514
64	0x39b749c3	0.00034959437
65	0xb9126dc9	-0.00013964543
66	0x39319cab	0.00016938399
67	0xb9aa52e2	-0.0003248668
68	0xbad2d3ba	-0.0016084828
69	0xbaf6484a	-0.0018789854
70	0x3b3e82b0	0.0029069595
71	0x395d70f6	0.00021118284
72	0xb873e830	-5.8151956e-05
73	0xb9af73ab	-0.0003346478
74	0xbcb9eec1	-0.022696855
75	0xb960546d	-0.00021393756
76	0x3c339386	0.010960465
77	0x3ab5409e	0.0013828462
78	0xb7b0765d	-2.1035952e-05
79	0xbc4280ed	-0.011871559
80	0xbaa15c54	-0.0012310841
81	0x3c203a2c	0.009779494
82	0x3aa9c534	0.0012952448
83	0x3c84fe5b	0.016234567
84	0x3d81a04a	0.06329401
85	0xbc054118	-0.008133195
86	0xbb7c5508	-0.003850283
87	0x394f56d6	0.00019773407
88	0xbb2aa331	-0.002603721
89	0x3a506629	0.00079497934
90	0xb8948af4	-7.083072e-05
91	0x39c30d6c	0.00037203298
92	0xba0efe00	-0.0005454719
93	0x382f787a	4.1835454e-05
94	0x3a05e3ca	0.00051074906
95	0x39aed45b	0.00033346083
96	0xbbc1d9bd	-0.005915849
97	0x3b23317a	0.0024901317
98	0x3c4d5ae7	0.01253388
99	0x3a63005e	0.00086594175
100	0xba3813fe	-0.0007022022
101	0xb95d55b8	-0.00021108135
102	0xbd8049f3	-0.06264105
103	0x39eb961c	0.00044934533
104	0x3c9b1c5f	0.018934427
105	0xb824b9e4	-3.927377e-05
106	0x3944f2aa	0.00018782416
107	0xbcd873f6	-0.026422482
108	0x3a0a554b	0.0005276992
109	0x3cec994a	0.028881688
110	0x3b142ea9	0.002261082
111	0xba6e5306	-0.0009091351
112	0x3c6b0f50	0.0143469125
113	0xbaa0cdc8	-0.0012268359
114	0xb9e1230f	-0.00042941465
115	0x3a8efa6c	0.0010908372
116	0xbb893052	-0.0041866684
117	0x3753216b	1.2584361e-05
118	0xba1e4491	-0.0006037439
119	0xb982291f	-0.0002482617
120	0xba1408c5	-0.0005647059
121	0xb951f622	-0.00020023485
122	0x395227c0	0.00020041969
123	0x399a6942	0.00029451592
124	0xba0936ab	-0.00052342814
125	0x3b29fc54	0.0025937753
126	0x3b92e80e	0.0044832295
127	0x38863a50	6.4004795e-05
128	0x3a11a41a	0.0005555764
129	0xba20b667	-0.00061306957
130	0xbc653162	-0.013988825
131	0x3aa9fad7	0.0012968433
132	0xbbde9c76	-0.006793554
133	0x3a193a40	0.0005845167
134	0xb8af2d4e	-8.353089e-05
135	0x3c209a76	0.009802451
136	0xb946c812	-0.00018957283
137	0x3c530ea5	0.0128819095
138	0xba8d81e9	-0.0010796163
139	0xbd9c25d6	-0.07624404
140	0xb9d3aea2	-0.00040375168
141	0x3998a7aa	0.0002911662
142	0xb8e58725	-0.000109447436
143	0xb759420b	-1.2949585e-05
144	0x3a594d38	0.00082893996
145	0x3911d115	0.00013906167
146	0x3815e594	3.573818e-05
147	0xb650ef3b	-3.1133666e-06
148	0x3930acfa	0.00016849107
149	0x3894d2f4	7.096483e-05
150	0xb89884c9	-7.272658e-05
151	0xb90c25a6	-0.00013365466
152	0xb824ee6a	-3.9322687e-05
153	0xba1327c2	-0.00056135294
154	0xba0f7601	-0.0005472601
155	0x38beb843	9.0942274e-05
156	0xb9a56549	-0.00031546716
157	0xb8c8833b	-9.561187e-05
158	0xb904bcfc	-0.00012658903
159	0x38a9d799	8.098706e-05
160	0xba27cf11	-0.00064014
161	0xb9045403	-0.00012619798
162	0xb7cbd207	-2.4297287e-05
163	0x38aa76ab	8.128335e-05
164	0x3a9ad1a0	0.0011811741
165	0xbada722e	-0.0016666108
166	0xb9c0f522	-0.00036803732
167	0x3902b215	0.00012464107
168	0xbb18b59e	-0.0023301612
169	0x3a97afbd	0.001157276
170	0x39792652	0.00023760766
171	0xba24b4eb	-0.00062830624
172	0xbb18ea6e	-0.002333309
173	0xba3a49c9	-0.0007106332
174	0x3923760d	0.00015588869
175	0x392e6071	0.0001662986
176	0xb930dc15	-0.00016866655
177	0x393f0b93	0.00018219491
178	0x388d6ec7	6.744038e-05
179	0xb87215ef	-5.7717723e-05
180	0x3a15df4b	0.0005717172
181	0x3a74899d	0.00093283673
182	0x39df24e7	0.0004256137
183	0x38a4c2a0	7.856381e-05
184	0x3990e873	0.00027639008
185	0xb95f12da	-0.0002127396
186	0x3b205e71	0.0024470354
187	0xba28c09a	-0.0006437391
188	0x39b49110	0.00034440355
189	0x379c9094	1.8663974e-05
190	0xb8e8702a	-0.00011083514
191	0xba9e87d6	-0.0012094926
192	0xbb9b7f82	-0.0047454247
193	0x3a27a58f	0.00063952146
194	0x386b6fd7	5.6132525e-05
195	0x38aa7959	8.1288345e-05
196	0xbd421915	-0.0473872
197	0x3c08fed9	0.008361542
198	0xbcd41960	-0.025891006
199	0x3b98ca94	0.004662821
200	0x3c743799	0.014905834
201	0x3c717bfc	0.014739033
202	0x3b236d81	0.0024937096
203	0x3bcdcf09	0.006280784
204	0xbc385216	-0.01125004
205	0x3b5311a8	0.003220657
206	0x3a0ffc2b	0.0005492593
207	0xbbc4a775	-0.0060014077
208	0xbc952e93	-0.018210685
209	0xbc5db57d	-0.01353204
210	0x3ca05d6c	0.019575797
211	0xbb1e88c4	-0.0024190405
212	0xb9044b86	-0.00012616636
213	0xba3fa0c4	-0.0007310028
214	0x3d3fa17b	0.04678486
215	0xbc1ff238	-0.009762339
216	0x3e23b462	0.1598678
217	0x3ba193d1	0.004930951
218	0xba86d15f	-0.0010285786
219	0xbdb64c00	-0.089012146
220	0x3aba18ac	0.0014198027
221	0x3d202088	0.039093524
222	0x3cc6d8bf	0.024273274
223	0x3bb2bd0e	0.005454666
224	0xbc44ac2e	-0.012003941
225	0xbe8bbe1f	-0.27293488
226	0xbe5eb216	-0.21747622
227	0xbf39ab3e	-0.7252692
228	0xbd83c129	-0.06433327
229	0xbdf46538	-0.119333684
230	0x3c38ac4b	0.011271547
231	0x3d29a0a1	0.041412953
232	0xbd5c3e2d	-0.053770233
233	0x3c98aa10	0.01863578
234	0xbd57c76c	-0.052680418
235	0xbeecd794	-0.46258223
236	0xbcdf44ca	-0.02725448
237	0x3e046cb4	0.12932092
238	0x3e396bac	0.1810748
239	0xbc6cc5ef	-0.014451488
240	0x3ce6a471	0.028154584
241	0xbc54dfc9	-0.012992808
242	0xbc7b939e	-0.015355019
243	0xbd3d0088	-0.046143085
244	0x3fac7582	1.347336
245	0x3fa0b50e	1.2555254
246	0x3f07af30	0.5300169
247	0x3e8b2156	0.2717387
248	0x3f2d44bd	0.6768301
249	0x3eb191f1	0.34681657
250	0x3e33fc79	0.1757678
251	0x3fa206ef	1.2658366
252	0xbcf3ac2e	-0.029745188
253	0x3ba8915f	0.0051442827
254	0x38854c8f	6.356194e-05
255	0x3c137c80	0.009001851

encoder.weight_hh_l0 f4 [256, 64]
0	0x3d30e92c	0.04319112
1	0xbd9e511b	-0.077303134
2	0x3d9413ca	0.07230337
3	0xbdb89b7b	-0.090140305
4	0xbd52c896	-0.051460825
5	0x3cf1da1b	0.029522946
6	0x3d1d2983	0.038369667
7	0xbd1d7623	-0.038442742
8	0x3da7bdb6	0.08190481
9	0x3e073e7c	0.1320743
10	0x3ddd0f05	0.107938804
11	0xbe267748	-0.1625644
12	0xbd4fb988	-0.050714046
13	0xbe138fe7	-0.14410363
14	0x3e0acfcf	0.13555835
15	0xbd7f7e28	-0.06237617
16	0x3dd3c617	0.10340517
17	0xbe556493	-0.20839147
18	0xbc3ea8f5	-0.011636962
19	0x3da0db62	0.07854344
20	0x3d964095	0.07336537
21	0x3a7ce9c5	0.00096478715
22	0x3db040b3	0.086060904
23	0xbcd81a34	-0.026379682
24	0xbe33aab5	-0.17545588
25	0x3da89df9	0.08233256
26	0xbda01e82	-0.07818319
27	0x3d9fb901	0.077989586
28	0x3d908e56	0.070583984
29	0xbc588e76	-0.013217559
30	0x3d84619f	0.06463932
31	0x3e0a38d1	0.13498236
32	0x3dc5f629	0.09666092
33	0x3dee0a32	0.11623038
34	0x3d3ea574	0.046544507
35	0x3e13f5e7	0.14449273
36	0xbc23a3f7	-0.009987823
37	0xbd952130	-0.07281721
38	0xbde2f08d	-0.11081038
39	0x3d8107a3	0.06300285
40	0x3d87a283	0.066227935
41	0x3ddc517d	0.1075773
42	0xbcfbb20c	-0.030724548
43	0x3dab4072	0.08361901
44	0x3d1db25e	0.038500182
45	0xbba648a5	-0.005074578
46	0x3c63d473	0.013905632
47	0x3da80846	0.08204703
48	0x3d4bdaaa	0.04976908
49	0xbdbe84a1	-0.09302641
50	0x3d015f4b	0.03158502
51	0xbc0181d2	-0.007904487
52	0xbc0eb59f	-0.008710294
53	0xbdf57095	-0.11984364
54	0xbddecb5d	-0.10878632
55	0xbe0d0e84	-0.13775069
56	0x3da55ab1	0.08073939
57	0x3c258d2e	0.010104461
58	0xbcef0224	-0.029175825
59	0x3d9d7243	0.07687809
60	0xbc52cc26	-0.012866056
61	0xbdc48648	-0.095959246
62	0x3cf1754b	0.029474875
63	0xbe187329	-0.1488768
64	0xbea1af36	-0.31578988
65	0x3f2f9c24	0.68597627
66	0xbd35eaad	-0.044413257
67	0x3d09cdc1	0.033643488
68	0x3cb1da0f	0.021710424
69	0xbecf55f2	-0.4049526
70	0x3f84e1d7	1.0381421
71	0xbe03637f	-0.12830923
72	0x3dc17568	0.094462216
73	0x3eb4e117	0.3532798
74	0x3c9d8ead	0.019233072
75	0xbe3232d2	-0.17402199
76	0x3e6583aa	0.22413507
77	0xbe089e0d	-0.13341542
78	0xbd44611f	-0.047944184
79	0x3d8ffb33	0.07030334
80	0xbe64e452	-0.22352722
81	0xbe31bade	-0.1735644
82	0x3e86ef7c	0.26354587
83	0xbdb95189	-0.09048755
84	0xbe68d8f5	-0.22739013
85	0xbe234d12	-0.15947369
86	0x3ed15937	0.40888378
87	0xbd38481d	-0.044990648
88	0xbe58c097	-0.21167217
89	0xbf109018	-0.5646987
90	0x3e0ea998	0.13931882
91	0x3d677eb6	0.056517325
92	0x3cffcc4b	0.031225344
93	0x3ebc21ae	0.36744446
94	0x3e60644e	0.21913263
95	0x3c6d4300	0.014481306
96	0x3d9887ac	0.07447752
97	0x3c7341db	0.014847244
98	0xbe09d98a	-0.13461891
99	0x3d35fc78	0.044430226
100	0x38b99dc6	8.850875e-05
101	0x3bf1e42c	0.0073819365
102	0xbd4a3b69	-0.049373064
103	0x3c0bf0b7	0.008541278
104	0x3f42c145	0.76076156
105	0x3e725769	0.23666157
106	0xbc3fb9c2	-0.011702003
107	0xbf3f4f40	-0.747303
108	0xbe1a658f	-0.15077804
109	0xbe2b75e1	-0.16744186
110	0x3f577ab6	0.8417162
111	0x3d57ed1c	0.05271636
112	0x3df11dc7	0.11773258
113	0x3d11928d	0.035540152
114	0xbe1b355d	-0.15157075
115	0x3dd90a4d	0.10597668
116	0xbd8b9a9c	-0.06816599
117	0xbee79055	-0.45227304
118	0x3e8433e8	0.2582085
119	0xbebdbc10	-0.37057543
120	0xbd7ab95c	-0.06121193
121	0x3ea6dd6e	0.32590812
122	0xbe2835f3	-0.1642683
123	0xbe915126	-0.28382224
124	0x3e2bc52e	0.16774437
125	0x3d05bef0	0.032652795
126	0xbe727922	-0.23679021
127	0x3d1aed7e	0.037824146
128	0x3dccf4c5	0.100076236
129	0x3cded444	0.027200826
130	0x3ce9344e	0.028467324
131	0x3bf5176a	0.007479598
132	0x3d90f243	0.07077458
133	0xbcd8a614	-0.02644638
134	0x3e442cf2	0.1915777
135	0x3bf594a9	0.0074945283
136	0xbcfe9e66	-0.03108139
137	0x3d17ad40	0.03703046
138	0xbde51f3c	-0.11187598
139	0x3bdb0d94	0.0066849682
140	0xbd8b6cad	-0.06807838
141	0x3d966bf3	0.073448084
142	0x3baa914d	0.0052053095
143	0x3cf68aa1	0.0300954
144	0x3dd99813	0.10624709
145	0x3cd1765b	0.025569132
146	0x3e1f798a	0.15573707
147	0x3d1b2bca	0.037883557
148	0x3d954155	0.07287852
149	0xbced681a	-0.028980304
150	0xbbda8534	-0.006668711
151	0xbd24c30f	-0.040225085
152	0xbe3ef47e	-0.18647954
153	0x3ad074fc	0.0015904005
154	0x3de4a6b0	0.111646056
155	0xbdf41891	-0.11918748
156	0xbdf663f6	-0.12030785
157	0xbd77f095	-0.06053217
158	0x3a6c4392	0.00090127543
159	0xbcb2020d	-0.021729494
160	0x3d8dc7ff	0.06922912
161	0x3d288f81	0.04115248
162	0x3cade5a9	0.021227675
163	0x3e04bfcc	0.1296379
164	0xbde32433	-0.11090889
165	0x3dd4be9f	0.103879206
166	0x3d1a4232	0.037660785
167	0x3da23f80	0.07922268
168	0x3eb5380c	0.35394323
169	0xbd91e73c	-0.071241826
170	0xbdfd41aa	-0.1236604
171	0xbd7b2cad	-0.061321903
172	0x3eda33c0	0.42617607
173	0x3aa14fb0	0.0012307074
174	0x3d5fb097	0.05461177
175	0xbc33cb7b	-0.0109738065
176	0x3bc9de8b	0.0061605624
177	0xbd73b5ed	-0.05949967
178	0xbd9f4e4d	-0.077786066
179	0xbc5c938e	-0.013462914
180	0xbd4dee9d	-0.050276387
181	0x3dce5c71	0.100762255
182	0x3ca476e5	0.020076225
183	0x3d3a372c	0.045462772
184	0xbc9e6504	-0.019335277
185	0xbe14fc0c	-0.14549273
186	0xbb0b1ac2	-0.0021225666
187	0xbd8705dd	-0.06592915
188	0xbe094a4c	-0.13407248
189	0x3ef1fe5a	0.47264367
190	0xbdc8872c	-0.09791407
191	0x3c6f350d	0.014600051
192	0xbc6c4fca	-0.01442332
193	0xbcf7eff1	-0.03026578
194	0xbd44da25	-0.0480596
195	0x3bfc1947	0.007693443
196	0x3c56033e	0.013062296
197	0x3e98b4c7	0.29825422
198	0x3d40c14d	0.047059346
199	0xbe3825d3	-0.17983179
200	0xbcf074a4	-0.029352494
201	0xbda89fcd	-0.082336046
202	0xbc60397c	-0.01368558
203	0xbd2ea4f7	-0.04263779
204	0x3e2e9e4c	0.17052573
205	0xbda403ad	-0.080085136
206	0xbd88970a	-0.066694334
207	0x3d4f76ed	0.050650526
208	0x3de44f4f	0.111479394
209	0xbbbe459c	-0.005806638
210	0xbd84d189	-0.06485278
211	0x3e274fa8	0.1633898
212	0xbddba8b6	-0.107255384
213	0x3eb51627	0.35368463
214	0x3c1bfdce	0.009520961
215	0x3c25f2a5	0.010128652
216	0x3e7496e0	0.23885679
217	0x3d63e4db	0.055638175
218	0x3d6b8ae1	0.057505492
219	0x3e97f9c6	0.2968275
220	0x3cc9d0db	0.024635723
221	0x3d12e26c	0.035860464
222	0x3cd902ef	0.026490657
223	0x3e08def7	0.13366304
224	0x3d701828	0.058616787
225	0xbd8b81b5	-0.06811849
226	0xbdb78088	-0.08960062
227	0xbe03f50a	-0.12886444
228	0xbe2dde64	-0.16979367
229	0x3d0fc364	0.03509845
230	0x3d5aae41	0.053388838
231	0xbdb21089	-0.0869456
232	0x3e9bc980	0.3042717
233	0x3d210b0b	0.039317172
234	0xbc83d6fe	-0.016093727
235	0xbd21a2a5	-0.03946175
236	0x3f04f6a8	0.5193887
237	0xbf32eac7	-0.6988949
238	0xbcac2d2a	-0.02101763
239	0x3d996855	0.07490603
240	0x3b168a95	0.0022970785
241	0x3ceba364	0.028764434
242	0x3d57801a	0.0526124
243	0x3e12ba8c	0.14328974
244	0xbe3fce30	-0.18730998
245	0xbcb92c11	-0.02260402
246	0xbdd4f0bc	-0.10397479
247	0xbb7b54a9	-0.0038350022
248	0x3d868d8a	0.06569965
249	0x3cab66dd	0.020923072
250	0x3cb793bf	0.022409318
251	0xbd7cee13	-0.061750483
252	0x3da2002f	0.07910191
253	0xbda4b471	-0.08042229
254	0xbe0bc7ed	-0.13650484
255	0x3d3f5e3c	0.04672073

encoder.bias_ih_l0 f4 [256]
0	0x3ce92c19	0.02846341
1	0x3e0348b4	0.12820703
2	0xbbc6596b	-0.00605314
3	0x3d46a26e	0.04849475
4	0x3da77961	0.08177448
5	0xbdd11a11	-0.1021005
6	0xbcbe911e	-0.023262557
7	0xbd81d6c2	-0.0633979
8	0x3f9d0c3b	1.2269357
9	0x3d9208f3	0.07130613
10	0xbe10bab6	-0.14133725
11	0x3fa89ba3	1.3172497
12	0xbd628660	-0.05530393
13	0x3f887bc6	1.0662773
14	0xbe12e81c	-0.14346355
15	0xbda4a0a4	-0.08038452
16	0x3b6bbd20	0.0035970882
17	0x3f2dabcb	0.6784026
18	0xbe128050	-0.1430676
19	0xbd88b967	-0.06675988
20	0xbdd28979	-0.10280127
21	0xbdcf84e9	-0.101327725
22	0x3f074267	0.52835697
23	0xbe03bd59	-0.12865199
24	0xbb7acb94	-0.0038268315
25	0x3eefd081	0.46838763
26	0xbdc44920	-0.0958426
27	0x3e001dc4	0.12511355
28	0xbd7994ca	-0.060932912
29	0x39751bca	0.00023375373
30	0x3c7fe014	0.015617389
31	0x3f37eab7	0.7184252
32	0xbe0d1e75	-0.1378115
33	0xbcdfc7b7	-0.027316911
34	0xbd985a1c	-0.07439062
35	0xbe16cf55	-0.14727528
36	0x3dcb0757	0.09913509
37	0x3f9624cd	1.1729981
38	0xbe2203dd	-0.15821786
39	0x3e562bfe	0.20915219
40	0x3db5ed4b	0.08883151
41	0xbd87b125	-0.066255845
42	0x3e331158	0.17487085
43	0x3d2562be	0.04037737
44	0x3e76760b	0.24068467
45	0x3c6576dd	0.01400539
46	0x3e791b0c	0.24326724
47	0x3d0b56c7	0.034018304
48	0xbe28cd42	-0.1648455
49	0x3ebe4ec3	0.37169465
50	0x3d24e2b2	0.040255256
51	0x3e830814	0.255921
52	0xbe1bbdbe	-0.152091
53	0x3eabc0b5	0.3354546
54	0xbe18662a	-0.14882722
55	0xbe6e17cd	-0.23251267
56	0x3d24bf27	0.04022136
57	0x3ebd25d9	0.36942938
58	0x3ef41801	0.47674564
59	0x3d486e76	0.04893347
60	0x3e8af609	0.27140835
61	0xbc097f8e	-0.008392228
62	0x3dab746c	0.08371815
63	0xbcc79e5d	-0.024367506
64	0xbda3a216	-0.079899
65	0xbe28342b	-0.1642615
66	0xbd4f7601	-0.050649647
67	0x3dddba16	0.10826509
68	0x3dfc6e12	0.12325682
69	0xbdaa8ad6	-0.08327262
70	0xbd51812e	-0.051148586
71	0x3de40171	0.111330874
72	0x3d9a5c10	0.07537091
73	0x3d99d063	0.0751045
74	0x3d7414c1	0.059590105
75	0x3d2728b3	0.0408103
76	0x3e783aed	0.24241228
77	0x3eb60efb	0.35558304
78	0xbce8cca6	-0.028417896
79	0x3d88a9cd	0.06673012
80	0x3cfb0668	0.030642703
81	0xbc1fed04	-0.009761099
82	0x3d90ab2c	0.070638984
83	0xbdbae12f	-0.091249816
84	0x3cdfeddb	0.027335098
85	0x3e0d4d50	0.13799024
86	0x3e34837c	0.17628282
87	0xbcb247b0	-0.021762699
88	0x3dadf547	0.084940486
89	0x3dc5c5e0	0.09656882
90	0xbc6c4828	-0.0144215
91	0x3d724809	0.05915073
92	0x3de1c49d	0.11023829
93	0x3c28a472	0.010293113
94	0xbd5e3af2	-0.054255433
95	0xbe1a841a	-0.15089455
96	0x3d885bd6	0.06658141
97	0xbdbdc5b6	-0.09266226
98	0x3e0160e4	0.12634617
99	0x3cfeed6f	0.031119077
100	0x39d1001e	0.00039863674
101	0x3d06479c	0.032783136
102	0x3d1ec7f4	0.03876491
103	0x3dbba68a	0.09162624
104	0xbd76e17e	-0.06027364
105	0x3d624a07	0.05524638
106	0xbd16b29c	-0.03679143
107	0xbb843d59	-0.0040356335
108	0xbda85a0b	-0.08220299
109	0x3dc70a73	0.0971879
110	0xbc40f734	-0.011777688
111	0x3db27391	0.08713449
112	0xbd9226b2	-0.07136287
113	0x3c9651af	0.018349497
114	0xbd245f19	-0.040129755
115	0x3d2523af	0.040317234
116	0xbda5dedf	-0.0809915
117	0xbc8270e7	-0.015922977
118	0xbc1ee4fd	-0.00969815
119	0x3da6f1d7	0.08151596
120	0xbda700d3	-0.08154454
121	0x3c2584d5	0.01010247
122	0x3d6bec80	0.05759859
123	0x3e123450	0.14277768
124	0x3d79a86b	0.06095163
125	0x3dc854bd	0.097817875
126	0xbc078e36	-0.008273652
127	0xbcafb66e	-0.021449294
128	0x3ed6cfd7	0.41955444
129	0x3d2f4146	0.04278686
130	0x3f2348cc	0.63782954
131	0xbedaa8c8	-0.42706895
132	0xbdf89115	-0.12137047
133	0xbdbda4c8	-0.09259945
134	0x3df58f26	0.11990194
135	0xbf203f26	-0.62596357
136	0x3eed751b	0.46378407
137	0x3e10fb4b	0.1415836
138	0x3e8251cc	0.2545303
139	0xbf0fbc0e	-0.56146324
140	0xbdc8651f	-0.09784912
141	0xbf391d9c	-0.72310805
142	0xbe6ca156	-0.2310842
143	0xbb52cf9f	-0.003216721
144	0xbd837946	-0.064196154
145	0xbf14de6f	-0.58151907
146	0x3b0aab0a	0.0021159076
147	0xbd199fa0	-0.037505746
148	0xbeb10710	-0.345757
149	0x3e0d506b	0.13800208
150	0xbd430e55	-0.04762109
151	0x3dc56012	0.096374646
152	0x3ddcdc63	0.10784223
153	0xbe5bb076	-0.21454033
154	0xbe3b85ce	-0.18312761
155	0xbdaa0a84	-0.08302787
156	0x3e1ad42b	0.15119998
157	0x3e9fbdbf	0.31199452
158	0xbc2fe86f	-0.010736569
159	0x3efcc7fc	0.49371326
160	0x3ec13873	0.3773838
161	0x3d279de6	0.040922068
162	0xbdef64bb	-0.11689135
163	0xbd2310b4	-0.03981085
164	0xbd6b2e1e	-0.057417028
165	0xbf2d69ed	-0.67739755
166	0xbee8a38c	-0.45437276
167	0xbebb3c3c	-0.36569393
168	0x3c8c507b	0.01712822
169	0xbe016014	-0.12634307
170	0xbd97020e	-0.07373439
171	0xbd1ec7a2	-0.038764603
172	0xbd5835b5	-0.052785594
173	0x3cae1346	0.021249425
174	0x3e066426	0.13124141
175	0xbdc73f6c	-0.09728894
176	0x3f25a18f	0.64699644
177	0xbefa5479	-0.48892573
178	0xbd732d64	-0.05936946
179	0x3efec668	0.49760747
180	0xbd05dedf	-0.03268325
181	0xbe81a8c8	-0.25324082
182	0x3db193d3	0.08670773
183	0x3d31d73b	0.04341815
184	0x3e0f1020	0.13970995
185	0xbe425942	-0.18979362
186	0xbe463473	-0.19355945
187	0xbeab7e32	-0.33494717
188	0x3f0c574a	0.5482069
189	0x3d1c381a	0.03813944
190	0x3e30d97e	0.17270467
191	0x3de95448	0.113930285
192	0x3e9f5894	0.31122267
193	0xbb62055e	-0.0034488062
194	0x3e69467a	0.22780791
195	0x3ec93c21	0.39303687
196	0x3d1aedb7	0.03782436
197	0x3e86f48b	0.26358446
198	0x3eea0d0b	0.45713076
199	0xbe4bd416	-0.19905123
200	0x3fa5894b	1.2932523
201	0xbc82cfe3	-0.015968269
202	0x3d8e13d4	0.06937376
203	0x3f9d4305	1.2286078
204	0x3d8b5e3b	0.068050824
205	0x3f907b58	1.1287642
206	0xbd59bafa	-0.05315683
207	0x3e013232	0.12616804
208	0x3d9ec2a5	0.07751969
209	0x3edeba1b	0.43501362
210	0x3d7627ff	0.060096737
211	0xbdce0262	-0.10059048
212	0x3ebcc607	0.36869833
213	0x3dd6c2fd	0.1048641
214	0x3e073d41	0.1320696
215	0x3e374d4c	0.1790058
216	0x3de8eb44	0.11372998
217	0x3edcfaba	0.4316004
218	0xbc89aa0e	-0.016804721
219	0x3ea290ab	0.31750998
220	0x3c944d6e	0.018103328
221	0x3da442da	0.080205634
222	0x3e2ff139	0.17181863
223	0x3f61cabe	0.88199985
224	0x3f94a764	1.1613584
225	0xbc41cb7f	-0.011828302
226	0x3ca57bd2	0.020200644
227	0xbbcf720d	-0.0063307346
228	0x3de6ff33	0.11279144
229	0x3f26c92b	0.6515071
230	0x3d2a6ef6	0.041609727
231	0x3e68b86d	0.22726603
232	0x3e161af3	0.14658718
233	0xbdd9174a	-0.10600145
234	0x3f42bc4e	0.7606858
235	0x3db86143	0.09002926
236	0x3e3b441e	0.18287703
237	0x3eda96a8	0.42693067
238	0x3e1a5103	0.15069966
239	0x3cc74f91	0.024329932
240	0x3e7ebd9e	0.2487702
241	0x3f5ec665	0.87021476
242	0x3e401a9f	0.18760155
243	0x3d4ba4c6	0.049717687
244	0x3d519e46	0.051176332
245	0x3c8c517d	0.0171287
246	0x3dbb35d8	0.09141129
247	0xbc367e80	-0.011138558
248	0xbd02bd4e	-0.031918816
249	0xbc8a845b	-0.016908815
250	0x3ee87418	0.45401073
251	0x3d81d5d2	0.06339611
252	0x3e1d6ae3	0.15372805
253	0x3d747fa5	0.059692044
254	0x3e63581d	0.22201581
255	0x3e03d801	0.12875368

encoder.bias_hh_l0 f4 [256]
0	0x3d4651b9	0.04841778
1	0x3e07c5b1	0.13259007
2	0xbd9fabbd	-0.07796428
3	0x3dfc1c0b	0.12310036
4	0xbd9a10e8	-0.07522756
5	0xbde44229	-0.111454315
6	0x3d8b3720	0.06797624
7	0xbe0e54f5	-0.13899596
8	0x3fa7458a	1.3068097
9	0x3d8760f5	0.0661029
10	0xbde134c0	-0.109963894
11	0x3f96c75e	1.1779592
12	0xbe6cf7e4	-0.23141438
13	0x3f9eee1d	1.2416416
14	0xbdb511b7	-0.088412695
15	0xbc79c46a	-0.015244583
16	0xbdfff89e	-0.12498592
17	0x3f368875	0.71301967
18	0x3c5401a6	0.012939846
19	0x3d475cf3	0.048672628
20	0xbb12c738	-0.0022396576
21	0xbe35d40f	-0.17756675
22	0x3f010b1c	0.50407577
23	0x3d26fbdc	0.040767536
24	0xbdfde40b	-0.12397011
25	0x3f279303	0.654587
26	0xbd731e16	-0.059354864
27	0xb84e0da7	-4.9126942e-05
28	0xbc61dd83	-0.013785723
29	0x3c87f5e6	0.016596746
30	0x3d05b459	0.032642696
31	0x3f6ecdfd	0.93283063
32	0x3cbdf266	0.023186874
33	0xbcca4997	-0.024693293
34	0xbd6d18f5	-0.05788513
35	0x3d31bb89	0.043391738
36	0xbd98e99f	-0.07466435
37	0x3fa25d7c	1.2684779
38	0xbda5b3c7	-0.080909304
39	0x3e62fc58	0.22166574
40	0x3d9a8f3f	0.07546853
41	0x3d17e0a8	0.037079483
42	0x3d917eab	0.07104238
43	0x3dc7741a	0.097389415
44	0x3e3e13cc	0.1856224
45	0x3d36de25	0.044645447
46	0x3ceb9e19	0.02876191
47	0x3d5f026c	0.05444567
48	0xbd944b46	-0.0724092
49	0x3eeaa069	0.45825508
50	0x3d11328b	0.035448592
51	0x3c5aeb1a	0.013361717
52	0xbd1ddf12	-0.038542815
53	0x3e8668be	0.26251787
54	0xbd914dd1	-0.070949204
55	0xbda65ec2	-0.08123542
56	0x3d1eaa80	0.03873682
57	0x3eab4bb2	0.33456188
58	0x3e984b20	0.29744816
59	0xbde11a9d	-0.10991404
60	0x3eabe062	0.33569628
61	0x3deb6009	0.114929266
62	0x3dd622d6	0.10455863
63	0x3daed592	0.08536829
64	0x3cb1e00c	0.02171328
65	0xbd73ec0a	-0.059551276
66	0x3cc29661	0.023753347
67	0x3d50886c	0.050911352
68	0xbd664659	-0.056219433
69	0xbda24fc3	-0.079253696
70	0xbda3ccc7	-0.079980426
71	0x3d89e3d2	0.067329064
72	0x3df8b8d1	0.12144626
73	0xbdfed85f	-0.12443613
74	0x3cedc349	0.029023783
75	0x3e2ec3ce	0.17066881
76	0x3e465187	0.19367038
77	0x3e85aa4c	0.2610649
78	0xbdf7273f	-0.120680325
79	0xbca3c320	-0.019990504
80	0xbe0806e4	-0.13283879
81	0xbd3e9e13	-0.04653747
82	0xbcc27ad0	-0.023740202
83	0xbda2c4b6	-0.07947676
84	0xbd7e6a71	-0.06211323
85	0x3e4685e9	0.1938702
86	0xbbe1a88f	-0.006886549
87	0x3d5b6b21	0.053568963
88	0x3e4bbae7	0.19895516
89	0x3d8a671e	0.06757949
90	0x3dc90d66	0.09817009
91	0xbc9ad92f	-0.01890239
92	0x3daec739	0.085340925
93	0x3e34116e	0.17584774
94	0x3cec6062	0.028854553
95	0x3b838e12	0.004014739
96	0xbccd16c1	-0.025035264
97	0xbbcd984b	-0.0062742583
98	0xbd2b3bc8	-0.04180506
99	0xbd11c009	-0.03558353
100	0xbc10c217	-0.008835337
101	0x3c824ccb	0.015905758
102	0x3ce1482e	0.027500238
103	0xbd2d458d	-0.042302657
104	0xbdc412cc	-0.09573898
105	0xbe0f5bee	-0.13999912
106	0x3db5fc7d	0.08886049
107	0xbe1e0676	-0.15432152
108	0x3d11ca9f	0.035593625
109	0x3d8c83cf	0.06861078
110	0x3dd58723	0.10426166
111	0x3dba9fc0	0.09112501
112	0xbd801734	-0.06254426
113	0x3d9821c5	0.07428316
114	0xbd18c1e2	-0.037294276
115	0xbaad8c2e	-0.0013240629
116	0xbdf28b84	-0.11843017
117	0x3d40f810	0.04711157
118	0xbdf7be7d	-0.1209688
119	0x3e029400	0.1275177
120	0x3df326d6	0.11872642
121	0x3da3dcc6	0.080010936
122	0xbe34ff1f	-0.17675446
123	0x3deb1b30	0.11479795
124	0xbaf0205b	-0.001832019
125	0x3e22889b	0.15872423
126	0x3d861050	0.0654608
127	0x3e0c1e39	0.13683404
128	0x3eac1bbb	0.33614907
129	0x3dda53ac	0.106604904
130	0x3f01beb4	0.50681615
131	0xbed2e9bf	-0.4119396
132	0xbd1b6d86	-0.037946247
133	0xbca251da	-0.01981442
134	0x3da35e91	0.079770215
135	0xbf1be47d	-0.6089552
136	0x3eea561f	0.4576883
137	0x3de977c0	0.113997936
138	0x3ee3f611	0.4452367
139	0xbf350002	-0.70703137
140	0xbd671d0d	-0.05642419
141	0xbf1e172d	-0.61754113
142	0xbc6c2e70	-0.014415368
143	0xbe046377	-0.12928568
144	0x3e1425d4	0.14467555
145	0xbf4c9dba	-0.7992817
146	0xbbdd657f	-0.006756484
147	0xbde8b4c4	-0.11362603
148	0xbe91084d	-0.28326645
149	0xbd9220a3	-0.07135131
150	0xbdb00852	-0.08595337
151	0x3d245768	0.04012242
152	0xbda09015	-0.078399815
153	0xbe15f442	-0.14643958
154	0xbdb0cfc8	-0.08633381
155	0x3db2659e	0.08710788
156	0x3cb24cef	0.0217652
157	0x3eaac75f	0.33355233
158	0xbd455c03	-0.048183452
159	0x3f06b846	0.5262493
160	0x3e5ab976	0.2135981
161	0x3dd58d58	0.1042735
162	0xbd953f7a	-0.07287498
163	0xbe737ff2	-0.23779276
164	0xbe0a283c	-0.1349191
165	0xbf30187d	-0.68787366
166	0xbeea9852	-0.45819336
167	0xbe777878	-0.24167049
168	0x3c674cf8	0.014117472
169	0xbd318a30	-0.043344676
170	0xbdf2da99	-0.118581004
171	0xbdde2b36	-0.108480856
172	0xbd8d74df	-0.06907057
173	0x3c998e8c	0.01874473
174	0x3d4b94cb	0.049702447
175	0x3d0e1f3f	0.034697767
176	0x3f1fc6dd	0.62412816
177	0xbf01d0d2	-0.5070926
178	0xbe07ec7c	-0.13273805
179	0x3f13ab3f	0.57683176
180	0xbd06a5ef	-0.03287309
181	0xbdf9bfff	-0.121948235
182	0xbd2472c9	-0.04014853
183	0xbe2feaf7	-0.17179476
184	0x3d981fa8	0.07427913
185	0xbdd4cba1	-0.10390402
186	0xbe075da3	-0.13219313
187	0xbe3efb1c	-0.18650478
188	0x3f30e690	0.6910181
189	0x3d12eae3	0.035868537
190	0x3e05fbdf	0.13084362
191	0x3de92a2e	0.11384998
192	0x3ea55fc3	0.32299623
193	0x3d4f3e9e	0.050596826
194	0x3e90cd66	0.28281707
195	0x3e8cc4e6	0.27493972
196	0x3e905119	0.28186873
197	0x3d27b39a	0.040942766
198	0x3f001eab	0.50046796
199	0xbdaeb14c	-0.085299104
200	0x3f8bebe4	1.0931363
201	0x3d46bffc	0.048522934
202	0xbcc6180a	-0.024181385
203	0x3f9c3868	1.2204714
204	0x3e69519e	0.2278504
205	0x3f99c064	1.2011838
206	0xbd0bd2c3	-0.034136545
207	0x3d7d01a9	0.06176916
208	0xbcdc6539	-0.026903735
209	0x3ef1c12c	0.4721769
210	0x3dc40546	0.09571318
211	0xbd931176	-0.07181065
212	0x3e956b01	0.291832
213	0x3ce34401	0.027742388
214	0x3e3acb07	0.18241511
215	0x3dbc4cee	0.09194361
216	0x3d2f81f0	0.042848527
217	0x3e51b9fa	0.204811
218	0x3d704210	0.058656752
219	0x3eb03f83	0.34423456
220	0xbdbe3049	-0.092865534
221	0xbdb10434	-0.0864338
222	0x3daefb93	0.08544078
223	0x3f31b572	0.6941749
224	0x3f8f9647	1.1217736
225	0x3de207e5	0.11036662
226	0xbd53dd9e	-0.051725022
227	0xbce58b78	-0.028020605
228	0x3e88533f	0.26626012
229	0x3f50a253	0.8149769
230	0xbd767802	-0.060173042
231	0x3e813fec	0.2524408
232	0xbd9b45e7	-0.07581692
233	0xbdbfd686	-0.09367089
234	0x3f3de973	0.7418434
235	0x3e3881bb	0.18018238
236	0xbb8af8bf	-0.0042410786
237	0x3e886e28	0.26646543
238	0x3ddee4c1	0.10883475
239	0xbbaab3bc	-0.0052094143
240	0x3eee26a3	0.46513852
241	0x3f55109b	0.8322846
242	0x3e596c70	0.21232772
243	0x3db83df5	0.08996192
244	0xbd676d44	-0.05650069
245	0xbd04f47d	-0.032459725
246	0x3db00850	0.085953355
247	0x3df38a78	0.11891645
248	0xbcd7e7ad	-0.026355589
249	0x3da09016	0.07839982
250	0x3e903c3f	0.28170964
251	0xbe3a478e	-0.18191358
252	0x3e3292a3	0.1743875
253	0x3e14e6ac	0.1454112
254	0x3e55a36d	0.20863123
255	0x3df24308	0.118291914

latent.weight_ih_l0 f4 [128, 64]
0	0xbe05c2eb	-0.13062637
1	0xbe049423	-0.12947135
2	0x3e1a4b58	0.15067804
3	0xbe53d99f	-0.20688485
4	0x3ccd6b40	0.025075555
5	0x3e583daa	0.21117273
6	0xbe589bc8	-0.21153176
7	0xbe4d9d71	-0.2007959
8	0x3e72926a	0.23688665
9	0x3d583776	0.052787267
10	0x3e4a1da9	0.19737877
11	0xbe9e0dc7	-0.30869886
12	0x3e6952b3	0.22785453
13	0xbe9a1d70	-0.30100584
14	0x3dd4367a	0.10361953
15	0xbd826b59	-0.06368131
16	0xbe26cf03	-0.16289906
17	0xbb5707b2	-0.0032810983
18	0x3e8bea55	0.2732722
19	0x3dff151c	0.12455198
20	0x3d56be37	0.052427497
21	0x3e8f721b	0.28016743
22	0xbbd590a8	-0.0065174885
23	0x3e8d161a	0.27555925
24	0x3ee23757	0.44182846
25	0xbb97df45	-0.00463477
26	0xbdbf18c2	-0.09330894
27	0x3e08c04b	0.13354604
28	0x3e150abc	0.14554876
29	0x3e61b08c	0.22040004
30	0x3e8d0394	0.27541792
31	0x3de1f219	0.110325046
32	0xbd21c0bd	-0.03949045
33	0xbc93acec	-0.018026792
34	0xbe6cd74b	-0.23129003
35	0xbe4e1338	-0.20124519
36	0xbe5ce9a3	-0.215735
37	0xbe20161a	-0.15633431
38	0x3c55b373	0.013043272
39	0xbe4df5f1	-0.2011335
40	0x3ec66b97	0.3875396
41	0xbf4a8aba	-0.7911793
42	0xbe9a7d89	-0.301739
43	0xbdd41ebf	-0.10357427
44	0xbf2dc9b5	-0.67885906
45	0xbd8729f3	-0.06599798
46	0xbe26051f	-0.16212891
47	0x3dd7cc8c	0.10537061
48	0x3bca4a54	0.0061734114
49	0xbe5ea9ce	-0.21744463
50	0xbe0083a1	-0.12550212
51	0x3e68e987	0.22745334
52	0xbea15468	-0.3150971
53	0xbe831e8b	-0.2560924
54	0xbe437f35	-0.19091494
55	0x3d875e9a	0.06609841
56	0x3e93a1bb	0.28834328
57	0xbe61e000	-0.22058105
58	0xbe6b6e00	-0.2299118
59	0xbc2b78c4	-0.0104658045
60	0x3d1d850e	0.03845697
61	0xbea74b06	-0.32674426
62	0xbe947bc3	-0.29000673
63	0x3ed488f7	0.41510746
64	0xbd8ce7ce	-0.06880151
65	0x3dcd6fd8	0.10031098
66	0x3eab268c	0.33427846
67	0x3cf45c06	0.029829036
68	0xbea01981	-0.31269458
69	0xbef1da2c	-0.47236764
70	0xbe3ed424	-0.18635613
71	0xbe8769c7	-0.2644789
72	0x3e816053	0.25268802
73	0x3d36bdad	0.044614483
74	0x3d4d14b9	0.05006859
75	0xbe5f0959	-0.2178091
76	0x3df63705	0.12022213
77	0xbe32e4ee	-0.17470142
78	0xbd8241c2	-0.063601986
79	0xbe804660	-0.25053692
80	0xbe26f69c	-0.16305012
81	0xbde6078d	-0.11231909
82	0x3ea7e263	0.32789907
83	0x3e5c37e0	0.2150569
84	0xbdead651	-0.11466659
85	0x3eb75667	0.35808107
86	0x3baf473e	0.005349069
87	0x3e8a05da	0.2695759
88	0x3eaa022f	0.3320479
89	0xbd9adf69	-0.07562143
90	0x3dffe228	0.12494308
91	0xbf04c6e3	-0.5186598
92	0xbccfa261	-0.025345983
93	0x3d45e504	0.04831411
94	0x3e89e936	0.26935738
95	0x3e19f074	0.15033132
96	0xbd909eac	-0.07061514
97	0xbd887f90	-0.066649556
98	0xbe969e87	-0.29417822
99	0xbd7c6374	-0.061618283
100	0xbe51ffe4	-0.20507771
101	0xbe27c775	-0.1638468
102	0xbd808761	-0.062758215
103	0xbe0247f3	-0.12722759
104	0x3ea5a38b	0.32351336
105	0xbf050bb2	-0.5197097
106	0xbde6a155	-0.112612404
107	0xbe7a674f	-0.24453472
108	0xbf04af9c	-0.5183046
109	0xbd8f2d5d	-0.06991074
110	0x3d937119	0.07199306
111	0x3d1711d0	0.03688222
112	0x3d0fa431	0.035068695
113	0xbe48fb99	-0.19627227
114	0xbe74f2e9	-0.23920788
115	0xbddb6413	-0.10712447
116	0xbded6c8e	-0.11592971
117	0xbe05de30	-0.13073039
118	0xbe42290b	-0.18960969
119	0x3be471d3	0.0069715767
120	0xbda8b68a	-0.082379416
121	0xbdc97e31	-0.09838522
122	0xbd8887b5	-0.06666509
123	0xbe32f841	-0.17477514
124	0x3ccb6bb7	0.024831636
125	0xbe148b6f	-0.14506315
126	0xbd57dd76	-0.052701436
127	0x3dc29f02	0.095029846
128	0x3c19252c	0.009347241
129	0x3e256062	0.16150048
130	0xbd95ca61	-0.07313991
131	0x3d05bd10	0.032651007
132	0xbf09e4ff	-0.53865045
133	0xbe615858	-0.22006357
134	0xbf063c4e	-0.5243577
135	0xbe9ed019	-0.3101814
136	0x3e8a6984	0.27033627
137	0x3cd748c6	0.026279818
138	0x3e2346dd	0.15945001
139	0x3caa36ec	0.020778142
140	0x3e9cb662	0.30607897
141	0xbddbd8a4	-0.1073468
142	0xbe9ebcf8	-0.31003547
143	0xbd06d6a7	-0.032919552
144	0xbe02ac53	-0.12761049
145	0xbcb17ec1	-0.021666886
146	0x3eaa05e7	0.33207628
147	0x3e0a5060	0.13507223
148	0xbdb83f6b	-0.08996471
149	0xbb666fe7	-0.0035161914
150	0x3cb35072	0.021888945
151	0x3e14654f	0.14491771
152	0x3e67658d	0.22597332
153	0xbe32a8e2	-0.17447236
154	0x3da3a15c	0.07989761
155	0xbf026f28	-0.5095086
156	0x3e62f985	0.22165497
157	0x3dd224c6	0.1026092
158	0x3e8eda60	0.27900982
159	0x3e796347	0.24354278
160	0x3ee86eb0	0.45396948
161	0xbe92330a	-0.28554565
162	0xbad7e739	-0.0016472108
163	0xbe83254c	-0.25614393
164	0xbe1fa009	-0.15588392
165	0xbe79789b	-0.24362414
166	0x3c7197ef	0.014745696
167	0x3cd6a592	0.026201997
168	0xbdde8fc6	-0.10867266
169	0x3df12a0d	0.11775599
170	0xbe80781e	-0.25091642
171	0x3d3092c5	0.04310872
172	0x3da9ddcb	0.08294257
173	0xbd9dc576	-0.07703678
174	0x3b927b22	0.004470245
175	0x3dee2578	0.1162824
176	0xbca28e84	-0.019843347
177	0xbe7b689f	-0.24551629
178	0xbb7b93b9	-0.003838761
179	0xbce399ed	-0.027783358
180	0x3d1f1679	0.03883979
181	0xbdcd2075	-0.10015956
182	0xbddd0aab	-0.107930504
183	0xbc38f10b	-0.011287938
184	0xbe49973f	-0.19686602
185	0xbe54589d	-0.20736928
186	0xbea352fa	-0.31899244
187	0xbeb71da0	-0.3576479
188	0x3e9d1160	0.3067732
189	0x3d84614d	0.06463871
190	0xbe057f1a	-0.13036767
191	0x3dfa568f	0.12223541
192	0xbe7cb526	-0.24678478
193	0xbce1bbe3	-0.027555412
194	0x3e90194a	0.28144294
195	0xbdfcc932	-0.123430625
196	0xbcb8049a	-0.022463132
197	0xbdc96774	-0.09834185
198	0xbc08e915	-0.008356352
199	0xbcd1c6c3	-0.025607472
200	0x3e7940a2	0.24341062
201	0x3dd6413d	0.10461662
202	0x3ca6d506	0.02036525
203	0xbe91976b	-0.28435835
204	0x3e9bea47	0.30452177
205	0xbdaf298b	-0.085528456
206	0xbdd17974	-0.102282435
207	0xbe1d2fe9	-0.15350308
208	0xbdc9be1f	-0.09850716
209	0xbd40adaa	-0.04704062
210	0xbc31eff9	-0.010860437
211	0xbdb6f262	-0.089329496
212	0xbe9e8d4b	-0.30967173
213	0x3de1887d	0.11012361
214	0x3daf81c4	0.08569673
215	0xbbd183de	-0.0063938936
216	0x3eb5ffdb	0.35546765
217	0xbdfad834	-0.12248269
218	0x3e94b37f	0.29043195
219	0x3db1fab0	0.08690393
220	0x3d183b2b	0.037165802
221	0x3e2d6842	0.16934302
222	0x3d2523a4	0.040317193
223	0x3e75743a	0.23970118
224	0x3e4e9154	0.20172626
225	0xbdcf6824	-0.10127285
226	0xbe1c7afa	-0.15281287
227	0xbe74a5db	-0.23891394
228	0xbe922f66	-0.28551787
229	0x3be0f7d7	0.0068654823
230	0xbda7466c	-0.08167729
231	0xbc088e7d	-0.008334753
232	0x3f20abd6	0.627622
233	0xbe43913f	-0.19098376
234	0xbca20055	-0.019775549
235	0xbd1a7410	-0.037708342
236	0xbe674be1	-0.2258754
237	0xbebc1302	-0.36733252
238	0xbd236eed	-0.03990071
239	0x3e2f6102	0.1712685
240	0x3becc946	0.007226142
241	0xbe2a331e	-0.16621062
242	0xbe2c98e7	-0.16855203
243	0x3de2b115	0.11068932
244	0xbcababbb	-0.02095591
245	0xbe74e84e	-0.23916742
246	0xbe01eadf	-0.12687252
247	0xbe02f980	-0.12790489
248	0xbdd66631	-0.1046871
249	0x3d059392	0.032611437
250	0xbe5ec91c	-0.21756405
251	0xbe4cc3e3	-0.199966
252	0x3da160cf	0.07879793
253	0xbe087c6e	-0.13328716
254	0xbd9a5f56	-0.07537715
255	0x3e656d39	0.22404946

latent.weight_hh_l0 f4 [128, 32]
0	0x3f1f5209	0.6223455
1	0xbe144109	-0.14477934
2	0x3eb15ded	0.34641972
3	0xbea90480	-0.33011246
4	0x3d0cc0b2	0.034363456
5	0x3d9d97fc	0.07695004
6	0x3e07f10f	0.1327555
7	0x3e8dca1a	0.27693254
8	0xbcdf77c8	-0.027278796
9	0x3d85f4f7	0.06540864
10	0xbe823fe9	-0.25439385
11	0x3ea1cde8	0.31602407
12	0xbd683dfb	-0.056699734
13	0xbe145fc1	-0.14489652
14	0x3d7a0192	0.061036654
15	0x3d9211a4	0.07132271
16	0xbe1719c4	-0.14755923
17	0x3e52cadf	0.20585202
18	0x3e6bb047	0.23016463
19	0x3eaa5a43	0.3327199
20	0x3b5cce0d	0.0033692152
21	0xbda6e48f	-0.08149063
22	0xbea0c3b0	-0.31399298
23	0x3e5d889e	0.21634147
24	0x3e44483a	0.19168177
25	0x3deb9048	0.11502129
26	0xbdbacceb	-0.09121116
27	0xbe8bee99	-0.27330473
28	0x3e00ffbe	0.12597558
29	0xbcbce537	-0.023058517
30	0x3d86db67	0.065848164
31	0x3f0f7d01	0.56050116
32	0xbe2d12bd	-0.1690168
33	0x3d83051a	0.063974574
34	0x3e0478a3	0.12936644
35	0xbc3fd9e3	-0.011709663
36	0x3df4393e	0.119249806
37	0x3eb1bcd3	0.34714374
38	0x3e48f67d	0.19625278
39	0xbdd0e6d3	-0.10200276
40	0xbdf40cdb	-0.119165145
41	0x3d999711	0.07499517
42	0xbe1e2ca0	-0.1544671
43	0x3c097760	0.008390278
44	0xbcd0b518	-0.025476977
45	0xbbc5b737	-0.006033804
46	0x3c341a66	0.010992622
47	0x3dddde96	0.108334705
48	0x3e894648	0.26811433
49	0xbcebab68	-0.028768256
50	0xbe455059	-0.19268931
51	0xbc48169d	-0.012212423
52	0x3e57707c	0.21039003
53	0x3e8d01de	0.27540487
54	0x3e1aacd8	0.15104997
55	0xbdfb7692	-0.12278475
56	0xbea2834f	-0.31740806
57	0x3d996e21	0.074917085
58	0xbe1ee985	-0.15518768
59	0x3d6bc64d	0.05756216
60	0x3d33a326	0.043856762
61	0xbe24a903	-0.16080098
62	0xbd1d558d	-0.038411666
63	0xbda11f48	-0.078672945
64	0xbe7b0048	-0.24511826
65	0x3e8aafe0	0.27087307
66	0xbddd27cf	-0.107986085
67	0xbf1547d3	-0.5831272
68	0xbe8f6380	-0.280056
69	0xbf1395ff	-0.5765075
70	0x3f165792	0.5872737
71	0x3e83d09e	0.257451
72	0xbe509cd1	-0.2037232
73	0xbdf1804f	-0.11792051
74	0xbf10c7ac	-0.56554675
75	0x3d1fc2a0	0.03900397
76	0xbdad7e17	-0.08471315
77	0xbe156e00	-0.14592743
78	0xbd8d7050	-0.069061875
79	0xbcb66ba4	-0.022268124
80	0xbd2aff4f	-0.041747387
81	0x3ee9a03a	0.45630056
82	0xbe27f0a7	-0.16400395
83	0xbe6a36f8	-0.22872531
84	0xbdf4b941	-0.11949397
85	0xbd910883	-0.070817016
86	0x3b97c5d9	0.0046317396
87	0xbe8dfd9e	-0.27732557
88	0x3dc1117d	0.09427164
89	0xbe6d3ad5	-0.23166974
90	0xbf0bf991	-0.54677683
91	0x3e1b0665	0.15139158
92	0xbc2157b1	-0.009847567
93	0x3f0fc564	0.5616057
94	0xbe56d37c	-0.20979112
95	0xbc2ff1c3	-0.010738793
96	0x3dbaa8ac	0.09114203
97	0x3e371a4e	0.17881128
98	0xbeda74b1	-0.42667153
99	0xbdec35f1	-0.11533726
100	0xbe16862d	-0.14699621
101	0xbe52d0ea	-0.20587507
102	0x3c8547db	0.016269615
103	0xbdb391f5	-0.087680735
104	0x3e1d1083	0.1533833
105	0xbdd143b2	-0.1021799
106	0xbea5ae7d	-0.32359686
107	0xbd9a054a	-0.0752054
108	0xbe6e7758	-0.23287714
109	0xbe243248	-0.16034806
110	0x3d1c6066	0.03817787
111	0x3e24b507	0.16084681
112	0xbd54b16c	-0.051927015
113	0x3ef9a9d5	0.48762384
114	0x3b6f6bad	0.0036532686
115	0x3cd78398	0.026307866
116	0xbc808dd4	-0.015692629
117	0xbe07640f	-0.13221763
118	0x3e3d7094	0.18499976
119	0x3e06e449	0.13173021
120	0xbe97b0fe	-0.29627222
121	0x3e253b5a	0.16135922
122	0xbc0a191e	-0.00842884
123	0xbe361ad1	-0.17783667
124	0xbe1fea18	-0.15616643
125	0x3db874cf	0.090066545
126	0x3e8b0264	0.2715026
127	0xbdb02681	-0.08601094
128	0xbbd6f7ba	-0.006560293
129	0x3ddf4c10	0.1090318
130	0x3e139300	0.14411545
131	0x3e44d21e	0.19220778
132	0x3e1c08b7	0.152377
133	0x3ddfa5a2	0.10920264
134	0xbe2d872d	-0.16946097
135	0x3e32cca2	0.17460874
136	0xbda75eb7	-0.08172362
137	0xbe32040c	-0.17384356
138	0xbdacf009	-0.084442206
139	0x3d118a07	0.035532024
140	0xbe61cedd	-0.22051568
141	0xbdb0e77e	-0.08637904
142	0xbe001280	-0.12507057
143	0xbe8b9003	-0.2725831
144	0x3dccc8f4	0.09999266
145	0x3e2a03cf	0.16603015
146	0xbe276a96	-0.16349253
147	0xbe97a3a7	-0.29617044
148	0xbd64054d	-0.055669118
149	0x3e8b6166	0.27222747
150	0x3d5c9d97	0.053861227
151	0xbe71995a	-0.23593655
152	0xbd39379c	-0.04521905
153	0xbe15c99b	-0.14627688
154	0xbe290726	-0.16506633
155	0x3c08888c	0.008333337
156	0xbe0daea0	-0.13836145
157	0x3e455e3c	0.19274229
158	0x3e06c319	0.13160361
159	0x3c75e067	0.015007115
160	0xbd2f74e1	-0.042836074
161	0x3dc38da8	0.09548503
162	0xbe69a3c8	-0.22816384
163	0xbe4ebcb7	-0.20189176
164	0xbecfad67	-0.40561983
165	0xbef91376	-0.4864766
166	0x3eaa9279	0.33314875
167	0x3e5d83f1	0.21632363
168	0xbc67f075	-0.0141564505
169	0xbdadde08	-0.08489615
170	0xbdfa7c93	-0.12230792
171	0x3d0019a2	0.031274445
172	0xbd85e820	-0.06538415
173	0xbd3e5d42	-0.046475656
174	0x3d7908c8	0.06079939
175	0x3d051800	0.03249359
176	0x3e442845	0.19155987
177	0xbd0cc18b	-0.034364264
178	0xbca91e41	-0.020644309
179	0xbe3547e5	-0.17703207
180	0x3bc7f9ef	0.0061027925
181	0x3d25db20	0.040492177
182	0x3c9f48d0	0.0194439
183	0x3da38d89	0.0798598
184	0x3cb424fe	0.021990295
185	0xbd043257	-0.03227457
186	0xbe387c4e	-0.18016168
187	0xbd4fc62c	-0.0507261
188	0xbea57c81	-0.3232155
189	0xbdecdb1d	-0.1156523
190	0x3e6f6eee	0.2338216
191	0x3e9a2ff9	0.30114725
192	0x3e527e8a	0.20556083
193	0x3e1db679	0.15401639
194	0xbbfb2a49	-0.007664953
195	0xbe13b2c4	-0.14423662
196	0xbdca10a0	-0.09866452
197	0xbe9e4cd7	-0.30918
198	0x3ef1a521	0.47196296
199	0x3e8314fd	0.2560195
200	0x3d70ee16	0.058820806
201	0x3dbc0e08	0.09182364
202	0xbe4f67a7	-0.20254384
203	0x3e58620a	0.21131149
204	0x3e868982	0.26276785
205	0xbb900c49	-0.0043959958
206	0xbbb12e2d	-0.005407116
207	0x3bad8937	0.0052958983
208	0xbe7b6ef6	-0.24554047
209	0x3eb24440	0.34817696
210	0x3deaa97f	0.1145811
211	0x3e6b04f0	0.22951102
212	0xbe8b3337	-0.2718751
213	0xbe1e846e	-0.15480205
214	0xbdba01fd	-0.090824105
215	0x3e0f243b	0.13978665
216	0x3e63c003	0.22241215
217	0x3e3d6f1f	0.1849942
218	0x3d62e693	0.055395674
219	0x3c8c7c1d	0.017149026
220	0x3e88b8d6	0.2670352
221	0x3d8187f3	0.063247584
222	0x3d1c76ea	0.038199343
223	0xbe20d45c	-0.15706009
224	0x3cc73a80	0.024319887
225	0x3e475f0c	0.19469851
226	0x3e307788	0.17233098
227	0x3d2319f7	0.039819684
228	0x3d899c0b	0.06719216
229	0xbeb3f9f1	-0.35151628
230	0x3db35790	0.087569356
231	0x3d34367c	0.043997273
232	0x3f0630bb	0.52418107
233	0x3e4cb523	0.19990973
234	0xbeed33f2	-0.46328694
235	0xbdd189ec	-0.10231385
236	0xbdf8c4a6	-0.12146883
237	0x3d31dc98	0.043423265
238	0x3bf4120a	0.0074484395
239	0x3d89430c	0.06702241
240	0x3bc5099e	0.0060131093
241	0x3e96a1e9	0.29420403
242	0xbdae8c4e	-0.08522855
243	0xbdf3153a	-0.11869283
244	0xbd8dce12	-0.069240704
245	0xbd966db4	-0.07345143
246	0x3e3bbcf8	0.18333805
247	0xbd868de4	-0.06570032
248	0xbcadd153	-0.021217978
249	0x3d97c296	0.07410161
250	0x3c5e773a	0.0135782305
251	0x3ebfe622	0.37480265
252	0x3e78e0c6	0.24304494
253	0x3e50609a	0.2034935
254	0x3e473a74	0.19455892
255	0xbe68d9db	-0.22739355

latent.bias_ih_l0 f4 [128]
0	0xbab04f32	-0.0013451336
1	0xbcb5a988	-0.022175565
2	0x3e13b11f	0.14423035
3	0x3e3afde1	0.1826091
4	0xbd4aa94c	-0.04947786
5	0x3e539c00	0.20664978
6	0x3e25b52f	0.16182397
7	0x3e07fe19	0.13280524
8	0x3e4e9008	0.20172131
9	0x3e1ac0c8	0.15112603
10	0x3c7548c6	0.014970964
11	0x3cfe9efe	0.031081673
12	0x3e4c0227	0.19922696
13	0xbb7506ac	-0.003738801
14	0x3e8fe122	0.2810145
15	0xbc4079aa	-0.011747757
16	0x3e01d33e	0.12678239
17	0x3e51bdd7	0.20482574
18	0xbd66607a	-0.05624435
19	0x3e4885e1	0.19582321
20	0x3dd2dc89	0.1029597
21	0xbb01c42c	-0.0019800765
22	0x3dd52693	0.10407748
23	0x3e721270	0.23639846
24	0x3e589311	0.21149851
25	0x3de67687	0.11253076
26	0x3f022f13	0.5085308
27	0xbda21157	-0.079134636
28	0x3df64c28	0.120262444
29	0x3ea3782a	0.31927615
30	0x3e5b9590	0.21443772
31	0x3e72e3d7	0.23719727
32	0x3d03914b	0.032120984
33	0x3e3b76a3	0.18306975
34	0x3db28084	0.08715919
35	0xbd0998d1	-0.033593003
36	0xbbab180d	-0.005221373
37	0x3df80a1b	0.121113025
38	0x3ce5fa85	0.028073559
39	0x3e81edc9	0.25376728
40	0xbcca51d8	-0.02469723
41	0xbe13fcba	-0.14451876
42	0xbdce4519	-0.10071773
43	0xbd39f9ca	-0.045404233
44	0xbca89a3d	-0.020581359
45	0xbdd13db7	-0.10216849
46	0xbdc9f5e1	-0.09861351
47	0x3e23687a	0.15957823
48	0x3aa8265f	0.0012828818
49	0x3e60310d	0.21893711
50	0xbdbc630b	-0.091985784
51	0xbdb15e36	-0.086605474
52	0x3d282996	0.041055284
53	0xbd0b0342	-0.033938654
54	0xbdd22975	-0.102618136
55	0x3c11bd04	0.0088951625
56	0x3ac99262	0.0015378708
57	0x3d8fa680	0.07014179
58	0xbddbc2ec	-0.10730538
59	0xbcd41242	-0.025887612
60	0x3e324e35	0.17412646
61	0x3c2e4bcd	0.0106381895
62	0xbd940c1c	-0.07228872
63	0xbdb02df8	-0.08602518
64	0x3de5c38d	0.11218939
65	0xbd92b755	-0.07163874
66	0x3d807359	0.06272001
67	0xbd3b0482	-0.045658596
68	0x3e283b8d	0.16428967
69	0x3df5adc0	0.11996031
70	0xbb8a00a5	-0.0042115026
71	0x3deab642	0.11460544
72	0xbe1ba86a	-0.15200964
73	0xbd50f542	-0.051015146
74	0xbd978feb	-0.07400497
75	0x3d8090af	0.06277596
76	0x3cb6b51b	0.022303155
77	0xbe255d20	-0.16148806
78	0x3cb952da	0.022622515
79	0xbdc96a42	-0.0983472
80	0x3da82e37	0.0821194
81	0xbdf04824	-0.1173251
82	0xbe03a7f3	-0.12857036
83	0xbcb2e891	-0.021839412
84	0xbcd6d357	-0.026223822
85	0x3e118e7c	0.1421451
86	0x3c6b2c6c	0.014353853
87	0xbe1740bc	-0.14770788
88	0x3ddd37e4	0.10801676
89	0x3d7af319	0.061266992
90	0x3e3ebd42	0.18626884
91	0x3d9ce2f9	0.07660479
92	0x3cd9a4f8	0.026567921
93	0x3acefb1f	0.0015791393
94	0xbe2c6587	-0.16835605
95	0xbdca0b25	-0.09865407
96	0x3e8e739f	0.27822587
97	0x3e301b23	0.17197852
98	0x3e925d10	0.28586626
99	0x3e9bf45e	0.30459875
100	0x3d0d24b0	0.034458816
101	0x3dbcd064	0.09219435
102	0x3e0631d1	0.13104941
103	0x39bab7fa	0.00035613758
104	0x3e7aaf1f	0.24480866
105	0x3de2ac51	0.11068023
106	0x3d5bba2d	0.053644348
107	0x3e65db25	0.22446878
108	0x3e6124de	0.2198672
109	0x3eb1cff7	0.34728977
110	0x3e621af9	0.22080602
111	0xbdd6bbcf	-0.104850404
112	0x3d1158cb	0.03548507
113	0x3e508d5f	0.20366429
114	0x3d7e5705	0.062094707
115	0x3dde5c06	0.10857396
116	0x3d97583e	0.07389878
117	0x3e5126c3	0.20424943
118	0x3df13591	0.11777795
119	0x3e30f225	0.17279871
120	0x3e452ed4	0.19256145
121	0x3e9a350c	0.30118597
122	0x3ed352a5	0.4127399
123	0x3ca2a610	0.019854575
124	0x3c20d509	0.009816417
125	0x3d82547e	0.06363772
126	0x3d4bc306	0.049746536
127	0x3e085a69	0.13315739

latent.bias_hh_l0 f4 [128]
0	0x3b9eade6	0.0048425077
1	0xbd82c38b	-0.06384953
2	0x3d94e819	0.072708316
3	0x3dced5c0	0.10099363
4	0xbcf9826d	-0.0304577
5	0x3ddf5d51	0.109064706
6	0x3d203314	0.039111212
7	0x3d2b019f	0.041749593
8	0x3dc8b61b	0.09800359
9	0x3e071cb2	0.1319454
10	0xbd0f9808	-0.035057098
11	0x3d0d398c	0.03447871
12	0x3cda889a	0.026676465
13	0x3e825a5a	0.25459558
14	0x3b64b97e	0.00349006
15	0xbe10ed09	-0.14152922
16	0xbd14be7c	-0.036314473
17	0xbd70e837	-0.058815207
18	0x3db970bf	0.09054708
19	0x3cbdcc85	0.023168812
20	0x3e864dc5	0.26231208
21	0x3e4bf0d8	0.19916093
22	0xbddf63c4	-0.10907701
23	0x3e51aed8	0.20476854
24	0x3d3de82d	0.046364
25	0x3e87bb60	0.26510143
26	0x3e7242f5	0.23658355
27	0xbc196f0e	-0.009364856
28	0x3e46fb71	0.19431855
29	0x3eb4f5eb	0.3534387
30	0x3bc472e2	0.0059951404
31	0x3e1cd221	0.15314533
32	0xbd89bbe5	-0.06725291
33	0x3dbe738b	0.09299382
34	0x3dfd414c	0.1236597
35	0x3dc9ad6e	0.09847532
36	0x3e47e9d9	0.195228
37	0xbe2c0106	-0.16797265
38	0x3cf165c2	0.029467467
39	0x3e20ecd0	0.15715337
40	0xbd82636d	-0.0636662
41	0xbd1b3355	-0.03789075
42	0xbd7fe668	-0.062475592
43	0xbdefe0cf	-0.11712801
44	0x3dbca572	0.09211244
45	0xbd540a8e	-0.05176788
46	0xbd888b5d	-0.066672064
47	0xbd89dcc7	-0.06731563
48	0xbd569b41	-0.052394155
49	0x3dbf6013	0.093444966
50	0xbe59442c	-0.21217412
51	0xbdc5f779	-0.09666342
52	0x3da7b7b6	0.08189337
53	0xba86523d	-0.0010247898
54	0x3e1bcb0c	0.15214175
55	0xbce5019f	-0.027954875
56	0xbe294113	-0.1652873
57	0xbe2dad36	-0.16960606
58	0x3dcc71f7	0.099826746
59	0x3d4f98c1	0.050682787
60	0x3d1ce6b0	0.03830594
61	0x3e2f38ad	0.17111464
62	0xbdf45fca	-0.11932333
63	0xbcd8352c	-0.026392542
64	0xbe0ac4ba	-0.13551608
65	0xbd369b1c	-0.044581518
66	0xbd938cd5	-0.07204596
67	0xbe2595ee	-0.16170475
68	0x3b7d0c46	0.0038612052
69	0x3e13ad01	0.14421465
70	0xbe08afcb	-0.1334831
71	0x3da5e0db	0.080995284
72	0xbd18f0cf	-0.037339028
73	0x3d646318	0.055758566
74	0xbd7d8363	-0.06189288
75	0xbd930690	-0.07178986
76	0x3d83ee5b	0.06441947
77	0xbe13c439	-0.14430322
78	0x3dd9bead	0.10632072
79	0x3db557b1	0.088546164
80	0x3dbd5f57	0.092467
81	0x3d8be0c2	0.068299785
82	0x3dc01a4b	0.09380015
83	0x3cdf4f2c	0.027259432
84	0xbcd5b676	-0.02608798
85	0x3dd4bfb3	0.10388126
86	0x3d54717b	0.051866036
87	0xbbab4cd7	-0.005227666
88	0xbd45c5ed	-0.04828446
89	0x3e0cf505	0.13765343
90	0xbdca7585	-0.09885696
91	0xbe3ad1a4	-0.18244034
92	0x3d14596d	0.036218096
93	0xbd472b29	-0.048625145
94	0xbcfd7c68	-0.03094311
95	0x3d40764d	0.04698782
96	0x3df61c45	0.12017111
97	0x3da27b77	0.07933705
98	0x3ef992e0	0.4874487
99	0x3e0806ac	0.13283795
100	0x3e1a75fc	0.1508407
101	0x3e47fffa	0.19531241
102	0x3da867ae	0.082229
103	0x3e5f5579	0.21809949
104	0x3e822ce2	0.25424868
105	0x3dec8cd5	0.11550299
106	0x3d89c844	0.06727651
107	0x3ebc1c9b	0.36740574
108	0x3e6d371a	0.23165551
109	0x3d72915b	0.059220653
110	0x3da31b3b	0.07964178
111	0xbdd802cc	-0.105474085
112	0x3d7058c7	0.058678415
113	0xbc494486	-0.012284404
114	0x3e13a5a9	0.14418663
115	0x3e0a081c	0.13479656
116	0x3cbb7bf6	0.022886258
117	0x3e7218ed	0.23642321
118	0x3e13c2b9	0.1442975
119	0x3ec974ed	0.3934702
120	0x3dcdc27e	0.10046862
121	0x3e5fab80	0.21842766
122	0x3ee44b7c	0.4458884
123	0xbcc72ccb	-0.024313351
124	0x3e56259d	0.20912786
125	0x3e7b418b	0.24536721
126	0x3e878f95	0.26476732
127	0x3e82a62a	0.25517398
