models/autoencoder_AdamW_lr0001_loss0.4037_fold5.pth (torch, 257807 bytes, 14 tensors)

encoder.weight_ih_l0 f4 [256, 28]
0.019842487 0.25561994 0.2610768 -0.051830556 -0.18994103 0.03038042 0.012505925 -0.018308494
0.0007141258 0.04489449 0.055163074 -0.03989073 -0.01815319 0.13817751 -0.015292488 -0.05011559
0.0059371395 0.023974853 0.031331435 -0.37020946 -1.1070132e-05 0.004258928 0.0026345141 -0.04464287
-0.004339223 -0.08753022 -0.010408522 -0.00798944 0.015773198 -0.04181379 -0.017539544 0.0010441188
-0.008149779 0.030405268 -0.00911789 -0.031781673 0.004751219 0.007458374 0.0022171296 0.0016651172
-0.001354209 0.0060627866 0.008758381 -0.0085533075 0.0036525233 -0.017052758 0.008376447 -0.028897695
-0.003090706 -0.0012382312 0.015818477 -0.005352638 -0.0012329813 0.008184745 -0.0010804264 -0.028377093
-0.004413622 -0.04819784 0.0072869007 0.0036042747 0.019411864 0.014142438 0.0043537635 -0.00072860415
0.0016269494 -0.0046384125 0.014788838 -0.0066694748 0.010909954 0.0052080755 -0.004678624 0.018466916
-0.001794803 0.0195609 0.017838655 -0.0077839643 0.0048983726 0.003143017 0.00025721567 -0.025897164
0.00041277622 0.009658326 -0.0020167357 0.034022886 0.6923457 0.022633487 0.050174452 0.07856088
-0.02783873 -0.08506299 -0.015611612 0.013640535 -0.018533487 0.03231975 -0.024635429 -0.018351212
0.034878053 -0.010553253 0.016279425 0.0069295308 0.015568788 -0.0040010395 0.86414987 -0.00529443
-0.018154064 -0.010210294 -0.0023412365 -0.014907663 -0.0027603998 -0.01843083 -0.0079745315 -0.016715672
-0.022330077 -0.028955761 -0.02555033 -0.01283635 -0.03624009 -0.02181491 -0.037033934 -0.039056093
-0.03775437 -0.015968751 -0.010126443 -0.012750419 -0.0124939475 -0.02524268 0.0055769286 -0.013055323
-0.013511017 -0.011375353 -0.0017105257 0.00019740485 -0.01052025 -0.0050985166 -0.0022187086 -0.0014469653
-0.019280463 -0.014928994 0.000500241 -0.0087481635 -0.016533334 -0.09974878 -0.10399413 -0.054929
-0.04552509 -0.055517323 -0.14339425 -0.076202214 -0.12493041 -0.09450138 -0.1108276 -0.028183367
-0.030308899 -0.022663629 0.013768262 -0.010168461 -0.038260523 -0.086324 -0.020433377 -0.016874667
-0.058679983 -0.025357254 0.024436925 -0.012250872 -0.009978212 -0.0030386895 -0.0041638985 -0.018993622
-0.25149596 0.08501882 -0.05810532 -0.15740821 -0.0020910727 -0.08714418 -0.009481689 -0.048945002
0.006244278 0.001766663 -0.10746405 0.042205 0.02201992 0.10213706 0.029682476 -0.008292365
0.015872037 0.106107324 0.9005851 -0.091260895 -0.06444619 0.008812899 0.0003168491 0.044877067
0.003952934 -0.037647292 -0.012935494 -0.0067845974 0.039909754 0.22544019 0.10569255 -0.026815014
-0.0038079931 -0.107414834 -0.022492625 0.0094437245 -0.012872885 -0.011216302 -0.03835326 -0.014629258
-0.017071769 -0.026402263 0.0073631615 -0.031081526 -0.012804233 0.0030615802 0.017219145 -0.053306457
-0.01412155 -0.007920921 -0.014095385 0.034846343 -0.0171544 0.002855478 0.0009044782 -0.0118967835
0.09022387 0.024366843 0.014868048 0.2930151 -0.01038048 0.19666564 0.2349879 0.0673352
0.03864004 0.16869181 0.296529 0.041954916 -0.1375241 0.0031808435 0.019036226 0.04974039
0.009311198 0.24444458 0.19582197 -0.10258958 0.055746306 0.067463055 -0.0025196637 0.30246517
0.44456828 0.065846235 -0.0037094597 0.027197924 0.21429263 -0.073255986 -0.018227326 -0.026408337
00000000: b68c a23c 9ee0 823e dcab 853e 474c 54bd
00000010: e77f 42be 5ce0 f83c a7e5 4c3c b2fb 95bc
00000020: 2c34 3b3a 49e3 373d adf2 613d 7664 23bd
00000030: 00b6 94bc 687e 0d3e 588d 7abc 0146 4dbd
00000040: 568c c23b e966 c43c 6455 003d 188c bdbe
00000050: dbb9 39b7 7a8e 8b3b d0a7 2c3b 71db 36bd
00000060: 0a30 8ebb 0b43 b3bd 8188 2abc 24e6 02bc
00000070: cb36 813c f044 2bbd 17af 8fbc d0da 883a
00000080: a786 05bc 7814 f93c 3463 15bc 802d 02bd
00000090: 1db0 9b3b 6065 f43b 434d 113b 1040 da3a
000000a0: b77f b1ba 57aa c63b 507f 0f3c 2c23 0cbc
000000b0: 2c5f 6f3b 3ab2 8bbc 5d3d 093c dcba ecbc
000000c0: 718d 4abb 254c a2ba c095 813c 2f65 afbb
000000d0: fd9b a1ba 4f19 063c 189d 8dba 1477 e8bc
000000e0: 25a0 90bb 196b 45bd f4c6 ee3b b235 6c3b
000000f0: a105 9f3c afb5 673c 04aa 8e3b ccff 3eba
00000100: 5d3f d53a d3fd 97bb e24c 723c 9c8b dabb
00000110: aabf 323c 81a8 aa3b 254f 99bb ee47 973c
00000120: 983f ebba 2e3e a03c 5f22 923c a010 ffbb
00000130: 8782 a03b 13fb 4d3b e7da 8639 4a26 d4bc
00000140: e369 d839 f53d 1e3c 362b 04bb 955b 0b3d
00000150: 913d 313f dd69 b93c ba83 4d3d 87e4 a03d
00000160: 0c0e e4bc 8135 aebd d9c7 7fbc 8d7c 5f3c
00000170: 8ad3 97bc b761 043d 3dd0 c9bc 4855 96bc
00000180: 4adc 0e3d 8de7 2cbc 6e5c 853c 1e11 e33b
00000190: 3b14 7f3c 271b 83bb ed38 5d3f e67c adbb
000001a0: d5b7 94bc 1449 27bc 6e6f 19bb 453f 74bc
000001b0: d3e7 34bb 41fc 96bc 9ca7 02bc 4eef 88bc
000001c0: 91ed b6bc a234 edbc ed4e d1bc 8e4f 52bc
000001d0: 7d70 14bd 2fb5 b2bc e5b0 17bd 48f9 1fbd
000001e0: 54a4 1abd e6d0 82bc 61e9 25bc 22e7 50bc
000001f0: 6ab3 4cbc bdc9 cebc abbe b63b fee5 55bc
00000200: 505d 5dbc b05f 3abc b833 e0ba 76fe 4e39
00000210: 205d 2cbc 7511 a7bb c167 11bb 19a8 bdba
00000220: 10f2 9dbc bd98 74bc 9b22 033a 7554 0fbc
00000230: ea70 87bc 1749 ccbd e0fa d4bd 3bfd 60bd
00000240: 8478 3abd 2266 63bd f1d5 12be e80f 9cbd
00000250: 84db ffbd f189 c1bd 95f9 e2bd cee0 e6bc
00000260: 5e4a f8bc 13a9 b9bc 4794 613c 9e99 26bc
00000270: 11b7 1cbd a3ca b0bd e663 a7bc be3c 8abc
00000280: 6c5a 70bd 04ba cfbc f22f c83c e2b7 48bc
00000290: a87b 23bc c024 47bb 5071 88bb 8398 9bbc
000002a0: 14c4 80be 591e ae3d d8ff 6dbd 9e2f 21be
000002b0: 610a 09bb a678 b2bd 1659 1bbc 8e7a 48bd
000002c0: cd9c cc3b 608f e73a 1d16 dcbd 26df 2c3d
000002d0: 1f63 b43c 3c2d d13d aa28 f33c b3dc 07bc
000002e0: 1306 823c cc4e d93d bf8c 663f fee6 babd
000002f0: 5dfc 83bd fa63 103c c41e a639 04d1 373d
00000300: 9d87 813b 0c34 1abd 65ef 53bc 5451 debb
00000310: 6978 233d cbd9 663e 5675 d83d 29ab dbbc
00000320: 868f 79bb 4ffc dbbd 7442 b8bc dab9 1a3c
00000330: cbe8 52bc 95c4 37bc 4f18 1dbd 8eaf 6fbc
00000340: 18da 8bbc 8f49 d8bc ad46 f13b af9e febc
00000350: d8c8 51bc cba4 483b 2a0f 8d3c df57 5abd
00000360: 135e 67bc c0c6 01bc 54f0 66bc 0abb 0e3d
00000370: 6287 8cbc f922 3b3b 811a 6d3a baea 42bc
00000380: 4bc7 b83d f99c c73c 1d99 733c 1306 963e
00000390: e412 2abc b862 493e aba0 703e 0ae7 893d
000003a0: 0545 1e3d 8cbd 2c3e a6d2 973e ebd8 2b3d
000003b0: 1ed3 0cbe b375 503b dcf1 9b3c 94bc 4b3d
000003c0: ff8d 183c ae4f 7a3e 8e85 483e 7c1a d2bd
000003d0: 3d56 643d 122a 8a3d f120 25bb b7dc 9a3e
000003e0: 749e e33e 64da 863d 681a 73bb 2ece de3c
000003f0: 876f 5b3e 3c07 96bd 7951 95bc 4c56 d8bc

encoder.weight_hh_l0 f4 [256, 64]
0.47320566 0.30951396 0.23312551 0.0032254518 -0.41125706 -0.06339403 0.17423931 0.29706648
0.3703274 -0.021927377 0.039463487 0.13637076 -0.050080467 -0.039624054 0.15328613 -0.28601775
-0.31680834 -0.021257725 0.44041738 0.050206 -0.5489461 0.11362985 0.20424153 -0.5210713
-0.868015 0.45227736 0.102973565 -0.34979996 0.050860543 -0.1225878 0.23764202 -0.30839387
-0.17131546 -0.043431774 -0.52850986 0.048402227 0.051727872 -0.511857 -0.2624676 0.46423164
0.006082579 0.012684578 -0.1994875 -0.1347662 -0.14563622 0.16570592 0.25823972 -0.18052675
-0.5580944 0.0051352563 -0.13399704 -0.36873126 0.17329696 0.17531176 -0.23587225 0.17518933
-0.095620915 0.3900385 0.1870943 0.10036833 -0.38342497 0.066881694 -0.15421925 0.10433218
0.08238303 0.03197972 0.05115828 0.08439043 -0.001118966 -0.21228507 0.03971055 0.023847593
-0.015314792 0.003911902 -0.05544449 -0.0055220705 -0.046874706 0.008696577 0.023988217 0.026251113
0.010228752 -0.037780542 -0.009091369 -0.18165863 0.018736659 0.051629875 0.010629362 -0.012031732
0.0008498049 0.017225785 0.15870696 -0.022985283 0.04871226 0.01216162 0.07527535 -0.24418032
-0.055060443 -0.10705126 0.008437325 0.029603722 -0.0020857921 0.012634887 0.012257139 -0.03027908
0.035754375 0.04987248 0.036980126 -0.017545046 -0.013054982 0.00047686766 -0.011830948 -0.023892356
-0.007611326 -0.04990936 -0.20176177 -0.027942076 0.08496378 0.04024552 -0.11402035 0.13403894
0.007654074 -0.026624925 0.021962192 0.012392743 0.039388828 0.011396622 0.009271891 0.093627185
-0.1223537 -0.017589055 -0.04293961 0.011290171 0.055654235 0.19663258 0.02578368 -0.005115323
-0.013898935 0.00432066 -0.03594899 -0.02665797 0.029260159 0.005059556 -0.019669684 -0.03940558
0.04442089 -0.013947653 0.024236985 0.09471578 0.003558677 -0.013305761 -0.0332438 -0.01011942
0.016121086 0.06766856 -0.059718557 -0.008323221 -0.041682344 -0.016401406 -0.034405854 0.11746565
0.007737604 0.06399736 0.045554128 -0.04424897 -0.04023575 0.004847144 -0.028568879 -0.034285232
-0.054589357 0.004661738 0.0138277905 0.037700973 0.004830989 0.010421671 0.030491993 -0.017331753
-0.01618554 -0.0002505594 0.11559065 0.015526777 -0.06430635 -0.027813792 0.079751246 -0.054499887
0.0286566 0.035186395 0.03676128 0.07271158 0.026673205 -0.014673084 -0.018470252 -0.024456427
0.1872296 -0.033502635 0.027577773 0.104998164 -0.01966825 0.013625353 1.4632702 0.075595364
-0.42451712 0.46757102 -0.22681466 0.039843153 -0.068813115 0.053306095 0.065674 -0.0013282903
-0.21082373 -0.039619558 0.6735392 -0.1595843 0.020314712 0.046685018 -0.022924934 0.044120777
0.010447203 -0.0406153 0.003618683 -0.030050311 -0.014933049 -0.00458368 0.07753808 -0.009482623
0.0689136 0.0049069948 0.036275584 -0.030429829 -0.13555205 0.04886311 -0.27891096 -0.14391185
-0.0034230645 0.1263285 -0.018904872 -0.025838656 -0.0267871 0.030343022 1.0990548 -0.028519006
-0.3415369 -0.05106054 0.0529956 0.014250317 0.09871305 0.018848345 -0.030539181 0.12662463
-0.017541168 0.037478857 0.0003073379 -0.058321916 0.14805877 -0.010098522 -0.018217701 -0.020987546
00000000: 0348 f23e 9d78 9e3e 74b8 6e3e 1a62 533b
00000010: 4990 d2be bbd4 81bd ca6b 323e 1919 983e
00000020: 8e9b bd3e 0ba1 b3bc 77a4 213d c7a4 0b3e
00000030: 2d21 4dbd d54c 22bd 0af7 1c3e eb70 92be
00000040: b434 a2be ae24 aebc 637e e13e cfa4 4d3d
00000050: bb87 0cbf c4b6 e83d b124 513e ee64 05bf
00000060: 3b36 5ebf e690 e73e cee3 d23d fb18 b3be
00000070: 2553 503d 500f fbbd 6e58 733e cde5 9dbe
00000080: 526d 2fbe 84e5 31bd 6c4c 07bf 6a41 463d
00000090: 9be0 533d 0f09 03bf 2762 86be c5af ed3e
000000a0: 5f50 c73b fad2 4f3c 7446 4cbe 2700 0abe
000000b0: a921 15be d0ae 293e ff37 843e 01dc 38be
000000c0: 46df 0ebf a745 a83b 8536 09be 58ca bcbe
000000d0: c274 313e ed84 333e 7f88 71be d564 333e
000000e0: e6d4 c3bd 20b3 c73e a695 3f3e e98d cd3d
000000f0: 4750 c4be 45f9 883d a7eb 1dbe 1cac d53d
00000100: 6fb8 a83d 2bfd 023d 588b 513d e4d4 ac3d
00000110: 45aa 92ba 4261 59be 88a7 223d 075c c33c
00000120: e5ea 7abc 6a2f 803b c319 63bd 7cf2 b4bb
00000130: b1ff 3fbd 167c 0e3c f082 c43c 930c d73c
00000140: 7f96 273c c5bf 1abd f7f3 14bc b804 3abe
00000150: 9f7d 993c d979 533d c726 2e3c be20 45bc
00000160: 71c5 5e3a 171d 8d3c 1484 223e a24b bcbc
00000170: 8286 473d 8841 473c f629 9a3d 680a 7abe
00000180: 0f87 61bd b13d dbbd b53c 0a3c 8183 f23c
00000190: c9b1 08bb 8f02 4f3c 2bd2 483c d50b f8bc
000001a0: 2e73 123d 1647 4c3d 7978 173d a1ba 8fbc
000001b0: 90e4 55bc 1804 fa39 98d6 41bc e7b9 c3bc
000001c0: 6e68 f9bb c26d 4cbd a39a 4ebe c8e6 e4bc
000001d0: 7e01 ae3d 7dd8 243d 8083 e9bd 8141 093e
000001e0: 07cf fa3b 841c dabc 0eea b33c ee0a 4b3c
000001f0: 2e56 213d e6b8 3a3c 21e9 173c 9cbf bf3d
00000200: 9494 fabd ec16 90bc 72e1 2fbd 69fa 383c
00000210: b2f5 633d 0d5a 493e 4c38 d33c 709e a7bb
00000220: 5cb8 63bc 5394 8d3b 403f 13bd d161 dabc
00000230: 00b3 ef3c a2ca a53b 5122 a1bc bf67 21bd
00000240: aef2 353d b284 64bc a48c c63c 59fa c13d
00000250: b138 693b 6800 5abc a72a 08bd eccb 25bc
00000260: 5e10 843c d095 8a3d 729b 74bd 1e5e 08bc
00000270: 1bbb 2abd 3e5c 86bc 27ed 0cbd d591 f03d
00000280: ba8b fd3b 0c11 833d f796 3a3d 683e 35bd
00000290: 3ece 24bd cad4 9e3b 4809 eabc ac6e 0cbd
000002a0: 1799 5fbd 7ec1 983b f58d 623c 566c 1a3d
000002b0: 464d 9e3b a8bf 2a3c 58ca f93c 52fb 8dbc
000002c0: 8a97 84bc 835d 83b9 caba ec3d 0664 7e3c
000002d0: 0cb3 83bd c0d9 e3bc 9f54 a33d 463b 5fbd
000002e0: 3fc1 ea3c 9c1f 103d ff92 163d cfe9 943d
000002f0: c481 da3c 6067 70bc ed4e 97bc d858 c8bc
00000300: 1eb9 3f3e 0f3a 09bd c8ea e13c 4709 d73d
00000310: 4f1f a1bc df3c 5f3c 704c bb3f bed1 9a3d
00000320: 4f5a d9be 7865 ef3e 1a42 68be 9332 233d
00000330: e4ed 8cbd 7e57 5a3d 1780 863d 071a aeba
00000340: 2de2 57be 1e48 22bd 116d 2c3f 116a 23be
00000350: 0a6b a63c ca38 3f3d 12cd bbbc fdb7 343d
00000360: bf2a 2b3c 3b5c 26bd 6d27 6d3b 122c f6bc
00000370: bfa9 74bc b232 96bb 49cc 9e3d 015d 1bbc
00000380: 9322 8d3d dbca a03b b595 143d fa47 f9bc
00000390: 28ce 0abe af24 483d 6bcd 8ebe a15d 13be
000003a0: 7e55 60bb 425c 013e 64de 9abc 97ab d3bc
000003b0: 9f70 dbbc ee91 f83c d4ad 8c3f b1a0 e9bc
000003c0: eddd aebe db24 51bd ea11 593d 297a 693c
000003d0: 112a ca3d d867 9a3c 4e2d fabc e3a9 013e
000003e0: 7fb2 8fbc 6e83 193d 3222 a139 f6e2 6ebd
000003f0: b89c 173e 4574 25bc 4a3d 95bc 13ee abbc

encoder.bias_ih_l0 f4 [256]
0.07233108 0.042257044 -0.02770999 0.023386892 -0.0034996064 -0.2052189 -0.0055810455 0.10057795
0.14551799 -0.03557088 0.009558794 -0.01792217 0.029941693 0.06320203 0.1530182 0.16005863
-0.045489434 0.08317691 0.15448578 0.12742287 -0.10144218 -0.015309996 -0.023795174 -0.014307128
-0.017691793 0.19715022 0.01685867 -0.09158556 0.06261949 0.18489382 0.06956064 0.06781495
0.04609628 -0.042394884 -0.060316905 0.008726627 0.08084666 0.024309825 0.13972525 0.19492061
-0.16879141 -0.010691405 -0.0032304514 0.11319828 0.11698136 0.036940686 0.31563783 0.04943242
0.07630941 0.065428056 -0.13663636 0.13751145 0.08025166 0.16913936 0.07927996 0.027652433
-0.028442629 0.28782225 -0.045385472 -0.02964772 0.061680645 -0.0036203738 0.10365388 0.0536282
0.08136756 0.05006237 -0.04239704 0.07867409 0.14373659 0.015413432 0.13177782 0.107416585
0.06347423 0.05534371 0.013278691 -0.009529048 0.19899172 0.036480825 0.25599846 0.13078111
0.084938034 0.023814233 0.20236939 0.27737948 0.056823436 0.0009979424 -0.016884448 0.061023433
0.017131902 -0.05276644 0.18583913 0.10768709 0.14744227 0.0321756 0.2551499 0.22719836
0.07615347 0.026210317 0.05631109 0.115073375 0.11358432 0.028648036 0.086396314 0.063935876
0.21795045 -0.033370823 0.013757918 0.18324713 0.06508353 0.060647547 0.13910438 -0.0019780458
0.078350164 0.07983989 0.11937914 0.11761315 0.098061755 0.09922065 0.2144521 -0.07466595
-0.0464538 0.15291147 0.18227734 -0.0033314496 0.12997863 0.04450869 0.06480549 0.2834349
0.057047736 0.3075381 -0.014609322 -0.05719306 0.041943744 0.036748294 0.080795884 0.26067662
-0.04507729 0.06228035 0.06980539 -0.029805483 0.03392353 0.12909761 0.046093296 -0.22599463
-0.0336529 -0.05918643 0.18436319 -0.13812079 0.012264055 0.066383295 -0.030195257 -0.026666846
0.034840077 -0.050613742 -0.020510286 -0.008831699 0.34481838 -0.11654658 0.052960653 -0.028787456
-0.038180392 0.0014924298 -0.079975106 0.007677256 0.07707851 -0.019010615 -0.09023693 0.03772744
-0.062155034 -0.08070452 -0.15568572 -0.07397139 -0.03985468 0.1098393 0.16199292 -0.018838631
-0.05519668 -0.18829589 0.04207537 -0.19717349 0.024932617 0.07584995 -0.075856656 -0.046034325
0.028961949 0.185657 0.033578675 -0.07453378 0.0019541534 -0.10417942 -0.13923553 0.030334616
0.48346457 0.09196719 -0.01903361 0.084336616 0.10088929 -0.007948871 0.33444908 0.16872555
0.18331954 0.21534638 0.103211604 0.016219988 0.058371667 0.299234 0.20710377 0.14775813
0.10573385 0.23229288 0.1263965 0.33561915 0.03164397 0.053897467 -0.01141113 0.13246405
0.1352008 -0.0457837 0.11212056 0.023952952 0.16553761 0.27362636 0.109051384 0.1350879
0.022633871 0.09863762 0.030643314 0.1288129 0.07469452 0.048577063 0.12414865 0.15260176
0.36820328 0.08342931 0.034247052 -0.019188652 0.25293157 0.14342438 0.21425413 0.031985555
0.17471524 0.12802777 -0.10235917 0.3319078 0.18995278 0.11097443 0.36664474 -0.005789194
0.005775235 0.24429668 0.21377328 -0.00016434227 0.20192826 0.056208625 0.18757026 -0.0233523
00000000: 5122 943d b915 2d3d 1000 e3bc de95 bf3c
00000010: a759 65bb e724 52be 34e1 b6bb d0fb cd3d
00000020: ab02 153e c5b2 11bd 7d9c 1c3c 84d1 92bc
00000030: 4848 f53c 1170 813d ceb0 1c3e 69e6 233e
00000040: 2153 3abd a858 aa3d 8531 1e3e 247b 023e
00000050: ebc0 cfbd c7d6 7abc 19ee c2bc 7268 6abc
00000060: 61ee 90bc bfe1 493e 321b 8a3c 3691 bbbd
00000070: a63e 803d ce54 3d3e cf75 8e3d 91e2 8a3d
00000080: 74cf 3c3d 42a6 2dbd dc0e 77bd 20fa 0e3c
00000090: ef92 a53d 6625 c73c 2314 0f3e 4599 473e
000000a0: a8d7 2cbe 012b 2fbc fbb5 53bb 80d4 e73d
000000b0: ec93 ef3d 1e4f 173d 489b a13e a679 4a3d
000000c0: 1c48 9c3d 25ff 853d 67ea 0bbe cdcf 0c3e
000000d0: fb5a a43d de32 2d3e 885d a23d 5b87 e23c
000000e0: 8400 e9bc 705d 933e 1ee6 39bd c6df f2bc
000000f0: d8a4 7c3d cb43 6dbb 7c48 d43d 3ea9 5b3d
00000100: 09a4 a63d 330e 4d3d 85a8 2dbd e21f a13d
00000110: af2f 133e 9f88 7c3c c4f0 063e 3afd db3d
00000120: c7fe 813d 16b0 623d de8e 593c b91f 1cbc
00000130: 7cc4 4b3e eb6c 153d 3b12 833e 7ceb 053e
00000140: fef3 ad3d 1116 c33c ec39 4f3e af04 8e3e
00000150: b1bf 683d 64cd 823a 4151 8abc b5f3 793d
00000160: 3458 8c3c 9f21 58bd 9d4c 3e3e 0d8b dc3d
00000170: 1bfb 163e 90ca 033d 02a3 823e b0a6 683e
00000180: 5af6 9b3d 05b7 d63c 75a6 663d 97ab eb3d
00000190: e59e e83d 49af ea3c 8df0 b03d d0f0 823d
000001a0: 672e 5f3e d8af 08bd e468 613c 23a5 3b3e
000001b0: 844a 853d 9069 783d 6171 0e3e 1aa2 01bb
000001c0: 0d76 a03d 1983 a33d 0d7d f43d 2adf f03d
000001d0: 9ad4 c83d 3234 cb3d 5599 5b3e 76ea 98bd
000001e0: 5746 3ebd d394 1c3e e9a6 3a3e 7354 5abb
000001f0: 1e19 053e be4e 363d beb8 843d 611e 913e
00000200: e3aa 693d a275 9d3e f05b 6fbc 4543 6abd
00000210: 34cd 2b3d 6185 163d 5078 a53d 6877 853e
00000220: f7a2 38bd ae19 7f3d 21f6 8e3d a12a f4bc
00000230: 66f3 0a3d 2a32 043e 53cc 3c3d 236b 67be
00000240: a0d7 09bd 786d 72bd b4c9 3c3e 896f 0dbe
00000250: 2def 483c f7f3 873d 0b5c f7bc 6e74 dabc
00000260: 78b4 0e3d 5b50 4fbd 3005 a8bc d5b2 10bc
00000270: 098c b03e f9af eebd 45ed 583d acd3 ebbc
00000280: 0b63 1cbd a29d c33a fdc9 a3bd 7e91 fb3b
00000290: 56db 9d3d 26bc 9bbc 24ce b8bd 1788 1a3d
000002a0: 4796 7ebd 6948 a5bd 146c 1fbe 507e 97bd
000002b0: a93e 23bd 6df3 e03d 79e1 253e 7953 9abc
000002c0: ea15 62bd a3d0 40be 3957 2c3d d9e7 49be
000002d0: 7d3f cc3c 3857 9b3d bc5a 9bbd 7d8e 3cbd
000002e0: 9c41 ed3c de1c 3e3e cb89 093d 2ba5 98bd
000002f0: 4111 003b 055c d5bd c293 0ebe 4d80 f83c
00000300: ab88 f73e 4b59 bc3d 60ec 9bbc adb8 ac3d
00000310: 0b9f ce3d fb3b 02bc e93c ab3e 64c6 2c3e
00000320: 1eb8 3b3e c383 5c3e 9b60 d33d c8df 843c
00000330: 2117 6f3d 3335 993e 0313 543e e84d 173e
00000340: fd8a d83d 2fde 6d3e 166e 013e 46d6 ab3e
00000350: 1c9d 013d 97c3 5c3d c0f5 3abc a8a4 073e
00000360: 1472 0a3e b087 3bbd 779f e53d fb38 c43c
00000370: b182 293e c118 8c3e 5556 df3d 7c54 0a3e
00000380: ab6a b93c 8502 ca3d b007 fb3c 87e7 033e
00000390: 71f9 983d bef8 463d a641 fe3d a343 1c3e
000003a0: 2485 bc3e fcdc aa3d a346 0c3d 8531 9dbc
000003b0: 3f80 813e d7dd 123e 6f65 5b3e 4903 033d
000003c0: 8de8 323e b619 033e afa1 d1bd d2ef a93e
000003d0: fb82 423e 9046 e33d dcb8 bb3e 47b3 bdbb
000003e0: 2f3e bd3b e928 7a3e 62e7 5a3e 4b53 2cb9
000003f0: 48c6 4e3e 043b 663d 6b12 403e 534d bfbc

encoder.bias_hh_l0 f4 [256]
0.07213502 0.042608898 -0.027641712 0.02289756 -0.0032965867 -0.2053563 -0.0063562025 0.10057795
0.1473478 -0.036277395 0.009566071 -0.0165972 0.030726777 0.064439744 0.1539707 0.16018134
-0.04550148 0.08348923 0.15444808 0.12906629 -0.1020549 -0.015536137 -0.02372073 -0.013517129
-0.015491913 0.19654995 0.016472107 -0.09158556 0.06266063 0.18454738 0.06852253 0.06858052
0.04588242 -0.042420015 -0.06193885 0.007294714 0.078330144 0.024341427 0.13952033 0.19382109
-0.16684471 -0.010484822 -0.0025220132 0.11406968 0.11761041 0.036735095 0.3155491 0.04899004
0.077080615 0.06730489 -0.13494271 0.13832179 0.08117862 0.1678603 0.07878703 0.025549997
-0.028905012 0.2844551 -0.045899205 -0.0297537 0.061467566 -0.0040027895 0.10475614 0.053529315
0.08079032 0.0507837 -0.04172851 0.07865266 0.14397658 0.014124253 0.13252527 0.10692292
0.063129164 0.056705017 0.015103724 -0.010163855 0.19819078 0.036427025 0.25598797 0.1302134
0.085674495 0.024165526 0.19998601 0.27651688 0.056868397 0.0028164685 -0.019089917 0.06279004
0.016814295 -0.052087363 0.18605442 0.10808054 0.1446103 0.034345355 0.25732142 0.2271974
0.076189734 0.026873417 0.057010297 0.115020916 0.113713525 0.028452257 0.08578488 0.06280387
0.21659197 -0.034892026 0.01555648 0.1823839 0.06577553 0.06096534 0.13775186 -0.0021966537
0.07788872 0.07983989 0.11812249 0.11919472 0.09707368 0.0999991 0.21446668 -0.07316434
-0.047881708 0.1522106 0.18230252 -0.0034260193 0.13010292 0.04347518 0.062235985 0.2833959
0.056167044 0.30768433 -0.014172302 -0.055717334 0.042391956 0.036284566 0.07829478 0.26092482
-0.044631626 0.062204693 0.07103857 -0.030694447 0.034906592 0.12911227 0.04694451 -0.2256167
-0.033938807 -0.060684074 0.18438075 -0.13980332 0.013530314 0.067448564 -0.029946009 -0.026535248
0.03489335 -0.05241898 -0.020651178 -0.009623472 0.34481835 -0.11571721 0.052078817 -0.027662756
-0.03557954 0.000922937 -0.078309625 0.0052802865 0.07817244 -0.018775541 -0.09014734 0.037439637
-0.062290978 -0.08070695 -0.15566431 -0.07250723 -0.03984776 0.10940561 0.1620988 -0.019073382
-0.054355744 -0.18726723 0.04190324 -0.19712606 0.025347993 0.076669514 -0.07720144 -0.048587456
0.028671384 0.185657 0.032121696 -0.07274549 0.002216589 -0.10427641 -0.13858892 0.031100735
0.4839956 0.0916127 -0.018909201 0.08292385 0.10210813 -0.008719753 0.3345108 0.16879973
0.18368325 0.21600471 0.1032115 0.018414347 0.059321027 0.30077472 0.20603448 0.14898089
0.10468184 0.23231597 0.12781031 0.3376675 0.031221664 0.054643486 -0.012007113 0.13229607
0.13549958 -0.04464676 0.113501966 0.022326963 0.16610964 0.2719019 0.10813301 0.13694188
0.02363097 0.09683565 0.031521454 0.12879975 0.07469452 0.048706077 0.12465618 0.15225007
0.36888656 0.08374656 0.032827053 -0.019889612 0.25122407 0.14341894 0.21426372 0.032721166
0.17477676 0.12627475 -0.104540415 0.33183905 0.1877925 0.109888956 0.36665598 -0.003635304
0.005060308 0.24222906 0.21290298 -0.0011003715 0.20012516 0.055459563 0.18704669 -0.023332614
00000000: 86bb 933d ab86 2e3d df70 e2bc aa93 bb3c
00000010: 8c0b 58bb ec48 52be b147 d0bb d0fb cd3d
00000020: 57e2 163e 9b97 14bd 03bb 1c3c daf6 87bc
00000030: b9b6 fb3c fcf8 833d 7faa 1d3e 9406 243e
00000040: c35f 3abd 67fc aa3d a327 1e3e f429 043e
00000050: 2902 d1bd 488b 7ebc fa51 c2bc f376 5dbc
00000060: cbd1 7dbc 6444 493e 83f0 863c 3691 bbbd
00000070: 3754 803d fdf9 3c3e 8a55 8c3d f273 8c3d
00000080: 34ef 3b3d 9cc0 2dbd 97b3 7dbd 7f08 ef3b
00000090: 8e6b a03d ac67 c73c 6bde 0e3e 0979 463e
000000a0: 57d9 2abe 88c8 2bbc 5c48 25bb 5d9d e93d
000000b0: badd f03d 8a77 163d a78f a13e c8a9 483d
000000c0: 71dc 9d3d 25d7 893d 6c2e 0abe 3aa4 0d3e
000000d0: fa40 a63d 92e3 2b3e 185b a13d 3a4e d13c
000000e0: 34ca ecbc 19a4 913e ce00 3cbd 08be f3bc
000000f0: 6ac5 7b3d d529 83bb 638a d63d 8e41 5b3d
00000100: 6575 a53d 9202 503d 84eb 2abd a514 a13d
00000110: 996e 133e 6969 673c b4b4 073e 67fa da3d
00000120: dd49 813d 8543 683d 9c75 773c 4c86 26bc
00000130: 86f2 4a3e 8134 153d db10 833e a956 053e
00000140: 1c76 af3d c8f6 c53c 22c9 4c3e 9f93 8d3e
00000150: d6ee 683d 8094 383b 7562 9cbc 1198 803d
00000160: 22be 893c 8f59 55bd 0d85 3e3e 5559 dd3d
00000170: b914 143e b7ad 0c3d a2bf 833e 6fa6 683e
00000180: 5d09 9c3d a425 dc3c a183 693d 1690 eb3d
00000190: a3e2 e83d b514 e93c fcaf af3d 519f 803d
000001a0: 49ca 5d3e f1ea 0ebd 9be0 7e3c d8c2 3a3e
000001b0: 52b5 863d cbb6 793d d30e 0d3e bcf5 0fbb
000001c0: 1f84 9f3d 1983 a33d 34ea f13d 5d1c f43d
000001d0: 91ce c63d 54cc cc3d 279d 5b3e 2fd7 95bd
000001e0: 9c1f 44bd 18dd 1b3e 83ad 3a3e 1187 60bb
000001f0: b339 053e 0813 323d 29eb 7e3d 4419 913e
00000200: 6a0f 663d cd88 9d3e f132 68bc dc37 64bd
00000210: 30a3 2d3d 209f 143d 0359 a03d f097 853e
00000220: a7cf 36bd 59ca 7e3d ab7c 913d ec72 fbbc
00000230: 37fa 0e3d 0236 043e e348 403d 1008 67be
00000240: 6b03 0bbd dd8f 78bd 4fce 3c3e 9a28 0fbe
00000250: 40ae 5d3c 7922 8a3d 5551 f5bc 7360 d9bc
00000260: 54ec 0e3d 49b5 56bd a92c a9bc c4ab 1dbc
00000270: 088c b03e 25fd ecbd 9950 553d 019d e2bc
00000280: dabb 11bd 41f1 713a cc60 a0bd 4106 ad3b
00000290: df18 a03d 2acf 99bc 2b9f b8bd 4e5a 193d
000002a0: d324 7fbd af49 a5bd 7766 1fbe ac7e 94bd
000002b0: 6837 23bd 0c10 e03d 3afd 253e c83f 9cbc
000002c0: 21a4 5ebd fbc2 3fbe bba2 2b3d 6adb 49be
000002d0: 98a6 cf3c e804 9d3d ca1b 9ebd a403 47bd
000002e0: 40e0 ea3c de1c 3e3e 0a92 033d 96fb 94bd
000002f0: 3144 113b df8e d5bd 41ea 0dbe f8c6 fe3c
00000300: 45ce f73e 709f bb3d 78e7 9abc fbd3 a93d
00000310: 111e d13d 4bdd 0ebc 0045 ab3e d6d9 2c3e
00000320: 7617 3c3e 5730 5d3e 8d60 d33d afd9 963c
00000330: 9bfa 723d 25ff 993e b4fa 523e 728e 183e
00000340: 6f63 d63d 3de4 6d3e b5e0 023e c1e2 ac3e
00000350: 93c4 ff3c d9d1 5f3d 7bb9 44bc 9f78 073e
00000360: 67c0 0a3e 85df 36bd b873 e83d 09e7 b63c
00000370: a518 2a3e ba36 8b3e d774 dd3d 7e3a 0c3e
00000380: bc95 c13c c551 c63d a41c 013d 15e4 033e
00000390: 71f9 983d 0680 473d bd4b ff3d 71e7 1b3e
000003a0: b3de bc3e 5183 ab3d a975 063d 8aef a2bc
000003b0: 71a0 803e 6adc 123e f367 5b3e a106 063d
000003c0: aef8 323e 2b4e 013e 4919 d6bd cfe6 a93e
000003d0: ad4c 403e 760d e13d 55ba bb3e 483e 6ebb
000003e0: f1d0 a53b e50a 783e 3d03 5a3e 573a 90ba
000003f0: 9ced 4c3e 9129 633d 2b89 3f3e 0a24 bfbc

latent.weight_ih_l0 f4 [128, 64]
0.16171288 0.031872384 0.09962462 -0.009803178 0.009031929 -0.005639271 0.0971029 0.08582558
0.062693834 -0.05083335 0.04116683 0.06997534 0.025243532 0.11593601 0.21437642 0.05282286
-0.000937493 -0.07795124 -0.0660128 -0.120890886 0.02490151 0.030960755 0.03428422 0.07539016
-0.047413453 -0.061889946 0.074566685 0.1441958 0.149446 0.063495025 0.09522899 -0.29041544
-0.01654387 -0.058501802 -0.03819726 0.07658228 0.03192616 -0.08372396 0.037996355 0.024260955
0.08951834 -0.006948805 -0.032057345 -0.045452863 -0.067325555 0.080783024 -0.056507822 0.06884084
0.09466723 -0.13061234 -0.36503983 -0.0942603 0.109529264 0.1290396 -0.33835608 0.09614332
-0.061569095 -0.052347716 -0.06807412 -0.06740888 0.11043535 0.07230491 0.06034783 0.12047523
0.078716315 -0.024690865 0.09884696 0.04475165 -0.017142003 -0.5345431 0.13459931 0.002424323
0.032122847 -0.03726373 0.0039649266 0.06703174 0.0841191 0.07592734 0.19270371 0.01788743
-0.03219886 0.11159799 -0.055698983 0.10778183 -0.0015797503 0.106001355 0.0176549 0.025255138
-0.06759475 -0.030941851 0.13571127 0.05482559 0.13547197 0.04544086 0.02798761 -0.17127
-0.015004975 -0.30216968 -0.01872178 0.039958432 -0.0022385763 -0.03763103 -0.044850685 0.07760038
0.015677836 -0.00070987846 0.034707725 -0.034882125 -0.0078052906 0.029465513 -0.019608313 0.021237556
0.06579255 -0.13083433 -0.021881571 -0.053095005 0.22024982 0.116443425 -0.14163461 0.09345853
-0.05350666 -0.0020410777 -0.027972957 -0.030635174 0.07724916 0.04558396 0.033107527 0.14747728
0.097471684 0.10536198 0.19319129 0.09550462 0.07066544 0.012174842 0.09259191 0.22416611
0.17663556 0.17852964 0.0323571 0.018428195 -0.07138144 0.10228427 0.16483308 0.18769258
-0.05332034 -0.07761428 -0.13770293 -0.059714995 0.08893627 0.1071301 0.104683064 0.0788857
-0.032577984 -0.068314694 0.056410946 0.14252323 0.11156549 0.083932705 0.18299353 -0.15159076
0.039832454 -0.010031265 -0.049083672 0.17362194 0.075171165 -0.105450846 0.15413705 0.066480435
0.09797043 0.18604147 -0.12378773 -0.10828066 -0.059917796 0.07328848 -0.17453039 0.11580981
0.09276505 -0.15538436 -0.21708605 -0.18307585 0.0541666 0.22643924 -0.26101112 0.13604026
-0.058012675 -0.16075161 -0.104560345 -0.11651401 0.16787727 0.113593794 0.06959777 0.119805016
0.118987806 0.028973682 0.16251397 -0.02800689 -0.015292312 0.22726399 0.07241704 0.112238035
0.077434614 -0.04684697 0.040272087 0.08601882 0.009237492 0.102194004 0.19295752 0.06843943
-0.014408376 -0.10800144 -0.09014273 -0.18381274 0.022094753 0.06830518 0.046385482 0.04745965
0.0007695526 -0.05598804 0.10268821 0.13891928 0.113186575 0.093719564 0.16356984 -0.17248762
-0.00824165 -0.07958955 -0.051281016 0.10166894 0.07968817 -0.116017945 0.079800844 0.002402727
0.12337929 -0.041095976 -0.1471325 -0.06077431 -0.15205139 0.06111786 -0.0653107 0.09479733
0.08039081 -0.1642033 -0.30536002 -0.13053583 0.06542505 0.14252795 -0.29095083 0.09002787
-0.09350653 -0.061186504 -0.12842251 -0.114508994 0.13285074 0.08296205 0.08579202 0.105391204
00000000: 1098 253e 9e8c 023d fe07 cc3d 829d 20bc
00000010: a8fa 133c a2c9 b8bb e3dd c63d 52c5 af3d
00000020: a065 803d a136 50bd 8d9e 283d 3b4f 8f3d
00000030: 86cb ce3c dc6f ed3d 7e85 5b3e c95c 583d
00000040: 17c2 75ba e6a4 9fbd b831 87bd a495 f7bd
00000050: 40fe cb3c 69a1 fd3c 9c6d 0c3d 2866 9a3d
00000060: 9c34 42bd 5080 7dbd 6bb6 983d 10a8 133e
00000070: 5f08 193e ae09 823d 6b07 c33d 55b1 94be
00000080: 0387 87bc 969f 6fbd bb74 1cbd 2cd7 9c3d
00000090: 01c5 023d 7877 abbd 11a2 1b3d e9be c63c
000000a0: 6455 b73d cdb2 e3bb 904e 03bd c82c 3abd
000000b0: fbe1 89bd 9271 a53d bf74 67bd 6dfc 8c3d
000000c0: e5e0 c13d 3ebf 05be 80e6 babe 8b0b c1bd
000000d0: e150 e03d f522 043e 023d adbe cae6 c43d
000000e0: e02f 7cbd 8f6a 56bd 726a 8bbd ab0d 8abd
000000f0: ee2b e23d 9914 943d 492f 773d b8bb f63d
00000100: 0536 a13d 7f44 cabc 4670 ca3d 824d 373d
00000110: 636d 8cbc d1d7 08bf 67d4 093e 64e1 1e3b
00000120: 3f93 033d daa1 18bd 37ec 813b f047 893d
00000130: a246 ac3d cb7f 9b3d 1f54 453e a988 923c
00000140: f4e2 03bd 7d8d e43d 9e24 64bd b8bc dc3d
00000150: a00f cfba 3d17 d93d 02a1 903c dde3 ce3c
00000160: 1e6f 8abd c479 fdbc e5f7 0a3e cc90 603d
00000170: 2ab9 0a3e 3220 3a3d 4646 e53c 6761 2fbe
00000180: 6dd7 75bc fcb5 9abe 6b5e 99bc 74ab 233d
00000190: 14b5 12bb ff22 1abd 5ab5 37bd f3ec 9e3d
000001a0: ce6e 803c 2317 3aba b029 0e3d 8fe0 0ebd
000001b0: 86c3 ffbb a961 f13c 9da1 a0bc 62fa ad3c
000001c0: 3fbe 863d 6ff9 05be fb40 b3bc 267a 59bd
000001d0: 2b89 613e e479 ee3d aa08 11be 3067 bf3d
000001e0: cd29 5bbd 9ac3 05bb 8b27 e5bc 9ef6 fabc
000001f0: cf34 9e3d 3fb6 3a3d c29b 073d 4904 173e
00000200: 3c9f c73d 06c8 d73d f0d3 453e ed97 c33d
00000210: 0bb9 903d fd78 473c d4a0 bd3d cd8b 653e
00000220: f4df 343e 79d0 363e e188 043d baf6 963c
00000230: 6f30 92bd 6a7a d13d 01ca 283e 7c32 403e
00000240: 6e66 5abd 3cf4 9ebd ff01 0dbe b697 74bd
00000250: 3824 b63d 0767 db3d 1364 d63d d38e a13d
00000260: 7e70 05bd 93e8 8bbd 2a0f 673d 9cf1 113e
00000270: 737c e43d e9e4 ab3d a862 3b3e 9c3a 1bbe
00000280: 5b27 233d 2d5a 24bc f60b 49bd f3c9 313e
00000290: 57f3 993d 9df6 d7bd 1ad6 1d3e e526 883d
000002a0: b9a4 c83d a881 3e3e 6c84 fdbd 40c2 ddbd
000002b0: 5d6c 75bd 4518 963d 18b8 32be b22d ed3d
000002c0: 9afb bd3d 141d 1fbe ce4b 5ebe 3c78 3bbe
000002d0: ccdd 5d3d b0df 673e 40a3 85be 234e 0b3e
000002e0: b39e 6dbd 129c 24be bc23 d6bd e69e eebd
000002f0: 05e8 2b3e dda3 e83d 4789 8e3d 555c f53d
00000300: e1af f33d 375a ed3c 106a 263e b56e e5bc
00000310: 9b8c 7abc e4b7 683e 634f 943d 0edd e53d
00000320: 0a96 9e3d 9ce2 3fbd 58f4 243d a32a b03d
00000330: da58 173c 174b d13d a896 453e f929 8c3d
00000340: 1c11 6cbc dc2f ddbd c09c b8bd 6839 3cbe
00000350: 0e00 b53c 96e3 8b3d b4fe 3d3d 0d65 423d
00000360: cdbb 493a b753 65bd 324e d23d db40 0e3e
00000370: 5dce e73d 0bf0 bf3d da7e 273e 98a0 30be
00000380: fc07 07bc d9ff a2bd 0b0c 52bd ce37 d03d
00000390: 8d33 a33d d19a edbd a06e a33d 1277 1d3b
000003a0: 48ae fc3d 4154 28bd e7a9 16be 7cee 78bd
000003b0: 5cb3 1bbe b956 7a3d 9ec1 85bd 1a25 c23d
000003c0: f0a3 a43d e924 28be 2658 9cbe 2fab 05be
000003d0: 92fd 853d d9f2 113e 82f7 94be 8860 b83d
000003e0: 5a80 bfbd b39e 7abd 3181 03be b183 eabd
000003f0: 060a 083e 02e8 a93d bab3 af3d 58d7 d73d

latent.weight_hh_l0 f4 [128, 32]
0.46159756 0.010288769 0.02320904 -0.0664889 0.11805105 0.08332426 0.07000637 -0.08821405
0.06367714 -0.0766343 -0.010030247 -0.094672605 -0.110036515 0.09189487 -0.096330844 0.00665303
-0.030584874 -0.03015141 -0.060421 -0.11908491 -0.11035875 -0.027887195 0.09841327 -0.08973818
-0.13645616 -0.06822014 -0.047360253 -0.030425193 -0.13592985 -0.15085334 -0.022543179 -0.08831518
0.074721724 0.16899621 0.13698567 -0.068648696 0.15269932 0.051549975 0.102585055 -0.048123267
0.072193295 -0.07942115 0.042863023 -0.025880843 -0.1272549 0.09340615 -0.14824398 0.104877666
-0.13410054 -0.05706138 -0.031408813 -0.1109298 -0.0724207 0.046616957 0.07020841 -0.06522044
-0.09621417 -0.064862825 -0.092130244 -0.10373209 -0.114787295 -0.08241019 0.13266213 -0.112990975
0.08415743 0.4140526 0.20078352 -0.08878446 0.18405938 0.058781862 0.24669783 -0.2468542
0.12523662 -0.069008976 0.16588818 -0.010369821 -0.12758303 0.14040989 -0.21367493 0.08214724
0.050610483 -0.11932347 -0.1523553 -0.1769567 -0.19309224 -0.059048656 0.011850789 -0.1319563
-0.019666472 -0.16829422 -0.24440674 0.09045319 -0.158416 -0.07926828 -0.11793623 -0.15761471
0.14222118 0.049551778 -0.042669825 -0.42395166 0.21917178 0.13779525 0.13923861 -0.14846289
0.08428595 -0.18993968 0.14000583 -0.11918469 -0.15221997 0.10046926 -0.19854264 0.16538006
-0.032467853 -0.07951978 -0.1071536 -0.101873666 -0.20592426 0.028050706 0.09696647 -0.12881625
-0.22777441 -0.09372691 -0.13907321 -0.0035787476 -0.20937058 -0.14536376 -0.09142314 -0.138388
0.060434025 -0.089486204 0.053540718 -0.009037916 0.023191765 0.012707318 0.042169508 -0.015015847
-0.040124416 -0.08131755 0.024145659 -0.046470933 -0.044481277 0.011482732 0.0278925 -0.002386432
0.015021077 -0.0012320006 -0.045137696 -0.049223002 0.019709896 -0.002623859 0.03660432 -0.050768744
-0.048280783 -0.015008606 -0.018935978 0.10569522 0.0067992783 -0.021386873 -0.078126445 0.003974858
0.06419488 0.0393803 0.022294559 -0.09276618 0.074714564 0.1236275 0.2655225 -0.5509295
0.19179495 -0.06352067 0.10770767 -0.5911003 -0.08091782 0.26934904 -0.19345613 0.088101745
-0.039136756 -0.11382793 -0.014789619 -0.20897768 -0.08718547 -0.07450457 0.13463254 0.321249
-0.040101364 -0.17174442 -0.18673785 -0.025367618 -0.12956399 0.09213841 -0.07851473 -0.18250652
0.017514443 0.048479494 0.11091354 -0.016728811 0.06891754 0.046069607 0.1631971 -0.20344429
0.037911776 -0.020123368 0.011138631 -0.196082 -0.09538486 0.037589937 -0.034706466 0.02276686
-0.08625355 -0.03751996 0.015210423 -0.029214077 -0.07102113 -0.22370197 -0.1416268 -0.16126807
-0.015871024 -0.013265054 -0.08260748 -0.05495893 -0.043466434 -0.03117435 -0.04105952 -0.021898935
0.030501038 0.22450846 0.081664234 -0.049180284 0.19027956 0.25983775 -0.15181966 -0.51014936
0.04427182 -0.019489005 -0.0003553531 -0.009663415 -0.20197193 0.1720823 -0.08865459 0.05381066
-0.00045344874 0.042790543 -0.035533607 0.07756299 -0.1848528 -0.49795398 -0.23455937 -0.49357644
-0.0095201945 -0.15431283 0.02084546 -0.02815788 -0.07860951 -0.27768555 -0.027334971 -0.04071542
00000000: 8456 ec3e 3a92 283c e220 be3c 552b 88bd
00000010: c0c4 f13d e9a5 aa3d 805f 8f3d 91a9 b4bd
00000020: 2969 823d 72f2 9cbd e855 24bc b6e3 c1bd
00000030: d35a e1bd 6133 bc3d 1b49 c5bd a901 da3b
00000040: 218d fabc 1700 f7bc 037c 77bd cae2 f3bd
00000050: c503 e2bd b073 e4bc e68c c93d a7c8 b7bd
00000060: 2abb 0bbe 00b7 8bbd d3fc 41bd 413e f9bc
00000070: 3231 0bbe 4c79 1abe 79ac b8bc 97de b4bd
00000080: b407 993d 580d 2d3e f945 0c3e b097 8cbd
00000090: 365d 1c3e 1126 533d 1d18 d23d e71c 45bd
000000a0: 14da 933d 8ea7 a2bd 2391 2f3d 1004 d4bc
000000b0: 1c4f 02be b94b bf3d 45cd 17be 1aca d63d
000000c0: a751 09be 32b9 69bd 87a6 00bd 2a2f e3bd
000000d0: 4e51 94bd 6cf1 3e3d 6dc9 8f3d 4b92 85bd
000000e0: ef0b c5bd cdd6 84bd c8ae bcbd 7d71 d4bd
000000f0: 9a15 ebbd acc6 a8bd 95d8 073e d067 e7bd
00000100: bb5a ac3d b4fe d33e 329a 4d3e a1d4 b5bd
00000110: 107a 3c3e 40c5 703d 5b9e 7c3e 59c7 7cbe
00000120: 073e 003e 9454 8dbd 97de 293e 2fe6 29bc
00000130: 20a5 02be 9cc7 0f3e 9acd 5abe d03c a83d
00000140: f04c 4f3d dd5f f4bd 0703 1cbe 2334 35be
00000150: f9b9 45be 01dd 71bd d029 423c 8d1f 07be
00000160: 951b a1bc 5255 2cbe c345 7abe 863f b93d
00000170: ce37 22be 6857 a2bd 8d88 f1bd c065 21be
00000180: 6ea2 113e cef6 4a3d 8ec6 2ebd 3110 d9be
00000190: 916e 603e 331a 0d3e 9194 0e3e a806 18be
000001a0: 1d9e ac3d 8c7f 42be b05d 0f3e 1a17 f4bd
000001b0: 8ddf 1bbe d4c2 cd3d c34e 4bbe 6459 293e
000001c0: 03fd 04bd 44db a2bd 5973 dbbd 24a3 d0bd
000001d0: cfdd 52be 98ca e53c 5b96 c63d 68e8 03be
000001e0: b23d 69be e5f3 bfbd 3569 0ebe 6c89 6abb
000001f0: 3e65 56be 3dda 14be 0e3c bbbd 95b5 0dbe
00000200: ab89 773d 8b44 b7bd 834d 5b3d c413 14bc
00000210: a8fc bd3c 5b32 503c efb9 2c3d 0705 76bc
00000220: 8059 24bd d189 a6bd 1ecd c53c 4e58 3ebd
00000230: 0032 36bd 1222 3c3c d07e e43c af65 1cbb
00000240: f71a 763c 157b a1ba 4ee2 38bd 0f9e 49bd
00000250: a676 a13c 0df5 2bbb 69ee 153d e3f2 4fbd
00000260: 12c2 45bd a8e6 75bc a01f 9bbc bc76 d83d
00000270: 7bcc de3b 8633 afbc c200 a0bd 873f 823b
00000280: 9b78 833d 3d4d 213d 14a3 b63c 32fc bdbd
00000290: f303 993d 6a30 fd3d 91f2 873e b709 0dbf
000002a0: e565 443e 2017 82bd d795 dc3d 5952 17bf
000002b0: 3eb8 a5bd 1ee8 893e 5d19 46be b06e b43d
000002c0: dd4d 20bd 9e1e e9bd 2850 72bc 3ffe 55be
000002d0: 4c8e b2bd da95 98bd 1ddd 093e c07a a43e
000002e0: 5441 24bd c5dd 2fbe 3538 3fbe c0cf cfbc
000002f0: 6cac 04be 10b3 bc3d 55cc a0bd fde2 3abe
00000300: 737a 8f3c 6f92 463d a326 e33d dc0a 89bc
00000310: a424 8d3d 7cb3 3c3d 241d 273e b353 50be
00000320: 6149 1b3d c3d9 a4bc ce7e 363c b8c9 48be
00000330: 2359 c3bd e8f7 193d 5e28 0ebd 9181 ba3c
00000340: b4a5 b0bd 88ae 19bd 2335 793c 5c52 efbc
00000350: 8773 91bd 2112 65be 9e06 11be 7523 25be
00000360: f303 82bc ab55 59bc 1c2e a9bd 9d1c 61bd
00000370: dc09 32bd 5a61 ffbc 072e 28bd 6565 b3bc
00000380: 50dd f93c 8ce5 653e 943f a73d 4471 49bd
00000390: a5d8 423e 7409 853e 9d76 1bbe 2699 02bf
000003a0: 5e56 353d 68a7 9fbc b04e bab9 4d53 1ebc
000003b0: bbd1 4ebe 5836 303e 8a90 b5bd 9168 5c3d
000003c0: dcbc edb9 2345 2f3d b08b 11bd 58d9 9e3d
000003d0: 0d4a 3dbe d3f3 febe 5530 70be 0db6 fcbe
000003e0: 97fa 1bbc 2f04 1ebe 19c4 aa3c 5bab e6bc
000003f0: 06fe a0bd cd2c 8ebe 97ed dfbc 36c5 26bd

latent.bias_ih_l0 f4 [128]
0.081953935 0.058911562 0.19011123 0.10657294 0.07528684 0.118091986 0.07284446 0.09422399
0.08461466 0.071311675 0.14192557 0.07395946 0.107026875 0.08668141 0.07723806 0.11408866
0.11214159 0.10646139 0.07027155 0.07619007 0.07827694 0.08766738 0.0878196 0.18905316
0.16247933 0.088981986 0.098195024 0.046302322 0.09194976 0.09212114 0.048785474 0.12326668
-0.041769482 -0.03565688 -0.0023298848 -0.03599835 -0.0059937374 -0.021850552 -0.014037334 0.04622082
-0.069619484 -0.050512135 -0.052928604 0.025143407 0.020809032 0.0040362254 -0.04207612 -0.04522703
-0.015436681 -0.013819705 -0.025495533 0.021500709 -0.061433 0.008135947 0.006214197 0.07342538
0.04487509 -0.02108434 -0.022715515 -0.034474637 -0.058400594 0.025177615 -0.025386354 -0.04979643
0.0069424817 -0.024913322 -0.0093463315 -0.0024314115 0.04258549 -0.077588126 -0.010065665 0.0066588465
-0.008617562 -0.003171387 -0.034256484 0.0024418223 -0.0004263884 -0.03279791 0.012922174 -0.025808223
-0.00060278806 0.033183098 0.02384492 0.044654746 0.014709887 0.006633878 0.0463089 0.0007260321
-0.0155448755 0.027347758 0.01279159 -0.012577954 0.005143085 -0.0028136903 0.0063238293 0.044936664
0.15520917 0.14340201 0.15177263 0.23836833 0.05243312 0.08387751 0.11895075 0.10679233
0.22487509 0.11062273 0.15508457 0.06080098 0.14309274 0.060226876 0.190788 0.26669517
0.09287305 0.17210911 0.038575243 0.14801565 0.15424539 0.13568448 0.11227102 0.13907008
0.21065567 0.07991916 0.1479688 0.1350018 0.37274832 0.070575446 0.10621552 0.08448015
00000000: 77d7 a73d 404d 713d 85ac 423e ea42 da3d
00000010: fd2f 9a3d 36da f13d 7a2f 953d 82f8 c03d
00000020: 734a ad3d db0b 923d f054 113e 0f78 973d
00000030: e830 db3d 0686 b13d fd2e 9e3d 51a7 e93d
00000040: 7daa e53d 6e08 da3d 88ea 8f3d 8a09 9c3d
00000050: a94f a03d f58a b33d c3da b33d 2797 413e
00000060: fb60 263e 303c b63d 791a c93d 81a7 3d3d
00000070: 2850 bc3d 02aa bc3d 47d3 473d 3e73 fc3d
00000080: 7a16 2bbd f30c 12bd fbb0 18bb 0173 13bd
00000090: 1d67 c4bb eeff b2bc d9fc 65bc 0b52 3d3d
000000a0: a994 8ebd d0e5 4ebd aacb 58bd 8cf9 cd3c
000000b0: b477 aa3c 5042 843b 0258 2cbd fa3f 39bd
000000c0: 22ea 7cbc 0b6c 62bc 02dc d0bc 4122 b03c
000000d0: 2ba1 7bbd a34c 053c 76a0 cb3b 0c60 963d
000000e0: f1ce 373d 11b9 acbc e315 babc 4735 0dbd
000000f0: 7635 6fbd 4941 ce3c 0bf7 cfbc 57f7 4bbd
00000100: c27d e33b 0617 ccbc 5b21 19bc 5158 1fbb
00000110: 1f6e 2e3d 86e6 9ebd 75ea 24bc 7432 da3b
00000120: ad30 0dbc 0bd7 4fbb 8750 0cbd fb06 203b
00000130: e28c dfb9 1a57 06bd 87b7 533c c46b d3bc
00000140: 6c04 1eba 00eb 073d 6c56 c33c e5e7 363d
00000150: bd01 713c 0161 d93b 67ae 3d3d 3153 3e3a
00000160: efaf 7ebc 6808 e03c d193 513c c313 4ebc
00000170: 5387 a83b e465 38bb 2038 cf3b 820f 383d
00000180: 27ef 1e3e fad7 123e 496a 1b3e d416 743e
00000190: 1cc4 563d f9c7 ab3d 739c f33d f0b5 da3d
000001a0: a845 663e 2b8e e23d 7dce 1e3e 730a 793d
000001b0: e786 123e 75b0 763d ee5d 433e 458c 883e
000001c0: 3a34 be3d 5f3d 303e 1301 1e3d 6a91 173e
000001d0: 81f2 1d3e dff0 0a3e 59ee e53d 6368 0e3e
000001e0: 1fb6 573e a8ac a33d 2285 173e e93d 0a3e
000001f0: ded8 be3e dc89 903d 8687 d93d ee03 ad3d

latent.bias_hh_l0 f4 [128]
0.08448831 0.060901113 0.19051014 0.10461134 0.07560982 0.1174183 0.074059814 0.093506336
0.08508337 0.06917221 0.14063318 0.073854595 0.106921725 0.08823076 0.07685795 0.113333575
0.11425855 0.10633476 0.07110499 0.07535802 0.08141985 0.09017909 0.08640705 0.19021502
0.16163284 0.08746846 0.09521651 0.0456304 0.09194967 0.09095854 0.049041953 0.12302542
-0.041013487 -0.034760796 -0.0011840595 -0.03440117 -0.0076626106 -0.020274255 -0.014071425 0.04708698
-0.06948646 -0.052559882 -0.0546424 0.025782116 0.01924085 0.0042482777 -0.044337835 -0.043925963
-0.014595291 -0.012680144 -0.027617356 0.020812372 -0.063326865 0.008596353 0.0062377173 0.07344848
0.04284561 -0.019892985 -0.021277469 -0.03248625 -0.058408298 0.027362535 -0.025314847 -0.050489277
0.0072246175 -0.026872553 -0.008819212 -0.0024315813 0.041994233 -0.0745061 -0.008656491 0.008055803
-0.009355477 -0.005879883 -0.0373048 -0.0003963696 -0.001562968 -0.031193307 0.012818765 -0.023425654
-0.0009109816 0.032930292 0.022560801 0.04511012 0.01281982 0.008414218 0.047634304 0.0011529779
-0.014967709 0.024520943 0.012966477 -0.014326011 0.0036880514 -0.003383503 0.003964276 0.04407667
0.15521123 0.14340314 0.15304923 0.23972 0.05460381 0.08397321 0.11895006 0.10679251
0.22376576 0.10743326 0.15465988 0.05914484 0.14309146 0.05902311 0.1907982 0.26608095
0.09358192 0.17183736 0.040660135 0.14663494 0.15373714 0.1360587 0.11173863 0.1434921
0.21103214 0.0773563 0.14704283 0.13237898 0.3749891 0.07580217 0.10388749 0.084861256
00000000: 3508 ad3d 7273 793d 1715 433e 783e d63d
00000010: 52d9 9a3d 0179 f03d acac 973d 4080 bf3d
00000020: 3140 ae3d 29aa 8d3d 2502 103e 1441 973d
00000030: c7f9 da3d 54b2 b43d b367 9d3d 6f1b e83d
00000040: 6300 ea3d 0ac6 d93d 7e9f 913d 4e55 9a3d
00000050: 73bf a63d d1af b83d 2ef6 b03d bac7 423e
00000060: 1483 253e aa22 b33d e000 c33d f1e6 3a3d
00000070: 1c50 bc3d 7948 ba3d 37e0 483d c0f4 fb3d
00000080: c2fd 27bd 5661 0ebd 7232 9bba 3ee8 0cbd
00000090: a316 fbbb 3216 a6bc d68b 66bc 47de 403d
000000a0: eb4e 8ebd 0849 57bd b6d0 5fbd 0435 d33c
000000b0: fd9e 9d3c 2335 8b3b 979b 35bd b6eb 33bd
000000c0: 1621 6fbc 61c0 4fbc cb3d e2bc b57e aa3c
000000d0: 84b1 81bd b8d7 0c3c c465 cc3b 286c 963d
000000e0: e17e 2f3d 9df6 a2bc 164e aebc 4d10 05bd
000000f0: 8a3d 6fbd 6527 e03c 1561 cfbc d8cd 4ebd
00000100: 7cbc ec3b d423 dcbc 757e 10bc 2a5b 1fbb
00000110: 2502 2c3d a796 98bd f4d3 0dbc 7dfc 033c
00000120: b747 19bc 09ac c0bb ebcc 18bd d4cf cfb9
00000130: 81dc ccba 1b89 ffbc cc05 523c 28e7 bfbc
00000140: f1ce 6eba eae1 063d 6ed1 b83c 64c5 383d
00000150: 390a 523c cadb 093c 301c 433d 851f 973a
00000160: 1f3b 75bc 25e0 c83c 5971 543c a5b7 6abc
00000170: 3cb3 713b c3bd 5dbb c2e6 813b bd89 343d
00000180: b1ef 1e3e 46d8 123e f0b8 1c3e 2979 753e
00000190: 3fa8 5f3d 25fa ab3d 179c f33d 08b6 da3d
000001a0: da22 653e f805 dc3d 295f 1e3e dc41 723d
000001b0: 9186 123e 37c2 713d 9a60 433e c33b 883e
000001c0: e1a7 bf3d 22f6 2f3e 3e8b 263d 7827 163e
000001d0: 456d 1d3e f952 0b3e 39d7 e43d 98ef 123e
000001e0: cf18 583e fb6c 9e3d 6592 163e 5b8e 073e
000001f0: 92fe bf3e 2b3e 9b3d f7c2 d43d bdcb ad3d

decoder.weight_ih_l0 f4 [256, 32]
-0.13945146 -1.8383827 -0.9375918 -0.0018882205 -0.4451017 -0.22958907 -0.46042377 0.82964283
-0.06810774 -0.022399576 -0.6447011 -0.15898664 0.7413131 -0.33891585 0.5922368 -0.011398483
-0.15165995 0.29449278 0.36523774 0.7214595 0.6181462 1.0268911 0.85451347 0.94364804
-0.043165684 0.34737575 0.58164525 -0.37413174 0.07876293 0.12422515 0.6011823 0.6557762
-0.031752538 -1.8875611 -1.0795835 0.09434519 -0.31101805 -0.15850875 -0.42687556 0.9888754
-0.21596256 -0.006843002 -0.5482318 0.09694228 0.79874456 -0.088036254 0.88095295 -0.2658041
0.03991775 0.37482685 0.22678952 0.52970105 0.44067216 0.21099572 0.8776606 0.42502707
0.4512981 0.1278087 0.80130845 -0.6353502 0.15527295 0.046178926 0.16596892 0.69124097
-0.25646102 -1.5829401 -0.3409925 -0.27019715 -0.14188963 -0.21400508 -0.10812368 0.31681475
-0.2803261 0.07497161 -0.3389111 -0.34475845 0.9729939 -0.36094558 0.39551646 -0.4465551
-0.070139594 0.25735924 0.4013329 0.8337643 0.2390923 0.47084183 0.6654059 0.072765164
-0.29838264 0.0513128 0.43408823 0.57235897 0.04593182 0.39526206 1.0574088 0.66644883
0.22268699 -1.4445553 0.4362254 0.0017452568 -1.0217872 0.23865157 -0.39721483 0.508278
-0.2755627 -0.26908672 -0.9724218 -1.1241405 2.592899 -0.35302818 1.6260738 -0.3421869
0.47451004 -0.21826209 0.12012548 0.67996055 0.7617975 -0.19673346 0.38551882 0.68499297
0.6112156 -0.08887755 0.113188915 0.16190772 0.894207 -0.075006045 -0.5495443 0.7777292
-0.15119907 -1.5711449 0.021555873 -0.039566677 -0.19501038 -0.015241881 -0.23630142 0.6793074
-0.084491305 0.18202928 -0.58438355 0.24770896 1.6055946 -0.24999346 0.41151103 -0.11433183
-0.18853219 0.06209712 0.45633706 0.42560828 0.43390802 0.22337487 0.29071447 0.3775669
-0.62682885 0.036757782 0.37659445 0.021427324 0.094014265 -0.039822824 0.1082158 0.38922882
-0.12964271 -2.3830988 -0.44588926 0.22354703 -1.0085717 0.56881 -0.3142781 -0.7819985
-0.9658782 -0.09388889 -0.40215635 -0.060844388 1.1238521 0.73082286 0.75661093 -0.7403495
0.2587676 0.38791192 0.4218801 0.79001796 1.1434709 0.018301062 -0.08883557 2.2325869
-0.5600389 -0.037148487 0.78478193 -0.756237 -0.314388 0.7803417 0.42318997 1.5731177
-0.14039715 -1.7139379 -0.39954048 0.10939681 -0.24640071 -0.18609442 -0.5773192 0.582573
-0.220957 0.020340465 -0.43932965 0.26507956 0.75816053 -0.24350843 0.48648527 -0.35801062
-0.0684645 0.13179891 0.15634187 0.7425804 0.5134051 0.5571492 0.4551964 0.611241
-0.3674665 0.058976203 0.66308314 -0.24581234 0.33405694 0.11847526 0.43854496 0.33033916
-0.15259993 -1.8776655 -0.6765405 0.025459597 -0.33507955 0.018541362 -0.33825862 0.40731937
-0.18163608 0.26247567 -0.4385407 0.2408228 1.221643 -0.031225806 0.5513959 -0.3345751
-0.07307044 0.09224519 0.16368352 0.42270172 0.24647492 0.17577565 -0.11140718 0.2790636
0.24724957 0.049587384 0.54442924 0.058137685 0.10329816 0.009735039 0.07635002 0.5705456
00000000: 5dcc 0ebe 2050 ebbf 0406 70bf 2b7e f7ba
00000010: 5fe4 e3be 6619 6bbe aabc ebbe 7963 543f
00000020: 127c 8bbd 517f b7bc 220b 25bf 65cd 22be
00000030: b2c6 3d3f 6186 adbe d59c 173f b4c0 3abc
00000040: bf4c 1bbe c2c7 963e 7100 bb3e 92b1 383f
00000050: d43e 1e3f 2b71 833f 65c1 5a3f eb92 713f
00000060: 80ce 30bd 3cdb b13e b4e6 143f 328e bfbe
00000070: 764e a13d c169 fe3d 15e7 193f f3e0 273f
00000080: f30e 02bd 9a9b f1bf cb2f 8abf 0d38 c13d
00000090: c23d 9fbe 1e50 22be 6f8f dabe f026 7d3f
000000a0: 4a25 5dbe 433b e0bb eb58 0cbf ad89 c63d
000000b0: 867a 4c3f 5a4c b4bd 2286 613f 7a17 88be
000000c0: cb80 233d 4ee9 bf3e 833b 683e 7d9a 073f
000000d0: c89f e13e 430f 583e 5dae 603f 269d d93e
000000e0: 8b10 e73e 49e0 023e 8d22 4d3f 50a6 22bf
000000f0: dfff 1e3e 1d26 3d3d c2f3 293e 2bf5 303f
00000100: dc4e 83be c89d cabf 9296 aebe 4857 8abe
00000110: 844b 11be 2624 5bbe f36f ddbd 8b35 a23e
00000120: e786 8fbe b78a 993d c185 adbe 2e84 b0be
00000130: 2116 793f dccd b8be 2281 ca3e dfa2 e4be
00000140: 59a5 8fbd 97c4 833e 827b cd3e 9471 553f
00000150: 9dd4 743e 2e12 f13e 0b58 2a3f e705 953d
00000160: 9cc5 98be 5f2d 523d d040 de3e 1e86 123f
00000170: 0123 3c3d ca5f ca3e 2c59 873f 649c 2a3f
00000180: 0f08 643e 30e7 b8bf f058 df3e 1ac1 e43a
00000190: ecc9 82bf 1461 743e be5f cbbe 821e 023f
000001a0: 8e16 8dbe bcc5 89be a3f0 78bf d6e3 8fbf
000001b0: 0ff2 2540 1cc0 b4be 3023 d03f 1f33 afbe
000001c0: fbf2 f23e 1980 5fbe 5904 f63d e511 2e3f
000001d0: 2905 433f 7f74 49be b962 c53e b35b 2f3f
000001e0: a078 1c3f 6f05 b6bd 97cf e73d 23cb 253e
000001f0: c0ea 643f c59c 99bd efae 0cbf 4319 473f
00000200: eed3 1abe 471b c9bf f195 b03c ab10 22bd
00000210: cdb0 47be 15b9 79bc 00f9 71be 17e7 2d3f
00000220: c709 adbd e265 3a3e 299a 15bf 6ba7 7d3e
00000230: 2084 cd3f 49fe 7fbe 93b1 d23e ce26 eabd
00000240: 950e 41be 8d59 7e3d 03a5 e93e 54e9 d93e
00000250: 3129 de3e 62bc 643e 87d8 943e 7350 c13e
00000260: db77 20bf 548f 163d fdd0 c03e 5b88 af3c
00000270: 8d8a c03d 421d 23bd 3fa0 dd3d 0049 c73e
00000280: 0fc1 04be b184 18c0 994b e4be 83e9 643e
00000290: e118 81bf 889d 113f 0fe9 a0be 0e31 48bf
000002a0: cb43 77bf d248 c0bd 70e7 cdbe f737 79bd
000002b0: 63da 8f3f 3517 3b3f 41b1 413f 8b87 3dbf
000002c0: 307d 843e 649c c63e ab00 d83e 9e3e 4a3f
000002d0: 415d 923f 1cec 953c 6cef b5bd b4e2 0e40
000002e0: b65e 0fbf 0329 18bd 78e7 483f bf98 41bf
000002f0: 77f7 a0be 79c4 473f 5bac d83e ec5b c93f
00000300: 45c4 0fbe 5162 dbbf 9290 ccbe 6f0b e03d
00000310: 7850 7cbe 898f 3ebe 31cb 13bf 8123 153f
00000320: 8d42 62be 0ca1 a63c d1ef e0be 82b8 873e
00000330: cf16 423f 465a 79be 9914 f93e 2b4d b7be
00000340: 1e37 8cbd 4bf6 063e 1518 203e c019 3e3f
00000350: 846e 033f 54a1 0e3f 810f e93e 4a7a 1c3f
00000360: 9224 bcbe 0891 713d d1bf 293f 3bb6 7bbe
00000370: 8309 ab3e 28a3 f23d f788 e03e 3722 a93e
00000380: 2843 1cbe 5857 f0bf c231 2dbf a590 d03c
00000390: 8c8f abbe 0ee4 973c 3c30 adbe 2a8c d03e
000003a0: cffe 39be 3663 863e 6888 e0be 419a 763e
000003b0: cc5e 9c3f 43cd ffbc 4828 0d3f 6d4d abbe
000003c0: f4a5 95bd 0ceb bc3d a79c 273e 5c6c d83e
000003d0: ec63 7c3e 88fe 333e 7329 e4bd 6de1 8e3e
000003e0: fe2e 7d3e 241c 4b3d b75f 0b3f c821 6e3d
000003f0: fc8d d33d b77f 1f3c 665d 9c3d 470f 123f
