models/classification_model_fold5_epoch20_loss0.0231.pth (torch, 494570 bytes, 16 tensors)

conv1.weight f4 [64, 28, 3]
0.039781943 -0.04702132 -0.088623114 0.07602877 0.08996975 0.06131305 -0.20369136 -0.17130129
-0.1542632 -0.065800406 0.043221146 -0.066728875 0.03593988 0.05329305 -0.036464576 -0.1279731
-0.18980026 -0.20795698 0.17568676 0.03395662 0.056251734 0.118638866 0.0793442 0.11975768
-0.13770457 -0.103070535 -0.24567568 0.092737496 0.123365946 0.17112285 0.13774788 0.21757986
0.12927052 0.19030736 0.06598844 0.22074702 0.055562083 -0.10119318 0.044776015 0.119976945
0.056157358 0.042999446 0.046043884 -0.038536828 0.11011444 0.0034790295 -0.009107691 -0.031154223
0.07683628 -0.058829773 0.0015782927 -0.5054636 -0.42733502 -0.49565077 0.04850563 -0.03985442
0.023485012 0.1212981 0.08318888 0.21843582 0.0953563 0.0036222998 0.095016174 0.09485964
0.120046936 -0.04845879 0.0828191 -0.0857429 -0.028473957 -0.21594016 -0.10290628 -0.23685102
-0.0047137146 0.051810876 -0.07229881 0.07110431 0.02480024 -0.069262095 0.114683494 0.0012633774
-0.046307806 0.036749396 -0.06865906 0.021730639 -0.01028421 -0.032440364 -0.12553121 -0.050288226
-0.13065408 -0.014179278 -0.23731372 -0.08244728 -0.1595625 0.110097885 -0.060525365 0.07677028
0.077338755 -0.084486045 0.12148081 -0.30241445 -0.31285897 -0.29038844 -0.12817134 -0.063601725
-0.14168137 -0.0061675934 0.06834386 -0.046711873 -0.25434288 -0.23726654 -0.28762946 -0.14598888
-0.027302291 -0.06778203 -0.057049327 -0.0046421853 0.038551956 0.16806675 0.20839904 0.17613281
-0.05205707 0.0075944955 0.031424046 -0.032778762 0.020369092 0.048437726 0.0343029 0.033564392
0.07754915 -0.15555306 -0.06649005 -0.0025289855 -0.0050009694 -0.022912392 -0.052241396 0.07570237
0.07953199 0.03988405 0.032435812 -0.06442056 -0.03411194 -0.121853955 -0.13660906 -0.12909715
0.04151328 -0.00160292 0.0062637543 0.07942172 0.047783457 0.007804305 -0.06422327 -0.008475287
0.07344047 0.35844785 0.40932482 0.38424063 -0.028322961 0.048244048 -0.08170599 -0.025140008
0.09532138 -0.026596371 -0.08756032 0.00489726 -0.112228446 0.052991103 -0.0132800015 0.080614604
0.16170931 0.0599355 0.13950463 0.06279816 0.08860633 0.17875022 0.037049916 0.046634376
-0.06767761 -0.12259048 -0.04547352 0.023280878 -0.09392931 -0.03452491 0.107803345 -0.10823105
-0.15568924 -0.2796375 0.0007810577 -0.03910344 -0.04186522 -0.009001965 0.03428168 0.002072581
-0.30620587 -0.27700406 -0.20741159 -0.025430143 0.079426825 -0.055424113 0.0064197085 -0.0549667
0.058420513 0.17588854 0.08054303 -0.004935215 0.01775065 -0.10679264 -0.07237953 -0.02175311
0.085448526 0.07211948 -0.047748063 -0.06956549 -0.06983343 -0.13011025 -0.07083148 -0.10014021
-0.11499817 -0.13341069 -0.0045154686 -0.1743108 -0.11627182 -0.15735297 0.036775045 -0.041624665
0.0627944 0.1757993 0.16927388 0.23866235 -0.006898152 0.037074275 -0.012280351 -0.07756541
0.016493166 -0.06702658 0.06380049 -0.05784977 0.0041065393 -0.18900192 -0.114080146 -0.04507638
0.07501894 -0.0424457 -0.019600177 -0.06666855 -0.074861065 -0.13284211 0.092431046 -0.0076870965
-0.010731696 0.076779425 0.083896846 0.06629809 0.022743318 0.0765985 0.07815141 0.1773256
00000000: 64f2 223d 6d99 40bd 0980 b5bd f9b4 9b3d
00000010: 0f42 b83d 6523 7b3d 7894 50be 9b69 2fbe
00000020: 2cf7 1dbe 5dc2 86bd a808 313d 26a9 88bd
00000030: b235 133d d049 5a3d e15b 15bd 610b 03be
00000040: 005b 42be adf2 54be 3be7 333e 1916 0b3d
00000050: 3868 663d eff8 f23d 367f a23d 8443 f53d
00000060: 6d02 0dbe a516 d3bd 6892 7bbe 28ed bd3d
00000070: 49a7 fc3d d43a 2f3e c80d 0d3e 41cd 5e3e
00000080: 7e5f 043e efdf 423e f224 873d 820b 623e
00000090: 1195 633d 5f3e cfbd 0e67 373d 79b6 f53d
000000a0: 4205 663d 3020 303d 8398 3c3d cbd8 1dbd
000000b0: ae83 e13d 6e00 643b 6d38 15bc 2437 ffbc
000000c0: 575c 9d3d 7df7 70bd b7de ce3a 1066 01bf
000000d0: a8cb dabe f0c5 fdbe d7ad 463d 633e 23bd
000000e0: a463 c03c 236b f83d ee5e aa3d a4ad 5f3e
000000f0: 2a4a c33d 1b64 6d3b d797 c23d c545 c23d
00000100: 2bdb f53d b97c 46bd 0f9d a93d f999 afbd
00000110: 3742 e9bc 6b1f 5dbe 87c0 d2bd 1389 72be
00000120: 8175 9abb a437 543d 6611 94bd 239f 913d
00000130: df29 cb3c 49d9 8dbd 2edf ea3d e997 a53a
00000140: 41ad 3dbd 8986 163d 1f9d 8cbd 7404 b23c
00000150: 1a7f 28bc 30e0 04bd 418b 00be 07fb 4dbd
00000160: 2fca 05be 3450 68bc 5e02 73be 1fda a8bd
00000170: 5a64 23be 007b e13d 72e9 77bd bd39 9d3d
00000180: c863 9e3d 0507 adbd eeca f83d 11d6 9abe
00000190: 0d2f a0be cbad 94be 593f 03be 9f41 82bd
000001a0: ec14 11be 8619 cabb def7 8b3d f354 3fbd
000001b0: 3b39 82be 00f6 72be 2b44 93be 1c7e 15be
000001c0: 0ea9 dfbc 4ed1 8abd 8eac 69bd 791d 98bb
000001d0: a8e8 1d3d b119 2c3e 8f66 553e 295c 343e
000001e0: cb39 55bd 3fdb f83b 80b6 003d 0643 06bd
000001f0: 15dd a63c a366 463d 3381 0c3d d17a 093d
00000200: 17d2 9e3d 4d49 1fbe ef2b 88bd 56bd 25bb
00000210: 2cdf a3bb c5b2 bbbc 13fb 55bd d809 9b3d
00000220: abe1 a23d 755d 233d 6adb 043d edee 83bd
00000230: f6b8 0bbd 918e f9bd 3fe3 0bbe 0b32 04be
00000240: d409 2a3d 1219 d2ba 2e40 cd3b dba7 a23d
00000250: 96b8 433d 41bb ff3b 7d87 83bd eedb 0abc
00000260: f567 963d 7a86 b73e 0693 d13e 30bb c43e
00000270: 8e05 e8bc 8d9b 453d 7855 a7bd 6bf2 cdbc
00000280: db37 c33d a2e0 d9bc d352 b3bd 3279 a03b
00000290: 07d8 e5bd 330d 593d 5d94 59bc 4519 a53d
000002a0: 2097 253e ed7e 753d 4dda 0e3e 529c 803d
000002b0: 3c77 b53d 4c0a 373e a7c1 173d b003 3f3d
000002c0: 8f9a 8abd b810 fbbd 7142 3abd 8ab7 be3c
000002d0: 035e c0bd fe69 0dbd 00c8 dc3d 3ea8 ddbd
000002e0: 006d 1fbe a52c 8fbe e5bf 4c3a ee2a 20bd
000002f0: dd7a 2bbd fa7c 13bc f26a 0c3d 24d4 073b
00000300: 04c7 9cbe 7ad3 8dbe b463 54be e052 d0bc
00000310: 88aa a23d 6504 63bd 6b5c d23b c324 61bd
00000320: 594a 6f3d 201c 343e bef3 a43d 96b7 a1bb
00000330: d069 913c 1ab6 dabd b83b 94bd 9433 b2bc
00000340: a3ff ae3d 61b3 933d 7993 43bd 5a78 8ebd
00000350: d404 8fbd 9f3b 05be 1810 91bd 4f16 cdbd
00000360: 2984 ebbd d09c 08be 7ff6 93bb 887e 32be
00000370: ec1f eebd 2321 21be 6ea1 163d a07e 2abd
00000380: 5a9a 803d bb04 343e 2256 2d3e e763 743e
00000390: e509 e2bb 32db 173d 8633 49bc 9dda 9ebd
000003a0: ad1c 873c 3b45 89bd d5a9 823d e1f3 6cbd
000003b0: 2690 863b b889 41be daa2 e9bd 03a2 38bd
000003c0: 88a3 993d 8bdb 2dbd 8d90 a0bc 8589 88bd
000003d0: c250 99bd c307 08be 7d4c bd3d 0ae4 fbbb
000003e0: ffd3 2fbc 883e 9d3d 1cd2 ab3d 4bc7 873d
000003f0: 3250 ba3c addf 9c3d d90d a03d d894 353e

conv1.bias f4 [64]
-0.0013540059 0.03778314 -0.09632346 -0.10492456 -0.10297991 0.08568594 -0.074339 -0.10169733
-0.026312554 -0.029484527 0.06048475 0.09289938 -0.012895324 -0.019913036 0.07877449 0.1258118
0.017355839 0.09097661 -0.052665476 -0.064905055 -0.10119321 0.048649374 0.07440586 0.026044762
0.06502584 0.06860879 0.081615955 -0.017303688 -0.016806845 -0.0005244504 -0.013600683 0.042456795
-0.013450006 -0.05860144 -0.029587919 0.04372453 -0.0050297487 0.036048748 0.100572295 0.09808047
0.19093674 0.03889382 -0.017123172 -0.00018675634 -0.044502463 -0.024705455 0.09452137 -0.0021642363
-0.049822826 -0.07570056 -0.04201092 0.15916759 -0.07012209 0.08540597 0.005748202 -0.10213445
-0.031198407 -0.074060224 0.109019704 0.14464805 -0.09083018 0.10099767 0.026720054 -0.05444639
00000000: e678 b1ba 7ec2 1a3d 3c45 c5bd b0e2 d6bd
00000010: 22e7 d2bd 1c7c af3d 0c3f 98bd b146 d0bd
00000020: 6d8d d7bc 8989 f1bc dbbe 773d 0842 be3d
00000030: e946 53bc aa20 a3bc 8554 a13d cfd4 003e
00000040: d52d 8e3c f251 ba3d c1b7 57bd f1ec 84bd
00000050: 633e cfbd 9144 473d 1962 983d d35b d53c
00000060: 452c 853d c482 8c3d 4426 a73d 77c0 8dbc
00000070: 82ae 89bc 457b 09ba 66d5 5ebc 2de7 2d3d
00000080: 6a5d 5cbc 1008 70bd 5d62 f2bc 7e18 333d
00000090: 97d0 a4bb daa7 133d d9f8 cd3d 6ade c83d
000000a0: ec84 433e 204f 1f3d e545 8cbc 06d4 43b9
000000b0: 3748 36bd 1863 cabc 6c94 c13d dcd5 0dbb
000000c0: 0513 4cbd e508 9bbd a413 2cbd d4fc 223e
000000d0: 2c9c 8fbd 53e9 ae3d 6a5b bc3b de2b d1bd
000000e0: cd93 ffbc e3ac 97bd b945 df3d 9e1e 143e
000000f0: 2c05 babd ded7 ce3d 04e4 da3c 2e03 5fbd

conv2.weight f4 [128, 64, 3]
-0.030961126 -0.012853607 0.084884405 0.10399329 0.036328662 0.006480236 -0.08353488 -0.052030597
0.045224894 -0.0389477 0.047007818 0.048682418 -0.11246171 -0.08024318 0.0034300296 0.06903194
-0.009775894 0.032323703 0.016166043 -0.053414922 -0.029859267 -0.08777761 0.05726309 0.07121254
-0.045323353 -0.014146158 0.027563842 -0.04866985 -0.010521999 0.069534406 0.0031140025 0.035530142
0.029020198 -0.073640205 -0.0733124 -0.043926332 -0.079549 0.02704166 -0.0075285495 0.004058715
0.03354173 -0.07947128 0.02796197 0.07881744 0.107641555 -0.0138998 0.013669439 -0.06874252
0.01723022 -0.061169118 -0.06581021 0.07806941 0.06244221 -0.033908144 0.022042446 0.03607031
0.087521784 0.050417 0.06860894 -0.050833385 0.034484018 0.0517584 -0.015684273 -0.023973022
0.013523034 0.016889174 0.011587914 0.013917 0.09809014 -0.034557845 0.023525527 -0.018735405
0.039842136 -0.04568103 -0.013292735 -0.018245451 -0.09359521 -0.109011516 0.051918566 0.010292838
-0.08572925 0.010690641 0.016325828 0.05222176 0.041199483 0.010777816 -0.0014753941 -0.024288785
-0.04254871 -0.04857661 0.0028751013 -0.0052527823 0.017646682 0.040285066 0.07627212 0.10558906
-0.11284567 -0.17598413 -0.2056531 0.00018356067 0.00092506193 0.08735915 0.0031781385 0.019054925
-0.111689076 -0.03445963 -0.0066424888 0.02749885 1.9380927e-06 0.054388836 0.07897011 0.08385628
0.038024943 -0.061903656 0.082888074 0.043933515 0.11718161 0.009115292 0.04758192 0.07157938
-0.058908477 -0.107776 -0.13045311 0.11147554 0.11911769 0.094336696 0.12497544 0.1307191
0.24703981 -0.011349638 0.026617732 -0.05046252 -0.011951499 -0.008255903 -0.036134116 0.04612052
-0.0023381824 0.04061457 0.025751235 -0.044556197 -0.013051621 -0.046920735 0.07965754 -0.027428553
-0.0011655204 -0.06349443 0.0026454644 0.05704616 -0.0051584844 0.053406022 -0.02643581 -0.029554995
0.04351761 0.12769575 0.025260456 0.15299356 0.0015329773 -0.039134044 -0.07865331 0.029205564
-0.015842987 -0.021403676 0.0016607083 -0.060686193 -0.037833814 0.006779525 -0.040153198 0.007032545
-0.039208725 0.03428798 0.026806569 -0.03345565 0.047748107 0.049437024 -0.19564971 -0.16828819
-0.1275472 0.18330942 -0.047280613 -0.04810959 0.00048061844 -0.027539527 0.06539028 0.012070274
-0.0014692378 0.04569228 0.034872472 0.0148477 0.0586267 0.00936495 -0.034175903 -0.029912129
0.051113278 -0.018258164 0.088226624 0.051096648 0.004422812 0.013235245 0.062663324 0.029082116
0.023376944 -0.0052461633 0.006985566 0.009189739 -0.01084547 -0.06207268 -0.00082940166 0.0032296628
-0.05812238 -0.09136291 0.041909833 0.01226826 0.07569845 -0.06932035 0.021736918 0.023783356
-0.02450385 -0.024469417 0.06373064 0.017934678 0.021966683 0.033308335 -0.021309594 0.04783317
0.06554033 -0.00081282866 0.008245581 -0.025313035 -0.021991486 0.015370218 -0.0050086775 -0.026291544
0.028140882 0.0046911207 0.02967625 0.009813948 -0.0844252 -0.05501459 -0.07178833 -0.0008888176
0.004842611 -0.09138332 0.013344105 -0.05240851 0.015779186 0.022349179 -0.041975725 -0.05236972
0.04766486 -0.12613957 -0.117293745 -0.013328395 -0.006347821 -0.07792998 0.054513182 -0.023577362
00000000: 30a2 fdbc ef97 52bc e0d7 ad3d 6ffa d43d
00000010: 5dcd 143d 2958 d43b 5614 abbd 091e 55bd
00000020: bd3d 393d a087 1fbd 458b 403d 3767 473d
00000030: 5352 e6bd 8956 a4bd 59ca 603b 9e60 8d3d
00000040: 122b 20bc dc65 043d a66e 843c 9bc9 5abd
00000050: 6c9b f4bc bfc4 b3bd b48c 6a3d e1d7 913d
00000060: fba4 39bd 49c5 67bc 91cd e13c 095a 47bd
00000070: 7664 2cbc 0e68 8e3d 4b14 4c3b 0e88 113d
00000080: c4bb ed3c add0 96bd d024 96bd 19ec 33bd
00000090: 96ea a2bd 7986 dd3c 0db2 f6bb f8fe 843b
000000a0: 0e63 093d d7c1 a2bd 8010 e53c 0a6b a13d
000000b0: 2d73 dc3d fdbb 63bc c8f5 5f3c e1c8 8cbd
000000c0: 6426 8d3c 788c 7abd 81c7 86bd dbe2 9f3d
000000d0: 67c3 7f3d 44e3 0abd 5c92 b43c 76be 133d
000000e0: 9f3e b33d 0e82 4e3d d882 8c3d ab36 50bd
000000f0: 1d3f 0d3d 9e00 543d 4e7c 80bc 1263 c4bc
00000100: b78f 5d3c 2a5b 8a3c 3cdb 3d3c 2104 643c
00000110: 7ce3 c83d 878c 0dbd 9bb8 c03c fe7a 99bc
00000120: 8231 233d 081c 3bbd c6c9 59bc 7c77 95bc
00000130: d8ae bfbd 6e41 dfbd 90a8 543d 4ba3 283c
00000140: d192 afbd cc27 2f3c bebd 853c 7ce6 553d
00000150: cac0 283d 7095 303c 0362 c1ba 46f9 c6bc
00000160: 8e47 2ebd 44f8 46bd 326c 3c3b 881f acbb
00000170: c68f 903c f401 253d 8f34 9c3d 143f d83d
00000180: a11b e7bd 2f35 34be ba96 52be 317a 4039
00000190: db7f 723a 5be9 b23d 5148 503b 1319 9c3c
000001a0: 3ebd e4bd 8a25 0dbd 3ca9 d9bb 4545 e13c
000001b0: 2e10 0236 d4c6 5e3d 15bb a13d d7bc ab3d
000001c0: 0bc0 1b3d b08e 7dbd 39c1 a93d a1f3 333d
000001d0: e9fc ef3d 4e58 153c 42e5 423d 3698 923d
000001e0: 044a 71bd aab9 dcbd 8095 05be 4a4d e43d
000001f0: faf3 f33d 9933 c13d 20f3 ff3d 3adb 053e
00000200: 01f8 7c3e d5f3 39bc 6e0d da3c cab1 4ebd
00000210: 38d0 43bc c443 07bc 5e01 14bd dfe8 3c3d
00000220: 313c 19bb 775b 263d 41f4 d23c 8f80 36bd
00000230: 77d6 55bc f52f 40bd 7e23 a33d d8b1 e0bc
00000240: 60c4 98ba 5e09 82bd 875f 2d3b 3ca9 693d
00000250: 8108 a9bb 46c0 5a3d e98f d8bc 511d f2bc
00000260: 853f 323d adc2 023e 04ef ce3c 58aa 1c3e
00000270: 2fee c83a 054b 20bd fd14 a1bd 8240 ef3c
00000280: 27c9 81bc c356 afbc 20ac d93a 1692 78bd
00000290: a1f7 1abd c726 de3b ae77 24bd 4371 e63b
000002a0: 5499 20bd 8e71 0c3d 7399 db3c cb08 09bd
000002b0: 8593 433d 7a7e 4a3d 6658 48be bd53 2cbe
000002c0: bc9b 02be 77b5 3b3e 51a9 41bd 900e 45bd
000002d0: 84fb fb39 939a e1bc 57eb 853d 66c2 453c
000002e0: 7193 c0ba d427 3b3d 70d6 0e3d c443 733c
000002f0: 8d22 703d 726f 193c 08fc 0bbd 480a f5bc
00000300: 285c 513d 2592 95bc 29b0 b43d b84a 513d
00000310: 3ced 903b a4d8 583c a155 803d 9e3d ee3c
00000320: 0181 bf3c 02e8 abbb 2de7 e43b 8f90 163c
00000330: 33b1 31bc ec3f 7ebd 346c 59ba c0a8 533b
00000340: bc11 6ebd 7a1c bbbd a5a9 2b3d d000 493c
00000350: ca07 9b3d d4f7 8dbd 9f11 b23c 50d5 c23c
00000360: 4cbc c8bc 1674 c8bc 3685 823d bfeb 923c
00000370: 79f3 b33c 526e 083d 7591 aebc b7ec 433d
00000380: 023a 863d 0214 55ba 7918 073c 485d cfbc
00000390: 7d27 b4bc 5ed3 7b3c d51f a4bb 5d61 d7bc
000003a0: b587 e63c f9b7 993b 9b1b f33c aeca 203c
000003b0: 1fe7 acbd fb56 61bd c305 93bd 8aff 68ba
000003c0: c4ae 9e3b 2e27 bbbd 3ca1 5a3c 4eaa 56bd
000003d0: 5a43 813c a015 b73c bdee 2bbd a281 56bd
000003e0: 3a3c 433d bb2a 01be b437 f0bd 575f 5abc
000003f0: 6201 d0bb c199 9fbd 3749 5f3d 5025 c1bc

conv2.bias f4 [128]
0.046908468 -0.030973855 0.02044389 -0.0057265675 -0.063418284 -0.019578988 0.038182486 0.0042586643
-0.04057232 0.04373775 0.07484611 -0.042527236 -0.07667935 0.06498906 -0.015397757 0.03856709
0.06583464 -0.10621146 -0.041014247 -0.07753341 -0.08655834 0.07673489 -0.019462574 0.04030157
-0.060743995 0.035121657 0.024335342 0.054972146 0.017398365 -0.035126027 -0.016854897 0.033936452
0.048592877 0.018642273 0.033438276 -0.0786626 0.046609122 -0.0077436417 0.043382708 0.05111649
-0.033578087 -0.015922943 0.030136827 0.032074038 0.0507698 -0.02342117 -0.083045974 -0.05891769
-0.002973498 0.0399703 0.060501743 -0.096215405 -0.0037322887 0.05151771 0.040842816 0.007776722
-0.063897185 0.023895394 0.015512886 -0.031466298 -0.12041467 0.05567449 0.06962137 -0.02316812
-0.09448856 0.018362544 0.024036042 -0.026937101 0.062338877 -0.077885546 -0.0015880759 -0.09501111
-0.090883754 0.051406603 -0.03564621 -0.018931085 -0.035770506 0.030948702 0.037993494 0.033866856
-0.035430145 -0.06375863 -0.07614068 0.0013434254 0.0031012062 -0.0328152 -0.013413284 0.034184437
-0.07671659 -0.055113796 -0.028208306 -0.010619065 0.04183516 -0.031630483 0.016895227 0.050687447
-0.014307107 0.08090459 0.09157731 0.067535095 0.052287325 0.07834965 0.059608236 -0.040236644
-0.032517176 -0.065476485 0.029347794 0.0014503415 0.08152865 -0.07076685 -0.060417518 -0.024480278
-0.019664997 0.059796445 -0.05380176 -0.011377958 0.04945674 -0.11326288 0.0776878 0.0004580176
-0.024796646 0.059573397 -0.020022053 0.076753825 0.062085927 -0.06453737 -0.08905402 0.014681138
00000000: 1823 403d e2bc fdbc f279 a73c eea5 bbbb
00000010: 72e1 81bd 1d64 a0bc 3d65 1c3d 448c 8b3b
00000020: 292f 26bd 5b26 333d eb48 993d 0a31 2ebd
00000030: 100a 9dbd fc18 853d e046 7cbc 86f8 1d3d
00000040: 50d4 863d 6585 d9bd 8efe 27bd d6c9 9ebd
00000050: 8045 b1bd 2f27 9d3d fa6f 9fbc 4213 253d
00000060: b2ce 78bd badb 0f3d e95a c73c 792a 613d
00000070: 0487 8e3c 4fe0 0fbd 4813 8abc f300 0b3d
00000080: 5309 473d aeb7 983c 93f6 083d db19 a1bd
00000090: 35e9 3e3d 60be fdbb 11b2 313d 865f 513d
000000a0: 2d89 09bd d570 82bc 82e1 f63c 1160 033d
000000b0: fef3 4f3d c1dd bfbc 0214 aabd ad53 71bd
000000c0: 05df 42bb e6b7 233d add0 773d 950c c5bd
000000d0: 6a99 74bb 3c04 533d cc4a 273d dfd3 fe3b
000000e0: 87dc 82bd 46c0 c33c c329 7e3c cee2 00bd
000000f0: f79b f6bd ef0a 643d a695 8e3d 12cb bdbc
00000100: 3883 c1bd 0c6d 963c 3ce7 c43c 32ab dcbc
00000110: 0d57 7f3d 7582 9fbd fc26 d0ba 2f95 c2bd
00000120: 4321 babd bb8f 523d c301 12bd 5d15 9bbc
00000130: 1884 12bd 2288 fd3c 119f 1b3d f9b7 0a3d
00000140: 331f 11bd e293 82bd a5ef 9bbd e015 b03a
00000150: 9b3d 4b3b 3b69 06bd 64c3 5bbc fb04 0c3d
00000160: 961d 9dbd 01bf 61bd 1b15 e7bc 96fb 2dbc
00000170: 585b 2b3d f78e 01bd dc67 8a3c a49d 4f3d
00000180: 5b68 6abc 4eb1 a53d e28c bb3d d74f 8a3d
00000190: 3c2b 563d c875 a03d c427 743d 2ecf 24bd
000001a0: bb30 05bd 8918 86bd c96a f03c 6319 be3a
000001b0: 7ef8 a63d 36ee 90bd 5c78 77bd dd8a c8bc
000001c0: 7d18 a1bc 1eed 743d 3c5f 5cbd 9d6a 3abc
000001d0: 2793 4a3d 5ef6 e7bd c81a 9f3d 1522 f039
000001e0: 5622 cbbc 3c03 743d 4a05 a4bc 1c31 9d3d
000001f0: d04d 7e3d 2b2c 84bd f461 b6bd 2889 703c

lstm.weight_ih_l0 f4 [256, 128]
0.14463882 0.19483358 -0.086270995 0.09260653 -0.096225485 0.045698624 0.03334083 -0.03154856
-0.09904761 0.0053780205 0.110637665 -0.110278085 0.05529054 0.032371867 -0.0076180757 0.018833946
0.06339179 -0.115298815 0.0026282968 -0.03718779 0.17903182 0.09781991 -0.06597199 -0.015783083
-0.053146157 0.07017988 -0.08766153 0.081114024 0.09990953 -0.07401956 -0.020788338 -0.06253811
-0.08861648 0.10146386 0.113175385 -0.074328005 0.10278188 0.115841374 -0.15776907 -0.056243565
0.021751137 0.0064779064 0.04880019 -0.017583095 0.07875348 0.17264469 0.21423692 -0.002418154
-0.06444922 -0.08938325 -0.16830197 0.14367826 -0.08773081 -0.005206075 0.116494864 0.057400156
0.18289529 0.13502373 0.08523953 0.15179577 0.014404658 0.08198993 -0.10055547 0.14239053
0.07399465 0.13688871 0.15852267 0.0595251 0.1654256 -0.014542766 0.042234663 0.01930929
-0.013970058 0.17361912 -0.041883644 0.04259036 -0.014469163 0.08221891 0.17537211 0.06224366
0.076852016 0.12822928 0.11782197 0.08353641 -0.11112724 0.11836415 0.045866195 0.116523035
-0.06846479 0.026849682 0.14604285 0.10654788 0.0063996227 0.109267145 -0.08740156 -0.012902984
0.017212834 -0.092397414 -0.028813396 0.03931373 -0.024211202 -0.044910252 0.104224294 0.16495349
0.13533582 -0.05220667 -0.06805298 -0.04936389 -0.031156832 0.062501475 -0.1402286 -0.026075698
0.025007904 -0.021089904 -0.048265584 0.028536106 -0.010795772 0.13279448 -0.02890956 0.029816506
-0.09820522 0.024684753 0.1652215 -0.11185245 0.04576101 -0.042882696 -0.07860594 0.057292413
0.15099563 0.041480806 -0.046498694 0.16896717 0.018728284 0.08918824 0.19527206 -0.042378597
0.17318498 0.13090642 0.09099926 0.22133279 0.019659495 0.06865684 0.16938138 -0.008637839
-0.016143207 -0.027535036 -0.032497145 -0.036691923 0.022256637 0.16435868 0.030709395 0.076432124
0.13299014 -0.027991144 -0.12950656 0.084863015 0.082802996 -0.034814864 0.08932708 0.004582652
0.008210523 -0.02218091 0.12123422 0.07386599 0.07526152 0.120519616 0.12840831 0.046137225
-0.0074715777 0.05991321 0.08178774 0.057208817 0.066203006 0.013692988 0.2230012 -0.0014016277
-0.0056647775 0.08011401 -0.15239578 0.14190754 -0.02671618 0.018845543 0.11597922 -0.2542922
0.10345446 0.20504649 0.10232221 0.059139237 0.0141208535 0.09133891 0.17634284 0.027753208
0.11837397 0.09853758 0.00687598 0.12832214 0.25303105 0.07359252 -0.06348204 0.07061998
0.0089128055 -0.03570662 -0.0398683 0.0019757096 -0.015330715 -0.095468245 0.21765451 -0.05088698
0.17369792 0.26298484 0.16102777 -0.13795751 -0.04684885 0.07062713 0.020484112 0.12592012
-0.092067584 0.0042629708 0.001214102 0.12611066 -0.1835611 -0.008189543 -0.008338116 0.04683757
0.0055478085 -0.15493323 0.23165433 -0.1779058 0.050179128 -0.027187577 0.04758357 0.08793789
0.21711825 0.27451226 0.129344 0.07725857 0.060949158 -0.0015213016 -0.12093433 0.1508508
0.08560682 -0.046477016 0.105807744 0.13705292 -0.003978713 0.12834065 -0.20109911 -0.009739834
0.08046203 -0.07857989 0.07264959 0.074786335 0.18531762 -0.046368662 -0.083901376 0.1617219
00000000: 331c 143e 7482 473e d9ae b0bd 7ea8 bd3d
00000010: de11 c5bd 7b2e 3b3d 6590 083d 1039 01bd
00000020: 79d9 cabd 1b3a b03b 0096 e23d 7ad9 e1bd
00000030: 5578 623d 5d98 043d 0da1 f9bb a649 9a3c
00000040: 8ed3 813d c921 ecbd 813f 2c3b 3952 18bd
00000050: 1e54 373e ce55 c83d 531c 87bd 864b 81bc
00000060: c9af 59bd 78ba 8f3d e387 b3bd 1c1f a63d
00000070: 5e9d cc3d 9197 97bd 4e4c aabc fb13 80bd
00000080: 8f7c b5bd 49cc cf3d 7fc8 e73d 4839 98bd
00000090: 4e7f d23d 3e3e ed3d 378e 21be a75f 66bd
000000a0: 712f b23c 9e44 d43b b5e2 473d 6c0a 90bc
000000b0: 8149 a13d c5c9 303e ec60 5b3e e479 1ebb
000000c0: f4fd 83bd 910e b7bd 5a57 2cbe 6520 133e
000000d0: 36ac b3bd b997 aabb dc94 ee3d 6d1c 6b3d
000000e0: e748 3b3e a943 0a3e 1092 ae3d 5a70 1b3e
000000f0: 8401 6c3c 56ea a73d 07f0 cdbd d3ce 113e
00000100: 828a 973d 8e2c 0c3e c453 223e 97d0 733d
00000110: 5465 293e c844 6ebc 41fe 2c3d 842e 9e3c
00000120: ace2 64bc 36c9 313e 2f8e 2bbd 3b73 2e3d
00000130: 1110 6dbc 6362 a83d bf94 333e 35f3 7e3d
00000140: 9764 9d3d 894e 033e a54c f13d 2315 ab3d
00000150: ae96 e3bd e768 f23d 31de 3b3d a1a3 ee3d
00000160: 4537 8cbd ddf3 db3c 428c 153e c635 da3d
00000170: edb3 d13b 74c7 df3d 97ff b2bd 0a67 53bc
00000180: ee01 8d3c db3a bdbd 120a ecbc 6f07 213d
00000190: 9256 c6bc d0f3 37bd 8c73 d53d 91e9 283e
000001a0: 7995 0a3e a9d6 55bd 5c5f 8bbd ca31 4abd
000001b0: 9d3c ffbc c600 803d 1698 0fbe b49c d5bc
000001c0: 60dd cc3c bcc4 acbc 22b2 45bd 8dc4 e93c
000001d0: c0e0 30bc 47fb 073e bed3 ecbc bf41 f43c
000001e0: d21f c9bd ae37 ca3c d32f 293e e612 e5bd
000001f0: e66f 3b3d c4a5 2fbd 27fc a0bd 73ab 6a3d
00000200: 999e 1a3e c7e7 293d 6a75 3ebd bb05 2d3e
00000210: 0f6c 993c 53a8 b63d 66f5 473e 2e95 2dbd
00000220: 6757 313e 550c 063e d25d ba3d 10a5 623e
00000230: f30c a13c f59b 8c3d 5072 2d3e b985 0dbc
00000240: c23e 84bc 2891 e1bc ba1b 05bd 454a 16bd
00000250: 8d53 b63c a44d 283e 4592 fb3c 7288 9c3d
00000260: 912e 083e af4d e5bc 5e9d 04be a9cc ad3d
00000270: 9e94 a93d 089a 0ebd 1ef1 b63d 122a 963b
00000280: 6e85 063c bdb4 b5bc a649 f83d 0d47 973d
00000290: b622 9a3d fdd2 f63d 787d 033e 63fa 3c3d
000002a0: 23d4 f4bb 8e67 753d 5580 a73d cb53 6a3d
000002b0: 7195 873d 8e58 603c 6d5a 643e d2b6 b7ba
000002c0: 999f b9bb d012 a43d a40d 1cbe 3650 113e
000002d0: e4db dabc f861 9a3c 8386 ed3d 9632 82be
000002e0: efdf d33d b5f7 513e 4f8e d13d fc3b 723d
000002f0: 275b 673c e50f bb3d 3893 343e b25a e33c
00000300: 0d6e f23d 12ce c93d e74f e13b e166 033e
00000310: 498d 813e adb7 963d df02 82bd 35a1 903d
00000320: 0407 123c 1b41 12bd f14c 23bd e87a 013b
00000330: ae2d 7bbc db84 c3bd d3e0 5e3e de6e 50bd
00000340: dedd 313e f3a5 863e 77e4 243e bc44 0dbe
00000350: 94e4 3fbd f5a4 903d 4cce a73c 34f1 003e
00000360: ee8d bcbd 64b0 8b3b 8122 9f3a 2723 013e
00000370: 71f7 3bbe 6f2d 06bc 989c 08bc c0d8 3f3d
00000380: 64ca b53b d1a6 1ebe cb36 6d3e f02c 36be
00000390: a188 4d3d 7bb8 debc fde6 423d c818 b43d
000003a0: 3f54 5e3e df8c 8c3e c172 043e be39 9e3d
000003b0: d3a5 793d 6966 c7ba 6bac f7bd a278 1a3e
000003c0: a152 af3d af5e 3ebd bbb1 d83d 9a57 0c3e
000003d0: dd5f 82bb bb6b 033e edec 4dbe d393 1fbc
000003e0: 47c9 a43d 7eee a0bd 4fc9 943d 9429 993d
000003f0: e7c3 3d3e 11ed 3dbd 7cd4 abbd 6d9a 253e

lstm.weight_hh_l0 f4 [256, 64]
0.13432674 -0.019816766 0.051207073 0.00093164505 0.026068984 -0.09159999 -0.12731971 0.095704906
0.060194194 0.049764458 0.1420842 0.12684374 0.045497995 0.05572364 -0.16992936 -0.09425781
-0.027207198 -0.0150767155 0.08833808 0.0027279914 0.013492838 -0.0173583 -0.06351301 0.060670942
-0.013424972 -0.1989379 -0.03278704 0.1489601 0.021527937 0.21116644 -0.037183527 -0.15295245
-0.061381947 -0.15973511 -0.021281226 0.08561731 -0.014561345 -0.17611276 -0.023307526 -0.003032021
-0.13088696 0.06218274 -0.110818736 0.014456494 -0.0125609115 -0.110483415 0.10746846 0.10375411
-0.13517226 0.2146885 0.011968394 -0.052208837 0.028236832 0.07695489 -0.0049785916 -0.054023437
0.15820447 0.13087374 -0.050568514 -0.09091961 -0.07218072 -0.12094056 -0.11034796 0.07249871
-0.0604027 -0.08825015 -0.0058853766 -0.025659593 0.056281194 -0.076249704 -0.15192449 0.2100798
0.026133144 0.22268209 0.12380903 -0.055754937 -0.010418954 -0.09205066 0.08936828 0.046504207
0.03131554 0.21579792 0.009864141 -0.13935828 -0.0470189 0.13829614 0.0252347 0.041835688
0.049948912 -0.091114 0.085756 0.10403647 0.098995365 0.05921467 0.10864847 0.13810347
0.021467457 0.114913255 -0.011707812 0.104809016 -0.077814646 -0.017796544 0.026756216 0.10733497
0.021898337 0.0060984264 -0.029010382 0.07997658 -0.010186535 0.054362353 -0.056494027 0.17495774
-0.10278596 0.025805306 -0.11546555 -0.022455228 0.14705634 -0.116145976 0.23688231 0.059132174
-0.019779958 0.054324444 -0.21865557 -0.017105369 -0.025855275 0.1128414 0.13596767 -0.15478308
-0.08002937 -0.077865385 -0.07336809 0.07667943 -0.031902153 0.09459268 -0.13704674 0.02795674
0.13232516 0.065574154 0.25135508 -0.008860735 0.018822843 0.035450634 -0.07788242 0.15947635
0.07409485 -0.024516655 -0.06690788 -0.049890395 -0.010048768 0.08830725 -0.05179426 0.0089329
0.148765 -0.10105871 -0.04359374 0.027828762 0.088613905 -0.0040146667 -0.16610241 -0.13568565
-0.023689706 -0.04975822 -0.21639822 -0.1249567 0.0672841 0.01259337 -0.00657333 0.030087508
0.032003243 -0.12116235 0.20885707 0.01926793 0.064696655 -0.21286228 0.0071630212 0.027368754
-0.10088389 0.14703247 -0.15930511 -0.027734831 -0.10512418 -0.11423455 0.15409657 -0.030595304
0.08852027 0.13072267 0.09477815 -0.08861161 -0.056554586 0.085518256 0.09755012 0.021457044
-0.056184478 0.009452706 0.10109889 0.103342816 -0.10701062 -0.19467214 -0.06482165 -0.039972056
-0.10127643 0.10648129 0.19165228 0.0826683 -0.027654687 -0.14029218 -0.03786804 0.104132056
0.028620567 -0.0046117646 -0.083862305 -0.075218774 -0.07058295 -0.06327795 -0.13108863 0.11851046
0.08018633 -0.08379256 0.0658709 -0.09057247 -0.039126333 0.01809352 -0.02030562 0.057565246
-0.095033504 0.12953499 -0.18721071 -0.08059625 -0.04394189 0.18107943 -0.015562381 0.24282072
-0.032094624 -0.090316564 -0.06147095 -0.10379512 0.09846571 0.07345455 0.020664256 0.05668242
-0.021937165 0.02819062 0.01934024 -0.053174343 -0.030427711 -0.1109597 0.10528157 0.18976773
-0.03206856 0.011879446 0.0085586505 0.05539581 -0.26645598 0.0635791 0.08412647 -0.09749641
00000000: f38c 093e c556 a2bc 82be 513d a439 743a
00000010: 9f8e d53c c798 bbbd 1960 02be ef00 c43d
00000020: 308e 763d d1d5 4b3d 857e 113e 53e3 013e
00000030: 1b5c 3a3d 793e 643d f601 2ebe 3d0a c1bd
00000040: a1e1 debc 5404 77bc 98ea b43d 1ac8 323b
00000050: 1011 5d3c fe32 8ebc 1c13 82bd 1882 783d
00000060: 6af4 5bbc 60b6 4bbe b44b 06bd ff88 183e
00000070: 5b5b b03c 043c 583e c14d 18bd 919f 1cbe
00000080: a36b 7bbd 9a91 23be f755 aebc 2158 af3d
00000090: b592 6ebc e756 34be 6def bebc dfb4 46bb
000000a0: 3b07 06be 54b3 7e3d eff4 e2bd eeda 6c3c
000000b0: 48cc 4dbc 2145 e2bd 6d18 dc3d 097d d43d
000000c0: 996a 0abe 4dd7 5b3e 1517 443c efd8 55bd
000000d0: ee50 e73c 869a 9d3d 7423 a3bb ae47 5dbd
000000e0: 5a00 223e c403 063e ee20 4fbd 0f34 babd
000000f0: 7cd3 93bd afaf f7bd 1cfe e1bd 347a 943d
00000100: d268 77bd 7fbc b4bd 1eda c0bb 1134 d2bc
00000110: 1c87 663d ce28 9cbd 1892 1bbe 291f 573e
00000120: 2d15 d63c c606 643e 978f fd3d 4a5f 64bd
00000130: 43b4 2abc 0e85 bcbd b706 b73d 327b 3e3d
00000140: b944 003d 21fa 5c3e 359d 213c f0b3 0ebe
00000150: e496 40bd 819d 0d3e 00b9 ce3c e65b 2b3d
00000160: 3b97 4c3d fa99 babd d7a0 af3d 1311 d53d
00000170: 15be ca3d 158b 723d 1783 de3d ff6a 0d3e
00000180: 85dc af3c a457 eb3d 1fd2 3fbc 1ca6 d63d
00000190: 495d 9fbd 0fca 91bc da2f db3c 70d2 db3d
000001a0: 2464 b33c 4fd5 c73b 2ea7 edbc c3ca a33d
000001b0: 6de5 26bc 0fab 5e3d 4866 67bd 1f28 333e
000001c0: 7281 d2bd a665 d33c 3479 ecbd 07f4 b7bc
000001d0: f095 163e f1dd edbd 4791 723e 9434 723d
000001e0: 9409 a2bc 4f83 5e3d 3fe7 5fbe 8f20 8cbc
000001f0: 71ce d3bc 6419 e73d 1c3b 0b3e 757f 1ebe
00000200: 70e6 a3bd e377 9fbd 0242 96bd 1b0a 9d3d
00000210: d5ab 02bd cfb9 c13d fb55 0cbe 8905 e53c
00000220: 3f80 073e be4b 863d 9db1 803e 9e2c 11bc
00000230: 5d32 9a3c af34 113d d180 9fbd c54d 233e
00000240: 0abf 973d 27d7 c8bc 0007 89bd df59 4cbd
00000250: 96a3 24bc 6eda b43d 3826 54bd 4c5b 123c
00000260: da55 183e def7 cebd 598f 32bd 25f9 e33c
00000270: 357b b53d 778d 83bb c016 2abe 2ef1 0abe
00000280: ea10 c2bc 46cf 4bbd 7f97 5dbe 4ce9 ffbd
00000290: 3fcc 893d 6c54 4e3c 1765 d7bb 147a f63c
000002a0: d515 033d f723 f8bd a1de 553e c7d7 9d3c
000002b0: ae7f 843d 92f8 59be c7b7 ea3b 7034 e03c
000002c0: 379c cebd ae8f 163e e120 23be 2834 e3bc
000002d0: 594b d7bd cef3 e9bd 7ecb 1d3e 01a3 fabc
000002e0: 1e4a b53d 2adc 053e 0c1b c23d 017a b5bd
000002f0: c8a5 67bd 3224 af3d 5bc8 c73d afc6 af3c
00000300: b221 66bd 86df 1a3c ef0c cf3d 66a5 d33d
00000310: 6228 dbbd 2258 47be 37c1 84bd bdb9 23bd
00000320: 046a cfbd dd12 da3d 7f40 443e ff4d a93d
00000330: 158c e2bc c1a8 0fbe 851b 1bbd 3043 d53d
00000340: ae75 ea3c 491e 97bb 00c0 abbd 4d0c 9abd
00000350: cb8d 90bd df97 81bd 193c 06be 9db5 f23d
00000360: bb38 a43d 6f9b abbd 53e7 863d 0f7e b9bd
00000370: ef42 20bd dd38 943c f957 a6bc 89c9 6b3d
00000380: eda0 c2bd d2a4 043e 2ab4 3fbe a60f a5bd
00000390: 69fc 33bd e36c 393e 5bf9 7ebc ffa5 783e
000003a0: a775 03bd e4f7 b8bd f6c8 7bbd 8992 d4bd
000003b0: 64a8 c93d 576f 963d 1648 a93c d32b 683d
000003c0: 92b5 b3bc 04f0 e63c 6c6f 9e3c 57cd 59bd
000003d0: 8943 f9bc d73e e3bd dd9d d73d 7952 423e
000003e0: 535a 03bd 02a2 423c 9539 0c3c b8e6 623d
000003f0: eb6c 88be c235 823d 804a ac3d 33ac c7bd

lstm.bias_ih_l0 f4 [256]
0.0121786 0.04962399 -0.006664514 -0.081703395 -0.08291819 -0.05548119 0.108984806 0.10355587
0.11810733 -0.07550112 0.25036663 -0.018257009 0.046326544 0.11128063 -0.05129528 -0.033166118
-0.07637997 0.0564605 0.047939822 -0.0074911644 0.032322966 -0.016343562 -0.12088789 0.05012415
-0.0031960742 -0.13012801 -0.018157315 -0.078367546 0.10927629 0.26824826 0.0027656704 0.08131254
-0.054366823 0.07743405 -0.08338114 -0.058605585 -0.043299228 0.061225083 0.052807804 0.0391614
0.13868898 0.17236306 0.036951493 0.11005984 0.07078035 0.029318726 0.11214831 0.10283199
0.0022328906 -0.07356036 -0.0864345 0.117456876 -0.105752245 0.119901404 -0.02003779 0.062897
0.13678114 0.03629736 -0.012751026 0.011759225 0.070102535 0.17638741 0.15395012 0.024420545
-0.1347809 0.04278279 -0.08883949 -0.0020545367 -0.116077274 0.05297767 -0.08873853 0.08296988
0.10254745 -0.06077126 -0.029012218 -0.030686488 0.06303223 0.046135917 0.05385399 3.8444476e-05
-0.064959854 -0.067585245 0.11425205 -0.11798288 -0.08587851 -0.06990685 -0.12628318 0.11185169
0.12628363 0.0031649072 0.109325185 0.07164569 0.08139852 0.045616496 -0.15306556 -0.0752523
-0.113554776 0.047482442 -0.10860963 -0.08902354 -0.11824948 -0.005710576 0.037446603 -0.015784055
0.09184505 -0.083845176 -0.08336833 0.057570048 0.06810832 0.022623075 0.03238074 -0.10591296
-0.01702048 -0.024140961 0.015927687 -0.029081661 0.05987386 -0.00629695 -0.06964044 0.036574885
0.046430044 0.04963325 -9.6397e-05 -0.0251443 -0.003210569 0.07316718 -0.06646752 -0.039881326
-0.048411947 0.013903424 0.07701096 0.0058545507 -0.10712701 0.047765274 -0.003415709 -0.020136416
0.03236497 -0.10446534 0.0054422813 -0.051334422 0.018753456 0.16156285 -0.092399575 -0.102977425
-0.040973082 0.042490337 0.09935466 0.06649572 0.05998828 -0.07358721 0.156193 -0.00016800279
-0.07445616 0.046305295 -0.10151951 0.038327567 -0.024157187 0.07306754 -0.0017458583 -0.10560196
-0.11235103 -0.016808394 0.02426232 0.047981963 0.08752642 -0.09069104 0.0014768789 0.038426705
-0.11233145 -0.05735838 0.034640234 0.015409311 -0.06948034 0.04773857 -0.0431676 -0.08269036
-0.011857269 0.12940004 -0.11415576 -0.06683193 -0.097794004 0.14453343 -0.10073253 0.006897008
0.097809404 -0.07730383 0.035254665 -0.11170427 -0.012335365 0.020883149 -0.0040056366 0.13490582
0.045161955 -0.052784294 -0.015810348 0.11404722 -0.02038758 0.08978738 -0.03540887 0.10274299
0.08149007 0.0044504893 -0.04194604 0.060897257 0.1083976 -0.10762803 0.1471095 0.06539013
-0.07017791 0.0536252 -0.050914474 -0.05537462 0.0071250694 -0.06564203 -0.017597456 0.07264153
0.025096258 -0.04735051 0.22588632 0.10282672 -0.04201563 -0.025643317 0.056876563 0.07384302
0.033695154 0.13736732 -0.031535313 0.015234453 0.018395405 0.1698013 -0.06068989 0.033601373
0.04943035 0.053445697 0.026885021 0.046482686 0.0944892 -0.088999294 0.011549036 -0.007789372
0.12978566 0.008603687 -0.13680571 0.097347975 -0.05580038 -0.07242017 0.18511537 -0.021228056
-0.0798927 0.094408326 -0.06428406 -0.017456999 -0.007905446 -0.043248832 0.082595155 -0.022270013
00000000: c088 473c 8642 4b3d ff61 dabb 1c54 a7bd
00000010: 03d1 a9bd 3f40 63bd 6d33 df3d 1a15 d43d
00000020: 41e2 f13d 55a0 9abd 0e30 803e b98f 95bc
00000030: e7c0 3d3d 19e7 e33d 001b 52bd 32d9 07bd
00000040: 1a6d 9cbd 2043 673d 8c5c 443d 7178 f5bb
00000050: 1665 043d efe2 85bc 1294 f7bd fb4e 4d3d
00000060: 3a75 51bb 4740 05be a6be 94bc 2a7f a0bd
00000070: 3fcc df3d d657 893e 4040 353b 3087 a63d
00000080: bfaf 5ebd be95 9e3d bbc3 aabd 690c 70bd
00000090: 885a 31bd 27c7 7a3d ff4c 583d b467 203d
000000a0: 7c04 0e3e f17f 303e 735a 173d 0e67 e13d
000000b0: 4af5 903d d32d f03c 03ae e53d 9499 d23d
000000c0: b055 123b d0a6 96bd 9204 b1bd 3b8d f03d
000000d0: a294 d8bd de8e f53d 4b26 a4bc 24d0 803d
000000e0: 5b10 0c3e 8aac 143d aee9 50bc c4a9 403c
000000f0: eb91 8f3d e79e 343e 1aa5 1d3e 980d c83c
00000100: 0104 0abe 023d 2f3d 7bf1 b5bd 68a5 06bb
00000110: ecb9 edbd 1dff 583d 8cbc b5bd 1dec a93d
00000120: 6604 d23d 49eb 78bd 08ab edbc 3b62 fbbc
00000130: 0b17 813d 04f9 3c3d 0096 5c3d 713f 2138
00000140: ac09 85bd 226a 8abd fbfc e93d 02a1 f1bd
00000150: 12e1 afbd 532b 8fbd 6150 01be 8012 e53d
00000160: 7f50 013e 556a 4f3b e2e5 df3d faba 923d
00000170: 44b4 a63d 5dd8 3a3d 38bd 1cbe e11d 9abd
00000180: 688f e8bd f37c 423d ba6e debd f951 b6bd
00000190: c92c f2bd c91f bbbb 9c61 193d 904d 81bc
000001a0: 4219 bc3d 05b7 abbd 04bd aabd 92ce 6b3d
000001b0: 607c 8b3d 0754 b93c aba1 043d e5e8 d8bd
000001c0: 896e 8bbc 44c3 c5bc c87a 823c aa3c eebc
000001d0: 4b3e 753d a556 cebb a69f 8ebd 8ccf 153d
000001e0: 6e2d 3e3d 3c4c 4b3d bf28 cab8 6bfb cdbc
000001f0: 6968 52bb add8 953d 2020 88bd 9a5a 23bd
00000200: 9b4b 46bd 30cb 633c ecb7 9d3d 88d7 bf3b
00000210: 6865 dbbd 85a5 433d 16da 5fbb 20f5 a4bc
00000220: 2191 043d edf1 d5bd 2a55 b23b 0b44 52bd
00000230: d9a0 993c bb70 253e fd3b bdbd d4e5 d2bd
00000240: 64d3 27bd 590a 2e3d 757a cb3d e82e 883d
00000250: 45b6 753d e4b4 96bd 0ff1 1f3e e829 30b9
00000260: 797c 98bd 9faa 3d3d 76e9 cfbd 5efd 1c3d
00000270: 4be5 c5bc 6fa4 953d 49d5 e4ba d745 d8bd
00000280: 4c18 e6bd c2b1 89bc c6c1 c63c bc88 443d
00000290: 0d41 b33d 39bc b9bd d593 c13a 5265 1d3d
000002a0: 080e e6bd 9ff0 6abd ebe2 0d3d 5677 7c3c
000002b0: b54b 8ebd 8589 433d 82d0 30bd 9059 a9bd
000002c0: fe44 42bc 7281 043e 7fca e9bd 2edf 88bd
000002d0: 3948 c8bd 9200 143e db4c cebd 4c00 e23b
000002e0: 4c50 c83d 7851 9ebd 3267 103d 35c5 e4bd
000002f0: 451a 4abc 2313 ab3c b741 83bb c024 0a3e
00000300: befb 383d 5834 58bd b484 81bc 9791 e93d
00000310: db03 a7bc 72e2 b73d e408 11bd eb6a d23d
00000320: 44e4 a63d 69d5 913b 9ccf 2bbd 676f 793d
00000330: 90ff dd3d 166c dcbd dfa3 163e 43eb 853d
00000340: 70b9 8fbd 19a6 5b3d b28b 50bd 7fd0 62bd
00000350: 6a79 e93b 546f 86bd 8a28 90bc 15c5 943d
00000360: ab96 cd3c 9cf2 41bd be4e 673e d196 d23d
00000370: 9518 2cbd ef11 d2bc 66f7 683d 023b 973d
00000380: ee03 0a3d 05aa 0c3e 2c2b 01bd ed99 793c
00000390: f6b1 963c 64e0 2d3e f695 78bd 98a1 093d
000003a0: 7b77 4a3d e0e9 5a3d fa3d dc3c a164 3e3d
000003b0: 8e83 c13d 4345 b6bd 2b38 3d3c fd3d ffbb
000003c0: 88e6 043e 7bf6 0c3c cc16 0cbe 605e c73d
000003d0: f08e 64bd 0751 94bd e28e 3d3e 76e6 adbc
000003e0: c99e a3bd 2759 c13d 5ca7 83bd fb01 8fbc
000003f0: d885 01bc b025 31bd a627 a93d 9a6f b6bc

lstm.bias_hh_l0 f4 [256]
0.00023916576 -0.009780878 -0.08792288 0.106484644 0.0040350663 -0.067536674 0.12438503 0.067820154
0.080631174 -0.11570406 0.18761925 0.014544854 -0.03319603 0.068021335 0.049007356 0.030190926
-0.11817852 -0.13746321 -0.07987057 0.06832194 0.036536302 0.11698451 -0.13842215 0.034232177
-0.024230184 0.045261964 0.10514774 0.0540423 0.12233657 0.2842023 0.08591937 0.052314967
-0.06058014 -0.086338036 -0.057849888 -0.05151922 0.105180375 -0.108929895 -0.004123925 0.13286726
0.08654118 0.104156055 0.14542332 -0.05326667 -0.001773785 0.1232709 0.0952285 -0.03466301
-0.08756534 -0.030449567 0.017429465 0.06359262 -0.12614954 0.004160551 0.11555794 -0.034596555
0.040113315 0.0009931456 -0.01877638 0.052897166 0.026630657 0.06880843 0.16697146 0.06554869
0.013397201 0.12297027 0.0007836727 0.0410262 -0.0098301405 0.09305245 -0.035587538 0.01877602
0.15429637 0.00874392 0.036287017 -0.023175118 0.028550388 -0.07502895 0.040529422 -0.106224224
0.026331766 -0.06257532 -0.074578494 0.046312768 0.017486159 0.048339803 -0.12143019 0.047686383
0.017191375 0.05876252 0.076877505 -0.08966537 0.05747854 0.052028917 -0.007195743 -0.09238193
-0.0022427482 0.022963364 0.009235889 -0.115396164 -0.10263525 -0.044955153 -0.01656036 -0.11019635
0.11385606 -0.07386101 -0.11815494 -0.044224475 0.056336347 -0.059968818 -0.02363205 -0.0020182505
-0.0049869595 0.02200544 0.062492978 -0.03380708 -0.03430041 0.053591993 -0.09055702 -0.084938645
0.062336363 -0.09917847 0.030340798 -0.13295981 -0.068515405 0.115841635 -0.051444493 -0.14438485
0.029431535 -0.031108093 -0.11213741 -0.1286688 -0.047451485 0.1490925 -0.015390671 -0.11331688
0.11464783 -0.098223 -0.03501006 8.5002874e-05 -0.08504581 0.1760349 0.0742234 0.09204525
-0.092429616 -0.038564097 0.039262585 -0.02915716 0.022324678 -0.06568608 0.091140084 -0.0504385
0.048037462 -0.0171687 -0.010643937 -0.048965212 -0.0039966255 -0.10539587 -0.073158 0.0035793923
0.03984719 -0.010475465 0.004962378 0.018139394 0.11661317 -0.11698115 0.11844287 -0.11271464
0.0638425 -0.044907305 0.0022640203 0.0863133 -0.1299249 -0.13616346 0.016601333 -0.06996716
0.110812664 0.015493115 -0.027024532 -0.09249493 -0.036230832 0.15476486 0.02542121 0.0059716464
0.054351013 -0.01260406 -0.04284973 -0.04436246 -0.12756999 -0.082214914 -0.13882466 -0.051390927
-0.026488468 0.041010022 0.060521048 0.07049054 0.07583881 0.00012280127 0.111498654 0.142523
0.14486052 0.05507006 0.12619671 0.027065823 0.13471216 0.08346525 0.00974547 -0.006647695
0.06267588 0.021764 -0.10961277 -0.029141143 -0.06039094 0.07078046 -0.17145436 0.06578893
-0.02814348 -0.010448334 0.14524418 -0.07075709 -0.030404748 0.06070657 0.1060981 0.055426296
0.04408145 0.14580743 -0.03992753 0.016200012 -0.03160785 0.24859522 -0.042571202 0.041002855
0.13726811 -0.054991767 0.039000526 0.09325479 0.099691495 -0.021329185 0.06584291 0.10909025
-0.0113163665 0.11043823 -0.03908827 0.09479431 0.07131387 0.006747673 0.099512994 0.035472624
0.016484335 0.17016947 0.030665508 -0.038364414 0.037149835 -0.07017887 0.14508028 0.14462903
00000000: 92c8 7a39 fa3f 20bc e910 b4bd 9f14 da3d
00000010: 9738 843b ab50 8abd 94bd fe3d 4be5 8a3d
00000020: f521 a53d 40f6 ecbd 431f 403e 8a4d 6e3c
00000030: 8ff8 07bd c54e 8b3d f0bb 483d f652 f73c
00000040: 9407 f2bd 28c3 0cbe 2e93 a3bd 60ec 8b3d
00000050: 17a7 153d 9395 ef3d 89be 0dbe 0a37 0c3d
00000060: 617e c6bc 9c64 393d b357 d73d 755b 5d3d
00000070: 988b fa3d f782 913e 7ff6 af3d 3848 563d
00000080: e222 78bd ffd1 b0bd 01f4 6cbd d105 53bd
00000090: cf68 d73d a316 dfbd fe21 87bb 5b0e 083e
000000a0: 813c b13d c54f d53d dae9 143e 272e 5abd
000000b0: 597e e8ba 7475 fc3d 2907 c33d cdfa 0dbd
000000c0: 7555 b3bd 5f71 f9bc 3dc8 8e3c d93c 823d
000000d0: 582d 01be 3b55 883b a4a9 ec3d 1eb5 0dbd
000000e0: dc4d 243d 702c 823a ecd0 99bc b3aa 583d
000000f0: 8928 da3c 6feb 8c3d 91fa 2a3e 643e 863d
00000100: ef7f 5b3c d6d7 fb3d 626f 4d3a 170b 283d
00000110: 990e 21bc 4892 be3d 3dc4 11bd 2bd0 993c
00000120: deff 1d3e a942 0f3c b2a1 143d bfd9 bdbc
00000130: 81e2 e93c c7a8 99bd 2e02 263d 168c d9bd
00000140: b7b5 d73c 7d27 80bd 9cbc 98bd 75b2 3d3d
00000150: 223f 8f3c f5ff 453d 64b0 f8bd cc52 433d
00000160: edd4 8c3c f8b0 703d f471 9d3d 7aa2 b7bd
00000170: 9e6e 6b3d 461c 553d 44ca ebbb bd32 bdbd
00000180: 12fb 12bb aa1d bc3c 2052 173c d354 ecbd
00000190: 6e32 d2bd e522 38bd 98a9 87bc a0ae e1bd
000001a0: 5e2d e93d 7144 97bd 38fb f1bd b924 35bd
000001b0: f1c0 663d dda1 75bd 0098 c1bc a044 04bb
000001c0: a669 a3bb c144 b43c a3f8 7f3d 4b79 0abd
000001d0: 967e 0cbd 4783 5b3d f575 b9bd 50f4 adbd
000001e0: 6a54 7f3d 151e cbbd 448d f83c 9e26 08be
000001f0: ce51 8cbd 613e ed3d 76b7 52bd 9fd9 13be
00000200: 671a f13c 66d6 febc 4ca8 e5bd c1c1 03be
00000210: 7d5c 42bd b4ab 183e 2729 7cbc ae12 e8bd
00000220: 7bcc ea3d 2429 c9bd b566 0fbd 9243 b238
00000230: 7f2c aebd 7e42 343e 7002 983d 3882 bc3d
00000240: bd4b bdbd 63f5 1dbd ced1 203d ffda eebc
00000250: 3ee2 b63c 6c86 86bd a7a7 ba3d 9a98 4ebd
00000260: eec2 443d 60a5 8cbc e863 2ebc bf8f 48bd
00000270: 20f6 82bb cad9 d7bd ddd3 95bd 3d94 6a3b
00000280: cf36 233d 49a1 2bbc 729b a23b 1199 943c
00000290: e3d2 ee3d d093 efbd 2d92 f23d efd6 e6bd
000002a0: dbbf 823d b9f0 37bd f55f 143b 07c5 b03d
000002b0: 080b 05be 6f6e 0bbe 85ff 873c f14a 8fbd
000002c0: c0f1 e23d d6d6 7d3c 8d62 ddbc fb6d bdbd
000002d0: c866 14bd ae7a 1e3e 2440 d03c cdad c33b
000002e0: 2b9f 5e3d 4281 4ebc 3383 2fbd 69b5 35bd
000002f0: b5a1 02be 4b60 a8bd 0d28 0ebe 4b7f 52bd
00000300: 58fe d8bc 20fa 273d ebe4 773d 585d 903d
00000310: 6151 9b3d 37c4 0039 6859 e43d 8df1 113e
00000320: 5156 143e 2591 613d b639 013e 25b9 dd3c
00000330: fcf1 093e d4ef aa3d 77ab 1f3c e8d4 d9bb
00000340: 365c 803d 6b4a b23c a97c e0bd 68b9 eebc
00000350: 7e5c 77bd 59f5 903d bb91 2fbe 59bc 863d
00000360: 288d e6bc 7d2f 2bbc e4ba 143e 18e9 90bd
00000370: 6113 f9bc 74a7 783d f649 d93d af06 633d
00000380: c08e 343d 8b4e 153e 0d8b 23bd e3b5 843c
00000390: 3c77 01bd bf8f 7e3e 245f 2ebd 9cf2 273d
000003a0: 0390 0c3e 0c3f 61bd 04bf 1f3d 5efc be3d
000003b0: 0e2b cc3d 8bba aebc a6d8 863d b66a df3d
000003c0: 4868 39bc 702d e23d 061b 20bd 8523 c23d
000003d0: 020d 923d 951b dd3b 78cd cb3d be4b 113d
000003e0: 280a 873c e840 2e3e 3b36 fb3c 0124 1dbd
000003f0: 6d2a 183d f0b9 8fbd ed8f 143e a219 143e

lstm.weight_ih_l1 f4 [256, 64]
0.098545946 0.0265021 -0.07573009 0.0024291016 -0.081043765 0.021468803 -0.057902034 0.058337342
0.1918218 0.00051341736 0.057023954 0.03594793 -0.1458785 -0.17258796 -0.024404192 -0.07027304
-0.19057034 -0.055226468 -0.07625369 0.17849371 -0.068475634 0.15872492 -0.064322546 -0.015953152
0.19620623 -0.0134741515 -0.11424549 0.092804 0.05527967 0.13807687 0.04001585 -0.15059479
0.122490495 -0.18235442 -0.08632935 0.08475783 0.08339558 0.15430543 -0.12672594 0.117777996
-0.055043183 -0.0052941097 0.17705606 -0.0076078223 -0.16557653 -0.11442078 0.0070220036 -0.041019775
0.027508883 0.087963365 0.026465187 -0.11834847 -0.0031691382 0.0055250213 0.04738693 0.0441873
0.1944652 -0.022640394 -0.050697837 -0.044556603 0.015452079 0.00786553 0.022045514 0.17919579
-0.064923406 0.13554561 -0.1562349 -0.09241001 -0.114218876 0.0749715 -0.13372137 0.14185493
0.004133512 0.042032517 -0.0092148 -0.016076026 -0.08373539 -0.0042628 0.050230697 0.047996994
-0.042222194 -0.085128844 -0.0030980387 0.0038853276 0.0101603605 -0.061410267 0.012165891 0.10778424
0.07006682 0.06937214 -0.117902175 0.16810702 -0.13424392 0.146192 -0.032717504 -0.11491113
0.11769324 0.040340997 0.0070745703 0.047699224 -0.008188417 0.08042455 -0.04944705 0.036547262
-0.012333324 0.10074288 -0.00290802 -0.021074042 -0.0028581733 -0.08945446 0.037414487 0.04057725
0.008786584 0.053989265 -0.053201433 -0.015442152 -0.053132012 -0.11946814 -0.11599301 0.06680476
-0.07446951 -0.039658938 -0.11676386 0.056786828 0.18783578 -0.13918574 -0.032110058 0.07332954
-0.023169506 -0.015168367 -0.05396842 0.06184139 0.006289988 0.10566322 -0.11049479 0.10212727
0.18382251 0.24334782 0.033152804 0.22964087 -0.16127145 -0.12956943 -0.06518108 0.022811245
-0.10049654 0.17879206 -0.02563939 0.100370616 -0.033231605 0.12280272 -0.039624188 0.091199726
-0.02420148 -0.021863988 -0.1743046 0.0059846737 -0.15837918 0.062451806 0.070759654 -0.11999958
0.08738751 0.0038181935 -0.077873185 -0.010299205 0.14045395 -0.0051995725 -0.15739205 0.0075436155
-0.13524596 0.10113728 0.1039555 0.074506514 -0.053190242 -0.14262736 -0.069928855 0.0891249
-0.17517541 0.13671085 -0.042560183 -0.065168664 -0.08438234 -0.060700208 -0.060354695 0.056490425
0.13973701 -0.15290104 -0.054665703 -0.008518482 0.04001263 0.05736332 0.0628333 0.1968087
0.14739822 -0.011336526 -0.19805291 -0.035890736 0.067189746 -0.13367933 -0.057233885 0.094942704
0.020720169 -0.09465892 -0.03113208 0.057610653 -0.07223026 -0.018389255 -0.17192034 0.0022946717
-0.07123829 -0.045115456 0.033734612 -0.023143234 -0.111632265 0.0030037723 0.0006466869 -0.031094182
0.22740518 -0.25597167 -0.17691611 0.069535784 -0.14798388 -0.011324826 0.07134083 -0.078016065
0.16375431 0.02592351 0.079066016 -0.10725048 -0.108950384 -0.006506601 -0.1756477 0.10111654
-0.11658715 0.020611454 0.053195123 0.035115242 0.029104786 0.009873453 -0.038151603 0.07783048
-0.09666728 0.16015019 -0.13065907 -0.12776846 -0.13758886 -0.17227666 0.052148048 -0.09314148
0.08486091 -0.108644724 -0.08850303 0.106824525 0.03333401 0.013790099 0.11282936 -0.05292386
00000000: 75d2 c93d ef1a d93c 6118 9bbd 9031 1f3b
00000010: 46fa a5bd 58df af3c af2a 6dbd 23f3 6e3d
00000020: ef6c 443e db96 063a f391 693d 233e 133d
00000030: 2c61 15be e6ba 30be 4deb c7bc 50eb 8fbd
00000040: df24 43be 2635 62bd e52a 9cbd 0ec7 363e
00000050: f43c 8cbd c988 223e 8abb 83bd 2fb0 82bc
00000060: 49ea 483e b0c2 5cbc 8af9 e9bd 0610 be3d
00000070: ef6c 623d 0664 0d3e a9e7 233d 8535 1abe
00000080: 4cdc fa3d 1ebb 3abe 71cd b0bd 8395 ad3d
00000090: 4dcb aa3d 3e02 1e3e 72c4 01be 9735 f13d
000000a0: f674 61bd 367a adbb 2f4e 353e 0a4b f9bb
000000b0: e58c 29be 7155 eabd d618 e63b 5a04 28bd
000000c0: 4f5a e13c 2326 b43d 85cd d83c af60 f2bd
000000d0: 51b1 4fbb 3d0b b53b cc18 423d befd 343d
000000e0: e321 473e 5978 b9bc 89a8 4fbd fc80 36bd
000000f0: b72a 7d3c 6dde 003c cb98 b43c 1a7f 373e
00000100: 90f6 84bd 78cc 0a3e 0bfc 1fbe 7641 bdbd
00000110: 96eb e9bd a88a 993d 41ee 08be 6b42 113e
00000120: 6972 873b 4a2a 2c3d acf9 16bc dfb1 83bc
00000130: 767d abbd f5ae 8bbb b4be 4d3d 7f98 443d
00000140: 2ef1 2cbd 0858 aebd 7708 4bbb fba0 7e3b
00000150: a477 263c 5589 7bbd 7253 473c fcbd dc3d
00000160: 317f 8f3d fb12 8e3d b276 f1bd 3f24 2c3e
00000170: 3d77 09be 5bb3 153e ca02 06bd 8756 ebbd
00000180: 2709 f13d 9a3c 253d ccd1 e73b 4360 433d
00000190: b628 06bc a0b5 a43d fd88 4abd 95b2 153d
000001a0: b611 4abc 4852 ce3d 7b94 3ebb 78a3 acbc
000001b0: 3150 3bbb e633 b7bd ef3f 193d 5534 263d
000001c0: 9bf5 0f3c d923 5d3d bfe9 59bd 1401 7dbc
000001d0: f4a0 59bd b6ab f4bd be8d edbd efd0 883d
000001e0: 7883 98bd 6971 22bd e421 efbd 4e99 683d
000001f0: 0658 403e b586 0ebe d685 03bd cc2d 963d
00000200: facd bdbc be84 78bc fd0d 5dbd 664d 7d3d
00000210: 3e1c ce3b f565 d83d 184b e2bd 1a28 d13d
00000220: f83b 3c3e 2c30 793e 3ccb 073d fa26 6b3e
00000230: 5824 25be d9ad 04be a87d 85bd a6de ba3c
00000240: 21d1 cdbd 4415 373e b309 d2bc 1c8f cd3d
00000250: dd1d 08bd fe7f fb3d f94c 22bd ecc6 ba3d
00000260: 2f42 c6bc 1b1c b3bc e87c 32be 151b c43b
00000270: 272e 22be 77cd 7f3d 70ea 903d 57c2 f5bd
00000280: 39f8 b23d a83a 7a3b fa7b 9fbd ffbd 28bc
00000290: 29d3 0f3e 2d61 aabb 622b 21be 6f30 f73b
000002a0: eb7d 0abe 1021 cf3d 9fe6 d43d df96 983d
000002b0: 03de 59bd e80c 12be dc36 8fbd 1e87 b63d
000002c0: 2f61 33be eefd 0b3e 9653 2ebd 2677 85bd
000002d0: a6d0 acbd c8a0 78bd 7c36 77bd 8162 673d
000002e0: 3817 0f3e 1792 1cbe 25e9 5fbd 1a91 0bbc
000002f0: 49e4 233d cdf5 6a3d bfae 803d 3888 493e
00000300: 8fef 163e d6bc 39bc 62ce 4abe 2a02 13bd
00000310: c79a 893d 3ce3 08be 146e 6abd 5271 c23d
00000320: 58bd a93c 89dc c1bd b408 ffbc 26f9 6b3d
00000330: 75ed 93bd 10a5 96bc e30b 30be 3462 163b
00000340: 61e5 91bd fcca 38bd 4e2d 0a3d e196 bdbc
00000350: 759f e4bd f0da 443b 6c86 293a 3ab9 febc
00000360: e7dc 683e b80e 83be 7f29 35be c768 8e3d
00000370: 1689 17be c38b 39bc 241b 923d e3c6 9fbd
00000380: 36af 273e 8a5d d43c 5ded a13d 24a6 dbbd
00000390: 6121 dfbd 5335 d5bb fedc 33be 3016 cf3d
000003a0: 3ec5 eebd 5ad9 a83c 21e3 593d 00d5 0f3d
000003b0: 296d ee3c 43c4 213c db44 1cbd 9665 9f3d
000003c0: 7ff9 c5bd 69fe 233e 7ecb 05be bcd5 02be
000003d0: 18e4 0cbe 4b69 30be 3199 553d f6c0 bebd
000003e0: 8fcb ad3d 2081 debd 1441 b5bd d1c6 da3d
000003f0: 3e89 083d deef 613c 1413 e73d b0c6 58bd
